output/CarlaNavigation-v0/wcsac/2/actor.pt (torch, 535763 bytes, 7 tensors)

action_log_std f4 [1, 2]
000000 7b 5c 45 bf 42 b8 13 c0
       -0.7709424 -2.3081212

linear1.weight f4 [256, 261]
000000 15 9a 68 be c8 42 11 3d cd 53 8d bf 3b ab 1a 3e
       -0.22715028 0.03546408 -1.1041199 0.15104382
000010 24 d4 28 bf 1b f0 18 3e 76 bd 17 ba c9 f3 93 bd
       -0.659487 0.14935343 -0.0005788425 -0.07224233
000020 78 ee ef 3e fa 36 39 bd 14 a9 29 3e 42 26 82 3e
       0.46861625 -0.045218445 0.16568404 0.25419813
000030 bb b6 b3 bd 68 7b 13 3e 9a 05 2a 3e 00 2f 07 3d
       -0.087750874 0.14402544 0.166037 0.033003807
000040 97 04 2f be f2 58 70 be ff 23 21 be ef 2a 0a 3d
       -0.17091595 -0.2347143 -0.15736388 0.03373235
000050 0d f4 54 be d6 e9 31 3e 37 a5 96 3e e9 97 04 3e
       -0.20796223 0.17374358 0.29422924 0.12948574
000060 1e 20 f3 bd 6f 70 c7 bd 5a 03 55 be 0a 56 98 3d
       -0.1187136 -0.09738242 -0.2080206 0.07438286
000070 6f 21 3f 3e 84 eb b3 3d 80 75 8c bd 20 2a fd 3e
       0.18665098 0.087851554 -0.06858349 0.494462
000080 fc 77 bc be 4c 7c 1e be d7 92 47 3d 29 b3 b5 3d
       -0.3681029 -0.15477103 0.04872402 0.08872063
000090 b0 ef 81 be 23 41 90 bd d5 9f 79 be 0d d2 a9 3e
       -0.2537818 -0.07043674 -0.24377377 0.3316807
0000a0 7c 8c 40 bd 61 db a3 bd d6 f8 c5 be 28 7d 6d be
       -0.047008976 -0.080008276 -0.3866641 -0.23192275
0000b0 ed 34 05 3e 19 54 c7 bd 06 ae 51 bd e7 c1 ab bd
       0.13008471 -0.09732837 -0.051191352 -0.08386593
0000c0 af 58 32 bc 82 ac 4c 3c 1b e2 08 3e 46 a6 ab 3d
       -0.010885402 0.012492301 0.13367502 0.083813235
0000d0 b9 34 f8 bd 8c 63 03 bf 99 c1 16 3d 75 86 20 3e
       -0.12119431 -0.5132377 0.036805723 0.15676291
0000e0 ce c6 f4 3d 81 f0 99 be d1 f6 98 bd e1 00 a6 be
       0.119519815 -0.30066302 -0.074689515 -0.32422546
0000f0 bb b8 1f be e9 c9 26 be 1e ce 56 3e 9e 67 0c be
       -0.15597813 -0.1628796 0.20977065 -0.13711402
000100 b4 3f dd be cc 49 3c 3e db e4 c1 3d 15 d2 c1 bd
       -0.43212664 0.18387526 0.09467479 -0.09463898
000110 14 27 42 bd 1c 44 63 3d ba 98 a4 3d 5d ef 16 3f
       -0.04740055 0.055484876 0.08036943 0.5895899
000120 26 e0 9c be 29 34 80 3e 43 a6 aa bc 46 56 40 3c
       -0.30639762 0.25039795 -0.020831233 0.011739319
000130 63 1a 53 bc 84 e5 87 be 2e 35 6c be 76 cb 7e 3d
       -0.012884709 -0.26542294 -0.23067161 0.062205754
000140 3c 0b ac 3d a5 59 76 be ce da 4e bd 43 e3 f2 bd
       0.0840058 -0.24057634 -0.050501637 -0.11859753
000150 63 0e 0a be 2e b4 7c be 88 21 37 3e c8 55 8a 3c
       -0.1348205 -0.24678108 0.17883885 0.016886607
000160 4a 05 4b bd 0d cc 94 3e b3 71 97 bd 34 7f 98 be
       -0.04956559 0.29061928 -0.07394733 -0.29784548
000170 da 1a ec 3d e6 36 b8 3a 95 23 02 be 99 86 44 3e
       0.11528559 0.0014054447 -0.12708886 0.1919197
000180 86 10 9d be 3e c0 19 3e f8 0e 78 3d 5c 98 bd 3e
       -0.3067667 0.15014741 0.06056115 0.37030303
000190 5f 86 9f be d3 1c 95 bc 9a e4 eb 3e 01 07 7b 3d
       -0.31157205 -0.018202221 0.46072847 0.061285976
0001a0 53 f0 c2 3e da f4 82 be 45 ec 29 be 80 ac 9a bb
       0.38073978 -0.25577432 -0.16594036 -0.0047202706
0001b0 d0 28 d0 bc e8 60 47 be 30 5f 5e 3e 7b 57 7c 3e
       -0.025410086 -0.1947056 0.21715999 0.24642746
0001c0 42 a2 9e 3d 4e c5 7b bd a5 66 8f bd e8 32 5d be
       0.07745792 -0.06146746 -0.07002 -0.2160145
0001d0 84 72 4f 3e 60 3c fb bd 2a 9a f3 bd 90 95 8e 3e
       0.20258528 -0.12267375 -0.11894639 0.27848482
0001e0 e6 e3 17 3e bf 66 13 be df 41 f5 bd b9 30 10 3e
       0.1483303 -0.14394663 -0.119754545 0.14081086
0001f0 2f 9b 4c be 29 ce 30 bd 60 74 e3 3d ae 26 56 3e
       -0.19981073 -0.04316536 0.11106181 0.20913193
000200 7b 52 0b be 8d 91 5f bd ed ac 44 3e 93 00 8a bd
       -0.13605683 -0.054582167 0.19206591 -0.06738391
000210 5c 99 e7 bd 46 33 d6 3e 2b b6 4b be 55 19 38 3f
       -0.11308548 0.41835994 -0.1989371 0.71913654
000220 bf cc 97 3d f1 dd 91 be ea 69 8e be 6c 85 00 3e
       0.07412099 -0.2848964 -0.2781518 0.12550896
000230 08 d1 2e 3e 36 5a ec 3d 7e fe 1f 3e 34 68 4f 3e
       0.17071927 0.11540644 0.15624425 0.20254594
000240 1e f3 36 be 5e a3 4f 3d 10 cb 50 3d 1b f3 06 be
       -0.1786618 0.05069291 0.050974905 -0.13178675
000250 50 93 1f bd a7 3c 49 3c fe b8 42 bb c1 ee 04 3e
       -0.038958848 0.012282527 -0.0029712315 0.12981702
000260 30 2f d9 3d 29 6e 2c be c8 7e d4 be 1f 88 12 be
       0.106047034 -0.16838898 -0.41502976 -0.14309739
000270 99 ea bd 3d bb 37 b3 3d 76 71 13 3e 79 55 51 be
       0.092732616 0.08750864 0.1439875 -0.20442761
000280 9c 5e 23 3e fc 69 c9 3d 7c d5 cf 3b 4d 93 cb 3d
       0.1595406 0.09834668 0.006342588 0.09940205
000290 54 a2 f8 3d 2f 0a 0d bc 47 65 ac be a3 d0 2f 3e
       0.12140337 -0.008608385 -0.33671018 0.17169432
0002a0 ef c2 9c bd b5 fc f9 3d c3 63 06 bf 8e 84 2d 3d
       -0.07654368 0.12206403 -0.52495974 0.042362742
0002b0 8f c6 8e 3e 7d 11 10 bf 2e 77 94 3e 22 66 aa be
       0.27885863 -0.56276685 0.28997177 -0.33281046
0002c0 4e 51 05 be a5 f0 74 bd 39 a4 34 3e 35 67 1b 3e
       -0.13019297 -0.05979981 0.17640771 0.15176089
0002d0 ce 53 15 3e 16 30 d5 3d c8 c2 8a bd f3 de 25 be
       0.1458275 0.10409562 -0.06775433 -0.1619833
0002e0 c1 a0 03 be 02 b3 d5 3d dc 0c 6c be 8e 0d f2 bc
       -0.12854291 0.10434534 -0.2305178 -0.029547479
0002f0 16 b5 c9 bd 65 60 56 be 04 5d 46 3e 6e a1 55 bd
       -0.098489925 -0.20935209 0.1937142 -0.052155904
000300 2f 48 e3 3e 56 69 ed 3d e9 0b 1f be c5 77 71 be
       0.4439101 0.11592357 -0.15531887 -0.23580845
000310 8f f0 17 bd 9c bc 70 3e 1e 59 52 be 25 1f b6 3e
       -0.03709465 0.23509449 -0.20541808 0.35570636
000320 87 0e af bd e5 74 cb 3e e3 f7 cd bd 72 92 81 bd
       -0.08547693 0.3973762 -0.10057046 -0.0632676
000330 f6 f1 e2 3d bf dc 0b be 38 ac 6d 3e ea bd b3 bd
       0.11081307 -0.13658427 0.23210227 -0.087764576
000340 35 b0 35 3e 57 1f 32 3e 3d df 12 3e cc 42 89 bc
       0.17742999 0.17394768 0.14342971 -0.016755484
000350 7c 0f a5 3d e7 bd 1a bf 94 10 0f 3e 1f e3 f7 3e
       0.08059594 -0.6044602 0.13971168 0.48415467
000360 1e 5f 12 be b8 61 84 bc 70 ce 92 3d 78 90 19 bc
       -0.14294097 -0.016159877 0.07168281 -0.009372823
000370 30 d1 e8 bc 2b 91 08 bf a3 3c 1e 3e ef 8b e8 3d
       -0.02842006 -0.5334651 0.15452819 0.11354815
000380 73 d1 ba bb b0 7e 27 3d 43 34 69 3e 1c b2 12 3f
       -0.005701238 0.040892303 0.22773843 0.57303023
000390 17 3a b4 3c 15 db 9b 3e 25 d5 55 3d 46 12 d4 3e
       0.022000356 0.30440584 0.052205224 0.41420192
0003a0 fd 88 be bd 0a 06 26 bd 0a 39 8b 3d 6a 1e b9 bd
       -0.09303472 -0.040533103 0.06797989 -0.09039004
0003b0 c9 dd 4c 3c 21 78 3d 3e 43 20 cf 3d d5 ff 35 3f
       0.01250405 0.18502857 0.10113575 0.71093494
0003c0 ce e7 33 be 28 71 4f be c8 f7 a1 3d 68 53 d1 bd
       -0.17568895 -0.2025801 0.07908589 -0.102209866
0003d0 c1 bf 1a 3e 41 c3 a2 bc 1e d2 59 be bc ef 01 3f
       0.15112211 -0.019868495 -0.2127156 0.5075643
0003e0 d9 8a 4e 3d 42 23 da bd 20 b5 81 be fd d0 89 3d
       0.050425384 -0.10651256 -0.253335 0.067293145
0003f0 dd 54 3d 3e 38 67 99 3e 01 ad b6 3e ac 23 93 be
       0.18489404 0.29961562 0.35678867 -0.28738153

linear1.bias f4 [256]
000000 fd 9b e3 3e 7d 81 04 3c 4c 6d a9 3d 79 8e df bd
       0.44454947 0.008087513 0.082728 -0.109158464
000010 84 15 19 3d 09 51 2c 3d 68 2d 99 3e 85 2a 36 3e
       0.037374035 0.04206947 0.29917455 0.17789657
000020 84 66 95 3e 92 28 7b be 05 79 7e be f1 fe 99 3e
       0.29179776 -0.24527195 -0.24850853 0.30077317
000030 07 7b 6a bc c1 7b b9 be 32 6a 88 3d c3 8b 6f 3e
       -0.014311559 -0.3622723 0.0666088 0.23393159
000040 28 7d 7c 3c a7 80 39 bd cb 49 8f 3e cb 07 2d 3e
       0.015410699 -0.045288708 0.27985987 0.16897504
000050 c5 d4 bf bd c1 dc 80 3d 1c 8f 59 3e ac 85 bd bd
       -0.093667544 0.062921055 0.21245998 -0.092540115
000060 61 3c 8f 3e 87 5f 91 3e c7 31 cb bd e0 8a 04 bd
       0.27975753 0.28393194 -0.09921604 -0.032359004
000070 92 e5 8a 3e eb 07 d0 be 4d bc de bd 11 c3 4f be
       0.27128273 -0.4063104 -0.10875759 -0.20289256
000080 03 d9 a1 bc 4d d5 94 be 6d 6e e2 bd df 7d 78 3e
       -0.0197568 -0.29068986 -0.11056218 0.24266766
000090 0e 16 68 3e e2 88 a7 3e 28 2f 81 be d9 ca 05 be
       0.22664663 0.3272162 -0.2523129 -0.13065661
0000a0 fc 5a 1f 3e a4 5a b5 3b c1 9c 7e be 2b fc bf 3d
       0.15562052 0.005534487 -0.24864484 0.09374269
0000b0 9a 6e 0b be 2f c5 72 be 87 5c e5 be 9e 51 59 be
       -0.1361641 -0.23708032 -0.44797155 -0.2122254
0000c0 3c 6d be bd 15 85 d0 bd ea 20 58 bd 3d 1e ae 3d
       -0.092981786 -0.101816334 -0.052765764 0.08501861
0000d0 a1 bf c4 3c 62 12 a5 bd 42 88 45 be 66 82 55 bd
       0.024017157 -0.08060147 -0.1929026 -0.05212631
0000e0 eb 72 8b 3d 60 b5 88 3e 78 f6 fe be 24 78 83 3e
       0.06809028 0.26700878 -0.49797416 0.25677598
0000f0 22 1f 86 bd 1c 8e 90 be c0 15 e5 bd 9e cb ab be
       -0.06548907 -0.2823342 -0.11185789 -0.33553785
000100 d4 5d fe 3d ea ee 50 3e d6 38 cd bd 86 ac 46 3e
       0.1242024 0.20403638 -0.10020606 0.1940175
000110 7c 3f 06 bd a0 d2 af 3d 92 42 48 be 90 19 d2 3d
       -0.032775387 0.085850954 -0.19556645 0.10258782
000120 30 3c 29 be a6 b8 8d 3e 38 f0 24 be 11 60 a5 3e
       -0.16526866 0.27679938 -0.16107261 0.32299855
000130 b6 d5 83 3e 42 51 a6 be dc b8 df 3d ee e8 82 be
       0.25748986 -0.3248387 0.10923931 -0.25568336
000140 46 23 dd bd ba ab bd bd ff 2e 1d 3e c0 04 3b be
       -0.107977435 -0.0926127 0.15349959 -0.1826353
000150 71 0f 60 3e 29 ff 3c 3e 8a 37 df 3d 6f 97 3a be
       0.2188089 0.18456711 0.10899265 -0.1822183
000160 3b 6a 24 ba 9a d0 77 be 86 78 6d bc 70 d7 8b bc
       -0.0006271933 -0.24200669 -0.014494067 -0.017070502
000170 e7 74 07 3e 82 14 a8 3e 52 ef 7a be c9 0b bb 3e
       0.13228188 0.32828146 -0.24505356 0.3653243
000180 ef 1d ba 3e 45 5d d0 3e 2b 13 8c be 42 81 0b be
       0.36350963 0.4069616 -0.27358374 -0.13623527
000190 19 cd 21 3e 0f f0 e8 bd 74 d6 b3 bc 49 65 a9 3e
       0.15800895 -0.113739125 -0.021952845 0.33085087
0001a0 a4 bf 4a be 69 99 e0 3e 05 3c 27 3e 74 31 b6 3d
       -0.19799668 0.43867043 0.1633149 0.08896151
0001b0 18 22 55 3d 04 56 c2 3d bc 0a 64 be d8 8a 80 3e
       0.052034467 0.094890624 -0.2226972 0.2510593
0001c0 c4 12 95 be 6c b9 85 3c 98 f0 26 be 55 0e a8 bd
       -0.2911588 0.016323768 -0.16302717 -0.082058586
0001d0 f9 c1 69 3e b9 b2 7b 3d de 80 48 3d 2f 85 1b 3e
       0.22827901 0.06144974 0.048951022 0.15187524
0001e0 a6 ee 35 3c a6 a9 54 3e d2 9f 33 bd 0b 75 9e be
       0.0111042615 0.2076784 -0.04385359 -0.30948672
0001f0 af 2f c3 3d 29 a3 42 3e 28 d0 fc 3d 62 b2 b6 3e
       0.09530579 0.19007553 0.1234439 0.3568297
000200 74 8f e3 bd db 91 56 bd 2e 55 8b 3d 3f b3 ba be
       -0.11111346 -0.052385192 0.06803356 -0.3646488
000210 d4 67 fa bd 4b 80 4a be 17 fc 4c be 3d 40 73 3e
       -0.12226835 -0.19775502 -0.2001804 0.23754974
000220 4c c2 e7 3d e1 1a aa bc 62 f1 26 3e e5 fc 44 3d
       0.11316356 -0.02076477 0.16303018 0.04809274
000230 4b 41 c3 bd 6e 86 94 be 95 8d 52 be df f4 80 be
       -0.09533938 -0.29008812 -0.20561822 -0.25186822
000240 62 f4 97 bc e4 0f e0 3e 86 7a a8 be f3 43 ff bd
       -0.018549148 0.43762124 -0.32905978 -0.12464132
000250 1f d5 bb 3c f3 06 65 bd 01 ac 96 3d 50 cc fa 3d
       0.022928772 -0.05591483 0.07357026 0.12246001
000260 f9 3a d7 bc 71 3e 93 3d bd 9a 27 3e 07 b6 d5 3e
       -0.026273238 0.07189644 0.16367622 0.41740438
000270 58 e5 c0 3d 9f f8 09 3e 4d 6d f8 3d 4b 28 b5 be
       0.09418744 0.13473748 0.121302225 -0.35382304
000280 a8 c7 35 3e e8 12 c9 3d 61 01 be 3e 8d ae 80 3e
       0.17751944 0.09818059 0.37110427 0.25133172
000290 a1 ee 33 bd 86 8d 40 3d 7a 29 32 be 94 07 8a be
       -0.043928746 0.047009967 -0.17398635 -0.26958907
0002a0 1e 49 f1 3d be 5e 59 bd 23 46 e3 be bc fc 9e 3d
       0.11781524 -0.05306887 -0.44389448 0.07763049
0002b0 dc 45 16 bf 50 40 ee bc 86 08 78 be 60 16 db bc
       -0.58700347 -0.029083401 -0.24222001 -0.026744068
0002c0 aa f8 cc be 10 33 b5 be 73 7f 66 be 69 da 81 3e
       -0.40033466 -0.3539052 -0.22509556 0.25361946
0002d0 a0 86 00 bf 12 6e c2 3d f4 aa 8b be 70 9d 13 3e
       -0.5020542 0.094936505 -0.27278864 0.14415526
0002e0 64 57 42 ba 8a 4b 8b bd 95 ba 55 bd 2c 12 c8 3d
       -0.0007413535 -0.06801517 -0.05217989 0.09769091
0002f0 7e 93 4f be cf 91 12 3e 07 c8 b1 be fa 75 11 3e
       -0.20271108 0.14313434 -0.3472292 0.1420516
000300 6e c8 dd bd b9 c9 98 3d 4c a3 19 be 23 17 75 bd
       -0.108292446 0.074603505 -0.15003699 -0.059836518
000310 b9 98 6e 3e cd b6 c8 3d 0b 47 29 3e 4d ce ec 3d
       0.23300447 0.098004915 0.16531007 0.11562786
000320 21 89 b5 3c 3d 84 90 be e2 30 95 3d bb fc 88 3e
       0.022160115 -0.2822589 0.07284714 0.26755318
000330 48 0e 85 3d 5c 1c 0b 3e 0a a6 a1 be 6e 9e dd 3e
       0.064968646 0.13585037 -0.3157199 0.43284935
000340 31 b2 75 bd 1e 49 f2 3e 43 05 ae bc 15 b6 eb bd
       -0.05998439 0.4732141 -0.021242743 -0.11509339
000350 6a c5 a3 bd 5f 5f 94 bd fc f0 be 3e f7 79 a8 bd
       -0.07996638 -0.07244753 0.3729323 -0.08226388
000360 37 66 f9 be bf 5f a2 be 25 d6 3e be f2 9a 54 be
       -0.48710796 -0.31713673 -0.18636377 -0.20762232
000370 2b 65 a7 3c 83 78 0c be df 42 41 be ea 4d 7c be
       0.020433983 -0.13717847 -0.18873166 -0.24639097
000380 5d c1 36 3e 9b 50 82 3e fb 71 4a bd 29 b4 12 3e
       0.178472 0.25452122 -0.049425106 0.14326538
000390 34 2a fa bc 5e 2a 6d be 5e d1 60 3e 80 d0 ac 3c
       -0.030537702 -0.23160693 0.21954867 0.021095514
0003a0 59 5a 13 be 33 57 4a be 9e 0f e0 3d 38 67 ad 3d
       -0.14389934 -0.19759826 0.10940479 0.08466953
0003b0 84 36 1b 3e 92 12 90 bc 9f 0c ef 3e 95 9b e2 3e
       0.15157515 -0.01758698 0.46689317 0.44259325
0003c0 98 7e 8a be 47 7d e0 3d 95 72 bd bd ed a3 c3 3c
       -0.27049708 0.10961395 -0.092503704 0.023881877
0003d0 a6 fb f8 bc e6 23 bc be de 4c fb bd 75 55 49 be
       -0.030393433 -0.36746138 -0.12270521 -0.19661506
0003e0 68 65 26 be b2 86 46 3d 40 24 26 be c4 61 f7 3e
       -0.16249621 0.0484683 -0.16224766 0.48316777
0003f0 fc fc 9c 3e d3 3c 0d 3e 42 9f 1a 3e 61 4b 94 bd
       0.30661762 0.13792734 0.15099815 -0.0724094

linear2.weight f4 [256, 256]
000000 e8 1a c0 3e f3 31 b9 bd 19 8d cd 3d ad ee 93 be
       0.37520528 -0.0904273 0.10036678 -0.28893033
000010 6f c2 e3 3d 9d 3e ff 3c 59 02 ff 3d 65 4e 7c 3d
       0.1112107 0.031157786 0.1245162 0.0615982
000020 83 6b cf bc 62 98 8f bd 89 ff 1a 3d e0 30 15 bd
       -0.02531982 -0.070114866 0.037841354 -0.036423564
000030 eb 48 c4 3d 0d e4 b6 bd fb 5f ed bd f2 87 23 be
       0.095842205 -0.08930216 -0.115905724 -0.15969828
000040 c4 b8 a8 3d 49 4b ac 3d e5 5d 14 3e 1d d2 37 3e
       0.08238366 0.08412797 0.14488943 0.17951246
000050 6d b7 b7 bd 69 d6 b8 bd bc 2d 45 bd f3 ec 04 3e
       -0.089705326 -0.090252705 -0.04813932 0.12981014
000060 c4 35 51 bd 92 50 02 3e 40 cb 54 bb 96 f9 dd bd
       -0.051076666 0.12726048 -0.003246978 -0.1083862
000070 4e d9 e9 3d 0a 78 eb bd 70 bf 65 3d 10 5b 14 be
       0.11418401 -0.11497505 0.056090772 -0.14487863
000080 02 10 f3 3c cf a0 ab bd 9d 7a 79 3d 0b 1f c9 3d
       0.029670719 -0.08380281 0.06090795 0.09820374
000090 b6 8e 5f 3c d4 27 45 3e 02 6d cd 3c 59 4b 2c 3d
       0.013644865 0.19253474 0.025076393 0.042064045
0000a0 6b cc 7a 3d e6 62 0b bd 87 e7 08 be e0 0a 47 3e
       0.061230104 -0.034029864 -0.1336957 0.19437742
0000b0 b2 81 5e 3d ee b7 72 bd 95 25 ec bc 3f 13 ea 3d
       0.054322906 -0.05925744 -0.028826514 0.11429452
0000c0 67 40 9e bd 4e c8 21 3e d0 91 21 be 63 11 5e bc
       -0.077271275 0.15799066 -0.1577828 -0.01355395
0000d0 fc a1 f5 bb ba de 93 3d 58 73 f7 bd aa cf cf 3d
       -0.0074961167 0.07220216 -0.12082547 0.10147031
0000e0 52 92 94 3d 3a 57 a1 bb 84 ca 92 3b e3 dc aa bd
       0.07254471 -0.0049237283 0.004479708 -0.08342912
0000f0 87 8b 64 be ab 44 58 be 14 97 12 be 1e 10 29 bd
       -0.2231885 -0.21119945 -0.14315444 -0.041275136
000100 ee 88 cb bd 3c b5 cc bd f7 e6 ad be d8 9f e1 bb
       -0.09938227 -0.09995505 -0.33965275 -0.00688551
000110 70 0a b8 bc 64 b1 88 3d 0b 13 60 3d 2e 25 96 3c
       -0.022465914 0.066744596 0.05470566 0.018328276
000120 0c 41 8f 3d 6d ac c2 bc ed ef ec bc b9 04 03 3d
       0.069948286 -0.02376386 -0.028923 0.031986926
000130 10 b2 9b bb 4f f2 e6 bd 49 f5 f3 bd d4 63 4e bb
       -0.0047514513 -0.112766854 -0.11912019 -0.0031492608
000140 2d 8c cd bc d8 ba 9d 3d 1f 83 fe bc 1c 69 b9 bc
       -0.025091255 0.07701653 -0.031068383 -0.022633128
000150 74 4e c5 3d 38 4f 29 be ef 52 7e be c5 73 58 3d
       0.09634104 -0.16534126 -0.24836324 0.05284478
000160 00 54 1e 3e 6a 91 36 3e 85 d5 88 bd 56 da 9c bc
       0.15461731 0.17828909 -0.066813506 -0.01914708
000170 07 69 04 be 8c 09 36 3e 09 fe 25 3e 08 b0 0c 3d
       -0.1293069 0.1777708 0.16210188 0.034347564
000180 d5 2c 60 bd b6 7a d1 bb 29 4c 9f be 17 8a 37 be
       -0.054730255 -0.006392802 -0.31112793 -0.17923771
000190 4d 44 f0 bd 49 3e bb 3d cc 0b 51 3c 58 96 91 bd
       -0.11731777 0.09142739 0.01275916 -0.07108754
0001a0 b1 21 e6 3b e0 a1 7c 3d 26 76 26 be 3e b4 8b 3c
       0.0070230593 0.061677814 -0.16256008 0.01705372
0001b0 d8 13 12 3d b6 98 56 be 92 f6 30 3e 0d a1 7d 3e
       0.035663456 -0.20956692 0.17281559 0.24768467
0001c0 21 10 5d be ba 35 35 3e 83 6d 4e 3b b9 10 1a 3d
       -0.21588184 0.17696276 0.003149838 0.037613604
0001d0 2a f8 dc bd 12 aa 92 bc 6b 2a be bd 05 d0 ef bc
       -0.10789521 -0.017903361 -0.09285434 -0.029273996
0001e0 bc f8 4a 3e fc 9e a8 3d 6a d8 fc bd 26 c9 c5 bd
       0.19821447 0.08233449 -0.12345965 -0.09657507
0001f0 e8 69 9b bc b1 af 35 3d c3 0b 93 be 9f 45 2e bc
       -0.018971398 0.044357006 -0.2871991 -0.010636716
000200 fb db 8d 3d f6 08 31 be bb e9 df 3c 1b cd d4 3d
       0.069267236 -0.17288575 0.027333131 0.10390683
000210 da 85 35 3e 5e 14 cc bc 13 07 34 3e 6a a3 4b 3b
       0.17726842 -0.024912056 0.17580824 0.0031072744
000220 40 4b 3c be 8e 89 02 3d 1e 7a cb 3d 5e 24 ee 3d
       -0.1838808 0.031869464 0.099354014 0.1162803
000230 bd 19 24 bc c9 31 a2 bd b0 a3 3f bc 7f 5f 54 be
       -0.010015902 -0.07919652 -0.011696741 -0.20739554
000240 86 55 19 be a8 60 89 bd 3b 14 46 be bf f4 ea bd
       -0.14974031 -0.06707889 -0.19343655 -0.11472463
000250 b2 cf b6 bd 78 a0 95 bc db 14 d9 bd e1 e3 d4 3d
       -0.089263335 -0.018264994 -0.10599681 0.10395027
000260 f7 88 08 3e b0 8f 16 3d a0 b8 c5 3c 63 a7 c1 bd
       0.13333498 0.036758125 0.024135888 -0.094557546
000270 c1 4b 9f 3b 8d c9 cc 3d 41 59 46 bd 80 92 af bd
       0.0048613255 0.0999938 -0.048424963 -0.085728645
000280 7e 62 c3 3d cf 18 80 bd 68 d2 af bd 8e 6d 18 3d
       0.0954027 -0.06254732 -0.08585054 0.037213854
000290 4b d3 2f be d6 8a d0 bd 06 fa 24 3d a6 f6 a2 be
       -0.17170446 -0.10182731 0.040277503 -0.31828803
0002a0 a6 25 28 3e a7 a5 1d bd ef 01 4a 3d a7 f7 94 bd
       0.16420612 -0.038488057 0.04931825 -0.072737984
0002b0 1c 4b 35 be 54 d3 16 3d 9b 29 2d be ac 8c c4 3c
       -0.17704433 0.036822632 -0.16910402 0.023992859
0002c0 19 7e e3 3d c9 54 33 be 7b 60 35 be 4b 8b bf 3c
       0.111080356 -0.17512812 -0.17712586 0.02338185
0002d0 9d 45 57 3e 74 a3 d3 3d 99 96 8b bd 32 8a 4f 3d
       0.21022649 0.103339106 -0.068158336 0.050668903
0002e0 27 6f 11 be 92 02 ec 3d a0 31 3a 3d 3d 36 0d bd
       -0.14202558 0.11523928 0.045457482 -0.034475554
0002f0 03 99 d1 bd a9 d9 f6 3d 90 8f f9 3c ad 07 be 3b
       -0.10234263 0.12053234 0.030463964 0.005799255
000300 a7 79 9e bc 06 1c 71 bc 10 ad 8d bd b0 69 05 b9
       -0.019345118 -0.014716154 -0.06917775 -0.0001272324
000310 dc 7d 4e 3e a4 a9 1c 3d d0 9c a5 3d 1b 40 95 bd
       0.20165199 0.03824772 0.0808655 -0.07287618
000320 c5 7a 1f bc 8a 2a 04 be 9a a0 1a 3e 18 b0 30 3e
       -0.00973386 -0.12906852 0.15100327 0.17254674
000330 a7 df 86 3e ce ed 46 3e bc 15 6c 3d c4 86 73 be
       0.26342508 0.19426653 0.057637915 -0.23781878
000340 79 fc 25 be 8d 8b 48 3d 26 ac 9c 3c 17 7c a2 bc
       -0.16209592 0.04896121 0.019125056 -0.019834561
000350 4f e4 ae 3c c4 94 0e bd 5a 4c dc 3d ab fc ac 3d
       0.0213491 -0.034809843 0.107567504 0.0844663
000360 0a 77 f0 3b e5 0b a1 3e 64 a2 36 bd 6b aa bf 3d
       0.0073384093 0.31454387 -0.04458846 0.093586765
000370 08 16 18 be b4 95 78 be c9 49 a5 ba ef 0c 98 bd
       -0.14852154 -0.24275857 -0.0012610491 -0.07424342
000380 86 7c f9 bc b4 0d 0c 3e b5 ec e8 bc 5c b3 4e 3d
       -0.030454885 0.13677102 -0.028433183 0.05046402
000390 ee c7 1c 3e 22 8c 9b 3c 5a bb 6e 3d 48 90 93 bd
       0.15310642 0.018987719 0.05828414 -0.07205254
0003a0 94 26 81 bd d6 11 93 3c 77 27 45 3c 75 99 f0 bd
       -0.06306186 0.01795284 0.012033335 -0.117480196
0003b0 d6 1c ee 3d 6e 21 be 39 94 b9 ad bc 6e 53 6f 3d
       0.11626594 0.0003626453 -0.021206655 0.058429174
0003c0 32 75 0c 3d ab bc 90 bd b2 49 e1 3c 10 1c 54 3d
       0.034291454 -0.070672356 0.027500961 0.051784575
0003d0 3c cb 20 be 0c b1 84 be 5c 16 4d be bc 5b 53 bd
       -0.15702528 -0.25916326 -0.2002806 -0.051601157
0003e0 9e ef e7 3b dc a8 3f be 3d fa 36 3e 91 0e 3c be
       0.007078125 -0.18716758 0.17868896 -0.18364932
0003f0 5c 20 bf 3c 62 08 84 3e 4b 6a 9c 3c c3 99 bf bd
       0.02333086 0.25787646 0.019093653 -0.093554996

linear2.bias f4 [256]
000000 c5 0d 31 3d b7 60 3b ba 76 d8 d6 3d 90 7b 84 3e
       0.043226022 -0.00071478955 0.104905054 0.2587552
000010 c1 23 04 bd 78 87 b7 3c 8c 3e 6f 3d 01 60 fb bc
       -0.03226066 0.022403464 0.05840926 -0.030685427
000020 9b 8a 67 bd b6 e2 a8 bd c1 81 01 be 97 72 00 3e
       -0.05652867 -0.08246367 -0.12647153 0.12543713
000030 0c 7f 86 be 2a d5 78 bc 3b 14 54 bb f4 79 7d be
       -0.26268804 -0.015187541 -0.003236069 -0.24753553
000040 f4 58 55 be 14 18 46 bd 24 ba 18 bd 7f 75 3a bd
       -0.20834714 -0.048362806 -0.037286893 -0.04552221
000050 d7 e6 0c be a7 4e 2a 3d 12 2f dc 3d 93 70 4f 3e
       -0.13759933 0.041578915 0.107511654 0.20257787
000060 d9 75 2b 3d 20 3f 8e bd 95 cc eb 3c 72 16 97 3d
       0.041860435 -0.06945634 0.028784076 0.07377328
000070 a0 59 55 be ae 69 15 3d 53 bf 3d bc 43 c6 14 3e
       -0.2083497 0.036477737 -0.01158126 0.14528756
000080 c9 b8 ed bc 39 12 f8 bd a3 9b bf bd 2d 5a f8 bd
       -0.029018776 -0.12112851 -0.09355857 -0.12126575
000090 65 68 9b 3d 20 cc 9c bd 66 bc 19 bd 7a 28 a1 3d
       0.07588271 -0.07656121 -0.037533186 0.078690484
0000a0 26 e0 26 bc 8e 87 65 3c f7 a8 3e 3e ea eb e3 3c
       -0.010185277 0.01400937 0.18619142 0.027822454
0000b0 88 fd 55 3d 9b 26 e9 3d 08 07 96 3c 39 74 f3 3d
       0.05224374 0.113843165 0.0183139 0.11887402
0000c0 05 a6 63 bc cc 39 b6 bd 88 d4 a6 bd 7d 95 00 bd
       -0.013894563 -0.08897743 -0.08146006 -0.031392563
0000d0 a4 78 d3 3d 86 20 6f 3d 4e 41 ef 39 6d 5d e6 bc
       0.10325745 0.058380626 0.00045634288 -0.02812072
0000e0 30 24 9c bc 7f 11 e6 3c b9 9e 5c 3e dc 8e 8d 3d
       -0.019060224 0.028084515 0.21544923 0.06912014
0000f0 dd fe c3 3d 3e 03 36 3c 98 40 15 3b 34 cb 07 bd
       0.09570096 0.011109171 0.0022774097 -0.033152774
000100 21 b7 b1 3c 5f 8f 20 3d a2 9a c0 3d 53 ea 10 3e
       0.021693768 0.03919923 0.09404494 0.14151888
000110 be d0 3a be 8a fe a2 bd bc 04 09 be e6 a0 7d 3d
       -0.18243691 -0.07958706 -0.13380712 0.061921023
000120 b4 23 97 bd 3e 70 22 3e a2 63 f6 bc 20 eb f4 3d
       -0.07379857 0.1586313 -0.030076806 0.11958909
000130 5d 6a 5f 3e df 06 f3 bd f4 58 af 3c 73 66 0e be
       0.21817918 -0.11866545 0.02140472 -0.13906269
000140 b3 54 3a bd 5d 11 4b be 6d ad 49 3d 1e 5b 4f 3e
       -0.04549093 -0.19830842 0.049237657 0.20249602
000150 8c 48 23 3e 8c 01 39 be 85 5b 51 3e 39 d7 3b be
       0.15945643 -0.18066996 0.20445068 -0.1834382
000160 85 b9 2b be 77 0e 9c bd a7 15 6c 3e 00 ac 06 be
       -0.16769989 -0.076199464 0.23055135 -0.1315155
000170 36 9f a7 3d dc e8 99 3d 9b cd 1b be 14 40 85 3e
       0.08184664 0.075151175 -0.15215151 0.2602545
000180 c1 05 a0 bc ea c9 c9 3d a2 8b 38 bb 2a d2 e9 3c
       -0.019533994 0.09852965 -0.00281594 0.028542597
000190 c1 32 c5 bd 68 60 fc 3d 5f ab b0 3e 71 77 2f be
       -0.09628821 0.123230755 0.34505746 -0.17135407
0001a0 04 67 b6 bd 25 45 ee 3d e7 6a c9 bd 5a 24 25 bd
       -0.089063674 0.11634282 -0.09834843 -0.04031787
0001b0 fe 0c b2 bd d1 40 a8 bc d6 34 06 3e 77 f6 89 3d
       -0.08693884 -0.02053872 0.13106093 0.067364626
0001c0 eb 27 92 3d bb de 14 be 8f 50 be bc 9b 72 27 3d
       0.0713652 -0.1453809 -0.023231773 0.04088078
0001d0 be c8 13 3d 9d 80 b9 3c c5 bb cd 3d 58 44 f9 3d
       0.036080115 0.022644335 0.1004558 0.12171239
0001e0 50 b1 9e 3d f4 55 3e be 87 b0 fc ba 6c a0 9c bd
       0.077486634 -0.18587476 -0.0019278683 -0.076477855
0001f0 5f 1a 8c bd df db bc 3d 8d 25 66 3b 16 66 7e bd
       -0.068409674 0.092216246 0.0035117597 -0.062109075
000200 af c4 c4 bd 23 43 61 3e ae 10 1f be be 22 0c be
       -0.09607827 0.21998267 -0.15533707 -0.13685128
000210 ec e0 1b bd 46 d9 54 3e 5b f7 f3 3d f4 f5 b6 3d
       -0.0380563 0.20786008 0.11912414 0.089336306
000220 1a 5d 8c 3d 58 fd eb 3d 4e 2c 29 be 82 10 2f 3d
       0.06853695 0.11522931 -0.16520807 0.042740352
000230 05 2b 4a 3e 01 0b 18 be f7 dd 6f 3d 1a 51 f8 bd
       0.19742973 -0.14847948 0.05856129 -0.12124844
000240 90 84 6e 3e 76 01 7e 3e 7d 44 f4 bd 87 e5 d0 3d
       0.23292756 0.24805245 -0.119271256 0.10200029
000250 31 e0 a8 bd f2 8a 9f 3c c7 f7 38 bd 59 cc 55 3e
       -0.08245886 0.019475434 -0.045158174 0.20878734
000260 78 4d 32 bd 19 15 30 be 61 73 72 3d 81 4d 2e 3e
       -0.04353091 -0.17195548 0.059192065 0.17021753
000270 b3 88 2d bd ee 1a c0 bc 02 0d 15 bd a3 73 7e 3d
       -0.042366695 -0.023450341 -0.03638936 0.062122
000280 72 99 df 3c 71 4e 55 3c c7 bf 2c be 61 74 2d be
       0.027294848 0.01301919 -0.16870032 -0.16938926
000290 ec 31 0b bd 38 07 20 bd 77 30 10 3e 51 3d de bd
       -0.033983156 -0.039069384 0.14080988 -0.10851539
0002a0 f7 95 3d bd f4 13 8c 3e 7a 13 06 3e b4 5b 18 3c
       -0.046285596 0.27358973 0.13093367 0.0092992075
0002b0 e5 ed 0d 3e 80 dc cc bc 01 93 67 bd 5a 27 88 bd
       0.13860281 -0.025007486 -0.05653668 -0.06648131
0002c0 30 9f 6f bd f0 b4 90 bd a7 dd c3 3d 3d d2 47 3d
       -0.058501422 -0.07065761 0.09563761 0.048784483
0002d0 5b d8 89 bd 43 6e a6 bc 18 df 8d 3e 8d 8d f4 bd
       -0.0673072 -0.020316249 0.2770927 -0.11941061
0002e0 e7 7c b4 bd f7 d8 42 3e d4 8d 65 be 79 9d 5e 3c
       -0.08812886 0.19028078 -0.22417384 0.013587349
0002f0 c7 ea 25 be d2 d5 d2 bd 02 26 53 bc 7e 5f ae be
       -0.16202842 -0.10294689 -0.01288748 -0.3405723
000300 e3 ba 78 3d 8b 5c cd 3d 08 b9 a8 bd 9c 10 ec 3c
       0.060725104 0.10027417 -0.08238417 0.028816514
000310 c9 35 c3 3d 27 a2 11 3e ed 9c e0 bc be 84 87 bb
       0.09531743 0.14222012 -0.027418578 -0.004135697
000320 50 df 68 3b 02 38 72 be f7 0c 5f 3d af a0 85 3d
       0.0035533495 -0.23654178 0.054455724 0.065247886
000330 f1 a2 ff bd ee 93 63 be 5e 33 52 3d fe 8e 11 be
       -0.124822505 -0.222244 0.05131852 -0.14214703
000340 de 07 22 be 70 80 68 bd 9d ee 67 bd 29 10 4a bc
       -0.15823314 -0.056763113 -0.056624044 -0.012332954
000350 1a 3d 92 3d 70 d2 a9 3d 4c af 36 3d be 1b 4c be
       0.071405604 0.08292091 0.04460077 -0.19932458
000360 c9 18 48 be 81 18 4b 3e 35 0a 37 be 8d 3e 37 3d
       -0.19540705 0.19833566 -0.17874987 0.044737387
000370 9b 61 7e bd d1 9c 8d 3d 4d 2d a0 bd ea 98 bb 3c
       -0.062104803 0.06914676 -0.078211404 0.022900064
000380 81 17 0c be 27 48 8c bb 84 f5 03 be 36 0c 2e ba
       -0.13680841 -0.004281062 -0.12886626 -0.0006639393
000390 a3 1b c9 3d bf 03 df bd be 63 ae bd 2a 48 f9 3c
       0.098197244 -0.108893864 -0.08515118 0.030429918
0003a0 4c bf ee 3d 8e da bc 3e 99 9b 35 be 87 e0 16 bc
       0.11657581 0.36885494 -0.17735137 -0.009208805
0003b0 72 e8 c0 3c d3 c8 40 bd 4f 56 56 be e7 da c0 3d
       0.023548339 -0.04706652 -0.20931362 0.09416752
0003c0 e4 b2 84 bd 50 2a 03 be 52 b2 44 bd 8f 8a 4a 3d
       -0.06479433 -0.1280911 -0.048021622 0.049448546
0003d0 df 21 9b bd 14 e2 c7 bd bb 4e b1 3c cf b5 33 3b
       -0.0757482 -0.09759918 0.021643987 0.0027421599
0003e0 a4 5a 43 3e 12 82 75 3d 76 34 d2 bc 74 c5 94 3d
       0.19077545 0.059938498 -0.025659781 0.07264224
0003f0 54 84 18 be cd b5 6c 3e 10 1b a7 3d ea 68 10 3e
       -0.14894229 0.23116226 0.08159459 0.14102522

mean_linear.weight f4 [2, 256]
000000 80 cc f3 3d e2 80 db 3e 46 ac 9f be 41 28 c6 3d
       0.1190424 0.42871767 -0.31186122 0.096756466
000010 db a9 03 3e 5a c2 b4 be 2a 49 87 3e 09 39 93 3e
       0.12857763 -0.35304528 0.26423007 0.28754452
000020 36 ea 84 3e d3 f2 2a 3d f8 14 9e be 1b 1c b4 bd
       0.2595994 0.04173548 -0.30875373 -0.08794423
000030 d8 fc 5c 3e 6a 6c 77 bd cb 18 92 3e a3 73 d1 bd
       0.21580827 -0.060406126 0.2853454 -0.10227134
000040 b5 02 5e 3e 73 21 a6 3e a8 8b c7 3e 4d d8 92 3e
       0.2168072 0.32447395 0.38973737 0.2868065
000050 14 7b 89 3e ed 4a a4 3e bd 72 37 3e b8 15 6f be
       0.26851714 0.32088414 0.17914863 -0.23348129
000060 5d 44 56 bb 4c 9b b0 be 4c a7 50 3d 4f 93 b1 be
       -0.0032694556 -0.34493482 0.050940797 -0.346827
000070 df 4c 93 3e c7 ac 83 be 9b 37 4a be 42 13 4e be
       0.28769585 -0.25717756 -0.19747774 -0.20124534
000080 1e a3 0c 3e 3d 96 96 3d 75 96 b7 3e 72 c8 83 3e
       0.137341 0.073528744 0.35856977 0.25738865
000090 3d 56 97 3d 53 cc db b9 6d 90 be be e9 7c 97 bd
       0.073894955 -0.00041923168 -0.37219563 -0.073968716
0000a0 1d 07 a4 3e a8 28 70 be 0b c1 8e 3e 57 4e 8b 3d
       0.32036677 -0.23453009 0.27881655 0.068020515
0000b0 7c f9 b1 be 65 96 53 be d9 83 65 be ce 42 21 be
       -0.34760654 -0.2066284 -0.22413577 -0.1574814
0000c0 dc b7 e1 3d 0e 41 34 bd df 1a 41 3e 23 8c a0 be
       0.110213965 -0.044007353 0.18857907 -0.31356916
0000d0 88 ac 41 be aa 38 be 3e d4 2d 28 3e 2c f4 aa 3e
       -0.18913472 0.37152606 0.16423732 0.33389413
0000e0 66 b0 91 be 54 9b 1d 3e 04 80 20 be 7b 6c b8 be
       -0.28454894 0.15391284 -0.15673834 -0.36020264
0000f0 12 46 20 be 28 8f 3e bd 97 87 ad be 21 21 c4 3e
       -0.1565173 -0.046523243 -0.3389251 0.38306525
000100 05 f7 90 3e 2e f8 69 3e ab 01 cb be 95 f0 a8 be
       0.2831346 0.2284858 -0.3964971 -0.3299605
000110 17 09 1b bd f7 4c a9 3e fd db 9c 3e 01 21 9f be
       -0.037850466 0.33066532 0.30636588 -0.31079867
000120 17 80 d5 be 9e dc 86 be db 99 49 3e 6f 35 aa 3e
       -0.41699287 -0.26340193 0.19687597 0.33243892
000130 aa aa 6c be 89 96 05 3e 57 9b e0 3d a3 1b b1 3e
       -0.23111978 0.13045706 0.10967129 0.34591398
000140 a9 a6 a5 3e d7 8e 99 be 9e f0 c3 be e4 16 bf 3d
       0.32353714 -0.2999179 -0.38269514 0.09330538
000150 7e 3e 63 bd b1 ab b7 3e c9 8b 7f 3e d0 cc 61 bc
       -0.05547952 0.35873178 0.24955668 -0.013781741
000160 f2 42 a9 bc 07 5c ab 3e cd 3e 8f be 44 ad 57 3b
       -0.020661805 0.3346865 -0.279776 0.003290967
000170 69 e7 6f 3e bf 62 93 3d 6b ac 9b 3e 1c db af 3e
       0.2342812 0.07196569 0.30404982 0.34346855
000180 f0 cc a5 3e dc 3f 92 be 24 f6 a5 3e 3c 90 f3 3e
       0.32382917 -0.28564346 0.32414353 0.4757098
000190 8a c7 aa 3c 86 96 42 be 53 7b d4 bc 50 d6 a9 3e
       0.0208471 -0.19002733 -0.025937712 0.3317132
0001a0 07 25 83 be 33 1f 78 be 9f 01 b5 3d f6 aa 6c 3e
       -0.25614187 -0.24230652 0.088382 0.23112091
0001b0 4c 25 67 3e db e1 d3 be 58 9a 29 be 17 8c c4 38
       0.22572821 -0.41383252 -0.16562784 9.372102e-05
0001c0 ad 4f 3a 3d 54 16 ce 3e b0 23 3f 3d 09 53 99 3a
       0.04548614 0.4025141 0.046664894 0.001169772
0001d0 f9 52 70 3d c1 0f be 3e b7 c2 1e be c8 2e ca be
       0.05867288 0.37121394 -0.15503965 -0.39488816
0001e0 6f aa 9a 3e 69 89 fc bd af b5 81 be bb 57 bc 3e
       0.30208156 -0.123308964 -0.25333926 0.36785683
0001f0 73 54 a0 be 30 28 ad 3e 58 bb 85 3e 54 36 a7 3e
       -0.3131443 0.33819723 0.26119494 0.32658637
000200 42 21 b7 3d f6 59 ef 3e c3 d0 0e 3e 40 c8 c2 3e
       0.0894189 0.46748322 0.13946824 0.38043404
000210 ab ec df 3d d0 dc b8 3e 83 8a ae 3e 85 06 bc be
       0.10933813 0.36105967 0.3409005 -0.36723724
000220 0a 3c 70 3e c7 8e ca be b9 21 86 3e e4 7e 8b be
       0.23460403 -0.39562055 0.26197603 -0.27245247
000230 97 81 a1 be 71 95 da be d7 8b 5d 3e af 0b c5 3c
       -0.31544182 -0.4269214 0.21635376 0.024053423
000240 1a 8e ea bc 42 35 d0 3e e2 17 ad be a8 d0 9d 3e
       -0.028632212 0.40665632 -0.33807284 0.30823255
000250 4b 35 34 be b1 b0 b1 be ee 97 1c be 11 9f 9b 3c
       -0.17598455 -0.34705117 -0.15292332 0.018996747
000260 e5 0d 74 bd 1e cb 93 be 89 72 b7 be 0b 75 f2 3c
       -0.059583563 -0.28865904 -0.3582957 0.029596826
000270 d0 3c ba be 00 7a 94 3e 96 9b d6 3d 04 49 9c be
       -0.3637452 0.2899933 0.104788944 -0.30524457
000280 d8 4e b9 be 69 29 33 bd c3 d4 10 be 03 3d 0f 3d
       -0.36192966 -0.043740664 -0.14143662 0.034970295
000290 03 f3 df 3e b8 d0 6a 3d 31 20 3b 3e 36 1f 0b be
       0.4374009 0.057327956 0.18273999 -0.13586125
0002a0 5b 91 00 3e c8 fc 86 be b2 b5 cf 3e f5 e5 a8 be
       0.12555449 -0.26364732 0.4056831 -0.32987943
0002b0 a7 0b 9e 3e aa d3 9e be ae f6 6d 3e 3c 55 8e 3e
       0.30868265 -0.31020862 0.23238632 0.27799404
0002c0 f2 3e 32 be be 5a b1 bd b1 ad 7c 3e a1 ea 95 3e
       -0.17406824 -0.08659886 0.24675633 0.2928057
0002d0 65 74 50 3e be 43 a9 be 8e 3d dc bd 80 9c ae 3e
       0.20356901 -0.33059496 -0.10753928 0.34103775
0002e0 bf 21 c2 be fc eb 3a 3e b5 77 d5 3d 55 6f 9a 3e
       -0.3791637 0.18254083 0.10423223 0.30163065
0002f0 20 90 d4 bd 7b fa 3c 3e a8 54 c9 3d 4f 0f 30 bd
       -0.10379052 0.18454926 0.098306 -0.04298335
000300 c9 e2 e8 3e 0b 00 01 bf 20 15 aa be ad 41 72 be
       0.45485523 -0.5039069 -0.33219242 -0.23657866
000310 62 ff 17 be f0 f8 e0 bc 23 96 f4 3d 9d b4 03 be
       -0.14843515 -0.027462453 0.11942699 -0.12861867
000320 3e ad 80 be 0e 79 92 be e8 01 7c be 3d b1 66 3e
       -0.25132173 -0.28607982 -0.24610102 0.22528549
000330 67 66 5c 3e 27 be c1 be 2c ff 92 be d6 b8 ac 3e
       0.21523438 -0.37840387 -0.28710306 0.3373477
000340 ec 1a 4c 3e b6 e1 32 3e 32 3b 35 3e 75 c4 12 3c
       0.19932145 0.17468914 0.17698362 0.008957972
000350 6c 4d 45 3c b1 4b 9e 3e 52 18 4d 3e 46 19 38 3e
       0.012042385 0.30917123 0.20028809 0.17978391
000360 08 00 73 3e e9 aa f9 3b a2 99 5d 3e a0 16 81 be
       0.2373048 0.007619251 0.21640638 -0.25212574
000370 58 45 9a 3d d0 f2 86 3d 9f 86 e8 3d 45 6c 99 3d
       0.075327575 0.065892816 0.11353802 0.07491354
000380 c3 b1 0a bd 43 59 42 be ad 69 24 3c 1e 46 cc 3e
       -0.033860933 -0.18979363 0.010034961 0.39897245
000390 57 fc 45 be 83 d6 90 be 0c 55 53 be 4d 8c 28 be
       -0.19334541 -0.2828866 -0.20637912 -0.1645977
0003a0 94 cd 62 3e fc a1 11 3e 76 cc b8 3e 37 50 a7 3e
       0.22148734 0.14221948 0.3609349 0.32678387
0003b0 7f 74 c7 be 5c cc f9 3c 7b 14 3f 3e db 68 ff bd
       -0.38956067 0.030492954 0.18660156 -0.124711715
0003c0 fc 32 a2 3e d0 a2 aa 3e 95 df d5 be ab 81 bf 3e
       0.31679523 0.3332734 -0.41772142 0.37403616
0003d0 c7 a1 0d 3c aa 36 9b be 8d 5a 96 3e 14 a3 80 be
       0.008644528 -0.30315143 0.2936596 -0.2512442
0003e0 79 9e 7c bd 6e 1a 9f 3e 2a 82 90 be 4a 27 0a be
       -0.06167457 0.31074852 -0.28224307 -0.1349155
0003f0 24 3f ca bd 5c f7 e2 bd 68 c4 91 3e bb ca 9e bb
       -0.09875324 -0.11082336 0.2847016 -0.0048459447

mean_linear.bias f4 [2]
000000 d1 be c0 bd f2 6e a5 bc
       -0.09411395 -0.020194504
