output/CarlaNavigation-v0/wcsac/2/cost_var.pt (torch, 536535 bytes, 5 tensors)

net.0.weight f4 [256, 263]
0	0x3ddbca31	0.10731924
1	0xbd29b51d	-0.04143249
2	0x3eab14a3	0.33414182
3	0x3cb614df	0.022226749
4	0x3e62bc8e	0.2214224
5	0x3e1d1b74	0.15342504
6	0xbd745d6c	-0.059659407
7	0x3e8008b0	0.25006628
8	0x3d801556	0.062540695
9	0xbb1f6815	-0.0024323512
10	0x3bee54a9	0.007273276
11	0xbe19d148	-0.1502124
12	0x3cc51b36	0.024060827
13	0xbccb7628	-0.024836615
14	0xbdc5e967	-0.096636586
15	0xbcf9ce1d	-0.03049379
16	0xbe343fce	-0.17602465
17	0x3dbd56f4	0.092451006
18	0x3c010e7e	0.00787699
19	0xbdc40e7f	-0.095730774
20	0xbe2139a4	-0.15744644
21	0x3d77f8c8	0.06053999
22	0xbc9fa7f5	-0.019489268
23	0x3d8b5d7c	0.0680494
24	0x3e1d4e0e	0.15361807
25	0xbc0fa8df	-0.008768289
26	0x3e22dd49	0.15904726
27	0xbe0e201b	-0.13879435
28	0xbe963ed3	-0.29344806
29	0x3da60862	0.08107068
30	0x3e038b00	0.12845993
31	0xbdb1d6d3	-0.086835526
32	0x3dac9a40	0.08427858
33	0xbdb8cf84	-0.090239555
34	0xbdc0e2c7	-0.09418254
35	0xbd16fb51	-0.036860768
36	0xbc859b7f	-0.016309498
37	0x3b9197d1	0.0044431468
38	0xbda52e35	-0.08065454
39	0x3e810750	0.25200891
40	0x3cdc9888	0.026928201
41	0x3d347663	0.044058215
42	0x3c52c13b	0.012863453
43	0x3da4c9f8	0.08046335
44	0x3d6b0ed0	0.057387173
45	0xbd8cb482	-0.06870367
46	0x3e8e7bed	0.27828923
47	0xbc6a2b7d	-0.014292595
48	0xbb951b49	-0.004550372
49	0x3d34c0cc	0.044129178
50	0xbe123f35	-0.14281924
51	0xbe6cd347	-0.23127471
52	0xbb198969	-0.002342785
53	0xbe83ecd4	-0.25766623
54	0xbc9ccf41	-0.019141795
55	0x3d661bd8	0.056178898
56	0x3ecf8547	0.4053137
57	0x3d8addaf	0.06780564
58	0x3e005182	0.12531093
59	0xbe276735	-0.16347964
60	0x3de44f02	0.11147882
61	0xbde45996	-0.111499
62	0xb8824168	-6.211066e-05
63	0x3e3a3e80	0.18187904
64	0x3e7097fb	0.23495476
65	0x3d965aae	0.073415145
66	0xbdd2fb64	-0.10301855
67	0xbe140925	-0.14456613
68	0xbe65a02c	-0.22424382
69	0x3e934f29	0.28771332
70	0xbe0fb97b	-0.14035599
71	0xbd8ef65c	-0.06980583
72	0xbdb2745e	-0.087136015
73	0xbe8835c5	-0.26603523
74	0x3ca53883	0.020168548
75	0xbde0ecf0	-0.10982692
76	0x3b4e82ae	0.0031510997
77	0xbda4adab	-0.08040937
78	0x3cbb9c0d	0.02290156
79	0x3d6817c1	0.05666328
80	0x3d8c52c4	0.06851724
81	0xbd915dbc	-0.070979565
82	0x3e432b80	0.19059563
83	0x3e048a65	0.12943418
84	0x3e07ccd8	0.13261735
85	0x3e16179b	0.14657442
86	0xbddb280c	-0.10700998
87	0x3e045e7b	0.12926666
88	0x3e54272e	0.20718071
89	0x3e02276f	0.12710355
90	0x3e373524	0.17891365
91	0xbd017be0	-0.031612277
92	0xbc5bf5b5	-0.01342528
93	0xbe0061f7	-0.1253737
94	0x3dd817dc	0.10551426
95	0xbd9b8381	-0.07593442
96	0x3de4e1dd	0.111758925
97	0x3dd4d82a	0.103927925
98	0x3df59b74	0.11992541
99	0x3e8ff8e5	0.2811958
100	0x3e26a4f5	0.16273864
101	0x3ca1da34	0.019757368
102	0x3bf1e980	0.0073825717
103	0x3e0a470d	0.13503666
104	0xbd69287e	-0.056923382
105	0x3e81e928	0.25373197
106	0x3d955665	0.07291869
107	0x3c1c5ca3	0.009543571
108	0x3d30404a	0.04303006
109	0xbe216a14	-0.15763122
110	0x3cf83d09	0.030302541
111	0xbe48ddfb	-0.19615929
112	0xbdcc2ad3	-0.099691056
113	0x3e46e258	0.19422281
114	0xbe059ebb	-0.13048832
115	0xbe1d3679	-0.15352811
116	0x3d3e83b7	0.04651233
117	0xbb61af13	-0.0034436628
118	0x3cfb6cb1	0.030691477
119	0xbda6d814	-0.081466824
120	0xbe920798	-0.2852142
121	0x3b1aaf71	0.0023603106
122	0x3d962859	0.073319145
123	0x3e2836c2	0.16427138
124	0x3dafe615	0.085888065
125	0xbc81c28d	-0.01583984
126	0xbca4c550	-0.020113617
127	0x3d79fcba	0.061032034
128	0xbe7375b5	-0.2377537
129	0xbe1fe965	-0.15616377
130	0x3b48983d	0.003060832
131	0xbe8c3013	-0.27380428
132	0x3e67c50e	0.22633764
133	0x3d81e045	0.06341604
134	0x3e0d23d0	0.13783193
135	0x3e49aeca	0.19695583
136	0x3e00e8eb	0.12588851
137	0xbd9bf7f6	-0.07615654
138	0xbda6d847	-0.081467204
139	0x3d49ea25	0.049295563
140	0x3e39104d	0.18072625
141	0xbdb334d3	-0.0875031
142	0x3d9ef5d9	0.077617355
143	0xbd30a9a3	-0.04313053
144	0x3bcf6732	0.0063294405
145	0x3c49da9f	0.01232019
146	0x3e03c26b	0.12867133
147	0xbe26078a	-0.16213813
148	0xbdaeeb1c	-0.08540937
149	0xbd27be4c	-0.040952966
150	0xbe02aad4	-0.12760478
151	0xbdd00525	-0.10157231
152	0x3dceb623	0.100933336
153	0xbd53bad4	-0.051691845
154	0xbe1b5461	-0.15168907
155	0xbe0f288e	-0.13980314
156	0xbce86276	-0.028367262
157	0x3d12f1f5	0.03587528
158	0xbe521cc1	-0.20518781
159	0x3e27ea88	0.1639806
160	0x3dca1ab0	0.098683715
161	0x3b4932e3	0.0030700497
162	0x3e07c480	0.13258553
163	0xbdcfc011	-0.10144056
164	0x3bdc3283	0.0067198887
165	0x3dbfb31b	0.093603335
166	0x3d4afd91	0.049558226
167	0x3e202405	0.1563874
168	0x3d8858a8	0.06657535
169	0x3e8b19e0	0.2716818
170	0x3e0a93bf	0.13532923
171	0x3e7c3e01	0.24633028
172	0xbd90f41d	-0.07077811
173	0x3e02682a	0.12735048
174	0x3d526c2b	0.05137269
175	0xbdf9a7c8	-0.12190205
176	0xbd3ca092	-0.04605157
177	0x3dd0a242	0.10187198
178	0x3d3fbe86	0.046812557
179	0x3e27c13a	0.16382304
180	0xbdbad218	-0.091221035
181	0xbdeb0ac0	-0.1147666
182	0xbdb6848e	-0.089120016
183	0x3dae28bd	0.08503864
184	0xbb65cc5b	-0.0035064432
185	0x3e1a68cb	0.15079038
186	0x3df476e0	0.11936736
187	0x3cadf37e	0.02123427
188	0x3e0b6445	0.13612469
189	0x3de478c1	0.111558445
190	0xbe7c97ba	-0.24667254
191	0xbd8d23f2	-0.06891622
192	0x3d5a2bdf	0.053264495
193	0xbe67d0b2	-0.22638205
194	0xbd6b5f6c	-0.05746405
195	0x3d45fb78	0.048335522
196	0xbb84eb71	-0.004056387
197	0xbd915f15	-0.070982136
198	0x3e2540b8	0.1613797
199	0xbb5ce175	-0.0033703719
200	0x3e996438	0.29959273
201	0x3d7145f9	0.05890462
202	0x3cb23f5e	0.021758731
203	0x3d9cbae9	0.07652838
204	0xbdef4e59	-0.116848655
205	0x3dc47b99	0.09593887
206	0x3dd58664	0.104260236
207	0x3d478e94	0.048719957
208	0x3e41d636	0.18929371
209	0xbe35b6ee	-0.17745563
210	0xbd703fdb	-0.058654647
211	0x3df0e72b	0.11762842
212	0x3e2fed84	0.17180449
213	0xbbc6d24e	-0.0060675507
214	0x3d1cd09d	0.038284887
215	0xbca25450	-0.019815594
216	0x3d5e35b0	0.05425042
217	0x3ddd1ff9	0.10797114
218	0xbe68187d	-0.22665592
219	0xbd88b160	-0.066744566
220	0x3d19b64b	0.037527364
221	0x3c93c701	0.018039228
222	0x3db37606	0.087627456
223	0x3d875fee	0.06610094
224	0x3e112808	0.14175427
225	0xbda59bf5	-0.08086387
226	0xbc70eb4c	-0.014704537
227	0xbdcf3e8f	-0.10119354
228	0x3e2da97d	0.16959186
229	0xbdd76f76	-0.10519306
230	0xbd9f1c9e	-0.0776913
231	0x3e6d931b	0.23200648
232	0x3e06e8f1	0.13174798
233	0x3e4e943e	0.20173737
234	0xbe05714d	-0.13031502
235	0x3ddea5f6	0.10871498
236	0xbddfed45	-0.109339274
237	0xbdd95fc6	-0.106139705
238	0xbcd4d2fc	-0.025979511
239	0xbe89d26d	-0.26918355
240	0x3e250ced	0.16118212
241	0xbe0d52b7	-0.13801084
242	0x3dd18ced	0.102319576
243	0x3dfc81ef	0.1232947
244	0x3bb4ceff	0.00551784
245	0xbdb8e0d9	-0.09027261
246	0x3e4bca7c	0.1990146
247	0xbd7f4bef	-0.062328275
248	0xbd314041	-0.043274168
249	0xbd9303c9	-0.07178456
250	0xbde00841	-0.10939074
251	0xbd59dd9e	-0.053189866
252	0x3c70bafd	0.014693019
253	0xbda26e34	-0.07931176
254	0x3e77cdc1	0.24199583
255	0x3dd9ad89	0.10628802

net.0.bias f4 [256]
0	0xbdb062be	-0.086125836
1	0xbca91a8c	-0.020642541
2	0xbd838aa9	-0.06422932
3	0xbdb67edb	-0.089109145
4	0xbce82a43	-0.028340464
5	0xbd9988ed	-0.0749682
6	0x3d7df73f	0.06200337
7	0xbc5ced26	-0.013484275
8	0xbd69a581	-0.057042602
9	0xbe1ee537	-0.15517126
10	0xbe0fb1d3	-0.14032678
11	0xbdc3227e	-0.09528063
12	0xbda636fa	-0.08115955
13	0xbca6a552	-0.020342503
14	0xbc63d2c4	-0.013905231
15	0xbca36178	-0.019943938
16	0xbd66da7b	-0.056360703
17	0xbda9ff09	-0.08300597
18	0xbd02d22a	-0.03193871
19	0x3dafb184	0.0857878
20	0x3cd168de	0.0255627
21	0x3c43c508	0.011948831
22	0x3d4fb0d6	0.050705753
23	0xbdb36bab	-0.087607704
24	0x3e2dce0d	0.16973133
25	0xbd0b6f48	-0.034041673
26	0x3b2f34d9	0.002673438
27	0x3d7b662a	0.061376728
28	0xbe0f12c0	-0.13971996
29	0xbd4ee1ad	-0.05050819
30	0xbc8a8717	-0.016910119
31	0x3de029c8	0.10945469
32	0xbdd75409	-0.10514075
33	0xbd0a316a	-0.03373853
34	0x3d98cd8b	0.07461079
35	0x3d157cf9	0.036496136
36	0x3caf0a8a	0.02136733
37	0xbdef1c73	-0.11675348
38	0xbc79ab3a	-0.0152385775
39	0xbd884c92	-0.0665523
40	0x3d6434a0	0.05571425
41	0xbd06151e	-0.032734983
42	0xbdc280d0	-0.09497225
43	0x3b929bd5	0.004474143
44	0xbdeab499	-0.114602275
45	0x3c2a67d6	0.010400733
46	0x3bb23eba	0.0054396065
47	0x3d9fd674	0.078045756
48	0x3d01f657	0.03172907
49	0x3ce7216b	0.028214177
50	0xbdbb8973	-0.09157076
51	0xbd603fbb	-0.054748278
52	0x3d7400a6	0.05957093
53	0xbb483b48	-0.0030552913
54	0xbc218976	-0.009859433
55	0xbe0d9d3b	-0.1382951
56	0xbd5eece1	-0.054425124
57	0xbde592d9	-0.112096496
58	0x3ce0ca29	0.027440147
59	0xbdc93c2a	-0.098259285
60	0xbe105f94	-0.1409896
61	0xbd7036f1	-0.058646146
62	0x3ce83637	0.028346164
63	0x3d8abc75	0.067742266
64	0xbdb6d5a7	-0.0892747
65	0x3ba7be08	0.005119089
66	0x3de97bd1	0.11400569
67	0xbe2abe3b	-0.1667413
68	0x3dc7145e	0.097206816
69	0xbe2be2fe	-0.1678581
70	0xbc32ba8e	-0.010908736
71	0x3cf37773	0.029720044
72	0xbd6129d7	-0.054971542
73	0x3d51c82a	0.051216282
74	0xbcd81f68	-0.026382163
75	0x3c49b265	0.012310599
76	0x3d4004cc	0.046879575
77	0xbd05daca	-0.032679357
78	0xbdfcd30c	-0.123449415
79	0x3d8b08e8	0.06788808
80	0xbd86fd55	-0.06591288
81	0x3d0e0616	0.034673773
82	0xbdf7c8c4	-0.1209884
83	0x3d69e26e	0.057100706
84	0x3d3fa1f0	0.046785295
85	0xbba742b8	-0.005104389
86	0x3d020850	0.03174621
87	0xbe375660	-0.17904043
88	0xbdeebe1e	-0.11657356
89	0x3e0b6a13	0.13614683
90	0xbd2c17c4	-0.042014852
91	0x3e0d467c	0.13796419
92	0x3dde9cdc	0.10869762
93	0xbd231346	-0.039813302
94	0xbdb927a7	-0.09040766
95	0x3cc4c23a	0.024018396
96	0x3e051979	0.12997998
97	0xbdec49e9	-0.11537535
98	0x3da44dd3	0.08022656
99	0x3d27e16b	0.04098646
100	0xbd49df59	-0.049285267
101	0xbc928b42	-0.017888669
102	0x3e0dfefe	0.13866803
103	0xbda06c05	-0.07833103
104	0xbdc7255d	-0.09723923
105	0x3c9352be	0.01798379
106	0x3df7c6f8	0.12098497
107	0xbd0871ee	-0.033311777
108	0xbd826553	-0.06366982
109	0x3cc13863	0.023586458
110	0xbd99e89a	-0.07515068
111	0xbc831782	-0.01600242
112	0xbd9162cb	-0.070989214
113	0xbd49a137	-0.049226012
114	0xbd2865de	-0.041112773
115	0xbdb2be3b	-0.0872769
116	0xbd8e2e72	-0.069424525
117	0x3b8c0b4e	0.0042738086
118	0xbd8398d4	-0.06425634
119	0xbd357100	-0.04429722
120	0xbd895ff3	-0.06707754
121	0xbc4bd0e1	-0.012439937
122	0xbd8ee15a	-0.06976576
123	0x3cc46b1a	0.023976851
124	0x3da89837	0.08232158
125	0xbd19f40f	-0.037586268
126	0x3c923a50	0.017850071
127	0xbcd8f1f1	-0.026482554
128	0x3c9ef12b	0.019402107
129	0xbd8ac14e	-0.06775151
130	0x3db57396	0.08859937
131	0x3db77f1e	0.089597926
132	0xbd6d3a35	-0.05791684
133	0x3d20f726	0.0392982
134	0xbe1d4f7c	-0.15362352
135	0x3d3f5401	0.04671097
136	0x3d89b640	0.067242146
137	0x3d9042fe	0.07044028
138	0xbddf20fe	-0.10894965
139	0x3c739d96	0.014869114
140	0xbd45c541	-0.04828382
141	0xbe0f95dd	-0.14022012
142	0xbdf19325	-0.11795644
143	0xbcf9db2e	-0.03050002
144	0xbd9c98dd	-0.07646344
145	0xbcd1fbb0	-0.02563271
146	0xbda853c3	-0.08219101
147	0xbc7560a4	-0.014976654
148	0xbc053cb0	-0.008132145
149	0xbcea1f4e	-0.02857938
150	0x3de64b70	0.11244857
151	0xbcab3c75	-0.020902852
152	0xbd9d1d59	-0.07671613
153	0xbd970272	-0.07373513
154	0x3dc43c2b	0.09581789
155	0x3d9a230d	0.07526217
156	0x3d08c6b0	0.03339261
157	0xbbe95c54	-0.007121602
158	0x3d930f79	0.071806855
159	0xbd874c8e	-0.066063985
160	0xbd79ea24	-0.06101431
161	0x3e1b445b	0.15162794
162	0xbd0d0f42	-0.03443838
163	0xbdb2fb8e	-0.087393865
164	0xbd3e35b4	-0.046437934
165	0x3dcc5d21	0.099787004
166	0xbcc5d5c1	-0.024149777
167	0xbcf17e1b	-0.029479077
168	0x3dcac515	0.09900872
169	0xbbc299c8	-0.0059387423
170	0x3cff6dd0	0.031180292
171	0xbc4ca1ea	-0.012489775
172	0xbd88afca	-0.06674154
173	0x3cfc693e	0.030811902
174	0xbce46379	-0.027879464
175	0xbdd4ca8e	-0.10390197
176	0xbd47705a	-0.04869113
177	0x3c62b846	0.0138378795
178	0x3c8b0737	0.016971214
179	0x3ae5cf71	0.0017533136
180	0xbd8e4a45	-0.069477595
181	0x3d2ab483	0.041676056
182	0x3dadd6fd	0.084882714
183	0x3e263667	0.1623169
184	0xbdf0a260	-0.117497206
185	0xbd34dc1a	-0.044155218
186	0x3e12e757	0.14346062
187	0xbdf924cb	-0.12165221
188	0x3cb58dbd	0.022162313
189	0xbd90d77d	-0.07072351
190	0x3c318972	0.010835992
191	0x3d163ca3	0.03667892
192	0x3d36edc8	0.04466036
193	0x3d15e7b6	0.03659793
194	0xbd7ac957	-0.06122717
195	0xbc9fcca6	-0.019506764
196	0x3d9985f5	0.074962534
197	0x3cfc6172	0.030808184
198	0xbdb794d7	-0.08963936
199	0xbdad1fd1	-0.08453334
200	0x3cce8510	0.025209934
201	0x3d7678bd	0.06017374
202	0x3db6c020	0.08923364
203	0x3d116976	0.035500966
204	0xbdc1ff39	-0.09472508
205	0x3b9c45e7	0.004769075
206	0x3cffc7ec	0.03122326
207	0xbd8527b6	-0.06501715
208	0x3d303aa6	0.04302468
209	0xbe452ebf	-0.19256113
210	0xbe29e3e8	-0.16590846
211	0xbe103875	-0.14084037
212	0xbcc48196	-0.023987573
213	0xbe09da68	-0.13462222
214	0x3b8bcd1a	0.0042663934
215	0x3acf8c0d	0.0015834585
216	0xbc183e7e	-0.009292243
217	0xbd0f3762	-0.034964927
218	0xbdbf86e2	-0.09351899
219	0xbd2675b6	-0.0406396
220	0x3d88d411	0.066810735
221	0xbc8507b2	-0.016239021
222	0x3d185c13	0.037197184
223	0xbe466312	-0.1937373
224	0xbdec4755	-0.11537043
225	0x3b609b54	0.003427227
226	0xbd8686c7	-0.065686755
227	0xbcaa2ea9	-0.020774202
228	0xbcf83286	-0.030297529
229	0xbda19c5c	-0.07891151
230	0x3d06d8f7	0.032921758
231	0xbe314d57	-0.17314659
232	0x3d9724cd	0.07380066
233	0x3e2da4a9	0.16957344
234	0xbd10c50e	-0.035344176
235	0x3b90fc78	0.004424628
236	0xbe1ea4bc	-0.15492529
237	0xbe2e93d8	-0.17048585
238	0x3d8216d4	0.0635201
239	0x3c46c3e3	0.012131664
240	0xbdccfed3	-0.10009541
241	0xbdab89cd	-0.08375893
242	0x3cf856ed	0.030314887
243	0xbcab4a26	-0.02090938
244	0x3dd54e2d	0.104153015
245	0xbd398c94	-0.04530008
246	0x3e2247d0	0.15847707
247	0xbcad1a61	-0.021130743
248	0xbe27d4ea	-0.16389814
249	0x3c9c32e5	0.019067237
250	0x3dba015d	0.09082291
251	0xbe047ebd	-0.12938972
252	0xbe259f17	-0.16173969
253	0xbd93194a	-0.07182558
254	0x3d4d41f9	0.050111745
255	0x3d266194	0.0406204

net.2.weight f4 [256, 256]
0	0x3e29401e	0.16528365
1	0x3e6824f0	0.2267034
2	0x3cd3d130	0.025856584
3	0xbd983e5d	-0.0743377
4	0xbe0270bd	-0.12738319
5	0x3e55f769	0.2089516
6	0x3d2b48b0	0.041817367
7	0xbe2718b5	-0.16318019
8	0xbe8cbb63	-0.27486715
9	0xbdae5bed	-0.08513627
10	0x3e8abf51	0.27099088
11	0xbc3e1fea	-0.011604289
12	0x3dc19cae	0.094537124
13	0x3e279af7	0.16367708
14	0xbd952dd2	-0.0728413
15	0xbd855973	-0.06511202
16	0x3d90c090	0.070679784
17	0x3e166ab7	0.14689146
18	0x3de64966	0.112444684
19	0x3e633cc9	0.22191156
20	0xbe4437cc	-0.1916191
21	0xbda59b4c	-0.08086261
22	0x3de9e0c5	0.114198245
23	0x3e050c52	0.12992981
24	0xbe539874	-0.20663625
25	0x3f135305	0.5754855
26	0x3db1932d	0.0867065
27	0xbcdee22c	-0.027207457
28	0xbd3d7d00	-0.046261787
29	0x3e6706fb	0.22561257
30	0xbdeb42bf	-0.1148734
31	0x3ebce699	0.36894682
32	0x3e08adb3	0.13347511
33	0xbe80b050	-0.25134516
34	0x3e780021	0.24218799
35	0x3e77b3fb	0.24189751
36	0xbe53c349	-0.20679964
37	0x3cc9bd13	0.02462629
38	0xbde007cc	-0.10938987
39	0xbde8a4a9	-0.113595314
40	0x3d13e6b3	0.036108684
41	0x3df54090	0.11975205
42	0x3ead58d3	0.3385683
43	0xbdf4b8d0	-0.11949313
44	0x3b8b572a	0.004252334
45	0xbe770046	-0.24121198
46	0xbb41190d	-0.0029464394
47	0xbe23ceb1	-0.15996815
48	0xbda67e31	-0.08129538
49	0x3e11124c	0.14167136
50	0x3eed971d	0.46404353
51	0xbe44d8b2	-0.19223288
52	0x3d1bd0c8	0.038040906
53	0xbd8d1103	-0.0688801
54	0x3de46090	0.1115123
55	0x3d2732e9	0.040820036
56	0xbe1754dd	-0.14778467
57	0x3ea5821f	0.32325837
58	0xbc461b1e	-0.012091426
59	0xbda86b06	-0.08223538
60	0xbe2f18af	-0.1709926
61	0xbe011a0c	-0.12607592
62	0x3e4dab65	0.20084913
63	0xbe87879b	-0.26470646
64	0x3d38870d	0.04505067
65	0x3cd9c088	0.026581064
66	0xbe821527	-0.25406763
67	0x3eac5e06	0.33665484
68	0xbdb7ca89	-0.089741774
69	0x3e3da59b	0.18520205
70	0xbdb806ff	-0.089857094
71	0x3de713ff	0.11283111
72	0xbe495c9c	-0.19664234
73	0x3e07111c	0.1319012
74	0x3dad1c10	0.08452618
75	0x3d18009e	0.037109964
76	0x3e2a83d8	0.16651857
77	0x3da61469	0.08109362
78	0x3b9ce27d	0.0047877417
79	0x3c9845d2	0.01858798
80	0xbe802211	-0.2502599
81	0x3ec61ddc	0.38694656
82	0x3d8a4cbf	0.067529194
83	0x3c78729f	0.015164047
84	0xbe9f8f76	-0.3116414
85	0xbd9eb8a8	-0.07750064
86	0x3eedc94c	0.4644264
87	0x3ee4145a	0.44546777
88	0x3d88e591	0.06684411
89	0x3e6c169e	0.23055503
90	0xbe2207a3	-0.15823226
91	0xbe312af5	-0.17301543
92	0xbe9403d0	-0.2890916
93	0x3e1ee0f1	0.15515496
94	0xbdba14c9	-0.09085996
95	0xbe8088af	-0.2510428
96	0x3dde4b1c	0.1085417
97	0x3ddb36a0	0.10703778
98	0xbdb1b1ac	-0.08676466
99	0x3e03616d	0.12830134
100	0x3d2ebe63	0.042662036
101	0x3dbfc422	0.09363581
102	0xbe3abce1	-0.18236114
103	0x3e813167	0.25233003
104	0xbdc81c00	-0.097709656
105	0x3e5a95bf	0.21346186
106	0xbe997c47	-0.2997763
107	0x3e178571	0.14796998
108	0x3e80239b	0.25027165
109	0x3e55f6eb	0.20894973
110	0xbdf72728	-0.12068015
111	0xbe9dba65	-0.3080627
112	0xbde4942b	-0.11161073
113	0xbd939681	-0.07206441
114	0x3c2be95b	0.010492648
115	0xbe3d19b6	-0.18466839
116	0xbe23ebac	-0.1600787
117	0xbba97d23	-0.005172388
118	0x3df01802	0.11723329
119	0x3e437b9a	0.19090119
120	0x3e0b4aed	0.136028
121	0x3de924d0	0.113839746
122	0x3e2a2b6a	0.16618124
123	0x3e616791	0.22012164
124	0xbe480c1e	-0.19535872
125	0x3dfeb30c	0.12436494
126	0x3eac4cec	0.33652437
127	0xbdc3ec28	-0.095665276
128	0x3c0b382c	0.008497279
129	0x3e15503a	0.14581385
130	0xbe29e532	-0.16591337
131	0x3eb892ec	0.36049592
132	0x3d0afc1b	0.033931833
133	0xbdc1f66b	-0.094708286
134	0x3d24499f	0.040109273
135	0x3d91b361	0.07114292
136	0x3ea0c48f	0.31399962
137	0x3e5dcad7	0.21659409
138	0x3ea7f33e	0.32802767
139	0x3e867ab4	0.2626549
140	0x3e1d0829	0.15335144
141	0x3d9d1fd0	0.076720834
142	0xbdae3e99	-0.08508033
143	0xbd612bac	-0.05497329
144	0x3ecccbca	0.3999923
145	0x3f1a5703	0.6028902
146	0x3cd5a9da	0.026081968
147	0x3cdc8ea5	0.026923487
148	0xbdfe7dc0	-0.12426329
149	0x3e59c9fb	0.21268456
150	0x3d0f113d	0.03492855
151	0x3d882cba	0.06649156
152	0xbe488617	-0.19582401
153	0x3f44d066	0.7688049
154	0xbdcb19db	-0.09917041
155	0xbe15facf	-0.14646457
156	0xbde13495	-0.10996357
157	0xbd62c693	-0.055365156
158	0xbd30f1f9	-0.043199513
159	0xbe673f76	-0.22582802
160	0xbc282841	-0.0102635035
161	0xbea50c61	-0.32236007
162	0x3d33c99f	0.043893453
163	0xbe6a4aac	-0.22880048
164	0x3e4a631f	0.19764374
165	0xbd93a7fb	-0.07209774
166	0x3dd1dccf	0.10247194
167	0xbe986c9d	-0.29770365
168	0x3e03523d	0.1282434
169	0x3de27c0b	0.110588156
170	0x3e0fc416	0.14039645
171	0xbde207e0	-0.11036658
172	0xbc82b3a0	-0.015954792
173	0xbcfd97d3	-0.030956184
174	0xbdbf0b64	-0.093283445
175	0x3cdfbaa5	0.027310679
176	0x3d76911d	0.060196985
177	0xbdc077f6	-0.09397881
178	0x3d33e8a4	0.043923035
179	0xbe157233	-0.14594345
180	0x3e4acc0e	0.19804403
181	0xbae6f4f0	-0.0017620604
182	0x3ca8c514	0.020601787
183	0x3e484e96	0.19561228
184	0x3d8a1d4e	0.06743871
185	0xbce615b9	-0.02808653
186	0xbe8a54e4	-0.2701789
187	0xbbfe621e	-0.0077631613
188	0xbd05e434	-0.032688335
189	0x3d940250	0.072270036
190	0x3cbfc262	0.023408119
191	0x3dbba779	0.09162802
192	0xbd102b78	-0.035197705
193	0xbd064b25	-0.032786507
194	0xbd39b2ac	-0.04533641
195	0x3e2dbe6a	0.16967168
196	0xbd9fa0a0	-0.07794309
197	0xbe05d61e	-0.1306996
198	0xbe2d31f0	-0.16913581
199	0xbb8ac8d6	-0.0042353673
200	0xbe5a8dfe	-0.21343228
201	0x3d5032c7	0.050829675
202	0x3d048afd	0.032359112
203	0xbe07acf7	-0.13249575
204	0x3e257093	0.16156225
205	0x3d7aad4b	0.06120042
206	0x3d7614a9	0.060078297
207	0x3d373a87	0.04473355
208	0x3c837eb8	0.016051635
209	0x3ebff4db	0.37491497
210	0x3e7272d4	0.23676616
211	0x3da63f7b	0.08117577
212	0xbded6235	-0.11590997
213	0x3d565e60	0.052336097
214	0x3d3387b5	0.043830592
215	0xbdf915a7	-0.12162333
216	0x3d600b8f	0.054698523
217	0xbdf1921d	-0.11795447
218	0xbe1dc0b1	-0.15405537
219	0xbddfb8a0	-0.10923886
220	0x3e18a985	0.14908417
221	0x3ddd270f	0.107984655
222	0xbd4943a1	-0.04913676
223	0x3e0d549e	0.1380181
224	0x3e06ee23	0.1317678
225	0xbe7593c3	-0.23982148
226	0x3e7fff7b	0.24999802
227	0x3e928f78	0.28625083
228	0x3d4a2e98	0.04936084
229	0xbd777a9f	-0.060419675
230	0x3f178681	0.5918961
231	0x3dc89fbb	0.09796091
232	0xbc551d51	-0.013007478
233	0xbe25c12b	-0.16186969
234	0x3df34b39	0.11879582
235	0x3e0d59a8	0.13803732
236	0xbcbe34e0	-0.023218572
237	0x3e0d51b6	0.13800701
238	0x3e5062db	0.2035021
239	0xbe037ce6	-0.12840614
240	0xbcef9728	-0.029246882
241	0x3c268c11	0.01016523
242	0xbe2538a8	-0.16134894
243	0xbe6c08bb	-0.23050205
244	0xbe38b098	-0.18036115
245	0x3df3f4cb	0.11911925
246	0x3c12e705	0.008966212
247	0x3d9449cf	0.0724064
248	0x3e559640	0.20858097
249	0xbe40b4af	-0.18818925
250	0xbdf254b8	-0.11832565
251	0x3dbd5c29	0.09246094
252	0xbdb77cf9	-0.089593835
253	0x3c68d84a	0.014211724
254	0x3e24c6c2	0.16091445
255	0xbdbcfede	-0.092282996

net.2.bias f4 [256]
0	0xbcc88913	-0.024479425
1	0xbd1eeca2	-0.03879989
2	0xbcb2265c	-0.021746807
3	0x3cb1457f	0.021639584
4	0x3c8e0032	0.017334078
5	0x3d9191fc	0.071079224
6	0x3ce194b8	0.027536735
7	0x3cb25bff	0.021772383
8	0x3cbcbd9b	0.02303963
9	0x3d26f79b	0.04076348
10	0xbd696b7f	-0.056987282
11	0xbd061df2	-0.0327434
12	0xbb006281	-0.0019589963
13	0x3c93895b	0.018009832
14	0x3c35dedd	0.011100498
15	0xbd07c8d6	-0.033150516
16	0x3bff40d3	0.00778971
17	0xbaffe5c7	-0.0019523435
18	0xbc035277	-0.008015267
19	0xbc1ee038	-0.009697013
20	0x3ce23249	0.027611868
21	0x3d386518	0.045018286
22	0x3d70aeef	0.05876058
23	0xbd922e95	-0.07137791
24	0x3ba31c8c	0.0049777683
25	0x3d370bfb	0.04468916
26	0xbbcc0ae7	-0.0062268856
27	0x3ad01f7e	0.0015878526
28	0x3ca53fd8	0.020172045
29	0x3c2170b3	0.00985353
30	0x3cff5814	0.031169929
31	0xbce88f9a	-0.028388787
32	0x3d3ff699	0.046866033
33	0x3ce826fc	0.028338902
34	0xbcc19df0	-0.02363488
35	0xbd684932	-0.05671043
36	0x3d57489f	0.05255949
37	0x3cdc86bc	0.026919715
38	0x3d2ccf20	0.042189717
39	0xbd136bc3	-0.03599144
40	0x3d21c827	0.03949752
41	0x3b81faea	0.003966679
42	0x3c9f1476	0.019418936
43	0xba98b413	-0.0011650346
44	0x3b8f73a3	0.0043777986
45	0xbc5b3f38	-0.013381772
46	0xbd073721	-0.03301156
47	0xbcc56257	-0.024094744
48	0x3cb52188	0.022110716
49	0xbce8d79a	-0.02842312
50	0x3d935058	0.07193059
51	0xbc831b12	-0.016004119
52	0xbce12a61	-0.027486028
53	0x3d465866	0.048424147
54	0x3c474aa8	0.0121637955
55	0x3d385ec4	0.04501225
56	0x3d2cf9e1	0.04223049
57	0xbd6ad599	-0.05733261
58	0xbce06f06	-0.02739669
59	0x3d057de2	0.032590754
60	0x3dab265d	0.083569266
61	0x3d5eb20e	0.054369025
62	0xbcfa0a5d	-0.03052252
63	0x3d168611	0.03674895
64	0x3cf003db	0.029298713
65	0x3bd27ec9	0.0064238054
66	0x3c3330bd	0.010936913
67	0xbcb7903f	-0.02240765
68	0x3d4a84b5	0.049442966
69	0x3da1d124	0.079012185
70	0xbad47fa0	-0.0016212352
71	0xbd8f7e52	-0.070065156
72	0x3d1d3005	0.038375873
73	0xbd1b8d6c	-0.037976667
74	0x3d62fefb	0.05541895
75	0x3c48d2d2	0.012257295
76	0x3ca3afb9	0.019981252
77	0x3d95aa18	0.073078334
78	0xbd2d732b	-0.04234616
79	0xbc874689	-0.016513126
80	0x3b35f346	0.002776341
81	0xbc243155	-0.010021527
82	0x3c009e6e	0.007850273
83	0x3d893d7b	0.067011796
84	0xbd97bba9	-0.0740884
85	0x3d26484c	0.04059629
86	0xbd4f63cb	-0.05063228
87	0xbcb106fd	-0.021609778
88	0x3dad4264	0.08459929
89	0x3daed7f9	0.08537287
90	0x3c0c7208	0.008572109
91	0x3c94f888	0.018184915
92	0x3cbce95f	0.023060499
93	0xbcde10d2	-0.02710763
94	0xbced9613	-0.029002225
95	0x3d07fcff	0.03320026
96	0xbd38cf8e	-0.045119815
97	0xbd4bf9c1	-0.04979873
98	0x3cd445b1	0.025912138
99	0x3d53c33a	0.051699854
100	0x3d85e7c4	0.065383464
101	0xbce8a436	-0.028398614
102	0xbcf838a6	-0.03030045
103	0x3cf782d0	0.030213743
104	0x3d0b2af6	0.033976518
105	0xbb13cc8d	-0.0022552342
106	0xbd23e1f5	-0.04001041
107	0x3d423f01	0.047423366
108	0xbd270c1c	-0.040783033
109	0x3d563d6b	0.052304666
110	0x3cca2cbb	0.024679532
111	0xbcda1efc	-0.026626103
112	0x3cfe483e	0.031040307
113	0x3d1e5e0e	0.038663916
114	0x3dd8ce6e	0.10586248
115	0xbd0e2b20	-0.034709096
116	0x3d1bc960	0.038033843
117	0xbc14c3ef	-0.009079917
118	0x3d205b48	0.039149553
119	0xbc88a765	-0.016681382
120	0xb880c40d	-6.140033e-05
121	0x3c9ea74c	0.019366883
122	0xbcfb75d7	-0.030695839
123	0x3db07e20	0.086178064
124	0xbc1d6b92	-0.009608166
125	0x3bce4141	0.0062944
126	0xbd42eb4d	-0.04758768
127	0x3c85b0c0	0.016319633
128	0x3ce39550	0.027781159
129	0xbcb9d160	-0.022682846
130	0x3c3d5754	0.011556465
131	0xbd7d71cf	-0.061876114
132	0xbcd9eb12	-0.026601348
133	0x3c066c13	0.008204478
134	0xbbe296d6	-0.0069149537
135	0xbc9df373	-0.019281125
136	0xbd1a176e	-0.03762
137	0xbc83d0b4	-0.016090728
138	0xbcc4a699	-0.024005221
139	0xbcd94c7f	-0.026525734
140	0x3c1f1e6d	0.009711844
141	0x3b4fc4ee	0.0031703073
142	0xbcc248dc	-0.023716383
143	0x3d0387f6	0.032112084
144	0xbd565435	-0.0523264
145	0xbc78acf8	-0.015177958
146	0xbd9c1b79	-0.076224275
147	0xbc31c326	-0.01084975
148	0xbcc1aa45	-0.023640761
149	0x3cfc9a71	0.030835362
150	0x3d996d22	0.074915186
151	0x3cbfe9ac	0.023426853
152	0x3cf09b4c	0.029370926
153	0x3c71833c	0.014740761
154	0x3cf7970f	0.030223398
155	0x3d1ee108	0.038788825
156	0x3c830432	0.015993211
157	0x3babcd96	0.0052430136
158	0xbc959577	-0.018259747
159	0x3dd07ed5	0.10180441
160	0xbd2a80d1	-0.041626755
161	0x3c8ab19b	0.016930392
162	0x3c6488ce	0.013948632
163	0x3c1c8600	0.009553432
164	0xbd60516a	-0.054765143
165	0xbd16e786	-0.03684189
166	0x3d807549	0.0627237
167	0xbc289d76	-0.010291448
168	0xbc772151	-0.015083627
169	0xbd8405fd	-0.06446455
170	0x3d4bf8cb	0.049797814
171	0x3b87541a	0.0041298987
172	0xbc420b3b	-0.011843498
173	0x3c005dc8	0.007834859
174	0xbd2c14b8	-0.042011946
175	0xbd0bd0b7	-0.034134593
176	0x3c8191d2	0.015816603
177	0xb9c72bff	-0.00037989017
178	0x3ca4fec7	0.020141019
179	0xbd369ca3	-0.044582974
180	0xbaf164ec	-0.0018416918
181	0x3d262064	0.040558234
182	0xbc941319	-0.018075513
183	0x3d505743	0.05086447
184	0x3d7bfd21	0.0615207
185	0x3a7693ea	0.0009406196
186	0xbc0063ef	-0.007836326
187	0xbc1b830e	-0.009491695
188	0x3dd56c5c	0.104210585
189	0x3cd778f2	0.026302788
190	0x3dc0ae41	0.09408236
191	0x3cb64c8e	0.022253301
192	0xbcac63ad	-0.021043623
193	0x3cda9a49	0.026684897
194	0x3c2a03f9	0.010376924
195	0x3cda2495	0.026628772
196	0x3dc94ca9	0.09829075
197	0xbbd37e74	-0.0064542834
198	0x3d6b843d	0.05749916
199	0x3d04d0d0	0.0324257
200	0x3d0055f0	0.031331956
201	0x3d064823	0.03278364
202	0xbcbd6e0d	-0.023123765
203	0xbda89fdb	-0.08233615
204	0xbc9a295f	-0.018818555
205	0x3b292718	0.0025810655
206	0x3d161bac	0.036647484
207	0x3d9b2946	0.07576232
208	0x3ceb1077	0.028694374
209	0x3d2949f9	0.04133031
210	0xbcafb98b	-0.021450778
211	0xbd92fb2b	-0.07176813
212	0xbc48ce00	-0.0122561455
213	0x3d4674dd	0.048451293
214	0x3cccca17	0.024998708
215	0x3d0047f2	0.031318612
216	0x3ccfb7e9	0.02535625
217	0xb983e0bc	-0.00025153707
218	0x3d2d732b	0.04234616
219	0xbd5f1edd	-0.054472793
220	0x3bd44701	0.006478191
221	0xbc37c6f9	-0.011216872
222	0x3d230adb	0.039805274
223	0xbd788a6c	-0.060678884
224	0xbb1d8288	-0.0024034102
225	0x3c447681	0.011991144
226	0xbd0a4204	-0.033754364
227	0x3ca75b8b	0.020429393
228	0x3dafdbe5	0.085868634
229	0x3d20b95d	0.039239276
230	0xbcd055c2	-0.025431518
231	0x3d1ae166	0.037812613
232	0x3c142672	0.009042369
233	0xbc845298	-0.016152665
234	0x3cefb8eb	0.02926298
235	0xbd0540ae	-0.032532386
236	0x3baf8760	0.005356714
237	0x3d1eab19	0.03873739
238	0x3d0c2635	0.034216125
239	0xbcb55c6a	-0.022138793
240	0xbc61eab6	-0.01378887
241	0xbc0aea37	-0.008478693
242	0x3d96d079	0.07363982
243	0xbd24f97a	-0.040276982
244	0x3d6f2954	0.058389023
245	0x3c5bf88e	0.013425959
246	0xbd364012	-0.044494696
247	0x3bc3b4dc	0.005972488
248	0x3c62abcd	0.013834906
249	0x3de408c0	0.111344814
250	0x3c2939e4	0.010328744
251	0x3ce59ac1	0.028027894
252	0xbbef4625	-0.007302063
253	0x3c4d5ea1	0.012534768
254	0xbcebdfcb	-0.028793236
255	0x3d04d985	0.032434005

net.4.weight f4 [1, 256]
0	0xbf15d310	-0.5852518
1	0x3e85dbeb	0.26144347
2	0xbe1dc33b	-0.15406506
3	0x3eac3e03	0.3364106
4	0xbef26331	-0.47341302
5	0x3ed8e86b	0.4236482
6	0xbedaf61c	-0.42765892
7	0xbf174bfc	-0.5910032
8	0xbed3abf5	-0.4134213
9	0x3e205fb6	0.15661511
10	0xbf19a1da	-0.6001259
11	0xbf0074d5	-0.5017827
12	0x3e2a0615	0.16603883
13	0xbe1c819e	-0.1528382
14	0x3e732063	0.23742823
15	0xbe9e5777	-0.30926105
16	0x3e80b0a1	0.25134757
17	0x3e72c40d	0.237076
18	0x3ef80c11	0.48446706
19	0x3eaae518	0.3337791
20	0xbe8f3657	-0.27971146
21	0x3efb21f4	0.49049342
22	0xbf19fdcc	-0.6015289
23	0xbf17c0c9	-0.5927854
24	0xbf00ddf5	-0.5033868
25	0xbe7d6f52	-0.24749497
26	0x3ed25376	0.410793
27	0x3ec29727	0.38005945
28	0x3ee1b4f7	0.44083378
29	0x3e90c8a8	0.2827809
30	0xbf0267b7	-0.50939506
31	0x3ed1b8f3	0.40961418
32	0x3ef95f34	0.48705447
33	0xbeb7fb8a	-0.35934097
34	0xbdcdf15c	-0.10055801
35	0xbe5b4e6a	-0.21416631
36	0xbe545295	-0.20734628
37	0x3e78ecd3	0.24309091
38	0x3de3bd7e	0.11120127
39	0x3dca8f24	0.09890583
40	0xbef7fe8e	-0.48436397
41	0x3ecafa17	0.39643928
42	0xbf14037d	-0.5781782
43	0x3e20a812	0.15689114
44	0xbf077602	-0.5291444
45	0x3edd5da5	0.43235508
46	0x3e3362b3	0.1751812
47	0x3da72c44	0.0816274
48	0xbebdb067	-0.37048647
49	0xbe18c0fb	-0.14917366
50	0x3f02f156	0.511495
51	0xbe188d98	-0.14897764
52	0x3c9c1bb5	0.01905618
53	0xbe4efee0	-0.20214415
54	0xbec9312d	-0.3929533
55	0x3e8811e5	0.26576152
56	0xbed21f8c	-0.41039693
57	0x3bd3f9c7	0.0064689848
58	0x3ee83b6a	0.4535783
59	0xbe784e2e	-0.24248573
60	0xbf064219	-0.52444607
61	0x3eb454bf	0.35220906
62	0xbe32fe10	-0.1747973
63	0xbecd9fe3	-0.40161046
64	0x3e3b46d9	0.18288745
65	0xbe8c4fc9	-0.2740462
66	0x3ed00b6c	0.40633714
67	0xbecff48e	-0.40616268
68	0xbedf4063	-0.4360381
69	0xbe9f92e5	-0.3116676
70	0x3ece1f04	0.40258038
71	0xbc3fad62	-0.0116990525
72	0x3e5c76ae	0.21529648
73	0x3e2bca09	0.16776289
74	0x3eb2aa98	0.34895778
75	0x3ecdca1a	0.40193254
76	0xbea51c28	-0.32248044
77	0x3e84fdeb	0.25974974
78	0x3e86729f	0.26259324
79	0x3ed444bc	0.4145869
80	0x3f086efe	0.5329436
81	0xbec0279c	-0.3753022
82	0x3ec0a1d4	0.37623465
83	0xbe32e030	-0.17468333
84	0x3f0f0f00	0.55882263
85	0xbebb5c64	-0.36593926
86	0x3b9c7b2f	0.004775427
87	0xbecd2b4c	-0.40072095
88	0xbe8b4497	-0.27200767
89	0xbea58aa7	-0.32332346
90	0x3dacfa64	0.08446196
91	0xbebba629	-0.36650208
92	0xbe76b3a3	-0.24091963
93	0xbd473990	-0.04863888
94	0xbf025791	-0.50914866
95	0xbedfaa9f	-0.4368486
96	0x3db15ce8	0.086602986
97	0xbc38f4ae	-0.011288805
98	0xbd825da6	-0.06365518
99	0xbf04c9e3	-0.51870555
100	0x3e7e07e3	0.24807696
101	0x3d85e39f	0.06537556
102	0x3e925f27	0.2858822
103	0xbec29dbe	-0.38010973
104	0x3eeff149	0.46863773
105	0x3e31dbe5	0.1736904
106	0x3e42de12	0.19030026
107	0xbee96194	-0.4558226
108	0x3ed6b842	0.41937453
109	0x3eea8fad	0.4581274
110	0xbefdd139	-0.49573687
111	0x3e093341	0.13398458
112	0xbf06e72b	-0.52696484
113	0x3eb2da1a	0.34932023
114	0xbec0e7ec	-0.37676942
115	0xbf24597c	-0.6419904
116	0x3e44204a	0.19152942
117	0xbc660f6a	-0.014041761
118	0xbe8e2d78	-0.27769065
119	0xbe9c23b4	-0.3049599
120	0xbed96873	-0.424625
121	0xbf58784f	-0.84558576
122	0xbb614092	-0.0034370762
123	0xbeab362e	-0.33439773
124	0x3d2c9870	0.042137563
125	0xbed7d5d2	-0.4215532
126	0x3da69eed	0.081357814
127	0xbee2933b	-0.44252953
128	0x3e9582b2	0.29201275
129	0x3d906660	0.070507765
130	0x3e9a5f8a	0.30151016
131	0xbb55d68d	-0.0032629103
132	0x3d3548ec	0.044258997
133	0x3e54c64d	0.2077877
134	0xbe0b4534	-0.13600618
135	0x3e05a4be	0.13051125
136	0x3dc0e757	0.094191246
137	0x3db15053	0.08657899
138	0xbf034e87	-0.512917
139	0x3e1bd4a3	0.15217833
140	0xbe9e08bb	-0.30866036
141	0x3e2f3631	0.17110516
142	0x3dd04762	0.10169865
143	0x3dd6109c	0.10452387
144	0xbef6223e	-0.48073
145	0x3e133948	0.1437732
146	0xbe843d40	-0.2582798
147	0xbefe9e44	-0.49730122
148	0x3f046dcb	0.5173003
149	0x3e2b16c4	0.16707903
150	0x3efd395e	0.4945783
151	0x3e2e6bdb	0.17033331
152	0x3ef9e8de	0.48810476
153	0x3da66150	0.0812403
154	0x3f0fcb74	0.5616982
155	0x3e905978	0.2819326
156	0x3ee4ab56	0.4466197
157	0xbe826a05	-0.2547151
158	0xbe1802a1	-0.14844753
159	0xbeceb117	-0.40369484
160	0xbd249a3d	-0.040186156
161	0x3eca78b3	0.3954521
162	0x3eaee642	0.34160048
163	0x3ec662a6	0.38747138
164	0x3ea8e27e	0.329853
165	0xbebd6f04	-0.3699876
166	0xbf000287	-0.50003856
167	0x3ec0f230	0.37684774
168	0x3dd13168	0.102145016
169	0xbe2dcd43	-0.16972832
170	0xbe492b56	-0.19645438
171	0x3e5c991d	0.21542783
172	0xbf27648b	-0.6538779
173	0x3db2505d	0.08706734
174	0x3ed2c159	0.41163138
175	0x3f17bf1f	0.59276
176	0xbed31640	-0.41227913
177	0xbe13d3bc	-0.14436239
178	0xbeee1cb4	-0.46506274
179	0x3ddc0a5c	0.107441634
180	0xbe77fba6	-0.2421709
181	0xbefd176f	-0.4943194
182	0x3e15668f	0.14589904
183	0x3eb72703	0.3577195
184	0xbeaf5132	-0.34241635
185	0xbea12331	-0.3147216
186	0x3dd8829a	0.10571785
187	0xbe968740	-0.29400063
188	0xbec3da15	-0.3825232
189	0x3e579d7b	0.21056168
190	0xbf333cfb	-0.70014924
191	0xbef9fb7f	-0.4882469
192	0x3df7bd3b	0.1209664
193	0x3ecba0c3	0.3977109
194	0xbeb41da6	-0.3517887
195	0x3ee9c812	0.45660454
196	0xbef8500e	-0.48498577
197	0xbe43b17e	-0.19110677
198	0xbed95c82	-0.4245339
199	0x3eb27dce	0.34861606
200	0xbeb91a5e	-0.3615293
201	0xbeda8064	-0.4267608
202	0x3f16a28b	0.5884177
203	0xbc0b3d35	-0.00849848
204	0xbee874e7	-0.4540169
205	0xbf083fe2	-0.5322248
206	0xbf0c852f	-0.5489072
207	0x3ecfca19	0.40583876
208	0xbf1ad50c	-0.60481334
209	0xbf152c81	-0.5827103
210	0x3e0fdedd	0.1404986
211	0xbe85dda5	-0.26145664
212	0x3dee2504	0.11628154
213	0x3ec2e75f	0.38067147
214	0x3e14ca49	0.1453029
215	0xbe48df15	-0.19616349
216	0x3e8f0cee	0.27939552
217	0xbf0f5d91	-0.56002146
218	0xbe970893	-0.2949873
219	0xbe50e9e8	-0.20401728
220	0x3e6f7c55	0.23387273
221	0x3ea58a70	0.32332182
222	0x3ee128bd	0.43976393
223	0x395b6d33	0.00020926147
224	0xbe937874	-0.28802836
225	0x3e273f2b	0.1633269
226	0x3e34ccc7	0.17656241
227	0x3e553cd5	0.20823987
228	0xbe88a1a6	-0.26685828
229	0x3e5a568d	0.21322079
230	0x3eec35ef	0.46134898
231	0xbe9e67d7	-0.309386
232	0xbecc9847	-0.39959928
233	0x3e3a640d	0.18202229
234	0x3ee94eb2	0.45567852
235	0xbe822684	-0.2542001
236	0xbf188579	-0.59578663
237	0xbed8581d	-0.42254725
238	0x3e1035e0	0.14083052
239	0xbefad03e	-0.48987
240	0x3dd983d6	0.10620849
241	0x3eba0c4f	0.36337516
242	0xbf111973	-0.5667946
243	0x3ed5b5c3	0.41740236
244	0xbe4847b0	-0.19558597
245	0x3ef1b1ec	0.47206056
246	0x3de7b7a4	0.113143235
247	0x3ee2f071	0.44324067
248	0xbeb2f811	-0.34954885
249	0xbf06c24f	-0.5264024
250	0x3e7e1a5a	0.2481474
251	0x3e7ee0bb	0.24890415
252	0xbeb7133d	-0.35756865
253	0xbe476de2	-0.1947551
254	0xbc9e6991	-0.019337447
255	0x3ea4a482	0.3215676
