output/CarlaNavigation-v0/wcsac/2/cost.pt (torch, 536535 bytes, 5 tensors)

net.0.weight f4 [256, 263]
0.0060872883 0.10054213 0.33114383 -0.08383669 0.35736442 -0.03364697 0.09622954 0.021922735
-0.07500849 -0.009047788 -0.0585259 0.07889946 0.058262557 -0.019696353 -0.18563077 -0.08531379
-0.023565473 -0.01164563 -0.0321292 0.118651666 0.013008323 0.15768765 0.07722819 -0.11064797
-0.048768036 -0.1486287 -0.14842686 0.056728255 0.009617707 0.112726465 -0.07275854 0.1200666
-0.18690829 0.04788662 0.010504897 0.1258826 0.07373977 -0.1488639 -0.082780376 -0.02638779
-0.13523717 -0.05872625 -0.2033804 -0.10633678 0.14860967 0.0041893595 -0.04381362 -0.037926782
0.054270253 0.014751867 -0.009993413 -0.11222394 -0.060096055 -0.20831104 -0.09237259 0.017103283
0.09473329 -0.16520537 0.08370838 -0.062434744 -0.14416255 0.15940458 -0.12390524 -0.063954726
-0.079694405 0.15382625 0.15312015 0.041056804 0.018244283 0.006841177 0.07587729 -0.09667318
-0.12010415 -0.046933852 -0.15025787 -0.059907313 -0.17315702 0.029048597 -0.16516082 0.012851075
0.14334337 -0.013443492 -0.043607004 -0.10783943 -0.17156778 -0.148552 -0.14707777 0.09645675
0.03223742 0.119759776 -0.02831847 0.08636629 -0.15669262 -0.10796575 0.11392415 -0.050091144
-0.019064255 0.13824879 -0.034867 0.017334005 -0.11944475 -0.086864434 -0.1954514 -0.09034222
0.010627414 0.0066441814 0.01445034 -0.072823495 -0.13354813 -0.16510643 0.04585722 0.18315068
-0.13922061 -0.16531521 0.02803421 -0.0870749 -0.15288556 -0.05607784 0.02940948 -0.13671364
0.061621763 -0.19804458 0.1188679 0.10788317 -0.046711195 -0.07706761 0.07627805 -0.2036083
-0.023938997 0.024682011 0.048675008 -0.21392274 -0.09998376 -0.05965347 -0.16785972 -0.19506247
-0.11546649 -0.15527016 0.05772997 0.012920825 -0.16315313 -0.037868086 -0.13708702 0.1572742
-0.1526389 -0.19763592 -0.011598048 -0.055116452 -0.12749049 -0.055557106 0.09092012 -0.0044146576
-0.045696847 0.017049408 0.02118305 -0.015704859 -0.08433964 -0.09372818 -0.14913894 -0.15018454
0.08028844 -0.0068261256 -0.1051075 0.009887534 -0.057220448 -0.18438981 -0.17282192 -0.20785326
-0.03136156 -0.048230626 0.051296696 0.099467635 0.038718935 -0.110022 0.1248418 0.009068806
-0.006943574 -0.110697195 -0.108033046 -0.062224142 -0.003800534 0.08671025 -0.049601696 -0.014742117
0.091595374 -0.15813625 -0.16062935 -0.19225834 0.05021984 0.015124029 0.013437673 -0.076612115
-0.13486573 0.044430118 -0.055178735 0.07286572 0.060711086 -0.0619914 -0.029398115 -0.023080291
-0.18796968 -0.008285746 -0.018410752 -0.19697225 0.026026677 0.10416135 -0.114585854 -0.02966074
-0.121069595 0.012375482 -0.0649737 0.043686688 -0.18562435 -0.07367559 0.087251425 -0.14722054
0.06404989 0.043749277 0.02520194 0.117991224 -0.029860975 0.015812187 0.035956338 -0.19795303
0.064872965 -0.029154932 -0.03763587 -0.10709062 -0.08964946 0.07231084 0.063467965 0.14280209
-0.20719592 0.0705062 0.13058957 -0.0929583 -0.015909657 0.0070783934 -0.0606825 -0.19897644
0.030657604 -0.01480191 -0.17410304 -0.07521056 -0.0773816 0.08934386 -0.019416783 0.10731517
-0.16610514 0.04200212 0.04001805 0.046433296 -0.043878697 0.13278566 -0.0143307345 -0.12638162
00000000: e077 c73b 08e9 cd3d af8b a93e 92b2 abbd
00000010: 78f8 b63e 68d1 09bd fe13 c53d 4f97 b33c
00000020: 0d9e 99bd 2c3d 14bc dbb8 6fbd 0a96 a13d
00000030: b8a4 6e3d 3f5a a1bc fe15 3ebe ffb8 aebd
00000040: 610c c1bc 50cd 3ebc e899 03bd a5ff f23d
00000050: dc20 553c df78 213e d029 9e3d 679b e2bd
00000060: fec0 47bd 1f32 18be 36fd 17be e35b 683d
00000070: 9693 1d3c 22dd e63d 6e02 95bd 7ae5 f53d
00000080: e364 3fbe c324 443d bb1c 2c3c 5ee7 003e
00000090: e004 973d c76f 18be c288 a9bd 352b d8bc
000000a0: 9d7b 0abe f08a 70bd f442 50be 19c7 d9bd
000000b0: 222d 183e e546 893b e975 33bd 1d59 1bbd
000000c0: 7c4a 5e3d d1b1 713c 6abb 23bc aad5 e5bd
000000d0: 4827 76bd 7d4f 55be d72d bdbd 2f1c 8c3c
000000e0: 8703 c23d 992b 29be 4d6f ab3d 93bb 7fbd
000000f0: 599f 13be f43a 233e 08c2 fdbd b2fa 82bd
00000100: d236 a3bd a184 1d3e 87cb 1c3e 2e2b 283d
00000110: 0975 953c f42b e03b 8d65 9b3d 97fc c5bd
00000120: 2af9 f5bd b63d 40bd 33dd 19be 5f61 75bd
00000130: 1350 31be 53f7 ed3c eb1f 29be 518d 523c
00000140: 9bc8 123e 1842 5cbc 429d 32bd ebda dcbd
00000150: 77af 2fbe 041e 18be 8e9b 16be 1e8b c53d
00000160: 630b 043d 9d44 f53d 23fc e7bc cfe0 b03d
00000170: 0874 20be 261d ddbd 1151 e93d 5f2c 4dbd
00000180: a42c 9cbc 1791 0d3e b3d0 0ebd 0b00 8e3c
00000190: 739f f4bd fbe5 b1bd 6924 48be 5805 b9bd
000001a0: 9b1e 2e3c 6fb7 d93b 1ec1 6c3c 7c24 95bd
000001b0: d7c0 08be a911 29be c8d4 3b3d da8b 3b3e
000001c0: d98f 0ebe 6448 29be 00a8 e53c 5354 b2bd
000001d0: 088e 1cbe e1b1 65bd 26ec f03c a9fe 0bbe
000001e0: 1a67 7c3d 33cc 4abe 0371 f33d daf1 dc3d
000001f0: 3d54 3fbd a0d5 9dbd ab37 9c3d b27e 50be
00000200: b71b c4bc ee31 ca3c 725f 473d 900e 5bbe
00000210: 49c4 ccbd 3257 74bd 6be3 2bbe 75be 47be
00000220: b279 ecbd 24ff 1ebe 4376 6c3d deb1 533c
00000230: 9d11 27be 911b 1bbd 8a60 0cbe 7d0c 213e
00000240: 5f4d 1cbe 1261 4abe bd05 3ebc cac1 61bd
00000250: de8c 02be d98f 63bd 5434 ba3d d5a8 90bb
00000260: 9e2c 3bbd 33ab 8b3c 1388 ad3c 7aa7 80bc
00000270: 43ba acbd 8ff4 bfbd e1b7 18be fac9 19be
00000280: 446e a43d b1ad dfbb 9a42 d7bd 53ff 213c
00000290: fd5f 6abd afd0 3cbe 3bf8 30be 7cd7 54be
000002a0: fb74 00bd 7a8d 45bd 7c1c 523d b0b5 cb3d
000002b0: bf97 1e3d 3753 e1bd 0fad ff3d 5495 143c
000002c0: ec86 e3bb 36b5 e2bd 6e40 ddbd bede 7ebd
000002d0: 6112 79bb 2595 b13d 262b 4bbd ec88 71bc
000002e0: 5b96 bb3d 78ee 21be 057c 24be 5fdf 44be
000002f0: 52b3 4d3d c6ca 773c b029 5c3c d0e6 9cbd
00000300: 3e1a 0abe 5bfc 353d 1903 62bd 9f3a 953d
00000310: 30ac 783d b2ea 7dbd 51d4 f0bc e112 bdbc
00000320: 207b 40be f0c0 07bc 25d2 96bc 18b3 49be
00000330: e635 d53c 8c52 d53d fdab eabd 15fb f2bc
00000340: 56f3 f7bd 89c2 4a3c ee10 85bd d0f0 323d
00000350: 4f14 3ebe 3ae3 96bd e0b0 b23d fbc0 16be
00000360: 972c 833d 7132 333d 4d74 ce3c 62a5 f13d
00000370: 019f f4bc 8f88 813c f446 133d 33b4 4abe
00000380: 1edc 843d 53d6 eebc 1228 1abd 5452 dbbd
00000390: 239a b7bd b517 943d 7efb 813d b63a 123e
000003a0: 2b2b 54be 8e65 903d 46b9 053e ec60 bebd
000003b0: f854 82bc def1 e73b 378e 78bd 7bc0 4bbe
000003c0: a825 fb3c b683 72bc 1148 32be fe07 9abd
000003d0: 3f7a 9ebd eaf9 b63d f20f 9fbc 0ec8 db3d
000003e0: 7717 2abe 6a0a 2c3d f7e9 233d d730 3e3d
000003f0: 26ba 33bd f7f8 073e 75cb 6abc 2f6a 01be

net.0.bias f4 [256]
0.08994049 -0.10511158 -0.0016613237 -0.041150525 -0.013192911 -0.08012049 0.010429128 -0.04956314
0.03516875 -0.1329729 0.03923391 0.041112605 -0.028464628 -0.1342232 0.0112260515 -0.06218958
0.09416075 -0.053370044 0.031209538 -0.021708123 -0.15496938 0.1217842 0.0018768372 -0.020455908
0.013652739 -0.14970124 0.044459067 -0.035746895 -0.0806878 -0.0025344894 -0.026844421 0.01531507
0.018265389 -0.096302494 -0.0372153 -0.018520989 -0.022601655 0.04667384 -0.008609588 -0.0025785638
-0.0055830902 -0.15607528 -0.043104492 -0.014925566 0.051290687 0.0061144833 -0.105012655 0.028030958
-0.08819338 -0.060447983 -0.18963197 -0.17001669 0.017200103 -0.12810333 -0.029820284 -0.17408201
-0.016497148 -0.047472484 -0.19736433 -0.0027950427 0.013372711 -0.09064181 0.025473375 -0.1678332
-0.14994082 0.0821221 -0.011486971 -0.047854587 -0.07353768 -0.08971918 0.035000887 -0.06435496
-0.058414776 -0.039090518 -0.08552122 -0.116567135 0.027975779 -0.12450555 -0.055944175 1.7204664e-05
-0.077653475 0.03415173 0.13137983 -0.03174664 0.030526286 -0.008057737 -0.014647998 -0.058500294
-0.03955343 -0.0028940707 0.011009376 0.0077997562 0.023394978 0.00049432146 0.0181698 0.019203825
-0.01147656 0.028468901 -0.14322703 -0.09146791 -0.14621998 0.0043419898 -0.022471547 0.02715873
0.0017356782 -0.037185602 0.18762517 -0.13866101 -0.013526125 0.020975897 0.046241358 -0.040138695
-0.11906627 0.0025971702 0.050112516 -0.015748296 -0.00906983 0.20980194 -0.0045605167 -0.16885802
-0.011164193 -0.08494139 -0.017239219 -0.1294015 -0.0285594 0.025651956 0.0032801123 0.047573548
0.0011940156 0.0008868048 0.055683352 -0.21008919 -0.023126977 0.07054624 0.08213523 0.027635582
-0.10520695 0.06809203 -0.022860434 -0.018060971 -0.039664287 -0.025623027 -0.043975376 -0.05120651
-0.06546595 0.06634173 0.12043885 0.012303217 -0.060141142 -0.0884176 -0.09046904 0.0062357537
-0.0762029 0.012792205 0.008297038 -0.09917939 -0.017557643 0.08714313 -0.022113476 -0.014058264
0.009318534 -0.07540896 0.098391585 0.00016028497 -0.01563074 -0.051314615 -0.07175516 -0.1034317
-0.0010972373 0.028193137 -0.03783538 -0.022407204 -0.06499538 -0.033071175 -0.074411236 -0.07823105
0.027974313 0.022788888 0.0041494193 0.04561249 -0.08947688 -0.1571374 -0.0012237993 0.0144026065
-0.14993204 0.08585453 -0.05541863 0.014849796 -0.10555668 -0.033416197 -0.010147524 0.08626334
-0.007261272 -0.12053335 0.013470597 0.023625718 0.059677754 -0.004019005 -0.024194712 -0.03927308
-0.00010450005 -0.08878696 -0.19037688 -0.0789826 0.06468948 0.04043309 -0.16924432 -0.029717226
-0.033690374 -0.11376548 0.0072828373 0.07631981 0.02863826 -0.11439611 0.02577465 9.8909564e-05
-0.040874336 -0.0029425786 -0.060527567 -0.04454149 0.0042890334 0.08456075 -0.07202879 0.009775406
0.16335453 0.027924936 -0.09524776 0.10292205 -0.15361422 0.024010535 -0.08201816 0.10263506
0.04073204 -0.083421625 -0.005386137 -0.0042188168 -0.07142906 -0.079303704 0.012068493 0.087155126
-0.05430424 0.13350618 -0.07762665 0.023199763 -0.05451014 -0.07916129 -0.0062924777 0.009636745
0.02398944 0.113091715 -0.026801081 -0.020741396 0.12783302 -0.017051881 -0.020951431 -0.012725025
00000000: b832 b83d bd44 d7bd c6c0 d9ba 748d 28bd
00000010: 1427 58bc 3616 a4bd efde 2a3c b802 4bbd
00000020: 1b0d 103d 0c2a 08be bdb3 203d b165 283d
00000030: a72e e9bc ce71 09be 79ed 373c 80ba 7ebd
00000040: 5ad7 c03d 8c9a 5abd 25ab ff3c 3cd5 b1bc
00000050: 4bb0 1ebe ff69 f93d 3500 f63a 2693 a7bc
00000060: bdaf 5f3c 484b 19be b61a 363d 566b 12bd
00000070: a53f a5bd ad19 26bb d5e8 dbbc 0fec 7a3c
00000080: 4ca1 953c 3e3a c5bd 126f 18bd 54b9 97bc
00000090: 1b27 b9bc 122d 3f3d 3b0f 0dbc 1ffd 28bb
000000a0: 5bf2 b6bb 33d2 1fbe 568e 30bd 5c8a 74bc
000000b0: 2f16 523d 015c c83b e010 d7bd 2ea1 e53c
000000c0: bb9e b4bd 4e98 77bd e22e 42be db18 2ebe
000000d0: 3be7 8c3c 852d 03be ab49 f4bc 8e42 32be
000000e0: 0725 87bc 8272 42bd e019 4abe 092d 37bb
000000f0: 3719 5b3c 6aa2 b9bd 8aad d03c 77dc 2bbe
00000100: 168a 19be a22f a83d d933 3cbc 2c03 44bd
00000110: ec9a 96bd b0be b7bd 175d 0f3d 89cc 83bd
00000120: 5544 6fbd 611d 20bd c025 afbd c0ba eebd
00000130: 762d e53c c4fc febd b825 65bd bc52 9037
00000140: c908 9fbd afe2 0b3d 6f88 063e c408 02bd
00000150: 4312 fa3c 9904 04bc 28fe 6fbc 019e 6fbd
00000160: c702 22bd 73aa 3dbb ab60 343c 1995 ff3b
00000170: d3a6 bf3c 5a95 013a d5d8 943c 5751 9d3c
00000180: 2e08 3cbc 9d37 e93c 1baa 12be 8753 bbbd
00000190: b1ba 15be 4047 8e3b 4016 b8bc fc7b de3c
000001a0: b27f e33a ee4f 18bd d020 403e 27fd 0dbe
000001b0: ae9c 5dbc a5d5 ab3c 9467 3d3d 7968 24bd
000001c0: 04d9 f3bd 4935 2a3b c842 4d3d 9202 81bc
000001d0: a099 14bc 52d6 563e 6370 95bb 1ee9 2cbe
000001e0: 05ea 36bc c0f5 adbd 4339 8dbc d481 04be
000001f0: 67f5 e9bc 0d24 d23c 27f7 563b 7bdc 423d
00000200: 8480 9c3a 7678 683a 3a14 643d 9f21 57be
00000210: c974 bdbc 8c7a 903d 8436 a83d 0464 e23c
00000220: be76 d7bd d673 8b3d ce45 bbbc 9af4 93bc
00000230: 0577 22bd 62e7 d1bc 861f 34bd ebbd 51bd
00000240: 0313 86bd 2cde 873d a5a8 f63d 6f93 493c
00000250: 8f56 76bd 4914 b5bd d547 b9bd 4b55 cc3b
00000260: 4410 9cbd 6696 513c 4df0 073c 901e cbbd
00000270: 0cd5 8fbc 1978 b23d 5227 b5bc a254 66bc
00000280: c4ac 183c 0370 9abd 8781 c93d 2b12 2839
00000290: 0a0c 80bc 462f 52bd 5ff4 92bd 00d4 d3bd
000002a0: 2dd1 8fba 4bf5 e63c 45f9 1abd 508f b7bc
000002b0: 4c1c 85bd a475 07bd eb64 98bd 9a37 a0bd
000002c0: 632a e53c c3af ba3c daf7 873b 2ad4 3a3d
000002d0: a83f b7bd a0e8 20be e467 a0ba e9f8 6b3c
000002e0: c987 19be 80d4 af3d a5fe 62bd 8f4c 733c
000002f0: 1a2e d8bd 6cdf 08bd cd41 26bc d6aa b03d
00000300: f7ef edbb 30da f6bd c7b3 5c3c b98a c13c
00000310: a970 743d dcb1 83bb fd33 c6bc cfdc 20bd
00000320: 0a27 dbb8 f0d5 b5bd 28f2 42be a1c1 a1bd
00000330: eb7b 843d 2b9d 253d 624e 2dbe 8a71 f3bc
00000340: ebfe 09bd e0fd e8bd dea4 ee3b 8f4d 9c3d
00000350: c99a ea3c 8248 eabd 5c25 d33c ab6d cf38
00000360: d96b 27bd 47d8 40bb c1eb 77bd 2371 36bd
00000370: 058b 8c3b 302e ad3d d583 93bd 0629 203c
00000380: 6946 273e d6c2 e43c 4211 c3bd ccc8 d23d
00000390: 0c4d 1dbe beb1 c43c 23f9 a7bd 5532 d23d
000003a0: a4d6 263d f5d8 aabd 317e b0bb 003e 8abb
000003b0: 6649 92bd fb69 a2bd eeba 453c 637e b23d
000003c0: 1f6e 5ebd d8b5 083e b9fa 9ebd 6e0d be3c
000003d0: 0646 5fbd 501f a2bd 2131 cebb 70e3 1d3c
000003e0: 8185 c43c a19c e73d f18d dbbc dce9 a9bc
000003f0: a9e6 023e 63b0 8bbc 56a2 abbc a07c 50bc

net.2.weight f4 [256, 256]
-0.058936328 -0.13410518 -0.06565993 -0.06950582 0.14854881 -0.17110552 -0.12474453 0.082617626
-0.09427639 0.10067801 -0.14315066 0.1261413 -0.20724817 -0.084867746 -0.07746483 0.06739007
0.104073204 0.12056663 -0.05750957 -0.17066903 -0.05851027 0.027888486 -0.10439027 -0.01637553
0.06311607 -0.24102437 0.120879024 -0.11622623 -0.07457109 -0.07183403 -0.16749816 0.020866627
-0.049839266 0.012880584 -0.060623467 -0.14758559 -0.08700468 -0.07719807 -0.055604726 -0.054941785
0.041858792 0.049904253 0.10181627 -0.11591296 0.06074207 0.09492417 0.09961031 -0.15995727
-0.13025537 -0.14845714 0.09664256 -0.098635964 0.023073735 -0.0068134475 -0.09767738 -0.23251198
0.04847838 0.23002274 -0.23119903 -0.07711787 -0.18897638 -0.123822056 0.07239547 0.04520354
-0.022335963 -0.21016212 -0.059772182 0.07114462 -0.0067446884 0.1089713 -0.21703416 -0.16552709
-0.060190815 -0.14646564 -0.107358694 0.20390005 0.094739705 0.040270504 0.09366536 -0.15278296
-0.10013187 0.10109993 -0.00460843 -0.11186471 0.0029619157 0.09505828 0.07707194 -0.11762886
0.07562904 0.11974096 -0.061497726 -0.13310066 -0.06664672 -0.07724443 0.13675737 -0.03198435
-0.007867193 0.15868643 0.015223363 0.057274293 -0.2203853 0.018199002 0.04149267 -0.03660931
0.10519007 0.056039114 -0.033887062 -0.1744898 -0.049119182 -0.075399116 -0.046461668 0.13785261
-0.09822614 0.09427401 0.103264555 -0.31977 -0.013727074 -0.035370566 0.096420884 -0.04756892
0.0936088 -0.17799307 -0.37880373 0.013992249 -0.122808486 0.015651617 0.03159889 -0.08942696
-0.07260453 -0.16055542 0.12975809 0.10623046 -0.13186668 0.20539016 -0.015895272 -0.060556583
-0.09949381 -0.06327838 -0.12461316 -0.034909494 -0.11358333 -0.17151971 0.0017272219 -0.029938849
-0.096105814 0.04536583 0.04238662 -0.098867975 0.0078087053 -0.17620644 -0.091072425 -0.24616216
-0.24379523 -0.049884234 -0.05927036 0.079974204 -0.09430646 -0.1475976 -0.12987009 0.12377483
-0.13351567 0.03453041 0.102669105 0.0032548755 0.16998623 -0.05932654 0.11308532 0.13834028
-0.068170734 -0.15846102 -0.11031607 -0.11045399 -0.14114097 0.0500821 0.022245618 -0.09303429
-0.043289043 0.11198959 -0.16781868 0.20657872 0.03925988 -0.21325333 0.015794156 0.10615804
0.025373077 -0.22828683 -0.053170253 0.06736545 -0.05470109 -0.07348332 -0.20630063 0.023246592
-0.090621255 -0.11482277 0.09585808 -0.12053258 0.02690484 -0.05406134 0.016664095 -0.08145881
-0.075789675 0.026371453 -0.117601804 -0.03447505 0.0361006 -0.1854474 -0.14190866 0.028074762
-0.09361441 -0.043073565 -0.23197912 0.06394555 0.06404362 -0.14909004 -0.17718741 -0.06158352
0.22659439 -0.13947466 0.060954224 -0.17171806 -0.07584961 -0.18290317 0.032915123 0.11178251
-0.10508332 0.15485294 -0.02544423 -0.14157496 -0.09260365 0.010360479 0.0031638916 0.09315318
0.14946382 -0.06671267 -0.0031314564 0.22981016 0.0490218 -0.057807148 0.02928662 0.07252961
-0.14604424 0.04853767 0.007208637 -0.009224146 0.023767756 0.08698151 0.031850874 -0.13030943
-0.06836031 0.11260564 -0.0024641925 -0.107122205 0.07647126 -0.34252682 -0.40473711 0.04795166
00000000: 3867 71bd de52 09be b778 86bd 1159 8ebd
00000010: 2e1d 183e 4936 2fbe 0f7a ffbd 6e33 a93d
00000020: fb13 c1bd 4630 ce3d 1696 12be 2f2b 013e
00000030: dd38 54be 24cf adbd e1a5 9ebd ce03 8a3d
00000040: 5524 d53d a3eb f63d 288f 6bbd ddc3 2ebe
00000050: 77a8 6fbd 6576 e43c 91ca d5bd fa25 86bc
00000060: 0043 813d 18cf 76be 6c8f f73d 0508 eebd
00000070: bab8 98bd b81d 93bd a384 2bbe 7df0 aa3c
00000080: 4224 4cbd 1609 533c 5050 78bd ad20 17be
00000090: 822f b2bd 061a 9ebd c8c1 63bd a30a 61bd
000000a0: 2074 2b3d 6768 4c3d 0c85 d03d c663 edbd
000000b0: adcc 783d 9a67 c23d 7d00 cc3d d7cb 23be
000000c0: aa61 05be 2605 18be 89ec c53d a701 cabd
000000d0: 2105 bd3c 5743 dfbb 140b c8bd 9f17 6ebe
000000e0: 4491 463d 158b 6b3e 70bf 6cbe f9ef 9dbd
000000f0: 0683 41be 6b96 fdbd 1444 943d 5927 393d
00000100: e9f9 b6bc bd34 57be add3 74bd 45b4 913d
00000110: 8c02 ddbb 582c df3d 343e 5ebe ef7f 29be
00000120: a58a 76bd 17fb 15be e0de dbbd 2dcb 503e
00000130: e406 c23d aff2 243d a0d3 bf3d 2373 1cbe
00000140: f011 cdbd 7b0d cf3d 5002 97bb 5319 e5bd
00000150: b31c 423b eaad c23d e5d7 9d3d 66e7 f0bd
00000160: 66e3 9a3d c03a f53d 0ae5 7bbd 8a4b 08be
00000170: 137e 88bd 5432 9ebd 200a 0c3e 0602 03bd
00000180: 66e5 00bc b27e 223e 6a6b 793c 7398 6a3d
00000190: afac 61be 1316 953c 38f4 293d a5f3 15bd
000001a0: e46d d73d 4589 653d 29cd 0abd 74ad 32be
000001b0: 3231 49bd da6a 9abd 974e 3ebd 3c29 0d3e
000001c0: c92a c9bd bb12 c13d 5e7c d33d e5b8 a3be
000001d0: 85e7 60bc bae0 10bd 5078 c53d a1d7 42bd
000001e0: f8b5 bf3d d143 36be 90f2 c1be bf3f 653c
000001f0: 0483 fbbd d237 803c d66d 013d 7b25 b7bd
00000200: afb1 94bd a468 24be 4edf 043e 5b8f d93d
00000210: 0f08 07be cc51 523e cd36 82bc 2e0a 78bd
00000220: 69c3 cbbd 1898 81bd 2f35 ffbd 42fd 0ebd
00000230: 609e e8bd dda2 2fbe f363 e23a 5142 f5bc
00000240: 20d3 c4bd 85d1 393d 989d 2d3d 4b7b cabd
00000250: 2be0 ff3b 766f 34be 2e84 babd ef11 7cbe
00000260: 75a5 79be 6953 4cbd 7ac5 72bd 84c9 a33d
00000270: bf23 c1bd d323 17be aafc 04be a87d fd3d
00000280: 55b8 08be c26f 0d3d 2e44 d23d c04f 553b
00000290: df10 2e3e 6300 73bd 4799 e73d 13a9 0d3e
000002a0: 199d 8bbd 9b43 22be 64ed e1bd b435 e2bd
000002b0: 4287 10be e322 4d3d 713c b63c c388 bebd
000002c0: da4f 31bd cc5a e53d a9d8 2bbe 5f89 533e
000002d0: f8ce 203d 155f 5abe bf62 813c 6369 d93d
000002e0: 33db cf3c 06c4 69be 0dc9 59bd e6f6 893d
000002f0: 400e 60bd 6c7e 96bd 7940 53be a36f be3c
00000300: a397 b9bd 3328 ebbd 3e51 c43d c9d9 f6bd
00000310: 8a67 dc3c 6c6f 5dbd 2483 883c e0d3 a6bd
00000320: 9e37 9bbd f208 d83c 37d9 f0bd b635 0dbd
00000330: 39de 133d ece5 3dbe 8150 11be 0bfd e53c
00000340: e9b8 bfbd e86d 30bd ef8b 6dbe e2f5 823d
00000350: 4d29 833d 0fab 18be 9e70 35be 003f 7cbd
00000360: 5c08 683e 72d2 0ebe 23ab 793d dcd6 2fbe
00000370: 0a57 9bbd f84a 3bbe 02d2 063d 3bee e43d
00000380: ec35 d7bd c591 1e3e 6b70 d0bc 07f9 10be
00000390: fca6 bdbd 00bf 293c 4b59 4f3b 18c7 be3d
000003a0: 0b0d 193e a7a0 88bd 1f39 4dbb 5b53 6b3e
000003b0: 15cb 483d 30c7 6cbd 7eea ef3c 678a 943d
000003c0: 9f8c 15be 70cf 463d 6e36 ec3b df20 17bc
000003d0: 99b4 c23c 5d23 b23d 1076 023d d66f 05be
000003e0: 7d00 8cbd c99d e63d 4a7e 21bb e362 dbbd
000003f0: f79c 9c3d ad5f afbe b439 cfbe f668 443d

net.2.bias f4 [256]
-0.0076847174 0.05625532 0.026197188 0.008045926 -0.006096504 -0.0026369614 0.03215275 -0.10279415
-0.020422472 0.047459763 -0.0020982078 -0.018268386 -0.01297731 0.048794825 0.0068152626 0.022704
0.042008765 0.04410869 0.004660128 -0.014463911 -0.013311744 0.085040875 -0.014351675 0.06973222
0.0035050975 0.02898956 0.020973928 -0.040606875 0.0024153471 0.038031757 -0.027020771 -0.015607426
-0.026459709 0.0109683825 0.026865091 0.0018244225 0.032644376 -0.001026978 0.0006722425 0.027155574
0.018140053 0.064484626 -0.0073289815 0.039132144 -0.004997136 0.048667256 -0.026245518 0.022765195
-0.021390866 0.0151181435 0.03579687 -0.022606676 0.015063801 -0.017657924 0.0019214246 -0.054180164
0.02787528 -0.049074467 0.031680007 0.024675835 -0.01866364 -0.010880054 -0.010254845 -0.012901794
-0.0038144847 0.08147207 0.0061477404 -0.010132156 -0.007962856 0.0049101384 -0.036681533 -0.057362262
0.04099401 0.044478323 -0.015598811 -0.023170186 -0.1074263 0.009312364 0.047839932 0.021430302
0.03135891 -0.023927731 0.024471078 -0.043418087 -0.0011679456 -0.008317167 0.034028113 0.064717464
-0.004214995 0.06301302 -0.019728059 0.07310109 -0.012400734 0.020778371 -0.038671035 -0.013251984
0.020108236 0.026361687 -0.0064981417 0.045743775 0.050574217 -0.050889306 -0.00015128117 -0.027818874
0.024799906 0.019801775 0.0074527627 0.03289228 0.009577281 0.001248188 -0.002349524 0.017775398
0.010606155 -0.00706638 0.04142167 0.014278511 -0.036805402 -0.05609595 0.021789921 0.0036641129
-0.00774705 -0.0752095 0.036721323 -0.03878406 0.043124415 0.031130048 -0.0401577 -0.0049612517
0.019841064 0.047859877 0.122717395 0.008903782 -0.10123457 -0.036495496 0.05942148 0.05390949
0.049333688 -0.0019256838 -0.025993954 -0.009096625 0.016204564 -0.03302551 0.027352108 -0.061471123
0.003778078 0.04420846 0.013724527 0.0363957 0.016432257 0.025427569 -0.08296167 -0.034427345
0.09017359 -0.09129128 0.033466768 -0.017410861 0.04873605 0.0008020623 0.017060323 0.066625
0.04353445 -0.0022259187 -0.009650359 0.034983627 0.030610438 0.0058838036 0.06253509 0.00046928442
-0.0043125795 -0.005027994 0.045443386 -0.03565163 0.012852622 0.0006902851 0.097856216 -0.021054806
0.0065255314 -0.014260709 0.023129765 -0.010388415 -0.0071498817 -0.003046473 0.059701134 0.008332109
0.021588264 0.054978617 -0.040034536 0.09748052 0.06727161 0.022365734 0.046915676 -0.030547682
-0.011450235 0.047714077 -0.0035131576 0.0023381603 -0.0055793785 0.059671406 0.04622314 0.07499959
0.00574981 0.037126757 0.015882459 -0.021939116 0.023573503 0.00095926586 -0.027384149 0.0015484114
-0.006023977 0.015490551 -0.023135774 0.036583725 -0.00589154 -0.012906321 0.00370773 0.0495994
-0.03521162 0.028712565 -0.017095838 -0.015120875 0.104528666 0.07377705 0.018481739 0.024980616
-0.02184495 -0.02752353 0.032736693 0.013545424 0.0608924 -0.013582501 0.029659165 0.07038296
-0.016259817 -0.031208647 -0.026398268 0.006535012 0.0020965817 0.012185515 0.018173281 -0.0048829997
0.026027057 0.034089405 -0.021830821 -0.017439533 0.012720096 0.0315173 0.018527819 0.032110266
0.027345594 0.009130106 0.0063651414 0.0061998134 0.028511902 0.016879287 -0.0156827 0.05024085
00000000: 15d0 fbbb fa6b 663d 7c9b d63c 0fd3 033c
00000010: 2fc5 c7bb dfd0 2cbb 9ab2 033d bd85 d2bd
00000020: 074d a7bc 2b65 423d 1682 09bb 95a7 95bc
00000030: c99e 54bc 15dd 473d 9152 df3b bdfd b93c
00000040: 6211 2c3d 50ab 343d fdb3 983b 0afa 6cbc
00000050: 8019 5abc e929 ae3d 4a23 6bbc c4cf 8e3d
00000060: c7b5 653b 847b ed3c 84d1 ab3c 6553 26bd
00000070: cd4a 1e3b 30c7 1b3d aa5a ddbc 4ab6 7fbc
00000080: 08c2 d8bc bbb4 333c 2e14 dc3c 7621 ef3a
00000090: 1cb6 053d aa9b 86ba 6e39 303a 5e75 de3c
000000a0: 739a 943c 8410 843d f427 f0bb 0749 203d
000000b0: 04bf a3bb 5157 473d d700 d7bc 137e ba3c
000000c0: e63b afbc 17b2 773c bd9f 123d a331 b9bc
000000d0: 29ce 763c 5aa7 90bc 50d8 fb3a 05ec 5dbd
000000e0: b35a e43c 4f02 49bd e5c2 013d fa24 ca3c
000000f0: 7de4 98bc 4142 32bc f003 28bc 0c62 53bc
00000100: 6ffc 79bb d4da a63d fc72 c93b 5801 26bc
00000110: a476 02bc 3ae5 a03b 603f 16bd b1f4 6abd
00000120: 56e9 273d e72e 363d 2892 7fbc 67cf bdbc
00000130: 5202 dcbd e392 183c cef3 433d 9a8e af3c
00000140: 3372 003d 1704 c4bc 9277 c83c 2ad7 31bd
00000150: c015 99ba ba44 08bc 1061 0b3d 978a 843d
00000160: f11d 8abb f80c 813d bd9c a1bc 06b6 953d
00000170: 732c 4bbc 6737 aa3c 8565 1ebd d91e 59bc
00000180: 07ba a43c 77f4 d73c 5dee d4bb d35d 3b3d
00000190: e926 4f3d 4e71 50bd 3ba1 1eb9 68e4 e3bc
000001a0: 2c29 cb3c 5537 a23c 4e36 f43b 0eba 063d
000001b0: 07ea 1c3c 3d9a a33a 79fa 19bb b69d 913c
000001c0: 70c5 2d3c 188d e7bb c5a9 293d 6af0 693c
000001d0: 43c1 16bd dec4 65bd c780 b23c 9d21 703b
000001e0: f7da fdbb 7007 9abd 1969 163d 09dc 1ebd
000001f0: 3aa3 303d 7104 ff3c 677c 24bd ff91 a2bb
00000200: ba89 a23c b808 443d 4253 fb3d 2be1 113c
00000210: 1254 cfbd 4d7c 15bd f063 733d 33d0 5c3d
00000220: 1f12 4a3d 3a67 fcba 46f1 d4bc 030a 15bc
00000230: 6fbf 843c c245 07bd 8711 e03c 25c9 7bbd
00000240: a199 773b ee13 353d d7dc 603c a813 153d
00000250: f19c 863c 7a4d d03c cfe7 a9bd b003 0dbd
00000260: eeac b83d ecf6 babd 7314 093d 39a1 8ebc
00000270: 749f 473d 7d41 523a 17c2 8b3c b072 883d
00000280: 2e51 323d b8e0 11bb 8a1c 1ebc fe4a 0f3d
00000290: bec2 fa3c eccc c03b 6612 803d 4a0a f639
000002a0: 8a50 8dbb dfc1 a4bb d822 3a3d 7207 12bd
000002b0: ce93 523c 40f4 343a d768 c83d 217b acbc
000002c0: 20d4 d53b c0a5 69bc a27a bd3c 2c34 2abc
000002d0: 8e49 eabb 56a7 47bb 2d89 743d 6683 083c
000002e0: dfd9 b03c 4231 613d 41fb 23bd dea3 c73d
000002f0: b3c5 893d 5838 b73c a72a 403d 223f fabc
00000300: c499 3bbc d66f 433d 013d 66bb d23b 193b
00000310: 38d3 b6bb 016a 743d 7a54 3d3d 6399 993d
00000320: e768 bc3b 3a12 183d ee1b 823c a9b9 b3bc
00000330: 381d c13c 3e77 7b3a b954 e0bc 11f4 ca3a
00000340: c864 c5bb 14cc 7d3c 3c87 bdbc d1d8 153d
00000350: d20d c1bb 0975 53bc 63fd 723b be28 4b3d
00000360: 0f3a 10bd 9d36 eb3c 920c 8cbc 8cbd 77bc
00000370: 2013 d63d 6c18 973d 0467 973c 26a4 cc3c
00000380: 2ef4 b2bc 0779 e1bc e916 063d a0ed 5d3c
00000390: 4f6a 793d 2389 5ebc c7f7 f23c f124 903d
000003a0: 4f33 85bc 47a9 ffbc 2e41 d8bc a723 d63b
000003b0: ce66 093b c1a5 473c 22e0 943c 9201 a0bb
000003c0: b236 d53c 55a1 0b3d 8dd6 b2bc 5add 8ebc
000003d0: f367 503c 4918 013d a7c7 973c 0e86 033d
000003e0: de03 e03c 7196 153c ad92 d03b ce27 cb3b
000003f0: cb91 e93c 6e46 8a3c 0179 80bc 59c9 4d3d

net.4.weight f4 [1, 256]
-0.53320205 0.03541619 0.017162086 0.32886034 -0.0013447758 0.04488414 -0.418671 -0.07817128
-0.042233296 -0.41869003 -0.5588106 0.10312612 -0.4489307 -0.46622103 0.21250665 -0.11879627
0.0627953 0.1596228 0.041425154 0.001221563 0.5856401 -0.3658449 0.11155792 0.15425934
0.11971431 0.103049845 0.19367872 0.114541374 -0.16337264 0.090477735 -0.0874843 0.123427205
-0.061261836 0.07157677 -0.0035332134 0.2016206 -0.094609894 -0.29200277 0.0017160432 -0.52071726
0.16608594 -0.4447103 0.12090426 0.030312087 -0.16515419 -0.028759662 -0.15005064 0.09596391
-0.4383485 0.067859195 -0.56746715 -0.28025132 0.14992575 0.08387976 0.030679708 -0.26283845
0.06414773 0.03509772 -0.010092673 0.11201565 0.098274134 -0.2769404 -0.33545947 -0.09905678
-0.19952203 -0.31235743 0.04858398 -0.15793768 0.111748084 0.096742906 0.044927415 -0.0035140777
0.17109491 0.13290684 0.03641451 -0.25921205 -0.054326534 -0.4172847 -0.4137957 -0.5023263
-0.27486092 -0.09426337 0.021156287 -0.21806444 0.19293092 -0.27491677 0.12590405 -0.444772
-0.33873436 -0.15942763 -0.34664205 -0.42107826 -0.3352609 0.31244656 -0.16399828 -0.0024979396
0.04633567 0.034873016 -0.17968711 -0.23431133 -0.2246782 -0.09521048 0.07764309 -0.12595898
0.11921384 -0.38918212 -0.13028504 0.1361591 -0.19145343 0.058256764 0.07450957 0.1070703
-0.22945707 0.08545221 -0.31518275 0.2089995 0.18485278 -0.0904733 -0.51867294 0.021701837
-0.19542927 -0.003276716 0.08103778 -0.36643705 0.24327977 -0.37408584 0.10691161 -0.24837378
0.021518864 0.09780869 -0.56451535 0.15556914 -0.10254678 -0.42056164 0.03875083 -0.21723534
-0.40065253 0.09301537 -0.15489261 -0.13289556 0.033226155 -0.09928948 0.09361772 -0.10736368
0.1530441 0.092198044 -0.16803566 0.08933364 -0.60346377 0.08324095 -0.3304472 -0.10090475
-0.3569909 -0.03816462 0.11394509 0.10197982 0.123650774 0.096731566 0.08434723 0.09422388
-0.3850722 0.18530637 -0.4007888 0.08494474 0.020227417 -0.30426374 -0.27709982 -0.36587694
0.14792533 -0.43869784 0.08963344 -0.14716466 0.097190045 0.15643375 0.24663064 0.17448716
-0.34225577 0.07724638 0.07307208 -0.19642909 0.1085146 -0.0023892405 -0.3336888 -0.25653836
0.066185564 0.1599027 0.17614743 -0.7734547 -0.26913425 0.0473546 0.11753279 -0.13343246
0.11572917 -0.4101993 0.049246557 0.085488126 -0.269951 -0.30360356 0.16233297 -0.53590685
0.07665602 -0.27692997 0.083072826 -0.0008398798 0.09332443 -0.2735498 -0.17440721 0.10178205
0.041374728 -0.18240947 -0.1413605 0.15009981 -0.39840445 0.1446148 0.041479364 -0.16774136
-0.16342223 0.16982967 0.09938716 -0.43857974 0.13228472 -0.7133518 0.009034396 -0.30111638
0.10610094 0.10284098 0.13553616 0.1710176 0.12437482 0.09446561 0.063470855 -0.40406808
0.28526318 0.11889615 -0.21305473 -0.14864255 0.07413766 -0.4696002 0.17503403 -0.28281644
0.13754794 0.14373997 -0.1245048 0.08438989 -0.21054652 0.13389307 0.06594388 0.09564063
0.06268159 0.077144906 -0.21948767 -0.35677302 0.14280358 0.020646393 -0.35887545 0.11574189
00000000: ee7f 08bf 9110 113d 8197 8c3c 6260 a83e
00000010: 3043 b0ba 6fd8 373d 0c5c d6be 4418 a0bd
00000020: d2fc 2cbd 8a5e d6be 360e 0fbf ca33 d33d
00000030: 3fda e5be 86b4 eebe 589b 593e 754b f3bd
00000040: d29a 803d 2974 233e 6cad 293d da1c a03a
00000050: 82ec 153f 0650 bbbe 7b78 e43d 29f6 1d3e
00000060: c72c f53d cc0b d33d b753 463e ab94 ea3d
00000070: 284b 27be 644c b93d f82a b3bd 67c7 fc3d
00000080: b1ed 7abd d796 923d 7c8d 67bb a175 4e3e
00000090: d5c2 c1bd 6381 95be dbec e03a ba4d 05bf
000000a0: 6f12 2a3e 12b1 e3be a79c f73d 0e51 f83c
000000b0: 2e1e 29be 6299 ebbc e0a6 19be ba88 c43d
000000c0: 376f e0be c3f9 8a3d 8745 11bf 1a7d 8fbe
000000d0: 2386 193e 27c9 ab3d 0354 fb3c c392 86be
000000e0: e35f 833d a0c2 0f3d bd5b 25bc 7668 e53d
000000f0: f343 c93d 22cb 8dbe 58c1 abbe 48de cabd
00000100: 814f 4cbe 50ed 9fbe ffff 463d 6aba 21be
00000110: 2edc e43d 2521 c63d cf05 383d 714c 66bb
00000120: 8133 2f3e bb18 083e 6227 153d 71b7 84be
00000130: 8085 5ebd 57a6 d5be 08dd d3be 7598 00bf
00000140: 92ba 8cbe 270d c1bd f34f ad3c 494c 5fbe
00000150: af8f 453e e4c1 8cbe feec 003e 28b9 e3be
00000160: 976e adbe ff40 23be 117b b1be 9297 d7be
00000170: 51a7 abbe fff8 9f3e 2aef 27be 79b4 23bb
00000180: 79ca 3d3d 02d7 0e3d e6ff 37be 4fef 6fbe
00000190: 0b12 66be b6fd c2bd 5703 9f3d 64fb 00be
000001a0: 6326 f43d e142 c7be 7169 05be 4b6d 0b3e
000001b0: 5e0c 44be a59e 6e3d 7998 983d ac47 db3d
000001c0: cbf6 6abe 9101 af3d a25f a1be f703 563e
000001d0: 0c4a 3d3e 114a b9bd c0c7 04bf 0dc8 b13c
000001e0: 9c1e 48be 2cbe 56bb 23f7 a53d a39d bbbe
000001f0: 551e 793e 2e88 bfbe 79f4 da3d b255 7ebe
00000200: 5448 b03c ec4f c83d 1484 10bf 844d 1f3e
00000210: 0c04 d2bd db53 d7be 31b9 1e3d f172 5ebe
00000220: 5422 cdbe d87e be3d 2b9c 1ebe c615 08be
00000230: 2618 083d 4858 cbbd a6ba bf3d 7de1 dbbd
00000240: 98b7 1c3e 54d2 bc3d 8a11 2cbe 8ef4 b63d
00000250: 9a7c 1abf 3b7a aa3d 6030 a9be 26a7 cebd
00000260: 83c7 b6be 8152 1cbd 0b5c e93d ccda d03d
00000270: 9e3c fd3d 331b c63d 3ebe ac3d 73f8 c03d
00000280: 2f28 c5be f4c0 3d3e 3134 cdbe 82f7 ad3d
00000290: f8b3 a53c 75c8 9bbe 07e0 8dbe 3954 bbbe
000002a0: bd79 173e 019d e0be bd91 b73d 55b2 16be
000002b0: 930b c73d 2b30 203e be8c 7c3e c3ac 323e
000002c0: 263c afbe 5a33 9e3d d1a6 953d b524 49be
000002d0: e73c de3d ce94 1cbb 42d9 aabe ff58 83be
000002e0: 4c8c 873d 89bd 233e fe5f 343e 2101 46bf
000002f0: f7cb 89be e6f6 413d 08b5 f03d 85a2 08be
00000300: 6a03 ed3d a505 d2be c2b6 493d 6614 af3d
00000310: 0437 8abe ed71 9bbe 9d3a 263e 3131 09bf
00000320: d5fd 9c3d c4c9 8dbe 1622 aa3d 612b 5cba
00000330: e120 bf3d b80e 8cbe ce97 32be 1c73 d03d
00000340: 8c78 293d 8cc9 3abe cfc0 10be c4b3 193e
00000350: abfb cbbe e715 143e 44e6 293d 64c4 2bbe
00000360: 2858 27be d4e7 2d3e 7f8b cb3d 868d e0be
00000370: a575 073e 399e 36bf 0105 143c ed2b 9abe
00000380: 734b d93d 4b9e d23d fec9 0a3e 3d1f 2f3e
00000390: 3ab8 fe3d 3077 c13d 02fd 813d 03e2 cebe
000003a0: 040e 923e d37f f33d 052b 5abe c135 18be
000003b0: 7cd5 973d 706f f0be 1f3c 333e 51cd 90be
000003c0: 5ed9 0c3e 9230 133e 5ffc febd 9bd4 ac3d
000003d0: 8299 57be 441b 093e 960d 873d 3cdf c33d
000003e0: 355f 803d 26fe 9d3d 60c1 60be f4aa b6be
000003f0: 1a3b 123e a022 a93c 86be b7be 160a ed3d
