output/CarlaNavigation-v0/wcsac/1/cost_var_target.pt (torch, 536535 bytes, 5 tensors)

net.0.weight f4 [256, 263]
0	0xbd59601a	-0.053070165
1	0x3e230927	0.1592146
2	0x3d624ed3	0.055250954
3	0x3b4534d1	0.0030091295
4	0xbdae1f6e	-0.085020885
5	0xbd1d11cd	-0.038347054
6	0xbd526f89	-0.0513759
7	0xbd480841	-0.048835997
8	0x3dd1cc42	0.10244037
9	0x3e20e3ee	0.15711948
10	0xbe2ffa6f	-0.17185377
11	0xbd8593bd	-0.065223195
12	0xbd4bfe50	-0.04980308
13	0xbe86bd64	-0.2631637
14	0x3d6cb232	0.057787128
15	0xbe2108a6	-0.15725955
16	0x3d057b84	0.032588497
17	0xbe8becbd	-0.27329054
18	0x3d282b37	0.041056838
19	0xbd89b1a4	-0.067233354
20	0xbe302f90	-0.17205644
21	0x3e328dd0	0.1743691
22	0x3c4b9d70	0.012427673
23	0x3be9227a	0.0071147056
24	0xbe3958df	-0.18100308
25	0x3dd975f9	0.106182046
26	0xbd057b85	-0.0325885
27	0xbda998d7	-0.08281105
28	0x3e04950c	0.12947482
29	0x3e0f099d	0.13968511
30	0xbd96fbfe	-0.073722824
31	0x3e2ec69e	0.17067954
32	0x3dac6e9f	0.08419537
33	0xbd5b2151	-0.05349857
34	0xbd2779de	-0.040887706
35	0xbd8cfc9d	-0.0688412
36	0xbc250f1e	-0.010074405
37	0xbcddf71a	-0.027095366
38	0xbdcc6189	-0.09979541
39	0x3e3202c0	0.17383862
40	0xbd39dce7	-0.045376685
41	0xbde4213a	-0.1113915
42	0xbd6218ea	-0.05519954
43	0x3e438721	0.19094516
44	0x3e30ab00	0.17252731
45	0xbd86d72c	-0.065840095
46	0xbe808a7b	-0.25105652
47	0x3d5231d2	0.051317044
48	0xbe789783	-0.24276547
49	0x3d88339c	0.06650469
50	0x3cb10730	0.021609873
51	0xbdbd746f	-0.092507236
52	0xbd97488d	-0.07386885
53	0x3d8dc49c	0.06922266
54	0x3e1d2f7e	0.15350148
55	0x3d9cd1be	0.07657193
56	0x3ddb6099	0.10711784
57	0x3d1314c5	0.03590848
58	0xbd1fb8b6	-0.038994513
59	0x3d3b25d0	0.045690358
60	0x3d0fb57c	0.035085186
61	0xbb602422	-0.0034201224
62	0xbd8dcc6d	-0.06923757
63	0xbb3edc97	-0.002912318
64	0xbdd749b9	-0.10512108
65	0xbdd3201a	-0.10308857
66	0xbe41d719	-0.1892971
67	0xbe7e7a8c	-0.24851435
68	0x3e3e7577	0.18599497
69	0xbe7b8713	-0.24563245
70	0x3ca1abee	0.019735303
71	0x3ca99296	0.02069978
72	0xbe4785c9	-0.19484629
73	0x3deaa14a	0.11456545
74	0x3e6149e2	0.2200084
75	0xbcd3fc69	-0.025877194
76	0x3e90214d	0.28150406
77	0xbdb4f88f	-0.08836471
78	0x3e1dc4b6	0.1540707
79	0xbd8434f4	-0.064554125
80	0x3d719fec	0.058990404
81	0x3b7e00ab	0.0038757722
82	0xbe085f5c	-0.13317627
83	0x3d71d05c	0.059036598
84	0x3d9f3bb6	0.07775061
85	0x3b87ea2d	0.004147789
86	0xbe53fec1	-0.2070265
87	0x3d82a1d4	0.063785225
88	0x3c30ee2f	0.010798975
89	0xbdbf398f	-0.0933715
90	0xbd47c511	-0.04877192
91	0x3ce55e6a	0.027999122
92	0x3cb76030	0.022384733
93	0xbe0c53dd	-0.13703866
94	0xba17663d	-0.00057754276
95	0x3d591f41	0.05300832
96	0x3d8c70c4	0.06857446
97	0xbd91ee3e	-0.07125519
98	0x3dd9f0a2	0.106416
99	0x3dc22b78	0.09480947
100	0x3d7fccd3	0.062451195
101	0xbdf13f0b	-0.117796026
102	0x3e5f63f1	0.21815468
103	0x3db2a798	0.08723372
104	0x3dfbf9ec	0.12303528
105	0xbece6c31	-0.40316918
106	0xbe879ff5	-0.26489225
107	0xbb76e203	-0.0037671335
108	0xbeb31687	-0.34978124
109	0x3dfa7e3c	0.122311085
110	0x3e815054	0.25256598
111	0x3d084ef4	0.03327842
112	0x3e19012d	0.14941855
113	0x3ec6c020	0.38818455
114	0xbe0ed3b6	-0.13947949
115	0x3e1a7f35	0.15087588
116	0xbe069334	-0.13142091
117	0x3d436a38	0.04770872
118	0xbddc52ca	-0.10757978
119	0xbe12be0d	-0.14330311
120	0xbdf0cf53	-0.11758294
121	0x3d4caa30	0.04996699
122	0x3cbe5957	0.02323596
123	0xbda75847	-0.081711344
124	0xbe0b921d	-0.13629957
125	0x3dabc9c7	0.08388095
126	0x3df4b36b	0.11948284
127	0xbda48b17	-0.08034342
128	0xbe40b861	-0.18820335
129	0x3def1522	0.11673953
130	0x3d1042e5	0.035220046
131	0xbda874a6	-0.08225374
132	0x3e174956	0.14774069
133	0xbe7f5ac3	-0.24936967
134	0x3e154fdd	0.14581247
135	0xbd91745d	-0.07102273
136	0xbecf0d21	-0.40439704
137	0x3e2fbfd6	0.17163023
138	0x3dc53661	0.096295126
139	0xbd797563	-0.060902964
140	0xbe20736f	-0.15669034
141	0xbee2b782	-0.4428063
142	0x3d94d78d	0.072676755
143	0xbe11376e	-0.14181301
144	0xbe7847d4	-0.2424615
145	0x3cd0d309	0.025491254
146	0xbd467779	-0.04845378
147	0xbe5749ba	-0.21024218
148	0xbd9fc6c5	-0.07801584
149	0x3e330b98	0.17484891
150	0x3e3bcaa8	0.18339026
151	0x3cbc0dd7	0.022955818
152	0xbd633f72	-0.055480428
153	0x3d915a95	0.07097355
154	0xbd3c5680	-0.04598093
155	0xbe39fcf0	-0.18162894
156	0x3d8dd11d	0.06924651
157	0x3dc33770	0.09532058
158	0xb90ed9f5	-0.0001362337
159	0xbe9ccab5	-0.30623403
160	0x3df07a2c	0.117420524
161	0xbd6fad7b	-0.058515053
162	0x3e33d2d0	0.17560887
163	0xbe90c6ed	-0.28276768
164	0x3c8fb005	0.017539987
165	0xbd88e9a5	-0.06685189
166	0x3c937e3e	0.018004533
167	0x3ce57c1a	0.028013278
168	0xbdfbb9dc	-0.12291309
169	0x3df81e6b	0.12115177
170	0x3c192ced	0.00934909
171	0x3d8dda7d	0.06926439
172	0xbe03d5a4	-0.12874466
173	0xbe2d864e	-0.16945764
174	0x3e8d1e34	0.27562106
175	0x3dda5ba9	0.10662014
176	0xbd0f7e04	-0.035032287
177	0x3da3422e	0.07971607
178	0x3d898775	0.067152895
179	0xbe80849f	-0.25101182
180	0xbeaab537	-0.3334138
181	0x3dd38e42	0.10329868
182	0x3d926e5d	0.071499564
183	0xbda7464f	-0.08167707
184	0x3d46e349	0.0485566
185	0xbdabe777	-0.08393758
186	0xbcab05af	-0.020876734
187	0xbe0f3a0d	-0.13986988
188	0x3ba528e7	0.0050402763
189	0xbddd2041	-0.107971676
190	0xbd7b99d4	-0.061426
191	0x3df6850b	0.12037095
192	0xbe4c95e0	-0.19979048
193	0xbe61608b	-0.22009484
194	0xbe8c2ccc	-0.27377927
195	0x3e601f72	0.21886995
196	0x3e0f931c	0.14020962
197	0x3e22bb07	0.15891658
198	0xbd442cc0	-0.04789424
199	0xbbcf92b8	-0.006334629
200	0xbe74b9ac	-0.23898953
201	0xbda2fca7	-0.07958346
202	0xbd86d8bd	-0.06584308
203	0x3d84e96d	0.06489835
204	0x3d03b1b4	0.032151893
205	0x3dedc9e3	0.116107725
206	0x3e00e22c	0.12586278
207	0xbdb4b0af	-0.08822762
208	0xbdcd1d09	-0.10015304
209	0x3d5113e1	0.05104435
210	0x3c7937ac	0.015211027
211	0xbe495449	-0.19661058
212	0xbdaa6d57	-0.08321636
213	0x3c1fc856	0.009752354
214	0xbe22a396	-0.15882716
215	0xbd94e72e	-0.072706565
216	0xbdc1ffb9	-0.09472603
217	0xbd7390cb	-0.059464257
218	0x3ce0a122	0.027420584
219	0x3d886d6d	0.06661496
220	0xbe9ad6b6	-0.30241936
221	0x3d9bb3cd	0.07602654
222	0x3de58322	0.11206652
223	0x3de43973	0.1114377
224	0x3e96e16d	0.2946886
225	0xbe9ccdd5	-0.30625787
226	0xbd58fb52	-0.052974053
227	0xbdd50dd9	-0.10403032
228	0xbe2ac40f	-0.16676353
229	0x3dec0333	0.11524048
230	0xbc34a048	-0.011024542
231	0x3e208887	0.15677081
232	0x3d86b0e4	0.06576708
233	0xbcc74429	-0.024324493
234	0xbb89437c	-0.004188953
235	0x3e02560c	0.12728137
236	0xbe7bf85c	-0.2460646
237	0x3c0f6a7c	0.008753415
238	0x3d0e865c	0.034796104
239	0xbda42716	-0.080152676
240	0xbeb8b4cf	-0.36075446
241	0x3cebe7da	0.028797079
242	0x3e1f8526	0.15578136
243	0x3dfec973	0.12440767
244	0x3d46b531	0.04851264
245	0x3ea9e3d6	0.33181638
246	0xbd98748d	-0.07444105
247	0x3bbbc530	0.0057302937
248	0x3e7c9d33	0.24669342
249	0xbd9aee26	-0.075649545
250	0x3e00e54c	0.1258747
251	0x3d11939d	0.035541166
252	0x3d92bed5	0.071653046
253	0xbdf16873	-0.117875
254	0x3d2c38b6	0.04204627
255	0xbe5b80a2	-0.21435788

net.0.bias f4 [256]
0	0xbd16c9fe	-0.03681373
1	0x3da3486f	0.079728
2	0x3debb2bb	0.115086995
3	0x3d4c47c0	0.049873114
4	0x3df98054	0.1218268
5	0x3cc88b81	0.024480583
6	0x3dcde379	0.100531526
7	0x3d057544	0.032582536
8	0x3dfe64ac	0.124215454
9	0x3e0c6cdd	0.13713403
10	0x3dce7979	0.10081763
11	0xbc6b8bab	-0.014376561
12	0xbc5b5e41	-0.013389171
13	0x3ca19f6e	0.019729342
14	0xbde0ba23	-0.10973003
15	0x3dd45322	0.10367419
16	0xba1f4ce6	-0.00060768274
17	0x3d8d893d	0.06910942
18	0x3db45f70	0.08807266
19	0xbde57833	-0.11204567
20	0x3d4fb069	0.050705347
21	0xb98f57bc	-0.00027340453
22	0xbe03fb25	-0.12888773
23	0x3d082bcd	0.033244897
24	0xbe030e6c	-0.1279847
25	0xbde563e3	-0.112006925
26	0x3c8dcdfc	0.017310135
27	0xbdff72fc	-0.124731034
28	0xbcde70f9	-0.027153479
29	0x3d68bb5b	0.0568193
30	0x3da7fc57	0.08202427
31	0xbdfc3c54	-0.12316194
32	0xbda96ea7	-0.082730584
33	0x3d890ccd	0.06691895
34	0xbd799ae3	-0.060938727
35	0x3c6e4b93	0.0145443855
36	0x3cdd805a	0.027038742
37	0x3d2f678f	0.04282337
38	0x3d7ada6c	0.06124346
39	0x3d871a5d	0.06596825
40	0xbca7ed7f	-0.02049899
41	0x3d941056	0.07229678
42	0xbdd4eb7a	-0.10396476
43	0x3d454c41	0.048168425
44	0x3e0467bd	0.12930198
45	0xbc59dc52	-0.013297157
46	0x3d607d33	0.0548069
47	0x3d543572	0.051808782
48	0x3dc93f31	0.09826506
49	0xbd062a85	-0.032755394
50	0x3e1e698d	0.15469952
51	0xbc57bbca	-0.013167331
52	0x3cdce1c1	0.026963117
53	0x3d4d4738	0.050116748
54	0xbc0799b4	-0.008276392
55	0x3e01f6bd	0.1269178
56	0xbde2aeeb	-0.11068519
57	0x3c3c7f1f	0.011504917
58	0x3cffafeb	0.031211814
59	0x3cecff8a	0.028930444
60	0x3d94864e	0.07252179
61	0xbd0998a5	-0.03359284
62	0x3d57482a	0.052559055
63	0x3d8859e5	0.06657771
64	0x3d18c75e	0.037299506
65	0x3b86adc4	0.00411007
66	0x3da40fa7	0.08010798
67	0xbdd5a631	-0.10432089
68	0xbe14a976	-0.14517769
69	0xbdbd4ef0	-0.09243572
70	0x3d8ee676	0.06977551
71	0x3d553bf1	0.052059118
72	0x3d6ef903	0.058342945
73	0x3ce061da	0.02739041
74	0xbdb70d60	-0.08938098
75	0x3cb61d88	0.022230878
76	0x3d1d711d	0.03843795
77	0xbdd1f1c2	-0.1025119
78	0x3d906b86	0.070517585
79	0xbd145dad	-0.03622215
80	0x3db7ff90	0.089842916
81	0x3d8cf405	0.068824805
82	0x3dbee5f7	0.09321206
83	0xbd9d8c75	-0.07692806
84	0xbe2a4e17	-0.16631351
85	0xbe1a6186	-0.15076265
86	0xbd671962	-0.05642069
87	0x3d8d50fd	0.06900213
88	0xbd808f2b	-0.06277307
89	0xbda64f6e	-0.08120619
90	0x3cdbf442	0.02684987
91	0xbdf641dc	-0.120242804
92	0x3cb72d67	0.022360517
93	0xbe0ef615	-0.1396106
94	0x3d36fb67	0.04467335
95	0xbdc2b5c1	-0.09507323
96	0x3d84711d	0.06466887
97	0x3d84d83d	0.06486557
98	0xbda09b47	-0.07842117
99	0x3cf08db3	0.029364442
100	0xbd0b6b0d	-0.03403764
101	0xbd92b7ce	-0.07163964
102	0x3d7f3f6c	0.062316343
103	0xbd6e704b	-0.05821256
104	0x3ca47537	0.020075424
105	0xbd9a3436	-0.0752949
106	0x3d94bdc6	0.07262759
107	0x3d1a71ee	0.037706308
108	0xbd99d355	-0.075110115
109	0xbddf2639	-0.10895962
110	0x3b82ae55	0.003988067
111	0xbdfcdc7c	-0.123467416
112	0x3d05521d	0.032549012
113	0x3d360de8	0.044446856
114	0xbcd178aa	-0.025570232
115	0xbd6df733	-0.058097076
116	0x3d3d6277	0.04623648
117	0x3cfb1f2c	0.030654512
118	0x3dcf43d1	0.10120357
119	0xbdadcef7	-0.08486741
120	0xbdbf92a0	-0.093541384
121	0xbdd38672	-0.10328378
122	0x3dec792b	0.115465485
123	0xbe0f5ba5	-0.13999803
124	0x3c9c54bd	0.019083375
125	0x3d13a7a6	0.036048554
126	0xbdb720e8	-0.08941823
127	0xbd9cc156	-0.076540634
128	0x3da7b860	0.081894636
129	0x3c966085	0.018356571
130	0x3da5b64f	0.08091413
131	0xbda5e39f	-0.08100056
132	0xbdb03378	-0.08603567
133	0xbcc3e8c9	-0.023914712
134	0x3d7efd04	0.062253013
135	0x3d8cbc8d	0.06871901
136	0x3d1a9ce6	0.037747286
137	0xbc7883fb	-0.015168185
138	0x3d75f22c	0.060045406
139	0x3da273ef	0.07932269
140	0xbcfa7f04	-0.030578144
141	0x3db74280	0.08948231
142	0x3d8d34dd	0.068948485
143	0x3d2058df	0.039147254
144	0xbda7176f	-0.081587665
145	0x3d995fb5	0.07488958
146	0xbdd6f942	-0.10496761
147	0xbd39ca28	-0.045358807
148	0x3df50ed4	0.11965719
149	0x3d0fffb5	0.03515597
150	0x3cb61428	0.022226408
151	0x3dfe15c4	0.12406495
152	0xbdf4a3cc	-0.11945304
153	0x3c10aace	0.0088297855
154	0x3c29020e	0.010315431
155	0x3d7ab1cc	0.061204717
156	0x3d9a129e	0.07523082
157	0xbe0bb79d	-0.13644262
158	0x3ce9560b	0.028483411
159	0x3c47e839	0.012201362
160	0x3dfbabcc	0.12288627
161	0xbdd7243a	-0.105049565
162	0xbd53841a	-0.051639654
163	0x3d4b6919	0.049660776
164	0x3d62f924	0.05541338
165	0xbde0b0c3	-0.109712146
166	0x3dad7457	0.08469456
167	0x3d409f61	0.047026996
168	0x3d147906	0.03624823
169	0xbc81c584	-0.015841253
170	0x3d71085c	0.058845863
171	0x3d93b99e	0.07213138
172	0x3d9e9166	0.07742576
173	0xbd56753a	-0.05235789
174	0x3df129f4	0.1177558
175	0xbc3e86a8	-0.011628784
176	0x3ce5c332	0.028047178
177	0x3d995656	0.074871704
178	0xbcc3f548	-0.02392067
179	0xbd87eaf5	-0.06636611
180	0x3d821c3d	0.06353042
181	0x3d9ff1be	0.078097805
182	0x3ca65037	0.020301921
183	0x3d376418	0.04477319
184	0x3cfbe7f3	0.03075025
185	0xbdace177	-0.084414415
186	0x3d987eb6	0.07446043
187	0x3cc048a9	0.023472147
188	0x3d8264e6	0.06366901
189	0xbd967346	-0.073462054
190	0x3d82bd2c	0.06383738
191	0xbdb03698	-0.08604163
192	0xbdc379d9	-0.09544725
193	0x3b89ce8c	0.0042055305
194	0xbe1a3c06	-0.1506196
195	0xbd3b50c8	-0.045731336
196	0x3dfc96f4	0.123334795
197	0x3cd40821	0.025882782
198	0x3d145f3e	0.036223643
199	0x3c561909	0.013067492
200	0xbda05fe7	-0.07830792
201	0xbdb40598	-0.087901294
202	0xbdd1d98a	-0.102465704
203	0xbdb3ca38	-0.087788045
204	0x3d69272b	0.05692212
205	0xbe321648	-0.17391312
206	0xbdaa5457	-0.08316868
207	0xbdf76abc	-0.12080905
208	0x3d9d5d96	0.07683866
209	0x3d76675c	0.060157165
210	0x3d76594c	0.060143754
211	0x3c938f6d	0.018012727
212	0xbbd59f29	-0.0065192175
213	0x3df80633	0.121105574
214	0xbdf8b78c	-0.12144384
215	0x3decb2fb	0.11557575
216	0x3d1fd72e	0.03902357
217	0x3d76f014	0.06028755
218	0x3d157c66	0.03649559
219	0xbdcec609	-0.10096366
220	0x3d33b6b0	0.043875396
221	0x3d9697fe	0.07353209
222	0xbcaf3bcf	-0.021390824
223	0xbdc9c339	-0.09851689
224	0x3d9ecd8e	0.0775405
225	0x3d7dc22b	0.06195275
226	0x3dfc629c	0.12323496
227	0xbcce2c21	-0.025167527
228	0x3dc2f5d1	0.09519542
229	0xbdc48b49	-0.09596879
230	0x3e0386bd	0.12844367
231	0xbdca2be9	-0.098716564
232	0x3dbacf18	0.09121531
233	0x3d1601fe	0.036622994
234	0x3d1a6e06	0.037702583
235	0x3e1909c6	0.14945135
236	0x3d1f4066	0.038879775
237	0xb93a4ef8	-0.0001776776
238	0x3e1b8bf6	0.1519011
239	0x3dc37b68	0.09545022
240	0x3d5bff32	0.05371017
241	0xbd7bc8b4	-0.061470702
242	0xbc627b5a	-0.013823355
243	0xbccd1151	-0.025032671
244	0xbdd75c7a	-0.105156854
245	0xbdb226b0	-0.08698785
246	0xbd0f3625	-0.034963746
247	0xbd927a15	-0.071521915
248	0x3d8669cd	0.06563149
249	0x3af53133	0.0018706679
250	0xbdb91a60	-0.09038234
251	0x3d440b29	0.047862206
252	0xbde99a03	-0.114063285
253	0x3d29c626	0.041448735
254	0xbc879e65	-0.01655502
255	0x3da0ca26	0.07851057

net.2.weight f4 [256, 256]
0	0x3e39d388	0.18147099
1	0x3cced5a9	0.025248365
2	0x3e6b329a	0.22968522
3	0x3cee0dda	0.02905934
4	0xbda51ad6	-0.08061759
5	0xbc11b3a5	-0.008892928
6	0xbd08866c	-0.03333132
7	0xbc1ae336	-0.009453585
8	0x3e11b2de	0.14228389
9	0x3cb1fa28	0.02172573
10	0x3e079a7c	0.13242525
11	0x3e92dede	0.2868566
12	0x3e0902a5	0.13379915
13	0x3c635233	0.013874578
14	0x3de1b5b3	0.110209845
15	0x3e351e10	0.17687249
16	0x3c86331d	0.016381795
17	0x3e491b41	0.19639303
18	0xbc3fb438	-0.011700682
19	0x3e3075e0	0.17232466
20	0x3e08dded	0.13365908
21	0x3d575d42	0.052579172
22	0x3e18748e	0.14888212
23	0x3ce28d53	0.02765528
24	0x3e83adcd	0.25718537
25	0xbe8d0535	-0.27543035
26	0xbe08f624	-0.13375145
27	0xbe2b2f16	-0.1671718
28	0xbe0b390c	-0.1359598
29	0xbcd7dbd2	-0.026349936
30	0x3e0d5e45	0.13805492
31	0x3d55ae02	0.0521679
32	0x3e062e6d	0.13103648
33	0xbce40452	-0.027834091
34	0x3e07e0cd	0.13269348
35	0x3e1d03be	0.15333459
36	0x3e29660f	0.16542839
37	0x3e003deb	0.1252362
38	0xbcfd0903	-0.030888086
39	0x3caf006f	0.021362511
40	0xbe1d022e	-0.15332863
41	0x3e3153c0	0.17317104
42	0xbca2e3a6	-0.019883942
43	0x3a3cd1ef	0.00072029134
44	0x3d1be376	0.03805872
45	0xbd77e883	-0.060524475
46	0xbd9cbd6d	-0.076533176
47	0x3d1b3926	0.037896298
48	0xbd49f3a8	-0.049304634
49	0xbb347f77	-0.0027541795
50	0xbe30c657	-0.1726316
51	0x3d2d7136	0.042344294
52	0xbdde7031	-0.108612426
53	0xbdf11a52	-0.11772598
54	0x3bcc6891	0.006238051
55	0x3e163e26	0.14672145
56	0xbc86589c	-0.016399674
57	0xbdb854b7	-0.09000533
58	0xbe39f777	-0.18160807
59	0xbe22644e	-0.15858576
60	0xbd3761bf	-0.044770952
61	0x3db979af	0.090564124
62	0x3e4282f9	0.18995275
63	0x3db3016f	0.08740508
64	0xbd6b856b	-0.057500284
65	0xbd11a7ed	-0.035560537
66	0x3d939356	0.072058365
67	0x3e561522	0.20906499
68	0x3d5bfc12	0.05370719
69	0xbe293efe	-0.16527936
70	0xbe044ad4	-0.1291917
71	0xbc450e88	-0.01202739
72	0x3d9b2a4e	0.07576428
73	0xbd23c0be	-0.039978735
74	0x3e32be40	0.17455387
75	0x3b9cd02d	0.0047855587
76	0xbdfdac4b	-0.12386378
77	0xbd58ef99	-0.052962873
78	0xbb9386d5	-0.004502157
79	0x3e3120f8	0.17297733
80	0x3d0be425	0.034153122
81	0x3ba4ab1e	0.0050252816
82	0x3e576e71	0.21038224
83	0xbd103ca6	-0.03521409
84	0xbdd26949	-0.10273988
85	0x3c9c0da6	0.019049477
86	0x3def9f6b	0.117003284
87	0xbb394acf	-0.002827335
88	0xbec4a830	-0.38409567
89	0xbceec31a	-0.029145766
90	0x3bff379c	0.0077886116
91	0x3e16c486	0.14723405
92	0x3da25d46	0.07927947
93	0xbd455fc8	-0.048187047
94	0xbd426228	-0.04745689
95	0x3d133b0e	0.03594499
96	0xbdef4bd2	-0.116843835
97	0x3e6dffcb	0.23242109
98	0xbaa792de	-0.0012784859
99	0x3d1dc3ee	0.03851693
100	0x3d1840fd	0.037171353
101	0xbdb58e8f	-0.088650815
102	0x3e23422e	0.15943214
103	0x3e5db25a	0.21650067
104	0x3cd37f69	0.02581759
105	0xbe66d632	-0.22542647
106	0xbd437780	-0.047721386
107	0x3d4c2a10	0.0498448
108	0x3d8de3dd	0.06928227
109	0x3e0b43fd	0.13600154
110	0xbe28fa3e	-0.1650171
111	0xbe0d50fc	-0.13800424
112	0xbdf27213	-0.11838164
113	0xbe128055	-0.14306767
114	0x3de6699b	0.112506114
115	0xbd044f84	-0.032302395
116	0xbe0c33d4	-0.13691646
117	0x3d8358a4	0.06413391
118	0xbd90692d	-0.07051311
119	0xbe80781e	-0.25091642
120	0xbe87047c	-0.2637061
121	0xbd69ea7a	-0.05710838
122	0x3e373dd0	0.17894673
123	0x3d4237f9	0.04741666
124	0xbcfeefbb	-0.031120172
125	0x3e897fa4	0.26855195
126	0xbc358917	-0.011080048
127	0x3e1d31d6	0.15351042
128	0x3cacb1cf	0.02108088
129	0x3e35c220	0.17749834
130	0x3e122cbe	0.1427488
131	0xbea0a636	-0.3137681
132	0x3e5a74aa	0.21333566
133	0xbcbd1907	-0.023083223
134	0xbe2bd006	-0.16778573
135	0x3db32560	0.08747363
136	0x3e244bcf	0.16044544
137	0xbe58d829	-0.21176209
138	0xbd37ab2f	-0.044840988
139	0x3de5fe93	0.11230197
140	0xbdd31c31	-0.103081115
141	0x3cbeaa98	0.023274705
142	0x3c8544d4	0.016268171
143	0x3c72840c	0.01480199
144	0xbe03f4e4	-0.12886387
145	0x3dd8a6f1	0.105787165
146	0x3e17be86	0.14818773
147	0x3d85378d	0.06504736
148	0xbc915a96	-0.01774339
149	0x3d90d756	0.07072322
150	0xbdad3e6e	-0.08459173
151	0x3d9bf56e	0.076151714
152	0x3e1d5116	0.15362963
153	0xbd0e1064	-0.0346836
154	0x3dcd6bf1	0.10030354
155	0xbd266eaf	-0.0406329
156	0x3ddaa9ca	0.10676916
157	0x3e25b19f	0.16181038
158	0x3e09b26d	0.1344697
159	0x3d8ccdbc	0.06875178
160	0x3e673fab	0.22582881
161	0xbe100145	-0.14062984
162	0xbd88019c	-0.06640932
163	0x3d3080d0	0.043091595
164	0x3e8ba1bd	0.27271834
165	0x3d3e4c10	0.046459258
166	0x3d857ddd	0.06518147
167	0xbd85ec05	-0.06539158
168	0xbdeb1fda	-0.114806846
169	0x3e1dca2e	0.15409157
170	0x3ddc1f3a	0.107481435
171	0xbd9c163d	-0.07621429
172	0x3d519b09	0.051173244
173	0xbdff7deb	-0.12475189
174	0x3e657a8b	0.22410028
175	0xbd91eb1d	-0.071249224
176	0x3e135e36	0.14391407
177	0x3d4d0980	0.050057888
178	0x3ea85567	0.32877657
179	0x3d549652	0.05190117
180	0xbd257a26	-0.040399693
181	0x3e5f6bc2	0.2181845
182	0xbd0b8efc	-0.034071907
183	0xbc76e203	-0.015068534
184	0xbe404b00	-0.1877861
185	0x3d9703ce	0.073737726
186	0x3c5f6262	0.013634296
187	0x3e03aaad	0.12858076
188	0xbe9bf635	-0.3046128
189	0x3cbcfa90	0.023068696
190	0xbe27590f	-0.16342567
191	0x3cf7edfc	0.030264847
192	0xbd707af3	-0.058711004
193	0xbd7f97b3	-0.06240053
194	0x3e5f7202	0.21820834
195	0x3e3ddde7	0.1854168
196	0xbc82867c	-0.015933268
197	0xbbb398ff	-0.005480885
198	0x3bb708b0	0.0055857524
199	0x3e1f7e1e	0.15575454
200	0x3e456221	0.19275714
201	0xbdf7165b	-0.12064811
202	0xbdcddae0	-0.10051513
203	0x3ca669ff	0.020314215
204	0xbdaec126	-0.08532934
205	0x3d286376	0.04111048
206	0xbedf0889	-0.435612
207	0xbcdc0701	-0.026858808
208	0xbe034c25	-0.12822016
209	0x3e3b3bb0	0.18284488
210	0x3dd21bf2	0.102592364
211	0xbd92cc1d	-0.07167838
212	0x3e3874c0	0.18013287
213	0x3e5b767a	0.21431914
214	0xbd9a55cd	-0.075358965
215	0x3ca8b0cf	0.020592121
216	0x3e16614e	0.14685556
217	0xbe349620	-0.17635393
218	0xbdf4c94b	-0.11952456
219	0xbd5f8011	-0.054565493
220	0xbdb7abf8	-0.08968347
221	0xbca9f9b6	-0.020748954
222	0xbeb07067	-0.34460756
223	0x3c28d19f	0.010303884
224	0x3e46b3a0	0.19404459
225	0x3de2f153	0.11081185
226	0x3c666a63	0.0140634505
227	0xbe1d937d	-0.15388294
228	0xbdc53598	-0.09629363
229	0x3ce288a3	0.027653044
230	0x3e1a5a7d	0.15073581
231	0xbeaf05e6	-0.34184188
232	0x3ca4070f	0.020022897
233	0xbd3e9af8	-0.04653451
234	0xbe19cf6d	-0.15020533
235	0xbe060c0d	-0.13090535
236	0x3d524a09	0.051340137
237	0xbe0216c5	-0.12703998
238	0xbe29809f	-0.16552971
239	0xbd38d668	-0.04512635
240	0x3e40dea9	0.18834938
241	0xbdc4b7d0	-0.09605372
242	0xbe2ecc16	-0.1707004
243	0x3d4f7ff8	0.05065915
244	0xbe07b2b4	-0.13251764
245	0x3dd27372	0.10275926
246	0xbde7fd82	-0.1132765
247	0xbdb915af	-0.09037339
248	0xbd39bcdf	-0.045346137
249	0x3e09c07c	0.13452333
250	0xbdc890f8	-0.097932756
251	0x3d191af6	0.037379228
252	0xbde29b62	-0.11064793
253	0x3e1a6ece	0.15081331
254	0xbe22be26	-0.15892848
255	0xbd8722f4	-0.06598464

net.2.bias f4 [256]
0	0x3d0b390d	0.033989955
1	0x3d740d04	0.059582725
2	0xbd974a1e	-0.073871836
3	0x3d953166	0.07284813
4	0x3db5df08	0.088804305
5	0x3d62cef3	0.055373143
6	0xbccaf321	-0.024774136
7	0x3d95acd6	0.073083565
8	0xbcecb7ab	-0.028896173
9	0xbc7e91fc	-0.015537735
10	0xbba69f1f	-0.0050848867
11	0xbd16d1ce	-0.03682118
12	0x3d8a0f64	0.06741217
13	0xbd7c2034	-0.06155415
14	0x3d8e0255	0.069340385
15	0xbc3a19d8	-0.011358701
16	0x3d147135	0.036240775
17	0x3d6e047b	0.05810974
18	0x3dab62a7	0.08368426
19	0x3d07e57c	0.033177838
20	0x3daab91f	0.0833609
21	0x3d557b39	0.052119467
22	0x3c16dd85	0.009208088
23	0x3d9459c5	0.07243685
24	0x3d1d09fe	0.038339607
25	0x3cd7e789	0.026355522
26	0x3daccf7f	0.08438014
27	0xbc9b19e6	-0.018933248
28	0x3da704af	0.0815519
29	0xbc1b2346	-0.009468859
30	0x3d4c2179	0.04983661
31	0x3d9459c6	0.072436854
32	0x3dcfb131	0.101412185
33	0x3d294156	0.041322075
34	0x3d98d0be	0.074616894
35	0x3d419bb8	0.047267646
36	0x3d22e14f	0.039765652
37	0xbcd99e9a	-0.026564885
38	0x3dadf3ae	0.08493744
39	0xb8a6aebf	-7.948046e-05
40	0x3d84950d	0.06473742
41	0xbd5a8daa	-0.053357758
42	0xbd0d014d	-0.03442507
43	0x3cad51f6	0.021157246
44	0x3ba4138f	0.0050072144
45	0x3d940d36	0.07229082
46	0x3c418f38	0.011813931
47	0xbcb5a470	-0.022173136
48	0x3d0bb92d	0.034112144
49	0x3cfb288c	0.030658983
50	0x3db378f8	0.08763307
51	0xbd3a9480	-0.045551777
52	0x3d629cf2	0.055325456
53	0x3ca6f69f	0.02038127
54	0x3d89fb15	0.06737343
55	0x3d7cd894	0.061729982
56	0xbcda8e72	-0.026679251
57	0x3da28456	0.07935397
58	0x3ccf4d30	0.02530536
59	0x3cfde6e4	0.030993886
60	0xbd55ea2a	-0.05222527
61	0x3d6797f3	0.056541394
62	0x3c963bcd	0.018339062
63	0x3ce9aa6a	0.028523643
64	0xbd65537b	-0.055987816
65	0xbcdd13c2	-0.02698696
66	0x3d373aaf	0.0447337
67	0x3d85b48d	0.06528578
68	0x3d661793	0.056174826
69	0x3d3b0b3f	0.045665022
70	0xbcbc8d30	-0.023016542
71	0x3d83fa5d	0.064442374
72	0x3d9a0a05	0.07521442
73	0x3d54e472	0.051975675
74	0x3d3ca94f	0.046059903
75	0xbd04be75	-0.032408196
76	0xbd20c897	-0.039253797
77	0xbd56c5b2	-0.05243463
78	0x3d3d8e38	0.04627821
79	0x3a9a52ad	0.0011773907
80	0x3d95962e	0.07304035
81	0xbcbf6b90	-0.02336672
82	0x3d6e9c0a	0.05825428
83	0x3d873b2d	0.06603084
84	0xba8887fd	-0.0010416504
85	0x3c8f2fe4	0.01747889
86	0xbc9f700e	-0.019462612
87	0x3d9cc9ee	0.076557025
88	0xbb314677	-0.0027050057
89	0xbd2516ef	-0.040305074
90	0x3d9e698e	0.07734977
91	0x3d9ec686	0.07752709
92	0x3d71580c	0.05892186
93	0x3d59c4e2	0.053166278
94	0xbc29aa07	-0.010355479
95	0xbcbb0c08	-0.022832885
96	0x3d8ea0ed	0.06964288
97	0x3d86a2d5	0.065740265
98	0x3cd8c0b9	0.026459085
99	0xbd72471c	-0.059149846
100	0x3ca06306	0.019578468
101	0xbceb1103	-0.028694635
102	0x3d8787bd	0.06617687
103	0x3d57c5f1	0.052679006
104	0x3c894c14	0.01675991
105	0xbc8acf95	-0.016944686
106	0x3c9fc215	0.019501725
107	0xbd4e1d49	-0.050320897
108	0x3d713994	0.0588928
109	0x3d1f1bae	0.038844757
110	0x3c00da5c	0.007864561
111	0x3dade7f7	0.084915094
112	0xbc30a19f	-0.010780721
113	0x3d74c6f3	0.059760045
114	0x3d75c414	0.060001448
115	0x3de76912	0.112993374
116	0x3d9b4cae	0.07582985
117	0x3d80fd85	0.06298355
118	0xbd354390	-0.044253886
119	0xbd23215f	-0.039826747
120	0xbd88f625	-0.06687573
121	0x3dd11bb2	0.102103606
122	0xbcea9c9b	-0.028639128
123	0x3d039bd5	0.032131035
124	0xbc9a0a06	-0.018803608
125	0x3d042b95	0.032268126
126	0x3db1c760	0.08680606
127	0xbd5e1bd2	-0.05422575
128	0x3ca21ba7	0.019788576
129	0x3d87bc14	0.0662767
130	0xbd62abcb	-0.055339616
131	0xbd0954ad	-0.03352802
132	0x3d8961f5	0.06708137
133	0x3bd98729	0.006638427
134	0x3d4ef80a	0.050529517
135	0x3d80e86d	0.06294332
136	0x3d38bca0	0.04510176
137	0x3d86e475	0.065865435
138	0x3cc9fc40	0.024656415
139	0xbda52437	-0.08063548
140	0x3d0a7a6c	0.033808157
141	0x3d8f97cd	0.070113756
142	0x3bec1e8a	0.007205789
143	0xbc9055a6	-0.017618965
144	0xb993013d	-0.00028038947
145	0x3dacc556	0.08436076
146	0x3d81da9d	0.06340525
147	0x3d431449	0.047626767
148	0x3d9e80fe	0.07739447
149	0x3d98b3d6	0.07456176
150	0xbba9ab96	-0.0051779253
151	0x3d0d0dcd	0.03443699
152	0xbd2848e7	-0.04108515
153	0xbbf02ff4	-0.007329935
154	0x3da9f75f	0.082991354
155	0x3c139995	0.009008785
156	0xbd383c80	-0.044979572
157	0x3da5637f	0.08075618
158	0xbd18f0c6	-0.037338994
159	0xbdad07bf	-0.08448743
160	0x3d907e46	0.07055335
161	0x3d8c77cd	0.06858788
162	0xbd3c5428	-0.045978695
163	0x3d55704a	0.05210904
164	0x3c067fac	0.00820915
165	0x3d13f2a6	0.03612008
166	0x3d40dc50	0.047085106
167	0xbd0ef2f5	-0.03489967
168	0x3d3c43c0	0.04596305
169	0x3d334950	0.043771088
170	0x3d68110b	0.05665688
171	0xbd73349c	-0.059376344
172	0xbcea820b	-0.028626462
173	0x3cd9d9f9	0.026593195
174	0xbc41fc99	-0.011840009
175	0x3d9192d6	0.07108085
176	0x3cf013d3	0.029306328
177	0x3d80d5ad	0.062907554
178	0x3d3c35af	0.045949634
179	0xbcccb2c9	-0.024987595
180	0x3d816955	0.063189186
181	0xbccc5ff9	-0.024948107
182	0x3da2b977	0.07945531
183	0x3cd8ef99	0.026481437
184	0x3dbe89c8	0.093036234
185	0xbc570752	-0.013124304
186	0x3d7cc05c	0.061706886
187	0xbc9ff286	-0.019524824
188	0x3db623c8	0.088935435
189	0x3d2455f6	0.04012104
190	0x3d84abb5	0.06478063
191	0xbd9a99c6	-0.07548861
192	0x3d77ac5c	0.06046711
193	0x3d7beca4	0.061504975
194	0xbbfa46c4	-0.0076378305
195	0xbc2aabd7	-0.010416946
196	0xbcb45d18	-0.022017047
197	0xbd1e4346	-0.038638376
198	0xbcc291d0	-0.02375117
199	0x3d3c18c8	0.04592207
200	0x3d74d9b4	0.05977793
201	0x3d945a8e	0.072438344
202	0x3ceb9ffa	0.028762806
203	0xbb7a31ac	-0.003817658
204	0xbd859ead	-0.06524406
205	0x3da188c7	0.07887416
206	0xbc8e1835	-0.017345527
207	0x3d96c86e	0.07362448
208	0xbbb11608	-0.0054042377
209	0xbd991646	-0.074749514
210	0x3ddee62a	0.10883744
211	0x3d11a1ad	0.035554577
212	0x3d850015	0.06494156
213	0x3d034e7c	0.03205727
214	0x3d301ff0	0.042999208
215	0xbd41f1a9	-0.047349606
216	0x3cf3281b	0.02968221
217	0x3d44c518	0.048039526
218	0x3d88dded	0.06682954
219	0xbc4193e9	-0.01181505
220	0x3d8ed2ed	0.06973825
221	0x3ce08692	0.027407918
222	0x3db20db0	0.08694017
223	0x3d45bfe0	0.04827869
224	0xbcc825f1	-0.024432154
225	0x3dd76ce2	0.105188146
226	0xbc8e5525	-0.017374584
227	0x3db5f5af	0.08884751
228	0x3d359597	0.044332113
229	0x3d815375	0.06314746
230	0xbd4a84f9	-0.04944322
231	0xbcbfb500	-0.023401737
232	0xbcc93b49	-0.024564402
233	0x3c84e32c	0.016221605
234	0xbc30aa38	-0.010782771
235	0xbd56a352	-0.05240185
236	0x3c10214d	0.008797002
237	0x3d54b1aa	0.051927246
238	0xbd02e43d	-0.031955946
239	0xbd732b3c	-0.059367403
240	0x3d483bd1	0.04888517
241	0xbcfabe4c	-0.030608319
242	0x3db27bd8	0.087150276
243	0x3d6c6413	0.057712626
244	0x3d717f1c	0.05895911
245	0x3db72bd7	0.08943909
246	0xbd1b353e	-0.037892573
247	0x3cc3f7a1	0.02392179
248	0xbd6b4303	-0.057436954
249	0x3d4c6891	0.04990441
250	0xbd9386d6	-0.07203452
251	0x3d8ef09c	0.06979486
252	0xbda8b0cf	-0.082368486
253	0x3d6c1c33	0.05764408
254	0x3daf1a37	0.08549922
255	0x3bb20c1f	0.005433574

net.4.weight f4 [1, 256]
0	0xbe91b536	-0.28458565
1	0xbee72133	-0.45142516
2	0x3f7f153b	0.9964177
3	0xbece1321	-0.4024897
4	0xbf019c1d	-0.50628835
5	0xbee457eb	-0.44598326
6	0x3ee110da	0.4395817
7	0xbf4286e1	-0.7598706
8	0x3f7783bb	0.9668538
9	0xbd7373e3	-0.05943669
10	0x3f827d1c	1.019443
11	0x3f840d1c	1.0316501
12	0x3ec61120	0.3868494
13	0x3f8b4334	1.0879884
14	0xbf2fc2f7	-0.6865687
15	0x3f1a5505	0.6028598
16	0x3f179ced	0.59223825
17	0xbf03e095	-0.5151456
18	0xbf02f3dd	-0.51153356
19	0x3f728983	0.94741076
20	0xbf55f132	-0.8357116
21	0x3ef6fa3b	0.48237786
22	0x3f521101	0.82057196
23	0x3e93301d	0.28747645
24	0xbec1b3f1	-0.37832597
25	0x3f2894ae	0.6585187
26	0xbf0aa565	-0.5415862
27	0x3d9e8a5d	0.077412345
28	0xbf9230a6	-1.1421096
29	0xbdccf468	-0.10007554
30	0xbf090d95	-0.5353635
31	0xbf13c3c6	-0.577206
32	0xbf2b1937	-0.6683535
33	0x3f0d66dc	0.55235076
34	0xbf1e634e	-0.61870277
35	0x3ed16db9	0.40904024
36	0xbeab73d7	-0.33486816
37	0x3f226e76	0.634498
38	0x3f21c35e	0.6318873
39	0x3f468588	0.775475
40	0xbedb82fa	-0.42873365
41	0x3f7e00ab	0.9921977
42	0x3f21898e	0.63100517
43	0x3f6ba63a	0.92050517
44	0xbea297df	-0.31756493
45	0xbf384db0	-0.7199354
46	0x3f109f15	0.5649274
47	0x3e2f5a46	0.1712428
48	0xbf143766	-0.5789703
49	0xbee55da3	-0.44798002
50	0xbee8f913	-0.4550253
51	0x3ecb4140	0.3969822
52	0x3f1c6dbd	0.6110495
53	0xbf3858a0	-0.7201023
54	0xbf0f5add	-0.5599802
55	0xbf5d3302	-0.86405957
56	0x3f3b9c8f	0.73285764
57	0x3f2d7cee	0.6776875
58	0x3f81e0dc	1.0146747
59	0xbee70e73	-0.4512821
60	0x3f1ffa55	0.6249135
61	0xbf2779df	-0.65420336
62	0x3f88591c	1.0652194
63	0x3ee87442	0.45401198
64	0x3f9d455d	1.2286793
65	0x3f516391	0.8179255
66	0x3f0b232c	0.54350543
67	0xbedcf7a2	-0.4315768
68	0xbf2966d7	-0.66172546
69	0x3f03c08c	0.5146568
70	0x3f17ff5d	0.5937403
71	0xbeefc1cb	-0.4682754
72	0x3eccaaf8	0.3997419
73	0xbf95ad9e	-1.1693609
74	0x3f17dc35	0.59320384
75	0x3e224446	0.15846357
76	0x3f7ffa23	0.99991053
77	0x3eb3656f	0.35038325
78	0xbf55d12a	-0.83522284
79	0x3f0b4d5c	0.54414916
80	0xbefe3ff4	-0.49658167
81	0x3f6364f2	0.88825905
82	0x3ea9dfee	0.33178657
83	0xbed9cd7a	-0.4253958
84	0x3ea213d6	0.3165576
85	0x3f33ee27	0.70285267
86	0x3e0040a6	0.12524661
87	0xbef37bb4	-0.47555315
88	0x3e8382d5	0.25685754
89	0x3f419578	0.75618696
90	0xbed327ea	-0.4124139
91	0xbeef3913	-0.46723232
92	0xbf0c81f5	-0.548858
93	0xbf09a5ed	-0.5376881
94	0x3f780f93	0.96898764
95	0xbdce17d0	-0.100631356
96	0xbf19d8ce	-0.6009644
97	0xbf021855	-0.5081838
98	0x3f5db3e9	0.86602646
99	0x3f944aed	1.1585366
100	0x3f2b70b6	0.6696886
101	0x3f19396d	0.5985325
102	0xbefe64ac	-0.49686182
103	0x3f0dc62c	0.5538051
104	0x3f05a4ec	0.52204776
105	0x3f9268e5	1.1438261
106	0x3e6bd5e2	0.23030809
107	0x3f97c26d	1.1856209
108	0xbf0af76d	-0.5428379
109	0xbf20f5e7	-0.6287522
110	0x3f81110c	1.0083327
111	0xbf8d38c5	-1.103295
112	0xbe9362e6	-0.2878639
113	0x3f59c0f9	0.8506008
114	0xbef0919c	-0.4698609
115	0x3ea08246	0.3134939
116	0xbf3f6168	-0.74758005
117	0xbf0b3525	-0.5437797
118	0x3f5bf509	0.8592077
119	0x3f97f91d	1.1872898
120	0x3faa3ce6	1.3299835
121	0xbf482c31	-0.7819243
122	0x3f467070	0.77515316
123	0xbf10485e	-0.56360424
124	0x3e730cc3	0.23735337
125	0xbe7db8cc	-0.24777526
126	0xbf6a4903	-0.9151766
127	0x3f0b8344	0.5449717
128	0xbf209cd7	-0.6273932
129	0x3ef64753	0.4810129
130	0x3f8fdfac	1.1240134
131	0x3f7bb84b	0.98328084
132	0xbf62cef3	-0.8859703
133	0x3f84e19c	1.038135
134	0xbf18987e	-0.59607685
135	0xbedb5032	-0.42834622
136	0xbef2a34c	-0.4739021
137	0xbee7fe4b	-0.45311198
138	0x3f097324	0.53691316
139	0x3f895a24	1.0730634
140	0x3f8b36b4	1.0876069
141	0xbee2fd0b	-0.4433368
142	0x3eecea72	0.46272618
143	0x3f472420	0.777895
144	0xbf30ae20	-0.69015694
145	0x3ebced47	0.36899778
146	0xbf1bdec6	-0.608868
147	0xbef44224	-0.4770671
148	0xbf2f69e7	-0.6852097
149	0xbf322908	-0.6959386
150	0xbeba5ab0	-0.36397314
151	0xbf46bc39	-0.77630955
152	0x3fa14ef6	1.2602222
153	0x3d2d7b5e	0.04235398
154	0xbec6d791	-0.3883634
155	0x3ed1aaa9	0.40950516
156	0x3f88866c	1.0666022
157	0xbeebc323	-0.46047315
158	0x3f6641c2	0.8994409
159	0x3f270e0e	0.6525582
160	0xbf829235	-1.0200869
161	0xbf04e19d	-0.5190676
162	0x3f930f4d	1.1489044
163	0xbf006c03	-0.5016481
164	0x3f3e77cf	0.74401563
165	0xbf27d097	-0.6555266
166	0xbe2ed256	-0.17072424
167	0x3f1de64d	0.61679536
168	0xbecc5f31	-0.39916375
169	0xbf736e6c	-0.95090365
170	0xbf189306	-0.5959934
171	0x3f98dc75	1.1942278
172	0x3f5aecf9	0.8551784
173	0x3f56d2f9	0.8391567
174	0x3f6243e2	0.8838483
175	0xbee6aa73	-0.45051917
176	0x3f3412df	0.70341295
177	0xbf3ec140	-0.74513626
178	0x3f073f14	0.52830625
179	0x3eaea75e	0.34112066
180	0xbf6e623b	-0.9311864
181	0x3f76f58b	0.9646842
182	0xbf5a4c0a	-0.85272276
183	0x3ef0c52b	0.47025427
184	0xbf1e2726	-0.61778486
185	0x3e42b4f8	0.19014347
186	0xbf0c4375	-0.5479043
187	0x3f4117b0	0.7542677
188	0xbf3998f0	-0.7249899
189	0x3f07a3dc	0.52984405
190	0xbeb7e8e8	-0.3591988
191	0x3f9524e5	1.1651884
192	0xbee2f473	-0.44327125
193	0xbf195c96	-0.599069
194	0x3f053b74	0.52043843
195	0x3f7a0f4b	0.97679585
196	0x3f2aefce	0.6677216
197	0x3f2ca616	0.6744093
198	0x3bd92582	0.0066267857
199	0xbf979456	-1.1842144
200	0xbf1b3c46	-0.60638845
201	0xbef76d14	-0.48325408
202	0x3f24ce46	0.6437725
203	0x3f8158ec	1.0105262
204	0x3efed913	0.4977499
205	0xbf0859e5	-0.5326217
206	0x3f85233c	1.0401378
207	0xbf04969d	-0.5179232
208	0x3ec4a060	0.38403606
209	0x3f8d4ea4	1.1039624
210	0xbf44a831	-0.7681914
211	0x3ec40fd8	0.38293338
212	0xbef2697c	-0.47346103
213	0x3f796c03	0.9743044
214	0xbefaf9ac	-0.4901861
215	0x3f78a33b	0.9712407
216	0x3f6fcf12	0.9367534
217	0x3f764f23	0.96214503
218	0xbed47582	-0.414959
219	0x3f6f1e82	0.93405926
220	0xbf473f79	-0.77831227
221	0x3ee4484a	0.44586402
222	0xbf11a276	-0.5688852
223	0x3ef353db	0.47524914
224	0x3f0766ec	0.5289142
225	0xbee70f3b	-0.45128807
226	0xbb5fd53a	-0.0034154193
227	0x3eb3f917	0.35150978
228	0x3f01d77c	0.5071943
229	0xbf0b507d	-0.5441969
230	0x3f712d13	0.942094
231	0x3f589a71	0.8461066
232	0x3fa5b716	1.2946498
233	0x3ef4b9ab	0.47797903
234	0x3f681fe2	0.9067365
235	0x3f333f27	0.7001824
236	0x3ec339c8	0.3813002
237	0xbed286fa	-0.41118604
238	0x3de2a58a	0.1106673
239	0x3f9654cd	1.1744629
240	0xbed56a0a	-0.41682464
241	0x3f20817e	0.6269759
242	0xbf2d9397	-0.6780333
243	0xbf32e870	-0.6988592
244	0xbeaf3657	-0.34221146
245	0x3f6fb2f2	0.93632424
246	0x3f856734	1.042212
247	0xbe65ae1b	-0.22429697
248	0x3f98e50d	1.1944901
249	0xbf098135	-0.5371278
250	0x3f941f2d	1.1572014
251	0x3ec54538	0.38529372
252	0x3ed99e99	0.42503813
253	0xbed48a9a	-0.41511995
254	0xbf0b0fa5	-0.54320747
255	0x3f7555eb	0.95834225
