output/CarlaNavigation-v0/wcsac/4/actor.pt (torch, 535763 bytes, 7 tensors)

action_log_std f4 [1, 2]
-0.91274375 -2.4422412
00000000: 93a9 69bf ae4d 1cc0

linear1.weight f4 [256, 261]
0.15209697 0.1382774 0.8536552 -0.61062515 0.34328008 -0.17422684 0.057658833 0.23376617
-0.06358351 0.045389883 -0.12601863 -0.1460926 -0.078713275 -0.10828411 0.14928693 0.0021188003
0.16962637 0.36024913 -0.31466007 -0.025946112 -0.27244863 0.4136604 0.40506205 0.29308596
-0.1298442 -0.32267302 0.18238424 -0.24135672 0.39608088 -0.14698654 -0.1813163 -0.024605663
0.37831855 0.036948428 0.22163917 0.048846297 -0.1379204 0.4557063 -0.09384564 0.076928206
0.08201834 -0.1202451 0.5478991 -0.09015147 0.03273186 -0.035822812 0.15844008 -0.18584031
0.019104173 0.07591018 0.021991745 -0.17250402 0.13963974 -0.2799936 -0.1791598 0.4255072
0.13105324 0.20906658 -0.23120667 -0.021759177 -0.2112411 0.3872712 0.05426726 0.13803859
0.37013564 -0.17829964 0.068553835 0.3746671 0.10544672 0.17360865 -0.16359317 -0.04742829
0.3567041 0.18732531 -0.27516925 0.4286466 0.38432962 -0.083427556 0.035743587 0.09431576
0.08581726 -0.24749999 -0.095513396 0.08821099 0.24338855 -0.044496626 0.17221352 -0.2001046
-0.07117752 -0.061166983 0.30326802 0.05719177 -0.34119844 -0.45938516 -0.06828356 0.24311253
0.16098507 -0.0033295865 -0.20254327 -0.021185631 -0.15123567 -0.051369123 0.069577634 0.1617376
-0.28325737 -0.08561797 0.18725921 0.24707155 0.53375643 0.32056662 0.21019454 -0.3493181
-0.040114593 -0.029850705 -0.014426931 0.33582348 0.009887046 0.17306891 0.29252765 0.16699122
-0.12721041 0.11056989 -0.02451918 0.009106061 0.13494705 -0.01988862 0.2473568 -0.23182875
0.13362792 0.1914868 0.44603762 -0.020952404 0.072603926 -0.3975102 -0.028819524 0.04809448
0.16875425 0.33246395 -0.18859868 -0.2871221 -0.050637018 0.1332056 -0.005253717 0.21962461
0.24713586 -0.1980311 0.082644336 -0.008113444 0.1266283 -0.019388143 -0.034166697 -0.06668249
0.22907357 -0.110233866 0.039338954 -0.21491145 -0.21847953 0.10019804 0.019270487 0.067061804
0.06792294 -0.121829234 -0.43402004 -0.17633343 0.26484483 0.28114873 0.18949297 0.29263118
-0.019378746 0.029028704 -0.008473712 -0.0025904013 0.16488072 0.07346227 0.3677319 -0.08207647
0.026037363 -0.11675824 -0.036256514 0.017770113 -0.08956819 -0.20971772 0.2804223 -0.19931222
0.0677178 -0.4021623 -0.07760565 -0.022329252 -0.39996442 0.2843965 -0.029950818 0.3445923
0.12030608 0.2858685 0.2825758 -0.27011192 0.070807114 -0.123720944 0.13708688 0.49675906
-0.32192943 0.036049973 0.0140738655 0.0742093 -0.19659862 0.32808796 -0.08596989 0.29053673
-0.017778777 -0.31013715 -0.04301845 -0.07906789 -0.027304282 -0.22406505 0.15893012 -0.3101912
0.017005367 -0.01849625 0.2926885 0.30837506 0.0063906247 -0.11851557 0.31723192 -0.0058359588
-0.0026060308 0.19666083 -0.11702319 0.29230365 0.02832335 -0.13834 -0.1731624 -0.5616709
0.3365066 0.26027456 0.11300128 -0.08488539 0.10240729 0.08984846 -0.045318194 -0.027486727
-0.1847499 0.05117451 -0.20574835 0.1750421 0.026997402 -0.04602931 -0.030194353 -0.19239242
0.20254876 -0.2138996 -0.04741483 -0.06286009 0.042962197 0.10502691 0.17081703 -0.019209292
00000000: 4fbf 1b3e 9798 0d3e 2689 5a3f ee51 1cbf
00000010: 68c2 af3e 8568 32be ab2b 6c3d 6660 6f3e
00000020: 1238 82bd beea 393d 070b 01be 4c99 15be
00000030: 6d34 a1bd 0fc4 ddbd acde 183e 92db 0a3b
00000040: 89b2 2d3e 9372 b83e 201b a1be f18c d4bc
00000050: 637e 8bbe 4ccb d33e 4b64 cf3e 5d0f 963e
00000060: e1f5 04be 6635 a5be efc2 3a3e 3726 77be
00000070: 1dcb ca3e a483 16be fbaa 39be d191 c9bc
00000080: f8b2 c13e 3c57 173d 61f5 623e 0e13 483d
00000090: 013b 0dbe 5652 e93e 2532 c0bd 898c 9d3d
000000a0: 3bf9 a73d 1043 f6bd 1e43 0c3f 55a1 b8bd
000000b0: d811 063d f1ba 12bd 1e3e 223e ec4c 3ebe
000000c0: 5b80 9c3c cc76 9b3d 0828 b43c e5a4 30be
000000d0: b8fd 0e3e 525b 8fbe ab75 37be 14dc d93e
000000e0: d232 063e 8d15 563e 71c1 6cbe 4d40 b2bc
000000f0: 964f 58be 6948 c63e 5947 5e3d fd59 0d3e
00000100: 6b82 bd3e 2e94 36be f465 8c3d 5ed4 bf3e
00000110: 73f4 d73d 77c6 313e f884 27be 2b44 42bd
00000120: eba1 b63e 35d2 3f3e fce2 8cbe 9177 db3e
00000130: dac6 c43e 11dc aabd de67 123d 9f28 c13d
00000140: f6c0 af3d a370 7dbe 879c c3bd f7a7 b43d
00000150: d93a 793e 1842 36bd be58 303e 38e8 4cbe
00000160: 85c5 91bd 3b8a 7abd f245 9b3e eb41 6a3d
00000170: 90b1 aebe 8834 ebbe 40d8 8bbd 7ef2 783e
00000180: 45d9 243e 3135 5abb 8167 4fbe 7d8d adbc
00000190: 86dd 1abe 6e68 52bd b87e 8e3d 8b9e 253e
000001a0: 1c07 91be 7958 afbd e1c0 3f3e 5300 7d3e
000001b0: 43a4 083f 4f21 a43e 3d3d 573e d2d9 b2be
000001c0: 334f 24bd 7789 f4bc ef5e 6cbc 0ef1 ab3e
000001d0: 47fd 213c fa38 313e 2fc6 953e bfff 2a3e
000001e0: 7243 02be 7772 e23d 73dc c8bc 9731 153c
000001f0: 8f2f 0a3e 76ed a2bc 1a4b 7d3e 8464 6dbe
00000200: c2d5 083e 1e15 443e 0b5f e43e 60a4 abbc
00000210: 5eb1 943d 7586 cbbe ec16 ecbc b8fe 443d
00000220: eacd 2c3e b738 aa3e 0320 41be ab01 93be
00000230: c368 4fbd 0c67 083e 5f27 acbb 46e5 603e
00000240: 2f11 7d3e aac8 4abe 6f41 a93d 40ee 04bc
00000250: d9aa 013e e2d3 9ebc 61f2 0bbd d490 88bd
00000260: 4392 6a3e 4bc2 e1bd e221 213d bf11 5cbe
00000270: 19b9 5fbe a134 cd3d 24dd 9d3c b357 893d
00000280: 2f1b 8b3d 9b81 f9bd e037 debe c090 34be
00000290: be99 873e baf2 8f3e 720a 423e c1d3 953e
000002a0: 2dc0 9ebc 9bcd ed3c 53d5 0abc b9c3 29bb
000002b0: 7ed6 283e 6373 963d 5b47 bc3e b517 a8bd
000002c0: 4f4c d53c f21e efbd b681 14bd a192 913c
000002d0: 876f b7bd 3ec0 56be 8393 8f3e 8118 4cbe
000002e0: a1af 8a3d 38e8 cdbe b6ef 9ebd d6eb b6bc
000002f0: 23c8 ccbe 6b9c 913e 6b5b f5bc 676e b03e
00000300: 0963 f63d 5b5d 923e c6ad 903e 1c4c 8abe
00000310: 5203 913d 6861 fdbd 8160 0c3e 3457 fe3e
00000320: efd3 a4be 23a9 133d 1296 663c 0cfb 973d
00000330: 2651 49be 25fb a73e fb10 b0bd 3bc1 943e
00000340: cca4 91bc 4cca 9ebe 1d34 30bd 59ee a1bd
00000350: 3bad dfbc 4f71 65be 94be 223e 62d1 9ebe
00000360: d74e 8b3c 7385 97bc 44db 953e 56e3 9d3e
00000370: 7268 d13b 4bb8 f2bd 396c a23e 923b bfbb
00000380: f1c9 2abb 7561 493e dba9 efbd d3a8 953e
00000390: 5f06 e83c 00a9 0dbe 7c51 31be aac9 0fbf
000003a0: 984a ac3e b542 853e 376d e73d 64d8 adbd
000003b0: eaba d13d 7802 b83d 929f 39bd d82b e1bc
000003c0: 142f 3dbe 5d9c 513d b2af 52be 3c3e 333e
000003d0: a829 dd3c 3b89 3cbd 265a f7bc 8502 45be
000003e0: f168 4f3e 7f08 5bbe 0e36 42bd cabc 80bd
000003f0: 21f9 2f3d 5918 d73d a9ea 2e3e ce5c 9dbc

linear1.bias f4 [256]
-0.12327223 -0.21596803 -0.17152339 0.28748313 -0.07240289 0.21788572 -0.008432483 -0.36925706
0.26080176 0.11869974 -0.11410014 0.54015666 -0.17379011 0.0607119 0.44793564 -0.3538281
0.36965916 -0.1089734 0.052194074 -0.10367915 0.50179344 0.30968907 0.14142849 -0.26895562
-0.48811406 0.11113912 0.050720487 -0.00093494245 -0.03297903 -0.33426148 0.5323061 -0.20779964
0.11221534 -0.31795692 0.01047329 0.0026981176 0.10617238 0.25036573 0.35582504 0.3461055
-0.14602953 0.15200664 0.13469915 0.35419562 0.3238255 0.14466205 -0.24496639 0.07935668
-0.024335776 0.064285435 0.3557962 -0.009536653 -0.07797282 0.057187118 0.285323 -0.29285908
-0.051062863 0.26007307 -0.3187869 0.29504442 -0.21281396 0.11765555 0.015841864 -0.07180867
-0.016516658 -0.041713525 -0.1638605 0.13045605 0.10127841 -0.08794684 0.03553678 0.16277128
0.056040343 0.23836067 -0.3453807 0.1946459 0.04039643 0.5301739 -0.029456371 -0.100556895
0.26690862 -0.20980516 -0.3041607 -0.056218944 0.10160126 -0.12648745 -0.19064867 0.0864582
-0.20932974 -0.32086322 -0.24415286 0.011149864 0.35036412 0.25237685 0.42819324 -0.23759829
0.017612683 -0.35837957 0.2090875 0.38701963 0.040722378 -0.035540875 -0.15743366 -0.07386903
-0.006734124 0.35412332 0.18690361 -0.2221659 0.099960774 0.20707972 0.25355554 -0.26280648
-0.10018608 0.1509588 0.12482562 0.59938985 -0.30319822 0.035807174 -0.3772282 -0.22650486
0.10382381 -0.27862963 -0.051223587 0.21631426 -0.15737213 -0.25364044 0.1363095 -0.16579631
-0.3644645 0.00523951 0.19700333 0.36146846 0.05354008 0.2602379 0.048465557 0.3840743
0.26475567 0.4214007 -0.090085395 -0.08474603 -0.2923245 0.3624924 -0.115829654 0.09273261
-0.122479446 -0.05705138 0.085479215 0.27627304 0.03795511 -0.13749686 0.121720545 0.3589127
-0.09062257 0.32570204 -0.37241378 -0.092745446 -0.18756822 -0.18921013 0.15767121 -0.08441327
0.17653455 0.1437557 -0.38843143 -0.02258228 -0.26675257 -0.1644859 0.09682722 -0.3623233
0.06566712 0.20100047 -0.29182315 -0.118637584 -0.14949207 -0.0036229363 0.12576178 0.39326844
-0.06748238 -0.34075385 0.07568878 -0.150805 0.13697156 0.40333426 0.05490389 0.17741947
-0.078093305 0.09045411 -0.40091875 -0.21821511 -0.18322626 -0.12710899 -0.0016354516 0.23088498
0.38746178 0.38924512 0.22323056 -0.35403702 -0.3818108 -0.18340045 -0.31067103 -0.3570622
0.12482298 -0.30433604 -0.45880458 -0.065205626 0.18709116 -0.056559786 0.12242239 -0.17948078
0.24865432 0.1449706 0.26208162 -0.039794028 -0.017611291 -0.3339398 0.3278114 -0.16059765
-0.2924305 -0.05334988 -0.26641855 -0.22801767 0.47626388 -0.25868723 0.46538156 0.09999025
0.15657122 -0.03681413 -0.40494978 0.030351603 0.08310893 -0.1377952 -0.38404456 0.20272298
-0.10605722 -0.27071103 0.43611407 -0.3080279 -0.20820409 -0.3641541 -0.2541004 0.16612881
-0.4325786 -0.29603687 0.31320664 -0.14196368 0.14452456 -0.3054478 -0.26832774 -0.016455807
-0.4712816 0.15769221 0.120543756 0.047863144 -0.014727683 -0.112669915 -0.059542887 0.10619048
00000000: 2776 fcbd b926 5dbe d4a3 2fbe fd30 933e
00000010: f747 94bd 6f1d 5f3e 6628 0abc 430f bdbe
00000020: cf87 853e d918 f33d 56ad e9bd b547 0a3f
00000030: 09f6 31be 0bad 783d d257 e53e f528 b5be
00000040: f743 bd3e 722d dfbd 74c9 553d bc55 d4bd
00000050: 8975 003f 918f 9e3e a1d2 103e 8db4 89be
00000060: 16ea f9be e89c e33d 49c0 4f3d ed16 75ba
00000070: 0515 07bd 5224 abbe 3645 083f 6ec9 54be
00000080: 28d1 e53d 40cb a2be 2a98 2b3c e7d2 303b
00000090: e870 d93d f02f 803e b32e b63e bd34 b13e
000000a0: c488 15be a1a7 1b3e 93ee 093e 2159 b53e
000000b0: 75cc a53e 4a22 143e 78d8 7abe c185 a23d
000000c0: d25b c7bc 15a8 833d eb2a b63e 9f3f 1cbc
000000d0: 37b0 9fbd 0a3d 6a3d db15 923e a0f1 95be
000000e0: 4b27 51bd 4c28 853e 0938 a3be 1010 973e
000000f0: e7eb 59be 65f5 f03d ccc6 813c 6d10 93bd
00000100: f14d 87bc cddb 2abd 0ccb 27be 4596 053e
00000110: 0e6b cf3d 791d b4bd 048f 113d 84ad 263e
00000120: 8f8a 653d d214 743e bdd5 b0be 4151 473e
00000130: ba76 253d 7ab9 073f 7d4e f1bc c6f0 cdbd
00000140: 3fa8 883e 2ad7 56be f4ba 9bbe d645 66bd
00000150: 5214 d03d ed85 01be 6839 43be ff10 b13d
00000160: 895a 56be 2f48 a4be 3503 7abe ebad 363c
00000170: ed62 b33e 8a37 813e 253c db3e f74c 73be
00000180: 7948 903c 877d b7be 091b 563e 7027 c63e
00000190: 82cc 263d 4f93 11bd 4a36 21be a548 97bd
000001a0: eda9 dcbb a74f b53e a963 3f3e 757f 63be
000001b0: 3cb8 cc3d b50c 543e 08d2 813e 928e 86be
000001c0: 5c2e cdbd f294 1a3e 93a4 ff3d 9d71 193f
000001d0: cc3c 9bbe 8baa 123d 0e24 c1be e4f0 67be
000001e0: 94a1 d43d 8ba8 8ebe d3cf 51bd 7c81 5d3e
000001f0: 2926 21be 29dd 81be b894 0b3e 82c6 29be
00000200: 179b babe 32b0 ab3b 3ebb 493e 6512 b93e
00000210: d84c 5b3d e73d 853e d283 463d 63a5 c43e
00000220: 0e8e 873e d5c1 d73e b17e b8bd 548f adbd
00000230: 8fab 95be 9b98 b93e 1938 edbd 98ea bd3d
00000240: 81d6 fabd b5ae 69bd ba0f af3d a973 8d3e
00000250: d176 1b3d facb 0cbe 9f48 f93d 68c3 b73e
00000260: 5398 b9bd 6bc2 a63e 05ad bebe 53f1 bdbd
00000270: e211 40be 4dc0 41be 9074 213e dde0 acbd
00000280: 79c5 343e b234 133e 7ce0 c6be 79fe b8bc
00000290: cb93 88be fe6e 28be 594d c63d 7182 b9be
000002a0: 7c7c 863d 11d3 4d3e d869 95be 43f8 f2bd
000002b0: 7314 19be c96e 6dbb b2c7 003e 7b5a c93e
000002c0: 3434 8abd 4a77 aebe b802 9b3d a06c 1abe
000002d0: 4642 0c3e d481 ce3e e7e2 603d 73ad 353e
000002e0: 62ef 9fbd 0140 b93d 3945 cdbe c873 5fbe
000002f0: aa9f 3bbe dc28 02be a65c d6ba 1d6d 6c3e
00000300: 6461 c63e 234b c73e 8d96 643e 5744 b5be
00000310: b57c c3be 54cd 3bbe 4610 9fbe dbd0 b6be
00000320: 31a3 ff3d efd1 9bbe 6fe8 eabe 878a 85bd
00000330: d394 3f3e 3cab 67bd 97b8 fa3d cfc9 37be
00000340: 3d9f 7e3e 2c73 143e 902f 863e 10ff 22bd
00000350: 8e45 90bc 28fa aabe e5d6 a73e b673 24be
00000360: 73b9 95be 6785 5abd 0368 88be 777d 69be
00000370: dcd8 f33e a772 84be 7e46 ee3e b0c7 cc3d
00000380: 3554 203e 6aca 16bd 9455 cfbe eda3 f83c
00000390: 0435 aa3d 2f1a 0dbe 7da1 c4be 9d96 4f3e
000003a0: 8734 d9bd a39a 8abe 584a df3e d5b5 9dbe
000003b0: 7433 55be 6872 babe 7319 82be ac1d 2a3e
000003c0: f17a ddbe 2592 97be 9f5c a03e ed5e 11be
000003d0: 3ffe 133e a763 9cbe 4162 89be 54ce 86bc
000003e0: d24b f1be 117a 213e a5df f63d 250c 443d
000003f0: 614c 71bc 7cbf e6bd 3ee3 73bd 657a d93d

linear2.weight f4 [256, 256]
0.20442273 -0.06882945 -0.18330419 -0.28766403 0.3084397 -0.08934506 -0.10324725 -0.10312616
0.38049302 -0.06217817 -0.38112533 -0.023570752 -0.19137165 -0.15703014 -0.35889116 0.41113552
0.030274771 -0.26936093 -0.12053208 0.14185694 -0.27882454 -0.15183699 -0.10818785 0.14747436
-0.0701546 0.40386233 0.069107346 -0.12574723 -0.33584103 0.42248192 -0.041281395 -0.23954171
-0.19705248 -0.07899835 0.19843669 0.2617795 0.09290811 0.009631429 0.013425103 -0.060989942
-0.17460774 0.0042883465 -0.02245732 -0.20343769 0.16123395 0.06914344 0.03523076 0.24607679
0.22911432 0.24806719 -0.048392057 -0.25197867 0.52455455 0.18742244 -0.10082187 0.12693225
0.0659569 0.3580574 -0.11856841 -0.0959194 -0.12675557 0.29055429 0.17266347 0.12556225
0.20487545 0.066682786 -0.033150077 0.028476808 -0.37866566 0.013280799 -0.10861926 0.10238843
-0.05697897 -0.068398215 -0.00768029 -0.10047933 0.06163466 -0.06532755 -0.06621055 0.07684151
0.2462907 0.2854358 -0.012685349 -0.2283767 -0.023685107 -0.08444282 0.23400694 -0.028821183
0.18435355 0.074745305 0.12339694 0.24631995 -0.18867539 -0.0037258149 -0.18543388 0.052028157
-0.008841718 -0.24471326 0.11835789 0.07396716 0.14749053 -0.20005903 0.0775803 0.08135148
-0.22103739 -0.30028477 -0.0536643 -0.03542511 0.06477395 0.02465617 -0.20033656 -0.29707605
0.1958605 -0.026205743 -0.2775997 0.02264547 0.018483507 -0.14347807 0.26625875 0.22589761
0.14299539 -0.0055731237 0.29567543 -0.017201707 0.060813367 -0.039368182 0.12877372 -0.16352284
-0.0014759343 0.13849401 -0.06189498 0.29766357 -0.27179444 0.01509653 0.004225518 -0.072442
-0.100034654 0.10689583 0.11475125 -0.15992536 -0.39383745 -0.10586289 0.23255818 0.03127101
0.36997807 0.058623068 -0.16152845 -0.2942589 -0.053788994 0.11625292 0.32415038 -0.13808395
0.100962184 -0.29268333 -0.18507998 -0.0059824963 -0.026757983 0.37536418 -0.36237335 -0.16703324
-0.003696968 -0.17784086 -0.30095828 0.22295026 -0.13895392 -0.16933759 0.42078948 0.20956235
0.2153399 -0.047931172 -0.18442057 0.108059466 -0.23653385 -0.018915208 -0.38753793 -0.2986327
-0.2520587 0.07979983 0.3103348 0.22804001 0.1896838 -0.18934134 0.07755664 0.04089289
-0.019855052 -0.15555817 0.32572109 0.041024607 0.07342297 0.32357338 -0.079223186 -0.11466851
0.14192739 -0.04665495 -0.13552058 -0.14983782 0.022210427 -0.0582008 -0.10658858 0.08343661
0.10717459 -0.2412071 0.33535627 -0.029280081 -0.35470986 0.37289077 -0.08149738 -0.06272169
0.03639621 -0.13257025 -0.054037157 -0.0013384892 0.0005253258 0.06379457 -0.22312209 0.23040286
-0.05561241 -0.13376844 0.24838082 0.18847439 -0.15423913 0.28113353 -0.03327789 -0.029163148
0.053572483 0.10360804 0.05011322 0.017007515 -0.1988905 -0.2677 -0.0085682925 0.102612436
0.074917294 -0.35927954 0.007981721 -0.21803115 0.080070056 0.057134178 -0.27539125 -0.06428898
-0.005716978 -0.27371776 0.030389976 -0.36094537 -0.037595887 0.36664134 0.039770808 -0.19915414
0.10036325 -0.052655775 -0.031361774 -0.01327538 -0.15614045 -0.18747239 -0.07479478 -0.35679466
00000000: 3154 513e 74f6 8cbd 18b4 3bbe b348 93be
00000010: cfeb 9d3e 8bfa b6bd 4b73 d3bd cf33 d3bd
00000020: fbcf c23e 89ae 7ebd dc22 c3be 7317 c1bc
00000030: eef6 43be 82cc 20be 95c0 b7be 5b80 d23e
00000040: cc02 f83c ade9 89be 86d9 f6bd f242 113e
00000050: 17c2 8ebe 287b 1bbe 9791 ddbd 8503 173e
00000060: 37ad 8fbd 0bc7 ce3e 2788 8d3d e2c3 00be
00000070: 5bf3 abbe 8d4f d83e ae16 29bd 6c4a 75be
00000080: 20c8 49be e3c9 a1bd fd32 4b3e f607 863e
00000090: 9b46 be3d 24cd 1d3c f7f4 5b3c 97d0 79bd
000000a0: 5fcc 32be 4285 8c3b 6af8 b7bc f851 50be
000000b0: 831a 253e 139b 8d3d 214e 103d 8efb 7b3e
000000c0: f29c 6a3e 5305 7e3e c036 46bd 5903 81be
000000d0: 3549 063f abeb 3f3e b27b cebd 87fa 013e
000000e0: 6914 873d 4d53 b73e ffd3 f2bd 6471 c4bd
000000f0: 36cc 01be 88c3 943e b1ce 303e 6493 003e
00000100: dfca 513e fc90 883d 60c8 07bd 3248 e93c
00000110: 77e0 c1be b597 593c c673 debd 06b1 d13d
00000120: c862 69bd 5d14 8cbd f1aa fbbb 1bc8 cdbd
00000130: a074 7c3d 73ca 85bd 6699 87bd 155f 9d3d
00000140: a133 7c3e a424 923e 36d6 4fbc 95db 69be
00000150: 4507 c2bc 5bf0 acbd 849f 6f3e 671a ecbc
00000160: 2dc7 3c3e 1114 993d 89b7 fc3d 4c3b 7c3e
00000170: 1f34 41be cd2c 74bb 61e2 3dbe 7a1b 553d
00000180: dadc 10bc 1d96 7abe 9f65 f23d 187c 973d
00000190: c207 173e 46dc 4cbe 6ce2 9e3d 9b9b a63d
000001a0: a057 62be edbe 99be 19cf 5bbd ec19 11bd
000001b0: 34a8 843d bcfb c93c 0725 4dbe 5a1a 98be
000001c0: a88f 483e 6dad d6bc 8c21 8ebe fe82 b93c
000001d0: b96a 973c eaeb 12be 1153 883e b451 673e
000001e0: 626d 123e c09e b6bb c562 973e 98ea 8cbc
000001f0: 7017 793d 8840 21bd 42dd 033e 8872 27be
00000200: 2374 c1ba 60d1 0d3e 9785 7dbd 5c67 983e
00000210: a428 8bbe 7057 773c 3776 8a3b 795c 94bd
00000220: f8de ccbd 33ec da3d b402 eb3d 79c3 23be
00000230: 10a5 c9be a5ce d8bd bb23 6e3e 0816 003d
00000240: c46d bd3e be1e 703d b767 25be 1aa9 96be
00000250: d951 5cbd 0316 ee3d 0af7 a53e e165 0dbe
00000260: 43c5 ce3d 97da 95be 9b85 3dbe d108 c4bb
00000270: 8f33 dbbc bc2f c03e 0089 b9be c30a 2bbe
00000280: d548 72bb ea1b 36be 3417 9abe 134d 643e
00000290: f049 0ebe d566 2dbe b871 d73e 8397 563e
000002a0: 1082 5c3e 7a53 44bd bfd8 3cbe 484e dd3d
000002b0: ee35 72be 11f4 9abc 5f6b c6be 63e6 98be
000002c0: d70d 81be 186e a33d 34e4 9e3e 5283 693e
000002d0: 783c 423e b2e2 41be 04d6 9e3d 4e7f 273d
000002e0: 10a7 a2bc a44a 1fbe eac4 a63e 6b09 283d
000002f0: c85e 963d 69ab a53e c43f a2bd 53d7 eabd
00000300: 6a55 113e 4319 3fbd e8c5 0abe 166f 19be
00000310: a4f2 b53c f663 6ebd 1d4b dabd d0e0 aa3d
00000320: 5a7e db3d fefe 76be d1b3 ab3e c8dc efbc
00000330: 889c b5be 8aeb be3e 19e8 a6bd 3b74 80bd
00000340: 3114 153d 7fc0 07be 1156 5dbd 3f70 afba
00000350: 05b6 093a baa6 823d 1e7a 64be baee 6b3e
00000360: d7c9 63bd 98fa 08be 8b57 7e3e 6eff 403e
00000370: ddf0 1dbe bcf0 8f3e 664e 08bd 8ee7 eebc
00000380: d26e 5b3d 7430 d43d 8543 4d3d 5853 8b3c
00000390: f4a9 4bbe f90f 89be 0662 0cbc 7826 d23d
000003a0: 3d6e 993d 7df3 b7be c4c5 023c 8f43 5fbe
000003b0: c5fb a33d 8705 6a3d 1500 8dbe f1a9 83bd
000003c0: 7d55 bbbb bc24 8cbe 66f4 f83c d5cd b8be
000003d0: 25fe 19bd 6ab8 bb3e b7e6 223d 10ef 4bbe
000003e0: 3f8b cd3d 95ad 57bd 3475 00bd fb80 59bc
000003f0: 48e3 1fbe c3f8 3fbe 012e 99bd caad b6be

linear2.bias f4 [256]
-0.08161321 0.17421888 -0.055607732 0.045688383 -0.08788774 0.11956032 0.12153048 0.0090525355
0.003542167 -0.019703636 -0.06570286 -0.15143113 -0.0924966 0.046381935 -0.05726327 0.014180324
-0.08317473 -0.090095356 0.014708543 -0.168498 0.0101843225 0.047428958 0.21634538 -0.057672184
0.14554636 -0.25803733 0.08210758 -0.18214455 0.07832698 -0.09858842 -0.012543078 0.0075489786
0.08394378 -0.117386155 0.12589216 0.028994394 0.09916153 0.12554783 0.014730676 -0.08827485
0.030943936 0.16775595 0.2439598 -0.015720166 -0.0489819 -0.0638696 -0.08097573 -0.04295878
-0.08997938 -0.12772676 0.027805306 -0.056753352 0.25576028 -0.06284296 0.2005274 0.31685027
0.004255752 -0.1481258 -0.10925885 -0.014998165 -0.03628422 -0.27199495 -0.08598806 0.053441457
0.111897826 -0.17199942 -0.005421307 0.028874602 0.007372872 0.120309874 0.023007082 -0.15983783
0.04969144 -0.051402956 0.10663188 -0.05910579 -0.053332373 -0.016203763 0.14455098 0.047481995
-0.1417425 0.09294326 0.07756501 -0.061102655 -0.12894303 -0.36854646 0.18103041 -0.19446537
-0.06713187 -0.20372579 0.2587082 -0.18520774 -0.06629513 -0.25720277 0.046810918 -0.06299149
0.024584547 0.044545162 -0.20302077 0.07352569 -0.08467614 -0.008856732 -0.06785274 0.033805773
-0.0009500862 0.114989534 -0.33458593 -0.028732821 0.0903726 -0.029749352 -0.030184492 -0.21007319
-0.13741869 0.13146417 0.08768809 -0.06905148 0.16834103 -0.10185817 -0.026615663 0.06403098
0.031703126 0.25657102 -0.021030655 0.034185305 -0.03956385 0.0016921188 -0.17886242 0.06956325
-0.0335921 -0.03635695 -0.011378409 0.050593697 0.016262745 0.14881364 -0.13522252 -0.06562726
-0.06357819 0.11216933 0.019339774 0.067263454 -0.19799691 -0.19158652 -0.075016186 -0.023386447
0.06453465 0.04700225 0.13545376 0.020934062 0.0746072 -0.01672122 0.056435212 0.05046583
-0.24356315 0.0424616 -0.06436487 -0.039432444 0.08062877 -0.046011407 0.15879 -0.0060380273
0.010115768 -0.060722843 0.06669758 0.1997107 -0.05451133 -0.0064258454 -0.050655693 0.17279309
-0.026908783 -0.021459974 0.019674154 0.045470793 0.026582176 -0.27922836 0.24812391 -0.14850977
-0.15533215 -0.2504717 0.06739256 0.033424146 -0.08508594 0.07163716 -0.034533765 -0.05543551
0.24511327 0.17118421 -0.068523556 -0.024267422 -0.041419923 0.15987359 -0.060983166 0.15316968
0.07971669 -0.011263682 0.030086871 -0.080422506 -0.20733027 0.0036541242 0.11674951 0.084352076
0.10687241 -0.031112982 0.10929098 0.160243 0.08908988 0.2153107 0.014567003 -0.26265797
-0.007321575 0.09709227 -0.01844525 0.031846568 0.15342587 0.15336807 -0.0019009189 0.058263615
0.057483684 0.047979787 0.02699749 -0.023203673 -0.16149703 -0.13089336 -0.29753828 -0.044899266
0.05575511 -0.15214981 -0.13413683 0.16876723 0.050400075 -0.1576959 0.20325693 -0.08210212
0.015977299 0.041907806 0.017221762 0.027944637 -0.07486793 0.13449642 -0.03289066 0.016276678
-0.006061839 -0.018231083 -0.12128205 -0.05413949 0.11652625 0.04748806 0.027625408 0.094676815
-0.06790282 0.15487728 0.25319183 0.2796016 -0.053972743 -0.21917981 0.1651839 0.096902765
00000000: d424 a7bd 6f66 323e efc4 63bd be23 3b3d
00000010: 7dfe b3bd 0bdc f43d f9e4 f83d 1651 143c
00000020: b323 683b 8569 a1bc 398f 86bd c310 1bbe
00000030: db6e bdbd fcfa 3d3d e48c 6abd 9754 683c
00000040: 8357 aabd ea83 b8bd 1afc 703c bd8a 2cbe
00000050: 25dc 263c de44 423d a589 5d3e ab39 6cbd
00000060: 1b0a 153e 781d 84be 0528 a83d 1a84 3abe
00000070: e569 a03d bae8 c9bd 7b81 4dbc 6c5d f73b
00000080: b7ea ab3d 2768 f0bd e0e9 003e a785 ed3c
00000090: 3315 cb3d 9c8f 003e ef58 713c 72c9 b4bd
000000a0: 237e fd3c 37c8 2b3e 99d0 793e 94c7 80bc
000000b0: 3fa1 48bd 11ce 82bd 9bd6 a5bd 8cf5 2fbd
000000c0: 1c47 b8bd ceca 02be f4c7 e33c 3476 68bd
000000d0: 03f3 823e cfb3 80bd 0e57 4d3e 333a a23e
000000e0: d673 8b3b 4aae 17be 1bc3 dfbd ddba 75bc
000000f0: c39e 14bd ec42 8bbe 821a b0bd 6ee5 5a3d
00000100: b02a e53d 9e20 30be 38a5 b1bb 6e8a ec3c
00000110: 2298 f13b 0665 f63d 5979 bc3c 87ac 23be
00000120: 4089 4b3d e88b 52bd d161 da3d ea18 72bd
00000130: 0c73 5abd c1bd 84bc 2c05 143e 7b7c 423d
00000140: f224 11be 0959 be3d 67da 9e3d c746 7abd
00000150: a409 04be 1fb2 bcbe 0960 393e ee21 47be
00000160: 6f7c 89bd 7e9d 50be 6775 843e 19a7 3dbe
00000170: bec5 87bd 15b0 83be cebc 3f3d af01 81bd
00000180: 8865 c93c fd74 363d ade4 4fbe a394 963d
00000190: af6a adbd d41b 11bc 61f6 8abd ec77 0a3d
000001a0: 350f 79ba a27f eb3d d94e abbe 1861 ebbc
000001b0: 4515 b93d eab4 f3bc 7845 f7bc 6d1d 57be
000001c0: 7cb7 0cbe 8b9e 063e d095 b33d dd6a 8dbd
000001d0: 9761 2c3e 049b d0bd 1709 dabc ad22 833d
000001e0: 23db 013d 475d 833e 7b48 acbc e405 0c3d
000001f0: b40d 22bd 16ca dd3a b627 37be 2d77 8e3d
00000200: df97 09bd 06eb 14bd 826c 3abc 563b 4f3d
00000210: 7339 853c 9a62 183e c677 0abe 9667 86bd
00000220: 4835 82bd 09b9 e53d 726e 9e3c 6cc1 893d
00000230: b4bf 4abe 422f 44be 16a2 99bd ef94 bfbc
00000240: be2a 843d 6e85 403d 64b4 0a3e e97d ab3c
00000250: a9cb 983d f1fa 88bc 9c28 673d 42b5 4e3d
00000260: 9e68 79be 37ec 2d3d bbd1 83bd ea83 21bd
00000270: b220 a53d 7576 3cbd d999 223e a5da c5bb
00000280: 9bbc 253c 84b8 78bd be98 883d f680 4c3e
00000290: 4647 5fbd e68f d2bb 587c 4fbd acf0 303e
000002a0: cf6f dcbc d4cc afbc b12b a13c 953f 3a3d
000002b0: ddc2 d93c 05f7 8ebe 3214 7e3e f212 18be
000002c0: 640f 1fbe d43d 80be 1c05 8a3d c2e7 083d
000002d0: 8a41 aebd 81b6 923d 4773 0dbd 5810 63bd
000002e0: f9fe 7a3e ea4a 2f3e 1456 8cbd 79cc c6bc
000002f0: f0a7 29bd e7b5 233e 7cc9 79bd 83d8 1c3e
00000300: 8142 a33d 4e8b 38bc be78 f63c 8eb4 a4bd
00000310: 634e 54be 087a 6f3b 5e1a ef3d c8c0 ac3d
00000320: ecdf da3d a7e0 febc f3d3 df3d be16 243e
00000330: c174 b63d 687a 5c3e 70aa 6e3c 1b7b 86be
00000340: d3e9 efbb 50d8 c63d 7e1a 97bc 8c71 023d
00000350: ac1b 1d3e 850c 1d3e 4128 f9ba d4a5 6e3d
00000360: 0374 6b3d 7486 443d d729 dd3c a115 bebc
00000370: 7a5f 25be e908 06be f056 98be 4be8 37bd
00000380: 785f 643d 29cd 1bbe 2a5b 09be 51d1 2c3e
00000390: 4f70 4e3d 097b 21be 9622 503e 2825 a8bd
000003a0: d3e2 823c 85a7 2b3d a714 8d3c 27ec e43c
000003b0: 5b54 99bd 6eb9 093e 5bb8 06bd ab56 853c
000003c0: 64a2 c6bb 5a59 95bc b962 f8bd 5fc1 5dbd
000003d0: 51a5 ee3d d782 423d ae4e e23c ebe5 c13d
000003e0: a210 8bbd 2698 1e3e 5ca2 813e f127 8f3e
000003f0: 8612 5dbd ac70 60be f825 293e f574 c63d

mean_linear.weight f4 [2, 256]
-0.12630145 -0.021282757 0.19651262 0.052631665 -0.3320422 -0.016743518 0.023004266 -0.121463396
0.36235264 0.056336418 0.27711713 0.26739413 0.03283434 0.069803536 0.29083076 -0.063880414
-0.31701627 -0.24835186 0.27111557 0.0041889013 -0.012621664 0.3206097 -0.0151677225 -0.33279866
0.2996928 0.32999334 0.2408221 -0.37197742 0.2698956 -0.36422655 0.29468945 0.30316752
0.2446754 0.19075073 0.2074404 0.19618164 0.12384167 -0.3011084 0.2612142 0.07710493
0.260065 0.30549592 0.32023406 0.10956992 0.46630237 0.29870126 0.15728807 -0.07514879
0.12492708 0.015645012 0.4675914 0.4034426 0.03721829 -0.32119438 0.20294936 0.33753708
-0.15166152 0.039039146 -0.09518784 -0.29536358 0.15288094 -0.3008113 -0.076955445 -0.18375424
-0.30197543 -0.36058772 0.29241124 0.36144024 -0.027648179 0.339139 0.21721642 0.0077470434
-0.030969225 -0.17414965 0.22716318 0.124792464 -0.31345308 0.25291494 -0.2668087 -0.31267953
0.24843317 -0.004200255 -0.30825934 -0.1306573 0.24519 0.31293496 -0.38801268 0.12770313
-0.09293164 0.075118296 -0.110150024 -0.19111902 0.21600425 0.19441575 -0.41097558 0.2169794
0.2690368 0.2407468 0.38282084 -0.32127178 0.3660112 0.37225312 -0.36787298 0.018453415
0.13932164 -0.43733773 0.17839277 -0.37773076 -0.2639868 0.1435863 -0.37818077 -0.06493405
-0.36734453 -0.2015752 -0.35411212 -0.12027381 -0.014950734 -0.08380381 0.2624246 0.30025324
0.38125253 0.01571939 0.08577236 -0.39762893 -0.38429773 -0.30624038 -0.21743996 0.08310569
0.13086982 -0.06802044 0.25823736 0.24699125 0.3576961 0.37370884 -0.27214974 0.39126033
0.16050461 -0.34313306 -0.16713324 -0.32184204 0.0064015216 0.21779133 -0.0781114 -0.33766204
-0.23689061 -0.31663224 -0.19686699 -0.2880853 -0.26302183 -0.02967571 0.4250916 -0.32566404
0.3028784 -0.01663643 -0.08950726 -0.2775015 0.2726392 0.007898114 -0.17038435 0.0268951
-0.33366257 -0.33248237 -0.35346287 0.2674441 -0.3599736 0.0016111507 0.32665154 -0.118233345
0.038355004 0.3283517 0.44382805 0.018241884 -0.3869569 -0.3501681 -0.21415928 0.2766828
-0.07484501 -0.31041592 -0.1675843 -0.2566491 -0.19253765 0.13865875 0.07281481 -0.05682734
0.0115629425 -0.03806723 0.45229086 -0.21473573 0.24957664 0.36100295 0.30183083 -0.27992958
-0.41738236 0.032341845 -0.29024464 -0.2951659 -0.3693294 -0.023594845 0.24788162 -0.23415548
-0.17223023 -0.08632969 0.19907938 0.1750027 -0.30595356 -0.22542895 0.13876332 -0.3076246
0.1732562 0.33284476 -0.12450737 0.25787607 -0.07637293 -0.27085775 0.11180657 -0.2114299
0.1832474 -0.12692356 0.07153511 0.10862974 -0.033476263 0.079927176 0.008795626 0.40041357
-0.31956124 0.009260751 0.15479581 -0.17928398 -0.02406838 0.274859 0.04783293 0.3393468
0.002422041 -0.25745678 -0.43202147 -0.15806231 0.14837222 -0.3394543 -0.26565167 0.23260945
0.036438603 0.14596216 -0.29694393 -0.092553176 -0.2577168 0.20771733 0.17906858 -0.29269034
0.31020734 0.28114808 0.11777689 0.35932246 0.04758607 -0.2595518 0.18778929 -0.010005747
00000000: 2b55 01be 2d59 aebc 9b3a 493e 4d94 573d
00000010: 6f01 aabe b429 89bc 7173 bc3c cdc1 f8bd
00000020: 4986 b93e 04c1 663d 4ce2 8d3e e2e7 883e
00000030: 4d7d 063d 28f5 8e3d c5e7 943e bcd3 82bd
00000040: f54f a2be f34f 7ebe a9cf 8a3e 0d43 893b
00000050: 19cb 4ebc f426 a43e 0a82 78bc 9664 aabe
00000060: 5671 993e e3f4 a83e 129a 763e d373 bebe
00000070: c22f 8a3e e77b babe 89e1 963e c638 9b3e
00000080: 308c 7a3e 2954 433e 426b 543e d7e3 483e
00000090: b4a0 fd3d e12a 9abe debd 853e 31e9 9d3d
000000a0: 3d27 853e f669 9c3e b8f5 a33e 3266 e03d
000000b0: 2fbf ee3e 5fef 983e 2010 213e 9ce7 99bd
000000c0: c5d9 ff3d f829 803c 2468 ef3e 0790 ce3e
000000d0: 3572 183d 9773 a4be f5d1 4f3e a9d1 ac3e
000000e0: 284d 1bbe 83e7 1f3d d8f1 c2bd e539 97be
000000f0: d28c 1c3e f003 9abe d19a 9dbd 122a 3cbe
00000100: 869c 9abe f49e b8be edb6 953e b20e b93e
00000110: 6f7e e2bc a1a3 ad3e fb6d 5e3e e9da fd3b
00000120: 2cb3 fdbc 4954 32be 779d 683e 3193 ff3d
00000130: ec7c a0be 117e 813e 269b 88be 8817 a0be
00000140: 4465 7e3e 4ba2 89bb 2bd4 9dbe 07cb 05be
00000150: 1613 7b3e 0339 a03e 99a9 c6be 9cc4 023e
00000160: f252 bebd 9fd7 993d 5696 e1bd b4b4 43be
00000170: 3830 5d3e ec14 473e 646b d2be d92f 5e3e
00000180: 31bf 893e 5486 763e 1801 c43e bc7d a4be
00000190: d265 bb3e f697 be3e d959 bcbe 9e2b 973c
000001a0: 55aa 0e3e bbea dfbe 98ac 363e ed65 c1be
000001b0: 4729 87be 4908 133e e9a0 c1be 25fc 84bd
000001c0: 9514 bcbe bb69 4ebe 2f4e b5be 1e52 f6bd
000001d0: ecf3 74bc 55a1 abbd 845c 863e cbba 993e
000001e0: 8833 c33e f3c5 803c 6ba9 af3d 0596 cbbe
000001f0: acc2 c4be 8acb 9cbe 95a8 5ebe 5133 aa3d
00000200: bd02 063e 4d4e 8bbd b037 843e 46eb 7c3e
00000210: f123 b73e c456 bf3e 3657 8bbe 4653 c83e
00000220: 525b 243e 23af afbe fa24 2bbe 7bc8 a4be
00000230: dbc3 d13b b104 5f3e dff8 9fbd 0ae2 acbe
00000240: 7493 72be 9f1d a2be 8097 49be eb7f 93be
00000250: ccaa 86be 791a f3bc 9ba5 d93e 70bd a6be
00000260: e112 9b3e 1f49 88bc 954f b7bd ad14 8ebe
00000270: 5d97 8b3e 1767 013c 3c79 2ebe 1d53 dc3c
00000280: d2d5 aabe 213b aabe 16f9 b4be 6fee 883e
00000290: 764e b8be 3f2d d33a df3e a73e 5324 f2bd
000002a0: 231a 1d3d b71d a83e 6e3d e33e 0170 953c
000002b0: 371f c6be 3c49 b3be 924c 5bbe 5ea9 8d3e
000002c0: 5748 99bd d6ee 9ebe 389b 2bbe 8367 83be
000002d0: 9728 45be 8ffc 0d3e ee1f 953d c9c3 68bd
000002e0: 7f72 3d3c 62ec 1bbd ab92 e73e afe3 5bbe
000002f0: 0591 7f3e 61d5 b83e 9289 9a3e ee52 8fbe
00000300: 24b3 d5be e278 043d f29a 94be fc1f 97be
00000310: be18 bdbe fa49 c1bc aed4 7d3e 74c6 6fbe
00000320: 1f5d 30be 9fcd b0bd 77db 4b3e e833 333e
00000330: f2a5 9cbe d9d6 66be f917 0e3e f980 9dbe
00000340: 136a 313e a16a aa3e b8fd febd 5508 843e
00000350: 6969 9cbd dead 8abe d8fa e43d 1481 58be
00000360: 35a5 3b3e 40f8 01be 0081 923d 4579 de3d
00000370: 681e 09bd dcb0 a33d 881b 103c 0203 cd3e
00000380: 889d a3be 68ba 173c cb82 1e3e 3896 37be
00000390: 0d2b c5bc 52ba 8c3e 76ec 433d ddbe ad3e
000003a0: 1bbb 1e3b 60d1 83be eb31 ddbe 16db 21be
000003b0: e3ee 173e f4cc adbe 7f03 88be 2c31 6e3e
000003c0: a540 153d 1b77 153e 0909 98be 858c bdbd
000003d0: 75f3 83be dab3 543e c15d 373e 82db 95be
000003e0: 7fd3 9e3e a4f2 8f3e 0335 f13d 1df9 b73e
000003f0: 9ce9 423d f9e3 84be d64b 403e 25ef 23bc

mean_linear.bias f4 [2]
-0.032281905 0.0032488918
00000000: 083a 04bd 5ceb 543b
