output/CarlaNavigation-v0/wcsac/4/base.pt (torch, 11367 bytes, 2 tensors)

dynamic_emb.0.weight f4 [256, 9]
0.009671017 -0.3908843 -0.021836726 -0.0684971 0.07671357 -0.0035672798 -0.0056533474 0.2584615
-0.6801681 0.08631453 -0.05159061 -0.17413965 -0.38509208 -0.16182457 0.006694941 -0.0058627627
0.31584394 0.46186832 -0.02768012 0.2883271 -1.1122036 0.15770346 -0.039962687 0.021760734
-0.00018267141 -0.32802132 0.104988866 -0.024552686 -0.21586129 -0.4026691 0.09120366 0.26293284
0.012296251 -0.0030036508 0.03683434 0.5712503 0.0003771472 -0.16381262 -0.2601368 0.24028184
-0.008449155 0.010344857 -0.004034706 0.6625677 1.4237546 -0.22751544 -0.21969593 -0.17321531
0.0008491093 0.101303525 -0.016782835 0.012113662 -0.96150565 0.7782147 0.0076243603 0.0057039782
0.020953404 -0.0008573948 0.41879043 -0.0031735974 0.00063297164 -0.085188046 0.5056037 -0.10462754
0.26338258 -0.48511288 -0.16122343 0.144458 0.008557634 0.01659922 -1.2747008 0.10188486
-0.31672445 0.16574743 0.10775049 -0.31340596 -0.3850582 -0.023649892 0.010264977 -0.09456373
-0.31232694 -0.07457873 -0.028138468 0.019322852 -0.043127947 0.08443676 -0.00067805283 0.003398578
-0.18895812 -0.27399462 -0.1431342 -0.08591468 0.3198142 0.085428424 0.37560147 0.018953303
0.03291513 -0.27644435 -0.018240016 0.06386108 0.42327473 -0.9612793 -0.21880643 -0.13024446
0.0024258227 0.0005867569 -0.84357107 0.7524242 0.052097436 0.097972386 -0.0076842234 0.3287581
-0.00031922027 -0.005921988 0.015666185 -0.4482435 -0.40920347 -0.114472434 0.0048633977 -0.79550296
0.37601355 -0.2540995 0.028875655 -0.017743431 -1.183502 0.8766541 -0.10234172 -0.027777737
0.042007044 0.35449365 0.32792678 0.002245472 -0.001192741 -0.17245279 -0.6218929 0.029372407
-0.03022017 0.3471634 -0.35238272 0.26525515 0.010331535 0.002243576 0.23730734 -0.35222122
-0.6115144 0.33417037 0.03768438 -0.20403804 0.33958787 0.037289195 0.010871364 1.7434425
-0.2994847 -0.35089988 0.50310755 0.6789808 0.17128696 -0.009680959 0.03282037 0.046681494
1.3363029 1.2370037 -0.29647118 0.19898531 -0.39938354 0.37489107 0.18797171 -0.024568597
0.0003854681 -0.4418453 -0.51111835 0.13146557 -0.08234212 0.5896469 -0.5263296 0.10417687
-0.007274443 -0.019010046 0.54471487 -0.28213567 -0.13334534 0.15827811 0.08381859 -0.165987
0.5445088 0.00457419 0.007865543 1.4971733 -0.05509696 -0.0013295334 0.010738787 0.71699035
0.342482 -0.005533799 0.009902312 -0.007851265 -0.34340423 -0.19485623 0.0078615425 -0.113987304
-0.10094403 -0.087081164 0.012670485 -0.009670218 0.0066132615 -0.24455212 -0.15418376 -0.20447
0.40379474 0.28523833 -0.06892623 -0.36706707 0.0016225274 0.013264507 -1.0013769 0.85307723
0.006233627 -0.05054807 -0.39139393 -0.044301923 0.2689487 -0.00848192 0.008869319 -0.23761025
-0.3740187 0.017688418 0.14544299 -0.047742132 -0.026934022 0.09367618 -0.010217487 0.007029319
0.9612427 0.55298924 0.07536662 -0.121127225 0.28102192 0.24019788 0.090874575 -0.0051227673
0.001034629 -1.0955333 -0.0058304123 -0.037426475 0.15178175 -0.97482854 0.26896876 -0.014980641
0.021117868 -0.0050834445 0.74744886 0.13329303 -0.753221 0.020685669 0.5477029 0.43868548
00000000: 2f73 1e3c fd21 c8be efe2 b2bc 3548 8cbd
00000010: 011c 9d3d 06c9 69bb b73f b9bb 1155 843e
00000020: 7f1f 2ebf acc5 b03d ad50 53bd aa51 32be
00000030: ca2a c5be 57b5 25be 3c61 db3b 6b1c c0bb
00000040: 4cb6 a13e 017a ec3e 6bc1 e2bc 9c9f 933e
00000050: b05c 8ebf 047d 213e eaaf 23bd 9143 b23c
00000060: 7c8b 3fb9 69f2 a7be 6704 d73d b722 c9bc
00000070: be0a 5dbe a52a cebe fcc8 ba3d 229f 863e
00000080: 3776 493c e6d8 44bb 9bdf 163d 763d 123f
00000090: d7bb c539 7fbe 27be a730 85be 710c 763e
000000a0: 536e 0abc 7a7d 293c 9135 84bb 099e 293f
000000b0: 973d b63f cff9 68be f8f7 60be 5b5f 31be
000000c0: c396 5e3a 3978 cf3d 287c 89bc 6278 463c
000000d0: 3c25 76bf 1439 473f c5d5 f93b 70e8 ba3b
000000e0: 79a6 ab3c cbc2 60ba b36b d63e 21fc 4fbb
000000f0: 02ee 253a 1277 aebd 3e6f 013f f746 d6bd
00000100: 15da 863e b760 f8be c117 25be ccec 133e
00000110: 5235 0c3c 16fb 873c 6529 a3bf 02a9 d03d
00000120: b529 a2be b2b9 293e 4aac dc3d bf76 a0be
00000130: 5926 c5be 6bbd c1bc 6f2e 283c a1aa c1bd
00000140: 51e9 9fbe bcbc 98bd a582 e6bc f54a 9e3c
00000150: eea6 30bd 2eed ac3d 5bbf 31ba adba 5e3b
00000160: 3d7e 41be 0649 8cbe c691 12be 09f4 afbd
00000170: b0be a33e 19f5 ae3d d64e c03e f543 9b3c
00000180: 04d2 063d 1d8a 8dbe 166c 95bc 99c9 823d
00000190: 77b7 d83e 6616 76bf cb0e 60be ce5e 05be
000001a0: 8dfa 1e3b 97d0 193a 46f4 57bf df9e 403f
000001b0: 1f64 553d bfa5 c83d f0cb fbbb fb52 a83e
000001c0: 055d a7b9 3c0d c2bb 5f56 803c 2c80 e5be
000001d0: 1e83 d1be 8670 eabd 235d 9f3b 15a6 4bbf
000001e0: d984 c03e 5419 82be a38c ec3c ac5a 91bc
000001f0: fe7c 97bf 676c 603f 8998 d1bd 238e e3bc
00000200: 940f 2c3d 3180 b53e 05e6 a73e c528 133b
00000210: bf55 9cba 7797 30be 6034 1fbf 679e f03c
00000220: 4a90 f7bc 67bf b13e 826b b4be 86cf 873e
00000230: 9945 293c f608 133b b200 733e 5756 b4be
00000240: 358c 1cbf 6118 ab3e f05a 1a3d 59ef 50be
00000250: 76de ad3e 8ebc 183d ce1d 323c 2029 df3f
00000260: 0f56 99be 26a9 b3be a8cb 003f b0d1 2d3f
00000270: d965 2f3e e39c 1ebc a76e 063d 1835 3f3d
00000280: f90b ab3f 2356 9e3f 12cb 97be cec2 4b3e
00000290: 007c ccbe b9f1 bf3e a87b 403e 1544 c9bc
000002a0: a718 ca39 8c39 e2be a7d8 02bf e99e 063e
000002b0: fca2 a8bd 19f3 163f 89bd 06bf af5a d53d
000002c0: 735e eebb f5ba 9bbc 6f72 0b3f 1674 90be
000002d0: ae8b 08be a813 223e 15a9 ab3d 7ff8 29be
000002e0: ee64 0b3f 16e3 953b 7ade 003c 60a3 bf3f
000002f0: 5aad 61bd bd43 aeba bdf1 2f3c ae8c 373f
00000300: cd59 af3e df54 b5bb 4f3d 223c 98a2 00bc
00000310: aed2 afbe 6488 47be b3cd 003c 2d72 e9bd
00000320: bebb cebd 9c57 b2bd de97 4f3c d66f 1ebc
00000330: 0fb4 d83b df6b 7abe 59e2 1dbe 9560 51be
00000340: 2fbe ce3e c20a 923e 3229 8dbd 37f0 bbbe
00000350: fcaa d43a 6053 593c 1e2d 80bf 4563 5a3f
00000360: 7443 cc3b 7e0b 4fbd c964 c8be ef75 35bd
00000370: a5b3 893e c0f7 0abc 9f50 113c 1a50 73be
00000380: 617f bfbe 4de7 903c 02ef 143e 418d 43bd
00000390: bda4 dcbc 4cd9 bf3d 3f67 27bc 3456 e63b
000003a0: 0014 763f b490 0d3f d159 9a3d 8d11 f8bd
000003b0: 1be2 8f3e 6ff6 753e 731c ba3d e3dc a7bb
000003c0: 639c 873a 6f3a 8cbf 0b0d bfbb 814c 19bd
000003d0: ad6c 1b3e 5d8e 79bf 46b6 893e 5d71 75bc
000003e0: 61ff ac3c 0693 a6bb cf58 3f3f f87d 083e
000003f0: 17d3 40bf fe74 a93c 4236 0c3f 629b e03e

dynamic_emb.0.bias f4 [256]
-0.5000493 -0.08489629 -0.3600492 -0.482147 -0.431044 0.038718063 -0.6326129 -0.31697243
0.059321195 -0.46374646 -0.18665586 -0.18169607 -0.25156343 -0.5009334 -0.2624317 -0.26429158
-0.050848715 -0.095076375 -0.20480339 -0.1838693 -0.13032198 -0.5478678 -0.12465601 -0.09938945
-0.311902 -0.124151304 -0.18480606 -0.3849841 -0.08734626 -0.30771968 -0.2857442 -0.43280098
-0.30425236 -0.14741765 -0.26594248 -0.2397097 -0.28655413 -0.35826123 -0.071466774 -0.09886643
-0.09798832 0.019183358 0.009701829 -0.5444692 -0.1691907 -0.33293545 -0.32683706 -0.6087177
-0.22822553 -0.36065456 -0.45639575 -0.11537667 -0.55194503 -0.224784 -0.18837273 -0.22549449
-0.12508373 -0.6124427 -0.42025876 -0.19438821 -0.15920378 -0.44116285 -0.14572357 -0.23716325
-0.3665795 -0.4457395 -0.37273085 -0.50226426 -0.49658412 -0.33389118 -0.1849382 -0.18222684
-0.2600401 -0.21041845 -0.004723277 -0.55194604 0.062465303 -0.32378685 -0.165913 -0.200622
0.0686627 -0.15043463 -0.34419626 -0.53553957 -0.5664691 -0.17588373 -0.26043212 -0.39911628
-0.09308618 -0.2237136 -0.42193496 -0.64252144 -0.18001403 -0.30689102 -0.017461821 -0.17871185
-0.34617284 -0.15291399 -0.06780949 -0.4816781 -0.13654356 -0.51541114 -0.5945838 -0.16105106
-0.1110741 -0.187578 -0.46655047 -0.057167828 -0.16477378 -0.18543153 -0.29855153 -0.10380787
-0.25934958 -0.292304 -0.48336154 -0.23092665 -0.16607016 -0.5201376 -0.54464227 -0.08109506
-0.2773893 -0.072387494 0.06524826 -0.43191224 -0.18738319 -0.33087602 -0.3774652 -0.16587415
-0.11238166 -0.15289952 -0.17002991 -0.21383508 -0.5360186 -0.23543863 -0.044408295 -0.20814508
-0.5045997 -0.30024046 -0.13663873 -0.18235894 -0.5276575 -0.14041236 -0.3174527 -0.26384315
-0.2220613 -0.27884945 -0.23062894 -0.23660122 -0.45866683 -0.41442794 -0.054933187 -0.2854257
-0.37192374 -0.3689808 -0.21591121 -0.05908291 -0.6580813 -0.11553312 -0.26953346 -0.26218215
-0.34102774 -0.23922075 -0.15798485 -0.3705531 -0.35446024 -0.13305032 -0.16688442 -0.25107473
-0.06471873 -0.17737561 -0.28051287 -0.19269112 -0.11054536 -0.16321251 -0.10994802 -0.03665149
-0.6376215 -0.34083587 -0.17700633 -0.23319055 -0.18700802 -0.3110032 -0.036923755 -0.27761605
-0.30003202 -0.3481383 -0.29909265 -0.36033636 -0.19809604 -0.5836907 -0.045653276 -0.36837685
-0.10723654 -0.22119187 -0.07473798 -0.39355198 -0.269457 -0.1996035 -0.09001223 -0.2806221
-0.1436037 -0.19623487 -0.32677528 -0.26309082 -0.15630455 -0.32785955 0.054873012 -0.35826704
-0.16142866 -0.3489126 -0.46899053 -0.048312496 -0.5366102 -0.28135285 -0.45688528 -0.20873615
-0.105695255 -0.5975284 -0.14963137 0.08372325 -0.21080166 -0.22460556 -0.50815314 -0.43720654
-0.34571218 -0.1374145 -0.092453524 -0.31139025 -0.43443653 -0.19290727 -0.49470282 -0.23489107
-0.42930928 -0.64244354 -0.1740639 -0.032359667 -0.24564812 -0.29958108 -0.211443 -0.1905909
-0.30436286 -0.3941628 -0.19115803 -0.22311683 -0.033055898 -0.27224803 -0.17527977 -0.10855394
-0.20183496 -0.4162898 0.0062009664 -0.16365705 -0.026520886 -0.41110137 -0.17180969 -0.58345526
00000000: 3b03 00bf 1bde adbd 5e58 b8be f9db f6be
00000010: cdb1 dcbe d596 1e3d ebf2 21bf 364a a2be
00000020: c8fa 723d 2d70 edbe b722 3fbe 890e 3abe
00000030: eccc 80be 2c3d 00bf 735d 86be 3a51 87be
00000040: be46 50bd 67b7 c2bd fbb7 51be 3c48 3cbe
00000050: 2073 05be 1041 0cbf a64b ffbd b28c cbbd
00000060: 9eb1 9fbe 0a43 febd cd3d 3dbe a31c c5be
00000070: 99e2 b2bd 6f8d 9dbe 104d 92be 1798 ddbe
00000080: f7c6 9bbe a7f4 16be 9d29 88be 7676 75be
00000090: 39b7 92be 046e b7be 2c5d 92bd 7c7a cabd
000000a0: 1aae c8bd 6b26 9d3c 6cf4 1e3c 5562 0bbf
000000b0: 5440 2dbe 8476 aabe 3057 a7be ecd4 1bbf
000000c0: f4b3 69be b7a7 b8be b4ac e9be 9b4a ecbd
000000d0: 454c 0dbf c72d 66be c8e4 40be 07e8 66be
000000e0: f315 00be 0bc9 1cbf 282c d7be b40d 47be
000000f0: 5106 23be 19e0 e1be 8f38 15be ecda 72be
00000100: 4fb0 bbbe f837 e4be 94d6 bebe 6494 00bf
00000110: 4640 febe c9f3 aabe 7160 3dbe ac99 3abe
00000120: fa23 85be ef77 57be b8c5 9abb 564c 0dbf
00000130: 9edb 7f3d 64c7 a5be 19e5 29be db6f 4dbe
00000140: 089f 8c3d 890b 1abe 7e3a b0be 1f19 09bf
00000150: 1e04 11bf dd1a 34be 5c57 85be f858 ccbe
00000160: f8a3 bebd 2e15 65be dc07 d8be 497c 24bf
00000170: 9955 38be d220 9dbe 180c 8fbc 3d00 37be
00000180: 913d b1be 7c95 1cbe b4df 8abd 839e f6be
00000190: 13d2 0bbe fcf1 03bf a536 18bf 92ea 24be
000001a0: d17a e3bd 7214 40be b4df eebe d028 6abd
000001b0: 75ba 28be c3e1 3dbe bfdb 98be 3899 d4bd
000001c0: 78c9 84be dfa8 95be 2a7b f7be 0978 6cbe
000001d0: 4c0e 2abe bd27 05bf ad6d 0bbf 2b15 a6bd
000001e0: f805 8ebe e53f 94bd e1a0 853d 9a23 ddbe
000001f0: 61e1 3fbe 9568 a9be 1e43 c1be eada 29be
00000200: 5b28 e6bd b191 1cbe 521c 2ebe 95f7 5abe
00000210: 8438 09bf d316 71be 79e5 35bd fc23 55be
00000220: 722d 01bf 1eb9 99be 06eb 0bbe 4dbc 3abe
00000230: 9014 07bf 42c8 0fbe 2989 a2be 7316 87be
00000240: 0a64 63be 5bc5 8ebe fe29 6cbe 9747 72be
00000250: 61d6 eabe e62f d4be 9f01 61bd 5123 92be
00000260: ca6c bebe 0deb bcbe d417 5dbe ec00 72bd
00000270: 0478 28bf a19c ecbd 4a00 8abe bd3c 86be
00000280: 309b aebe 49f6 74be c8c6 21be 23b9 bdbe
00000290: d07b b5be 583e 08be c0e3 2abe de8c 80be
000002a0: 418b 84bd f4a1 35be 629f 8fbe d250 45be
000002b0: 9b65 e2bd 2e21 27be 6d2c e1bd df1f 16bd
000002c0: 2a3b 23bf 0a82 aebe 2641 35be 81c9 6ebe
000002d0: 087f 3fbe d03b 9fbe 5d3d 17bd b123 8ebe
000002e0: cc9d 99be 2f3f b2be ac22 99be 027e b8be
000002f0: b0d9 4abe c16c 15bf eefe 3abd e49b bcbe
00000300: d59e dbbd 1f80 62be 3a10 99bd a57f c9be
00000310: 45f6 89be dc64 4cbe 5558 b8bd b3ad 8fbe
00000320: d90c 13be cbf1 48be 174f a7be d7b3 86be
00000330: 4d0e 20be 35dd a7be 86c2 603d c76e b7be
00000340: 8e4d 25be aca4 b2be 871f f0be 53e3 45bd
00000350: 495f 09bf 7b0d 90be deec e9be eebe 55be
00000360: c176 d8bd 9ff7 18bf f738 19be 1877 ab3d
00000370: 64dc 57be 00ff 65be 5316 02bf 89d9 dfbe
00000380: 3001 b1be 63b6 0cbe 4658 bdbd 8b6e 9fbe
00000390: 776e debe 7c89 45be b049 fdbe 4987 70be
000003a0: 6dce dbbe 2e77 24bf cf3d 32be 928b 04bd
000003b0: 2e8b 7bbe b162 99be 8484 58be 432a 43be
000003c0: 73d5 9bbe b5cf c9be eebe 43be bd78 64be
000003d0: 9f65 07bd 1864 8bbe 8a7c 33be 8751 debd
000003e0: d3ad 4ebe f023 d5be 7a31 cb3b b795 27be
000003f0: 5442 d9bc e17b d2be e1ee 2fbe 535d 15bf
