output/CarlaNavigation-v0/wcsac/4/cost_var.pt (torch, 536535 bytes, 5 tensors)

net.0.weight f4 [256, 263]
0.057945654 0.46193522 -0.2649746 0.21954867 -0.31717405 -0.34847486 0.0746908 -0.13899808
-0.06415787 -0.07176844 0.21489836 0.06940693 -0.21617982 -0.032261595 -0.02410646 0.07311964
-0.008169801 0.1014566 0.034198735 -0.016565494 -0.034134034 -0.13079229 0.0053270715 0.2298271
0.069933034 -0.04482614 -0.34763065 0.1544364 -0.13200764 0.17584905 -0.21236366 0.04904221
-0.122839496 0.18685313 0.15837617 -0.27855057 -0.122816384 0.0033369807 0.15742257 0.036918085
0.056217626 0.15792482 0.11121573 0.1929887 0.12218343 -0.04443502 0.15674125 -0.121865
-0.079082504 -0.15111355 0.1036234 -0.19317402 0.021938885 -0.032895707 0.03370042 0.15858063
-0.18140806 0.22873546 -0.04546976 0.1467438 0.20132811 -0.042084668 -0.4216817 -0.0148970755
0.17060481 -0.012047967 -0.101550624 0.07076736 -0.14004867 0.12678617 -0.117809504 -0.09454406
-0.12425364 -0.18627869 -0.14593413 -0.14019497 0.17461792 0.12171953 0.012704041 -0.28580147
0.10094954 0.175799 0.23804896 -0.04407433 0.013945909 -0.027157197 0.046940703 -0.25756845
0.15859169 -0.2246712 0.07850808 0.02762662 -0.028830633 -0.0124491425 -0.06401814 -0.33533105
0.16168018 -0.0626822 0.093149886 -0.020046566 0.36055914 0.100302316 0.1384237 -0.022116594
0.1339016 -0.13373485 0.13926123 -0.18618163 0.039073765 0.057300642 0.11434121 -0.069013506
-0.106214546 -0.13673516 0.08494491 0.069636226 -0.13661143 -0.0026974666 0.057778664 0.115731195
-0.018461399 -0.3682113 -0.12906808 0.21151596 0.11453622 0.12133534 -0.20521952 0.041532233
-0.05646994 0.21042746 0.06632247 -0.14903627 -0.11332849 -0.21634644 0.001130449 -0.19682242
0.00475952 0.118244015 0.029611342 0.086433806 -0.045441736 -0.25620198 0.023712747 -0.23008572
0.0700531 -0.060265917 -0.21690646 -0.03176145 0.121887706 0.2089586 -0.034745768 -0.14749674
0.20485258 0.109693095 -0.23144597 0.15214193 0.09801626 0.13544527 -0.14189003 -0.17082794
-0.0658057 0.19595303 -0.082691416 -0.10688858 0.07403718 0.18032584 -0.04941939 -0.098246016
-0.094573215 -0.00026143013 0.023059864 -0.16740367 -0.18905441 0.009634391 0.13360529 -0.014736606
-0.21044418 -0.12066714 -0.15863676 0.18408509 0.010193424 0.051796164 0.037796058 -0.19792648
-0.09347032 -0.2340243 -0.025662236 -0.14729294 -0.0005487493 -0.2894692 0.006079538 0.3140664
-0.051572833 -0.19121248 0.22473137 -0.01983966 -0.29000744 -0.06569311 0.027889896 0.05430027
-0.05855987 -0.016447961 -0.1292802 0.13113092 0.037919898 0.18301907 0.07408342 -0.088243715
0.17011233 -0.013990441 0.2062752 -0.015503904 -0.15872239 -0.26939473 -0.08554976 -0.22240666
0.019393926 -0.025707697 0.045139443 -0.14389765 -0.04893481 0.030774793 0.24129625 0.0018256248
-0.039389268 0.034848776 -0.1181507 -0.012461321 0.024567291 -0.13006161 -0.11396015 -0.05315867
7.039615e-05 -0.08380262 0.13718484 0.05234581 0.1938878 -0.032945007 -0.010838527 -0.4069988
-0.08157014 0.0037515217 -0.010787735 -0.17177984 -0.09149296 0.17250888 -0.042399604 0.07852041
0.100320876 0.13982713 0.057844855 0.12614824 -0.16243158 0.035981786 -0.09080334 -0.18798542
00000000: 6c58 6d3d c682 ec3e c0aa 87be 5ed1 603e
00000010: a364 a2be 4c6b b2be 7df7 983d 8355 0ebe
00000020: 3465 83bd 55fb 92bd 510e 5c3e 3825 8e3d
00000030: 3e5e 5dbe bc24 04bd e97a c5bc c0bf 953d
00000040: a1da 05bc 7ac8 cf3d f913 0c3d 5cb4 87bc
00000050: 21d0 0bbd 6aee 05be b78e ae3b cc57 6b3e
00000060: 0d39 8f3d 9d9b 37bd a5fc b1be 9324 1e3e
00000070: 032d 07be c611 343e dc75 59be 7ce0 483d
00000080: 4693 fbbd 6d56 3f3e 5d2d 223e 2e9e 8ebe
00000090: 2887 fbbd 3fb1 5a3b 6233 213e 6b37 173d
000000a0: 7444 663d 0bb7 213e 13c5 e33d d49e 453e
000000b0: 4e3b fa3d 7f01 36bd c780 203e 5b94 f9bd
000000c0: 02f6 a1bd 83bd 1abe 8138 d43d 69cf 45be
000000d0: 2db9 b33c a6bd 06bd 7409 0a3d f662 223e
000000e0: 09c3 39be a139 6a3e 803e 3abd 0244 163e
000000f0: f528 4e3e f960 2cbd aae6 d7be dd12 74bc
00000100: 07b3 2e3e d664 45bc c6f9 cfbd 7aee 903d
00000110: eb68 0fbe 3cd4 013e 1c46 f1bd 51a0 c1bd
00000120: b178 febd d7bf 3ebe c26f 15be 458f 0fbe
00000130: 0acf 323e 1748 f93d 9c24 503c 9254 92be
00000140: a2be ce3d a704 343e 1bc3 733e 4987 34bd
00000150: 627d 643c c578 debc e544 403d 03e0 83be
00000160: dc65 223e 3510 66be d8c8 a03d 3951 e23c
00000170: 382e ecbc 7df7 4bbc f11b 83bd 83b0 abbe
00000180: 7d8f 253e 865f 80bd 5ec5 be3d b238 a4bc
00000190: 359b b83e 4d6b cd3d f1be 0d3e dc2d b5bc
000001a0: 801d 093e caf1 08be 7f9a 0e3e 66a6 3ebe
000001b0: d00b 203d 14b4 6a3d b92b ea3d f456 8dbd
000001c0: 0387 d9bd 4d04 0cbe 99f7 ad3d 709d 8e3d
000001d0: dee3 0bbe fbc7 30bb 52a9 6c3d 7a04 ed3d
000001e0: 5c3c 97bc 3186 bcbe 6c2a 04be a497 583e
000001f0: f791 ea3d aa7e f83d 1125 52be b41d 2a3d
00000200: 064d 67bd 4c7a 573e 13d4 873d f79c 18be
00000210: c418 e8bd ec89 5dbe 932b 943a d18b 49be
00000220: bff5 9b3b eb29 f23d 7c93 f23c 3504 b13d
00000230: 1d21 3abd e82c 83be 3c41 c23c 979b 6bbe
00000240: 0078 8f3d 65d9 76bd ba1c 5ebe 4b18 02bd
00000250: 43a0 f93d 3ef9 553e 9451 0ebd 6309 17be
00000260: e0c4 513e c6a6 e03d 2c00 6dbe 18cb 1b3e
00000270: c0bc c83d 2ab2 0a3e 9f4b 11be 85ed 2ebe
00000280: 24c5 86bd e9a7 483e 1e5a a9bd 66e8 dabd
00000290: cea0 973d 56a7 383e fc6b 4abd 3535 c9bd
000002a0: 9aaf c1bd 8f10 89b9 0ae8 bc3c de6b 2bbe
000002b0: 7b97 41be 91d9 1d3c d3cf 083e ce71 71bc
000002c0: ae7e 57be 5520 f7bd ad71 22be cd80 3c3e
000002d0: 5202 273c 3728 543d 0ad0 1a3d 3dad 4abe
000002e0: 5e6d bfbd 11a4 6fbe 9c39 d2bc f6d3 16be
000002f0: f1d9 0fba 4f35 94be dc36 c73b 50cd a03e
00000300: 093e 53bd 34cd 43be fb1f 663e c886 a2bc
00000310: db7b 94be 1c8a 86bd 5a79 e43c f669 5e3d
00000320: 79dc 6fbd e0bd 86bc 0762 04be 2f47 063e
00000330: e551 1b3d 5a69 3b3e 0cb9 973d 1fb9 b4bd
00000340: ed31 2e3e 2a38 65bc ce39 533e 1604 7ebc
00000350: 1f88 22be 1bee 89be b634 afbd 92be 63be
00000360: 03e0 9e3c f398 d2bc 23e4 383d e859 13be
00000370: de6f 48bd 6b1b fc3c 5d16 773e ce49 ef3a
00000380: a456 21bd 97bd 0e3d fff8 f1bd 922a 4cbc
00000390: 5841 c93c df2e 05be f063 e9bd e8bc 59bd
000003a0: a5a1 9338 b5a0 abbd 2f7a 0c3e 8f68 563d
000003b0: 868a 463e 58f1 06bd 1494 31bc 2662 d0be
000003c0: 3f0e a7bd 17dc 753b 0abf 30bc 0ee7 2fbe
000003d0: a960 bbbd 2ba6 303e 35ab 2dbd 4fcf a03d
000003e0: 0875 cd3d d82e 0f3e baee 6c3d 012d 013e
000003f0: 7754 26be a361 133d 1af7 b9bd 407f 40be

net.0.bias f4 [256]
0.059103824 0.0446414 0.05936038 -0.0262067 0.09899484 0.027925259 0.046929803 0.009329604
-0.0012227328 -0.09067181 0.018623376 -0.041381992 0.042893738 0.16729052 0.107535556 0.024926018
0.17109266 0.05537707 -0.06088435 0.020649599 -0.0009165591 0.073798336 0.09617924 0.032101102
-0.07194391 0.07279712 0.035983846 -0.010343848 -0.008389447 0.034699336 0.018962286 -0.009068203
0.03963906 0.14437343 0.08816177 0.05946934 -0.031865817 0.062425446 0.06628329 0.055600803
-0.0009358538 -0.018358642 0.08067664 0.07154181 0.016214235 0.06120117 0.021918634 0.07916264
0.041912597 0.04464213 -0.0039035785 -0.023989143 0.039950967 0.05199845 0.07757127 -0.05555875
-0.059875477 0.11462404 0.07363707 0.034464408 0.058760803 0.049740974 0.037967183 0.013148938
0.0439912 0.08255976 0.06363842 0.17998752 0.025638893 0.05565507 0.04844809 0.06745166
0.07963064 -0.012255045 0.018057918 0.04420541 -0.01061894 -0.0862839 -0.016324626 0.028871156
0.075665355 0.03882349 0.1485046 0.13804744 0.04242551 0.019606318 0.2753591 0.15759653
0.035024427 -0.0109526245 0.02888122 0.081477426 0.029118072 0.0047645676 -0.008538722 0.12259594
-0.017575044 0.14224628 0.044635724 0.1422463 0.12565897 0.046536464 0.048918113 -0.05305816
-0.026014345 0.012081182 0.24313827 0.04607047 -0.032614827 0.114109546 0.0117039345 0.01806184
0.06210872 -0.03786612 0.026826313 -0.00015328794 0.2597643 -0.10486606 0.05346197 0.01370863
0.040539846 0.03423142 -0.054711513 0.0095837815 0.11699928 0.14460553 0.05269062 0.11830132
0.16703294 0.06698802 -0.016179085 0.19184427 0.19135965 0.29188392 0.113003634 0.01795227
0.03189634 0.14116108 0.041764505 0.031526223 0.038594827 0.018939639 0.066735215 0.04958274
0.026694365 0.015354181 0.074758135 0.12964499 0.15287407 0.03380289 0.027898101 0.061035205
-0.029873203 0.012879756 0.0024012793 -0.04886429 0.1153312 -0.035418987 0.17839772 -0.03773782
0.12922662 0.12751268 0.19038521 -0.06208564 0.06879479 0.007639396 0.06178107 0.09779845
0.030114617 0.014188171 0.07183095 0.046015695 0.11933529 0.1628815 0.04697574 -0.009505475
0.06361004 0.122715935 0.057876337 0.0921158 0.009836877 0.10314547 0.037598237 0.06712229
0.11465411 -0.023375101 0.04265527 0.021827327 0.09080422 0.021269253 0.28175694 0.055224027
0.035930667 0.054285247 0.0544379 0.03505021 0.11990787 0.12880634 0.08120507 0.13037708
0.043687403 -0.00901738 0.1336551 -0.067287326 -0.05227346 0.027936956 0.040625405 0.045165293
0.044441678 0.052569248 0.023498222 0.12111701 0.13184896 0.14289902 0.059441816 0.041131277
0.08204016 0.029997116 0.05716647 -0.085414745 0.14328025 0.048921786 -0.01682852 0.029379278
0.06380324 0.030347792 -0.02112471 0.05183121 0.0010556242 0.070844665 0.06041423 0.012040998
0.012562604 0.022873882 -0.036452744 0.15982898 0.10746731 -0.0055468627 -0.045160525 0.033119734
0.17181088 0.0100767445 0.037655458 -0.017246267 -0.003818274 0.06506464 0.04945528 0.13928495
0.07773511 0.01728771 0.048802655 -0.029668845 0.09191143 -0.0073362007 0.13822004 -0.017776148
00000000: da16 723d e7d9 363d df23 733d 6faf d6bc
00000010: cfbd ca3d 83c3 e43c 7739 403d 32db 183c
00000020: 1b44 a0ba 24b2 b9bd 0d90 983c 2a80 29bd
00000030: 58b1 2f3d 354e 2b3e 9a3b dc3d a631 cc3c
00000040: ea32 2f3e 11d3 623d de61 79bd 5929 a93c
00000050: 3d45 70ba 9523 973d 9ff9 c43d 727c 033d
00000060: 5457 93bd a816 953d cc63 133d 3e79 29bc
00000070: e473 09bc e420 0e3d cc56 9b3c cd92 14bc
00000080: 915c 223d a1d6 133e 288e b43d 1f96 733d
00000090: bb85 02bd d3b1 7f3d 89bf 873d abbd 633d
000000a0: 1654 75ba dd64 96bc cb39 a53d 8384 923d
000000b0: b7d3 843c 14ae 7a3d b58e b33c 0620 a23d
000000c0: 8bac 2b3d abda 363d 2ed3 7fbb e184 c4bc
000000d0: a0a3 233d 54fc 543d b0dd 9e3d 9291 63bd
000000e0: fd3f 75bd 02c0 ea3d 08cf 963d 8d2a 0d3d
000000f0: 2baf 703d 31bd 4b3d 7a83 1b3d a56e 573c
00000100: 1e30 343d 1715 a93d dc54 823d a64e 383e
00000110: a808 d23c 92f6 633d 8171 463d 1924 8a3d
00000120: 6415 a33d 62c9 48bc 33ee 933c bb10 353d
00000130: 10fb 2dbc 9db5 b0bd 39bb 85bc 3483 ec3c
00000140: 70f6 9a3d 6105 1f3d 9711 183e 4f5c 0d3e
00000150: 5fc6 2d3d 6e9d a03c defb 8c3e fc60 213e
00000160: c675 0f3d a372 33bc 4f98 ec3c a3dd a63d
00000170: 0689 ee3c 1720 9c3b ffe5 0bbc 9513 fb3d
00000180: 8af9 8fbc 02a9 113e f3d3 363d 04a9 113e
00000190: bfac 003e 059d 3e3d 5c5e 483d 8353 59bd
000001a0: 091c d5bc 26f0 453c 3df9 783e 64b4 3c3d
000001b0: 2097 05bd 44b2 e93d dcc1 3f3c 6df6 933c
000001c0: b765 7e3d 8119 1bbd dbc2 db3c ebbb 20b9
000001d0: d4ff 843e 04c4 d6bd f0fa 5a3d 299a 603c
000001e0: 1c0d 263d 3f36 0c3d 2e19 60bd 4b05 1d3c
000001f0: 529d ef3d 7913 143e 1fd2 573d f647 f23d
00000200: af0a 2b3e 0431 893d 008a 84bc d372 443e
00000210: c9f3 433e cf71 953e 736e e73d a410 933c
00000220: bda5 023d 888c 103e 4211 2b3d a421 013d
00000230: 9c15 1e3d 4d27 9b3c 79ac 883d 4517 4b3d
00000240: 24ae da3c 1a90 7b3c cb1a 993d a8c1 043e
00000250: 058b 1c3e e674 0a3d 8f8a e43c 0d00 7a3d
00000260: a6b8 f4bc 9d05 533c c85e 1d3b ec25 48bd
00000270: c432 ec3d 8013 11bd e4ad 363e f992 1abd
00000280: fc53 043e af92 023e 57f4 423e 834d 7ebd
00000290: 48e4 8c3d e653 fa3b 260e 7d3d 8e4a c83d
000002a0: eeb2 f63c 8175 683c 1b1c 933d f47a 3c3d
000002b0: 0f66 f43d 68ca 263e a269 403d dabc 1bbc
000002c0: fb45 823d 7e52 fb3d bd0f 6d3d 35a7 bc3d
000002d0: da2a 213c ef3d d33d 9c00 1a3d 6977 893d
000002e0: c6cf ea3d 247d bfbc 4bb7 2e3d 39cf b23c
000002f0: 90f7 b93d db3c ae3c 7242 903e 9732 623d
00000300: 092c 133d 355a 5e3d 47fa 5e3d cf90 0f3d
00000310: 4292 f53d cfe5 033e d84e a63d 9281 053e
00000320: 90f1 323d a2bd 13bc e2dc 083e f0cd 89bd
00000330: b21c 56bd 0bdc e43c d366 263d 3eff 383d
00000340: 7a08 363d da52 573d 587f c03c 320c f83d
00000350: 6a03 073e 1f54 123e 4379 733d 4579 283d
00000360: ac04 a83d 83bc f53c 6327 6a3d eded aebd
00000370: 0fb8 123e 3662 483d f7db 89bc d0ac f03c
00000380: 46ab 823d ef9b f83c ba0d adbc f64c 543d
00000390: df5c 8a3a 0217 913d e974 773d 9b47 453c
000003a0: 61d3 4d3c 0262 bb3c 794f 15bd 35aa 233e
000003b0: d217 dc3d 75c2 b5bb 3efa 38bd 8fa8 073d
000003c0: 31ef 2f3e ee18 253c 9c3c 1a3d 0b48 8dbc
000003d0: 023c 7abb 9c40 853d 9f91 4a3d b7a0 0e3e
000003e0: 9633 9f3d f59e 8d3c 4be5 473d 140c f3bc
000003f0: 0f3c bc3d 8364 f0bb 8e89 0d3e 499f 91bc

net.2.weight f4 [256, 256]
0.07328814 0.19602074 0.17347309 -0.2735908 0.17716677 0.035824973 -0.039632257 0.19486852
0.06842008 -0.2058091 0.08998388 -0.06776041 -0.025004629 0.24709503 0.36084732 0.28702846
0.19387512 0.32700568 -0.14520088 0.23843111 0.3734767 0.4547748 0.012155526 -0.08363566
0.23734155 0.47892737 -0.076458104 0.041151706 0.22754736 -0.058231134 -0.01627541 0.106209
-0.14620225 0.01952905 0.15960282 0.0308106 0.09537009 -0.16734971 0.12664212 0.004843004
0.32010695 0.15014024 0.3611917 0.31180662 -0.038997073 0.059626713 0.3903811 0.17528692
0.23816484 0.08459601 -0.047922768 -0.25979552 0.16205464 -0.02867702 0.16767026 -0.19468446
-0.27337232 0.062088422 0.25254777 0.11389398 0.27326018 0.14750491 0.1835383 0.060238693
0.070166364 0.027405336 -0.09774795 -0.0025680617 -0.034106378 0.30847153 0.21226107 0.084020406
0.13559219 -0.14698406 0.36593875 0.27893293 0.3487442 0.05615836 0.26323953 0.05117956
0.48847103 0.010359409 0.19806203 0.098630644 0.13755175 0.07412652 0.011896099 -0.009630139
0.21697138 -0.10606673 -0.17096727 0.33615503 -0.16054903 0.02759543 -0.2665093 0.11353158
-0.23785217 0.060190078 0.071214 0.23817404 0.28693733 0.26188985 0.08633599 -0.15146464
0.067517795 0.16617434 0.167144 0.1988941 0.06923624 0.0009900382 0.060467485 -0.13133866
0.2111766 0.20136583 -0.101239406 0.36463854 0.047356937 -0.05432282 0.08044583 -0.104599945
-0.09536934 0.26575533 -0.04186992 -0.22996695 0.25868258 0.20764953 0.04064781 -0.03985148
0.2590719 -0.01243385 -0.121903226 0.10820706 0.06711147 0.20681316 0.074577264 0.12609498
0.32055768 0.12476108 0.39653894 0.16300109 0.09221455 0.18650189 0.08935118 0.21451902
0.0677753 -0.12924865 0.069527954 0.07375419 0.061208967 -0.06507666 0.14205174 0.11061484
0.0384328 -0.15112083 0.0631359 -0.2027927 0.037180617 -0.22638911 0.42673507 0.004029923
0.1520184 0.20469055 0.087081864 -0.17251262 0.2136929 -0.012547671 0.022643205 0.2429414
0.50029266 0.10871918 0.05990516 -0.024559699 0.21898274 0.090849556 0.09209177 0.06312298
0.16145976 0.0625087 0.10539952 0.47008052 0.2458816 -0.031874124 -0.07743389 0.32053083
0.30763313 -0.13412885 -0.1314265 -0.020729307 0.374136 0.20271316 0.43184996 0.0568841
0.28064498 0.07180576 0.2268566 0.15015987 0.29814497 0.19871292 0.01036371 0.42025936
-0.060590353 0.049738444 -0.021445334 0.00484754 -0.10182106 0.2429221 -0.05631265 -0.21880022
-0.0038072972 0.108556084 0.23504351 0.15007126 0.04400541 0.26801348 -0.09097611 -0.094322994
-0.12505323 -0.055936262 0.0027320313 -0.06832952 0.49450207 0.05987776 0.36782902 0.47499877
0.17532839 -0.040595986 0.019936025 0.07667117 -0.07178709 0.2501152 0.0030437175 0.10815732
0.10513059 -0.065772064 0.21429951 0.06375099 0.5202564 -0.16765144 -0.05887799 0.098011926
0.1809302 -0.033457365 0.034014445 0.09012646 -0.2907701 -0.022925213 0.040438496 0.30081883
-0.092408456 0.16675499 0.042387553 -0.3285075 0.20935075 -0.03189345 0.25468263 0.56555986
00000000: 1818 963d a9b9 483e eea2 313e 1814 8cbe
00000010: 356b 353e 35bd 123d 6f55 22bd 9d8b 473e
00000020: d41f 8c3d 9fbf 52be 7849 b83d f8c5 8abd
00000030: 82d6 ccbc 7b06 7d3e fbc0 b83e 65f5 923e
00000040: 3387 463e 4a6d a73e 8aaf 14be 4927 743e
00000050: 5738 bf3e 3ed8 e83e f927 473c 2c49 abbd
00000060: aa09 733e f835 f53e 1196 9cbd b18e 283d
00000070: 2d02 693e c583 6ebd 0254 85bc 1b84 d93d
00000080: 0bb6 15be 63fb 9f3c ec6e 233e 8366 fc3c
00000090: 6551 c33d b95d 2bbe 79ae 013e 10b2 9e3b
000000a0: 0fe5 a33e 5dbe 193e 1eee b83e 1ea5 9f3e
000000b0: 65bb 1fbd 243b 743d 08e0 c73e 6a7e 333e
000000c0: 7ce1 733e ac40 ad3d aa4a 44bd eb03 85be
000000d0: a7f1 253e 12ec eabc c1b1 2b3e 5d5b 47be
000000e0: 75f7 8bbe 6e50 7e3d f14d 813e 3f41 e93d
000000f0: c2e8 8b3e 870b 173e 77f1 3b3e d9bc 763d
00000100: 62b3 8f3d 2881 e03c 1430 c8bd ed4c 28bb
00000110: 21b3 0bbd fbef 9d3e f75a 593e e412 ac3d
00000120: aed8 0a3e fd82 16be 535c bb3e 4cd0 8e3e
00000130: 9a8e b23e 4f06 663d 55c7 863e a9a1 513d
00000140: e018 fa3e 83ba 293c c6d0 4a3e ddfe c93d
00000150: 5eda 0c3e a5cf 973d dbe7 423c bbc7 1dbc
00000160: bf2d 5e3e 8439 d9bd 0b12 2fbe 831c ac3e
00000170: f766 24be d00f e23c e873 88be 3f83 e83d
00000180: 858f 73be df89 763d a5d8 913d e5e3 733e
00000190: 73e9 923e 6d16 863e ecd0 b03d 8c19 1bbe
000001a0: c546 8a3d 9b29 2a3e cc27 2b3e e5aa 4b3e
000001b0: bbcb 8d3d 2bc4 813a c1ac 773d a47d 06be
000001c0: ae3e 583e d832 4e3e 9b56 cfbd e7b1 ba3e
000001d0: 59f9 413d 9b81 5ebd c9c0 a43d 7f38 d6bd
000001e0: 0051 c3bd 1511 883e cb7f 2bbd 757c 6bbe
000001f0: 0b72 843e 14a2 543e 517e 263d 4e3b 23bd
00000200: 12a5 843e 59b7 4bbc 66a8 f9bd aa9b dd3d
00000210: bd71 893d d4c6 533e f7bb 983d 0b1f 013e
00000220: 2320 a43e bd82 ff3d 2707 cb3e c2e9 263e
00000230: fbda bc3d 5afa 3e3e c0fd b63d e0aa 5b3e
00000240: c7cd 8a3d c259 04be ac64 8e3d 700c 973d
00000250: 41b6 7a3d e946 85bd 0376 113e 098a e23d
00000260: b66b 1d3d 6bbf 1abe 654d 813d e4a8 4fbe
00000270: b44a 183d 8cd2 67be 057d da3e 720d 843b
00000280: b6aa 1b3e 669a 513e fa57 b23d 26a7 30be
00000290: 50d2 5a3e bf94 4dbc 3e7e b93c a1c5 783e
000002a0: 2e13 003f 29a8 de3d 1d5f 753d 6c31 c9bc
000002b0: 033d 603e 550f ba3d 9c9a bc3d 9f46 813d
000002c0: b555 253e 9004 803d b4db d73d 65ae f03e
000002d0: 63c8 7b3e 718e 02bd a995 9ebd 9e1c a43e
000002e0: 1782 9d3e 1359 09be ab94 06be 82d0 a9bc
000002f0: c18e bf3e 0a94 4f3e 701b dd3e 4dff 683d
00000300: b3b0 8f3e e60e 933d 194d 683e 82c3 193e
00000310: 75a6 983e 667b 4b3e 8dcc 293c 3c2c d73e
00000320: 972d 78bd 8aba 4b3d 20ae afbc 1dd8 9e3b
00000330: 8f87 d0bd 92c0 783e 18a8 66bd 2a0d 60be
00000340: d983 79bb a752 de3d 3faf 703e 48ac 193e
00000350: 043f 343d 1039 893e af51 babd 6a2c c1bd
00000360: f40d 00be 6c1d 65bd e10b 333b 59f0 8bbd
00000370: 602f fd3e 6242 753d 1654 bc3e 0a33 f33e
00000380: 4989 333e fa47 26bd e050 a33c c605 9d3d
00000390: 1c05 93bd 190f 803e 1b79 473b 9681 dd3d
000003a0: b54e d73d 81b3 86bd 5571 5b3e e18f 823d
000003b0: 862f 053f d2ac 2bbe 0c2a 71bd 7aba c83d
000003c0: c445 393e 970a 09bd bb52 0b3d 3994 b83d
000003d0: d2df 94be a8cd bbbc d6a2 253d ed04 9a3e
000003e0: a540 bdbd d2c1 2a3e 929e 2d3d 2332 a8be
000003f0: 0b60 563e b5a2 02bd c365 823e 88c8 103f

net.2.bias f4 [256]
0.09735847 0.09954131 0.06666808 0.013710757 0.0801668 0.0689458 0.08071179 -0.02870752
-0.051650353 0.08756099 0.063162774 0.052020773 0.04059197 0.07521308 0.071005106 0.11403178
0.07849885 0.07505657 0.035529286 -0.004425021 0.05152627 -0.034827698 0.093042985 0.07252537
0.06392987 0.038742773 0.058878414 0.067045346 -0.028969921 0.021223104 0.11637438 0.0747503
-0.03969439 0.0014421692 -0.04499058 0.11978791 0.0724758 -0.022668568 0.08484455 0.01435056
0.103248686 0.083965644 0.011215525 -0.005218825 0.057663575 0.0862228 0.09916335 0.064936705
0.08563093 0.104920626 -0.01808674 -0.028139554 0.09178173 0.017988836 -0.047467243 0.09166119
0.09916999 0.09722595 0.015905667 -0.016494889 -0.033613916 0.083405584 0.017272573 -0.034376413
0.09173832 0.0869189 0.034464724 0.07515973 -0.04009808 0.036491428 0.112297215 -0.016006835
0.09023993 -0.014982228 0.121728644 0.07879323 -0.013734527 -0.02320821 0.0002513611 0.032763362
0.052773327 0.020958427 0.0032364915 0.10362915 -0.02337703 0.109678544 0.15039806 0.09041409
-0.008818527 0.0019196024 0.0613658 -0.022489903 0.06539098 0.046882298 0.09437108 0.08310859
0.08001986 0.051089954 -0.07371705 -0.01584692 0.0905077 0.069614545 0.030515036 0.052992046
-0.014823168 0.033367984 0.073635675 0.10367122 0.055284124 -0.013333061 0.0475588 0.12890658
0.034970205 0.04276642 0.10511084 -0.023335276 -0.05769441 0.071829736 -0.017913243 0.116007194
-0.0053841434 -0.0050729094 0.020413525 0.0086515825 0.09056259 0.048701126 0.0009794557 0.069476694
0.046430163 -0.017192252 -0.040142506 -0.011798987 -0.037855856 0.09353308 0.058117334 0.009638802
0.05759299 -0.018919442 0.070412 0.105162874 -0.015390532 0.07673418 0.1009114 -0.005973387
0.06671841 0.0584026 -0.02314692 0.07260005 -0.042596348 0.09561503 -0.034575574 -0.023888083
0.106954165 0.026935084 0.10770486 -0.0048264833 0.044817645 0.06966126 0.11303917 0.06579015
0.08068588 -0.0027917929 0.09349147 -0.028543996 -0.014482755 0.018451277 0.16386679 -0.026878674
0.09033889 0.00967232 0.035142012 -0.0019535855 0.05934095 -0.06067691 0.08183946 0.037934136
-0.026822114 0.055847563 0.08212618 0.10869232 0.012633146 0.0026404355 -0.100618705 0.081168264
0.065988086 0.060149305 0.081387706 -0.031589378 0.06072011 0.08658592 -0.0066258926 0.058285583
0.0010956083 0.016871635 -0.012489937 0.101814896 0.034353543 0.06931278 0.0794127 0.051287115
-0.03757613 0.078572005 0.0820582 0.06997705 0.02727847 0.09800695 0.026962101 -0.00601763
0.06830592 0.032147992 0.083458215 0.05855889 0.082001075 0.07977342 0.08900477 0.11462566
0.09383378 0.063756995 0.07626272 -0.060100317 -0.020900823 -0.027072705 0.017698856 0.027100706
0.09366449 -0.0075356574 -0.0055081807 0.07545556 0.027967839 0.07038864 -0.021330189 0.11100408
0.063668445 0.03923606 0.092321545 0.06923255 0.065832205 0.10197603 0.08558167 0.09122604
0.08477637 -0.033840284 0.030159948 0.08882005 0.059126895 -0.0102208285 0.052543443 0.0928908
0.10274887 0.074439004 0.0797648 -0.028888244 0.12678047 0.014553292 0.09346748 -0.053143997
00000000: e163 c73d 50dc cb3d 4689 883d 15a3 603c
00000010: 7e2e a43d 7533 8d3d 394c a53d 082c ebbc
00000020: 528f 53bd 2d53 b33d 7c5b 813d bc13 553d
00000030: c443 263d 5109 9a3d 206b 913d 7e89 e93d
00000040: 01c4 a03d 42b7 993d 2887 113d c4ff 90bb
00000050: 360d 533d 7da7 0ebd 528d be3d 2e88 943d
00000060: aaed 823d beb0 1e3d 7e2a 713d 124f 893d
00000070: 5452 edbc 13dc ad3c b155 ee3d af16 993d
00000080: 9696 22bd 2b07 bd3a 0b48 38bd 5d53 f53d
00000090: 316e 943d 6fb3 b9bc fbc2 ad3d 9c1e 6b3c
000000a0: 0c74 d33d 2ef6 ab3d 52c1 373c ad02 abbb
000000b0: a430 6c3d 9495 b03d 2816 cb3d 89fd 843d
000000c0: 455f af3d a0e0 d63d a52a 94bc ec84 e6bc
000000d0: 0ff8 bb3d 535d 933c 036d 42bd ddb8 bb3d
000000e0: a319 cb3d 661e c73d 9a4c 823c 4a20 87bc
000000f0: bfae 09bd 8cd0 aa3d 367f 8d3c 48ce 0cbd
00000100: 4de1 bb3d 8902 b23d e22a 0d3d 58ed 993d
00000110: e23d 24bd 0978 153d 15fc e53d c420 83bc
00000120: b6cf b83d 0578 75bc de4c f93d 585e a13d
00000130: c806 61bc 251f bebc 1ec9 8339 e032 063d
00000140: d828 583d 02b1 ab3c 511b 543b 853b d43d
00000150: 2f81 bfbc 259f e03d f301 1a3e 062b b93d
00000160: 957b 10bc 2b9b fb3a b55a 7b3d bf3c b8bc
00000170: b5eb 853d a707 403d a045 c13d d634 aa3d
00000180: 74e1 a33d b343 513d f7f8 96bd 66d1 81bc
00000190: 1a5c b93d 1292 8e3d abfa f93c 300e 593d
000001a0: dfdc 72bc deac 083d 4dce 963d 9451 d43d
000001b0: 9b71 623d e972 5abc 04cd 423d 1600 043e
000001c0: eb3c 0f3d d72b 2f3d 5a44 d73d 9f29 bfbc
000001d0: f950 6cbd 781b 933d cbbe 92bc 2e95 ed3d
000001e0: 786d b0bb a63a a6bb 443a a73c 5ebf 0d3c
000001f0: e178 b93d d57a 473d 1461 803a cc49 8e3d
00000200: 8e2d 3e3d c4d6 8cbc 786c 24bd 8a50 41bc
00000210: be0e 1bbd 458e bf3d 710c 6e3d 11ec 1d3c
00000220: a1e6 6b3d f2fc 9abc 2b34 903d a25f d73d
00000230: 9228 7cbc cf26 9d3d a3aa ce3d 67bc c3bb
00000240: a9a3 883d 9137 6f3d 9c9e bdbc 56af 943d
00000250: 8279 2ebd d0d1 c33d 1e9f 0dbd f1b0 c3bc
00000260: c90a db3d f7a6 dc3c 5e94 dc3d 7a27 9ebb
00000270: b592 373d 90aa 8e3d 1581 e73d fcbc 863d
00000280: a33e a53d 83f6 36bb 7578 bf3d 19d5 e9bc
00000290: 1449 6dbc 2227 973c b2cc 273e aa30 dcbc
000002a0: 9903 b93d a778 1e3c 12f1 0f3d ba07 00bb
000002b0: 7f0f 733d 5a88 78bd 729b a73d d360 1b3d
000002c0: 0dba dbbc 6ac0 643d c531 a83d 149a de3d
000002d0: 41fb 4e3c 280b 2d3b 2e11 cebd 8c3b a63d
000002e0: c324 873d 1e5f 763d 99ae a63d dd63 01bd
000002f0: a6b5 783d f553 b13d 041e d9bb ddbc 6e3d
00000300: 849a 8f3a 6236 8a3c 98a2 4cbc 5484 d03d
00000310: 4db6 0c3d dcf3 8d3d 20a3 a23d 7012 523d
00000320: 6ee9 19bd 5cea a03d 210e a83d 2150 8f3d
00000330: 1977 df3c deb7 c83d a0df dc3c 8a2f c5bb
00000340: f9e3 8b3d 9dad 033d 24ec aa3d 72db 6f3d
00000350: 2ef0 a73d 3f60 a33d 2248 b63d dcc0 ea3d
00000360: ed2b c03d 0793 823d a12f 9c3d c02b 76bd
00000370: 3438 abbc 94c7 ddbc 31fd 903c 4d02 de3c
00000380: 2bd3 bf3d aded f6bb f87d b4bb 7288 9a3d
00000390: cf1c e53c eb27 903d a6bc aebc 1b56 e33d
000003a0: 9a64 823d feb5 203d 1413 bd3d ccc9 8d3d
000003b0: 09d3 863d cfd8 d03d 7145 af3d b8d4 ba3d
000003c0: 3c9f ad3d 1c9c 0abd ff11 f73c 49e7 b53d
000003d0: 0b2f 723d 4375 27bc cb37 573d 883d be3d
000003e0: 006e d23d 7a73 983d ba5b a33d 0aa7 ecbc
000003f0: bdd2 013e ee70 6e3c e16b bf3d 85ad 59bd

net.4.weight f4 [1, 256]
-0.48417205 -0.37547335 -0.24442318 0.32308298 -0.42899254 -0.60429966 0.27524346 0.56075853
0.41583627 -0.35498405 -0.3981441 -0.5710143 0.49524397 -0.22558038 -0.36038414 -0.46220198
0.3480921 -0.5756258 -0.44797823 -0.019297367 -0.42366016 0.34909648 -0.3905668 -0.26487854
-0.29777417 0.48134252 -0.39499566 -0.56927496 -0.16339976 0.2940226 -0.3317118 0.66335267
0.23407677 0.5659801 0.4813386 -0.69488287 0.6299744 0.22519541 0.56994563 -0.24338058
-0.69711417 -0.41905996 0.38506424 0.2648794 -0.33253923 -0.6610614 -0.3875322 -0.3952496
0.38482752 0.4014431 -0.15297249 0.36844987 -0.59836984 0.6366662 0.29767087 -0.54097086
0.39834353 -0.43808934 0.23208402 0.47917348 0.12295545 0.4053597 0.35673285 0.2096205
-0.48886958 -0.40776613 1.0287508 -0.3652627 0.32715264 -0.11421531 -0.4987118 -0.49253935
0.55344045 -0.011509857 -0.533631 -0.6083321 0.15309396 0.53432924 0.3875751 0.52625066
-0.580845 0.53379667 -0.25888163 -0.5763221 0.51319075 -0.48875743 -0.595447 -0.3673044
-0.34327543 0.17460445 -0.5001732 0.5288702 -0.45604718 0.6984293 -0.657346 -0.50462943
-0.585733 -0.14479966 0.10139109 -0.11670491 -0.51783746 0.6163101 0.38780957 -0.44862098
0.11529792 0.87344074 0.51749635 -0.57292277 0.5716012 0.4381173 -0.24718867 -0.5688406
-0.37261945 0.5811397 -0.36955354 0.46037975 0.20123991 -0.485737 0.5094637 -0.62899697
0.6024294 0.26910046 -0.1993051 -0.73175967 -0.30766824 -0.50963265 -0.34206808 -0.28357193
0.8253602 -0.07439782 0.4747436 -0.17680204 0.5043656 -0.38395265 0.5647433 0.30733842
-0.32880768 0.1800461 -0.33039793 -0.52871174 -0.39949843 -0.38353395 -0.2902687 -0.19982855
-0.5696226 -0.5751087 0.1609824 0.30587766 0.42209223 -0.59495795 0.42254707 0.2326378
-0.4246709 0.3656029 -0.5301424 -0.30630603 0.5441048 0.57064354 0.37488797 0.9584444
-0.33341312 -0.3159024 0.39718992 -0.1605852 -0.20242183 -0.6797572 0.5380857 0.55562603
-0.7070739 -0.17162725 0.3800353 0.759847 -0.44254646 0.648092 -0.42857692 0.5402062
0.44086707 0.5395513 -0.2966469 0.36997694 0.3971134 0.3420167 0.09695231 -0.34095576
0.47408476 -0.37199435 -0.58528966 0.028774835 0.6834986 0.6345964 0.3310907 -0.36659524
0.3720001 0.3847524 0.4726023 -0.54020107 -0.58889014 -0.47893864 -0.33402348 -0.45089853
0.023063669 -0.44609305 0.40141597 -0.29481524 -0.6543405 -0.5569599 -0.5057723 -0.47178075
-0.48241934 -0.48153952 -0.7452615 0.4100328 -0.5029928 -0.41998577 0.38846937 -0.7055165
-0.44157162 -0.33110473 -0.54601973 0.24669905 0.4559703 0.06097723 0.3612445 -0.24188165
-0.46619406 0.5504322 0.55446005 0.36883256 0.8945839 -0.21587627 0.3893505 -0.7305169
-0.29742944 -0.5071368 -0.6370645 -0.41815448 -0.43894404 -0.43422672 0.37918818 -0.4734736
-0.3375511 0.10767472 0.45376796 -0.41411278 -0.63339746 0.55868125 -0.4834575 0.33426845
-0.43067387 -0.48963472 -0.45010617 -0.26389575 -0.5925128 0.3726677 -0.4912916 0.18264526
00000000: 66e5 f7be 0b3e c0be 124a 7abe 226b a53e
00000010: e9a4 dbbe 62b3 1abf b6ec 8c3e df8d 0f3f
00000020: 7ee8 d43e 78c0 b5be 8bd9 cbbe fe2d 12bf
00000030: 9e90 fd3e 8bfe 66be 4584 b8be bda5 ecbe
00000040: 2139 b23e 365c 13bf 675d e5be 8315 9ebc
00000050: fce9 d8be c6bc b23e 5ff8 c7be 299e 87be
00000060: db75 98be 8772 f63e df3c cabe 01bc 11bf
00000070: 4452 27be 218a 963e 21d6 a9be 7bd1 293f
00000080: d2b1 6f3e 12e4 103f 0372 f63e d8e3 31bf
00000090: 0146 213f a099 663e f5e7 113f c238 79be
000000a0: 1376 32bf 078f d6be 2427 c53e 469e 873e
000000b0: 9542 aabe 523b 29bf 9f6a c6be 285e cabe
000000c0: 1d08 c53e f389 cd3e d2a4 1cbe 76a5 bc3e
000000d0: c42e 19bf 8efc 223f 5168 983e 117d 0abf
000000e0: aff3 cb3e 3f4d e0be 6fa7 6d3e 3a56 f53e
000000f0: 11d0 fb3d 4e8b cf3e b0a5 b63e c2a6 563e
00000100: 1d4d fabe b9c6 d0be 1bae 833f b603 bbbe
00000110: 8d80 a73e b7e9 e9bd 2757 ffbe 1e2e fcbe
00000120: 46ae 0d3f d793 3cbc 0b9c 08bf a7bb 1bbf
00000130: aac4 1c3e cdc9 083f 3e70 c63e 5db8 063f
00000140: 42b2 14bf e6a6 083f 228c 84be d889 13bf
00000150: 7860 033f 6a3e fabe 376f 18bf 530f bcbe
00000160: ccc1 afbe 82cb 323e 5a0b 00bf 0a64 073f
00000170: 047f e9be 43cc 323f d447 28bf 652f 01bf
00000180: 99f2 15bf 5d46 14be 22a6 cf3d fc02 efbd
00000190: ff90 04bf 80c6 1d3f fa8e c63e a6b1 e5be
000001a0: 5121 ec3d d099 5f3f a47a 043f 11ab 12bf
000001b0: 7554 123f e950 e03e 071f 7dbe 8a9f 11bf
000001c0: fac7 bebe 92c5 143f 1f36 bdbe e5b6 eb3e
000001d0: d611 4e3e 85b2 f8be 376c 023f f205 21bf
000001e0: d038 1a3f 89c7 893e a316 4cbe 9a54 3bbf
000001f0: b186 9dbe 4977 02bf 8c23 afbe 5730 91be
00000200: ce4a 533f e25d 98bd 9811 f33e 980b 35be
00000210: 1b1e 013f 7195 c4be 0493 103f 765b 9d3e
00000220: 7b59 a8be 015e 383e eb29 a9be a759 07bf
00000230: 0f8b ccbe 905e c4be 199e 94be db9f 4cbe
00000240: c9d2 11bf 533a 13bf 92d8 243e ff9b 9c3e
00000250: 791c d83e 2a4f 18bf 1758 d83e 9a38 6e3e
00000260: 776e d9be 4e30 bb3e 6ab7 07bf 25d4 9cbe
00000270: 744a 0b3f b215 123f 51f1 bf3e 9d5c 753f
00000280: 20b5 aabe f6bd a1be 7a5c cb3e 7270 24be
00000290: ab47 4fbe 9104 2ebf fcbf 093f 823d 0e3f
000002a0: cc02 35bf 0ebf 2fbe fd93 c23e 5585 423f
000002b0: 7395 e2be 5be9 253f 6f6e dbbe f44a 0a3f
000002c0: 54b9 e13e 0920 0a3f 1ae2 97be 9e6d bd3e
000002d0: 7352 cb3e d01c af3e ef8e c63d c191 aebe
000002e0: 3dbb f23e 0b76 bebe 8bd5 15bf 34b9 eb3c
000002f0: c4f9 2e3f e974 223f b884 a93e 5fb2 bbbe
00000300: cc76 be3e 44fe c43e eef8 f13e 9e4a 0abf
00000310: 81c1 16bf 7237 f5be 2005 abbe 2cdc e6be
00000320: 05f0 bc3c 4f66 e4be 6586 cd3e 06f2 96be
00000330: dc82 27bf ed94 0ebf 4b7a 01bf 3f8d f1be
00000340: abff f6be 598c f6be 75c9 3ebf d2ef d13e
00000350: 23c4 00bf 6008 d7be 75e5 c63e bb9c 34bf
00000360: ad15 e2be 8f86 a9be f3c7 0bbf ad9e 7c3e
00000370: f074 e93e 43c3 793d 0af5 b83e d3af 77be
00000380: fdb0 eebe 20e9 0c3f 18f1 0d3f 9fd7 bc3e
00000390: 7303 653f ab0e 5dbe f358 c73e 2803 3bbf
000003a0: ac48 98be b8d3 01bf a916 23bf 5818 d6be
000003b0: 46bd e0be f752 debe f424 c23e 226b f2be
000003c0: 7fd3 acbe 9084 dc3d 4654 e83e 9706 d4be
000003d0: 5626 22bf bc05 0f3f be87 f7be 3c25 ab3e
000003e0: 4981 dcbe 67b1 fabe 5174 e6be 581d 87be
000003f0: ebae 17bf 4dce be3e 938a fbbe 5c07 3b3e
