output/CarlaNavigation-v0/wcsac/4/cost_target.pt (torch, 536535 bytes, 5 tensors)

net.0.weight f4 [256, 263]
0.05533216 0.03849979 0.035194714 -0.08673155 -0.1027071 -0.1340912 -0.010215595 0.15882121
0.11388596 0.05668221 0.0197394 0.05221186 -0.098184586 0.06622753 -0.10222132 -0.036110394
-0.02482368 -0.057026424 0.13478263 0.14622673 -0.15216336 -0.06714544 0.15684234 -0.026438598
0.015556547 -0.108734615 0.05446417 0.12547162 -0.043718934 -0.065589756 0.084120855 -0.07095567
-0.029803282 0.030914165 -0.0528459 -0.11554744 -0.0820943 0.022875354 -0.033745572 0.060952883
0.0498001 -0.038235296 0.05306644 0.115584694 0.09986693 -0.12043801 0.109804526 0.052329574
-0.08643054 0.08623087 -0.074479796 -0.043089356 0.114556514 0.101532884 0.037650425 -0.047855496
-0.12538818 -0.11888977 0.038385797 -0.04998562 -0.0048233704 0.13444884 -0.034138963 -0.013704145
0.015000361 0.033000514 -0.0037430588 -0.021564422 -0.10918016 -0.016706266 -0.025315791 -0.11518683
0.087910235 0.03612753 0.1262979 -0.061078798 0.13390942 0.110346936 -0.03916513 -0.09619231
-0.097533405 0.013117411 -0.10702993 -0.016568057 0.08712941 -0.04326594 0.02653359 -0.002070588
0.12164351 -0.103477485 0.026216943 0.07913046 0.15610322 0.13860029 -0.13267261 -0.08538
-0.08186184 0.063429095 -0.002942074 -0.028671166 0.012308092 0.111628436 0.08637988 -0.055258404
0.08355611 -0.059210937 -0.10691816 0.10268177 0.052594073 0.058559753 -0.13858241 -0.07620238
-0.027502915 -0.12551484 -0.06770423 0.13995631 -0.013814787 0.031244226 0.05384875 0.040295385
0.01893213 -0.02674109 0.15863644 0.08485549 0.10065222 -0.026269097 0.06311617 0.11941578
-0.07692955 0.12958212 0.07708751 -0.10401393 0.057935394 -0.14877483 -0.11589463 -0.032270357
0.10005469 0.111109875 -0.12012806 -0.09340578 -0.064347 -0.13363224 0.06000592 0.05538879
-0.12271341 -0.072807886 0.13496143 -0.039464645 0.10563369 -0.020284783 -0.008172084 0.060517028
0.026058245 -0.12534347 -0.05025533 0.023394285 0.07143847 -0.11895087 0.091629565 0.119606525
0.10403032 0.011761219 -0.053659506 -0.010126932 0.06029351 0.15308127 -0.134124 -0.053190116
-0.11257018 0.039508607 -0.020146575 -0.08965218 0.08417898 -0.076422915 -0.0019276417 0.10212446
-0.14204547 -0.026654664 0.10017837 -0.07298223 0.0036034533 -0.13109905 -0.062202346 -0.05910067
0.12588663 -0.111233555 0.011508457 0.07976823 -0.10238374 0.016343797 0.08191996 0.123977035
0.12158391 -0.025308715 0.036434494 -0.01399416 0.019822476 -0.045182228 -0.029507494 -0.12267914
0.09813691 -0.12618166 0.047243807 -0.14884338 0.14217064 -0.082854256 -0.05390537 -0.084396526
-0.13683005 -0.00010391168 0.1338677 0.044385012 -0.11567707 -0.016987897 0.10596599 -0.08158915
-0.06208239 0.11197265 0.0014580218 0.0418317 -0.087497465 0.035083696 0.13544424 -0.09799087
-0.024723472 0.121531755 0.09373212 0.09644116 0.10546382 0.1437293 -0.026484419 -0.05330188
0.03400858 0.10911609 -0.12326177 -0.13773304 -0.13394517 -0.02274236 0.056358855 0.12603267
-0.021214617 -0.09503597 -0.09963745 0.12056914 0.040360954 -0.111987546 -0.08389138 -0.091715984
-0.10546381 0.084523186 -0.032435015 0.08027338 0.14499292 -0.10393049 0.08114658 -0.1408653
00000000: faa3 623d f5b1 1d3d 5528 103d 50a0 b1bd
00000010: 1a58 d2bd 344f 09be 505f 27bc 07a2 223e
00000020: 0b3d e93d 9b2b 683d 86b4 a13c 1adc 553d
00000030: 0015 c9bd 4da2 873d 6959 d1bd 7ee8 13bd
00000040: 085b cbbc 8a94 69bd 7504 0a3e 76bc 153e
00000050: b6d0 1bbe 8c83 89bd 479b 203e c295 d8bc
00000060: e3e0 7e3c 41b0 debd d215 5f3d a27b 003e
00000070: a012 33bd ec53 86bd 8e47 ac3d 3551 91bd
00000080: 0326 f4bc b43f fd3c f174 58bd 23a4 ecbd
00000090: 0e21 a8bd 1865 bb3c cc38 0abd bba9 793d
000000a0: 31fb 4b3d 9d9c 1cbd 325c 593d abb7 ec3d
000000b0: 0887 cc3d 34a8 f6bd 32e1 e03d 8957 563d
000000c0: 7f02 b1bd cf99 b03d dd88 98bd 777e 30bd
000000d0: 9b9c ea3d 79f0 cf3d 5537 1a3d 2004 44bd
000000e0: c265 00be 7b7c f3bd 6d3a 1d3d b9bd 4cbd
000000f0: 5d0d 9ebb f5ac 093e 4cd5 0bbd 5a87 60bc
00000100: 13c4 753c 8c2b 073d 1b4e 75bb dfa7 b0bc
00000110: d999 dfbd 94db 88bc 1063 cfbc 13e7 ebbd
00000120: 480a b43d 76fa 133d 3d54 013e c32d 7abd
00000130: 8d1f 093e 93fd e13d 9e6b 20bd 7900 c5bd
00000140: 98bf c7bd 69ea 563c 8232 dbbd bcb9 87bc
00000150: e770 b23d a037 31bd f95c d93c b4b2 07bb
00000160: 3c20 f93d 01ec d3bd eac4 d63c 270f a23d
00000170: 86d9 1f3e 3ced 0d3e 54db 07be b6db aebd
00000180: 2ea7 a7bd 1de7 813d d0cf 40bb cbdf eabc
00000190: e1a7 493c 739d e43d efe7 b03d a356 62bd
000001a0: 771f ab3d 2b87 72bd e9f7 dabd d24a d23d
000001b0: e26c 573d 5adc 6f3d 8ce8 0dbe fe0f 9cbd
000001c0: cb4d e1bc f686 00be 84a8 8abd b550 0f3e
000001d0: 6b57 62bc e4f3 ff3c 8290 5c3d c60c 253d
000001e0: 8e17 9b3c 2110 dbbc 9771 223e b7c8 ad3d
000001f0: c022 ce3d 4a32 d7bc 0d43 813d 4390 f43d
00000200: 3d8d 9dbd 2db1 043e 0ee0 9d3d 4105 d5bd
00000210: aa4d 6d3d 6e58 18be 2a5a edbd ec2d 04bd
00000220: 79e9 cc3d 938d e33d b305 f6bd 884b bfbd
00000230: 5cc8 83bd e4d6 08be c4c8 753d 5bdf 623d
00000240: 2b51 fbbd 4d1c 95bd 5433 0a3e aea5 21bd
00000250: 7a56 d83d 462c a6bc 34e4 05bc b4e0 773d
00000260: 1a78 d53c 0a5a 00be 88d8 4dbd 5fa5 bf3c
00000270: 554e 923d 849c f3bd 48a8 bb3d 44f4 f43d
00000280: d90d d53d 21b2 403c 12ca 5bbd 6eeb 25bc
00000290: 54f6 763d 56c1 1c3e cd57 09be e1dd 59bd
000002a0: 328b e6bd c7d3 213d 6e0a a5bc 909b b7bd
000002b0: 0766 ac3d 9e83 9cbd eca8 fcba a126 d13d
000002c0: 5e74 11be e25a dabc 512a cd3d b577 95bd
000002d0: ea27 6c3b d43e 06be e3c7 7ebd 8b13 72bd
000002e0: 6de8 003e 6bce e3bd f88d 3c3c 875d a33d
000002f0: 91ae d1bd 6de3 853c a7c5 a73d ace7 fd3d
00000300: fc00 f93d 3954 cfbc 563c 153d c347 65bc
00000310: bf62 a23c 0011 39bd b3b9 f1bc 333f fbbd
00000320: 01fc c83d c435 01be b982 413d 666a 18be
00000330: 2e95 113e 7eaf a9bd e1cb 5cbd 16d8 acbd
00000340: 2d1d 0cbe 29eb d9b8 9d14 093e 0fcd 353d
00000350: 1ae8 ecbd 342a 8bbc b204 d93d 3618 a7bd
00000360: 1b4a 7ebd eb51 e53d 181b bf3a b757 2b3d
00000370: df31 b3bd ecb3 0f3d e5b1 0a3e 70af c8bd
00000380: e188 cabc a4e5 f83d a0f6 bf3d f182 c53d
00000390: 6afd d73d c62d 133e daf5 d8bc 1253 5abd
000003a0: 954c 0b3d 4278 df3d ab70 fcbd e409 0dbe
000003b0: ec28 09be 304e babc 8bd8 663d b50e 013e
000003c0: 47ca adbc 38a2 c2bd b80e ccbd f4ec f63d
000003d0: 8751 253d ba59 e5bd 3ecf abbd 97d5 bbbd
000003e0: 69fd d7bd 7e1a ad3d 94da 04bd 5f66 a43d
000003f0: 0679 143e 82d9 d4bd 2e30 a63d fe3e 10be

net.0.bias f4 [256]
-0.008216602 -0.00443296 -0.0074083526 -0.00726111 -0.020725485 -0.0019417978 -0.0035621957 -0.0076307524
-0.004722043 -0.007018035 -0.001759305 -0.013792622 -0.0023533378 -0.008816933 0.0049943617 -0.016590783
0.0035449197 -0.022137746 0.008212131 -0.0060953726 0.0007105823 -0.007941302 -0.022984505 -0.0073287245
-0.022528157 0.014496329 -0.008491342 -0.00735983 -0.012119778 -0.0011130829 0.0016745777 -0.0046538697
0.0027026776 0.019574743 -0.003738449 -0.003355116 -0.012547255 -0.006731839 -0.0065577747 -0.002871992
-0.011462822 -0.0093001025 -0.010427749 -0.0027770437 -0.03707077 -0.0021406235 -0.00038056498 -0.0040256926
-0.0059847315 0.00010433951 -0.016878003 -0.016224587 -0.022072926 -0.0026807447 -0.012176962 -0.01021932
-0.010001204 0.008298744 -0.0099248355 -0.0069253678 -0.0062073176 -0.0039974735 -0.011534534 -0.00067911524
-0.01044563 -0.004524882 -0.005867478 0.0007410134 -0.008082678 -0.0163356 -0.0024097762 -0.021531641
-0.013741957 -0.015526559 -0.008094225 -0.005604751 -0.01663288 -0.006119494 -0.0076554324 -0.001204306
-0.008466941 -0.010048329 -0.0079692425 0.0006450521 -0.0007578004 -0.003076138 -0.0074427184 -0.0047389
-0.023452403 -0.028802296 -0.0038633393 -0.018627774 -0.010646423 -0.01877157 0.00043694495 -0.008752857
-0.006127317 -0.0016970227 -0.015681906 -0.010100855 -0.020809306 -0.0045161275 -0.014577353 -0.0048684464
0.00085076975 -0.0064617554 -0.007113681 -0.004501226 -0.00548489 -0.004064249 -0.005863566 -0.007879462
-0.0071216905 -0.01547068 -0.018124487 -0.009293398 -0.01053243 -0.015624162 -0.008081933 -0.005101464
-0.0062195174 -0.0052017677 -0.010802141 -0.0068725618 -0.0079016285 -0.0015188373 -0.0072951964 -0.010940351
-0.023512378 -0.010473943 -0.0061851516 -0.008979914 -0.016894393 -0.009447997 -0.0066913264 -0.019361656
-0.008565474 -0.00827099 -0.0011428387 -0.007068233 -0.026734386 -0.0051658186 -0.00997699 -0.019583683
0.0008793381 -0.0082741575 -0.0044036233 -0.006403454 -0.017616358 -0.0014585106 -0.0038634324 -0.008868901
-0.01661388 -0.011325732 -0.016816908 -0.0025989744 -0.006016489 -0.006852818 -0.0136359725 -0.007991594
-0.003707529 -0.011534907 -0.0040534455 0.0016667314 -0.009077517 -0.008798121 -0.004953011 -0.005990133
-0.010050005 -0.0033782593 -0.010862678 -0.0052399514 0.006289181 -0.014108154 -0.017427856 -0.001630829
-0.0151901655 -0.0068869973 -0.0069240644 0.010790779 -0.0043602237 -0.005035713 -0.014285849 -0.0034360015
0.00046121175 -0.013906802 -0.009694052 -0.0068889535 -0.009815871 -0.013230288 -0.009204176 -0.002667194
-0.010944448 -0.0013613738 -0.0003729165 -0.015574243 -0.015192587 -0.01331895 -0.007543767 -0.01340072
-0.011653557 -0.008811904 -0.0051031406 -0.010271474 -0.0055964626 -0.014880594 -0.0045768498 -0.009485063
-0.016900355 0.0007049478 -0.0040840865 0.0010209284 -0.0121881375 -0.015670732 -0.016271153 -0.019274112
-0.005063652 -0.011454813 -0.016959587 -0.0018553942 -0.0038120232 -0.007816273 -0.016911903 -0.0019175136
-0.01230418 -0.0023434195 -0.01622049 -0.006255374 -0.017867442 -0.015019733 -0.0057879426 -0.02650081
-0.014887672 -0.0051695434 -0.0119860405 -0.013353222 -0.0123894885 -0.0072415518 -0.011540495 -0.013596112
-0.0013229334 -0.008710948 -0.011982688 -0.0026432124 -0.009910866 -0.0036869003 -0.015258897 -0.00290226
-0.0066180313 -0.01011259 -0.0033372345 0.00014981066 -0.015529166 -0.016825475 -0.011700869 -0.0057963245
00000000: ed9e 06bc 5d42 91bb c4c1 f2bb 9bee edbb
00000010: 7ec8 a9bc ec83 feba ba73 69bb 640b fabb
00000020: 5ebb 9abb 8bf7 e5bb 7b98 e6ba 73fa 61bc
00000030: 753a 1abb e674 10bc bea7 a33b 65e9 87bc
00000040: e251 683b 385a b5bc 2d8c 063c b1bb c7bb
00000050: 5f46 3a3a 3c1c 02bc 004a bcbc cc25 f0bb
00000060: f88c b8bc 0382 6d3c 451f 0bbc bb2a f1bb
00000070: 0992 46bc dde4 91ba 817d db3a 7d7f 98bb
00000080: 681f 313b 365b a03c c400 75bb 81e1 5bbb
00000090: 0093 4dbc c296 dcbb 9ae2 d6bb 0838 3cbb
000000a0: 8fce 3bbc 755f 18bc 26d9 2abc 10ff 35bb
000000b0: 85d7 17bd b449 0cbb 9186 c7b9 f5e9 83bb
000000c0: 911b c4bb d9d0 da38 bd43 8abc 6de9 84bc
000000d0: 48d2 b4bc 6faf 2fbb e181 47bc ef6e 27bc
000000e0: 17dc 23bc 75f7 073c c79b 22bc 32ee e2bb
000000f0: c166 cbbb 3dfd 82bb 58fb 3cbc a706 32ba
00000100: 2624 2bbc 7645 94bb f943 c0bb 9140 423a
00000110: 356d 04bc 3cd2 85bc 56ed 1dbb 2063 b0bc
00000120: f225 61bc 1c63 7ebc a49d 04bc 0fa8 b7bb
00000130: ad41 88bc 0986 c8bb 6cda fabb ced9 9dba
00000140: edb8 0abc bfa1 24bc 6d91 02bc b718 293a
00000150: 20a7 46ba 0899 49bb 0ce2 f3bb c648 9bbb
00000160: 411f c0bc cbf2 ebbc 1430 7dbb 4699 98bc
00000170: 566e 2ebc d6c6 99bc c215 e539 2568 0fbc
00000180: a9c7 c8bb a26e deba 5777 80bc 0e7e 25bc
00000190: 4778 aabc 06fc 93bb dad5 6ebc 7d87 9fbb
000001a0: 3106 5f3a 22bd d3bb e219 e9bb 057f 93bb
000001b0: 98ba b3bb 642d 85bb 2823 c0bb dc18 01bc
000001c0: 125d e9bb bc78 7dbc ce79 94bc 5643 18bc
000001d0: 3790 2cbc 7cfc 7fbc 156a 04bc 2f2a a7bb
000001e0: 18cd cbbb 9773 aabb 77fb 30bc 3a33 e1bb
000001f0: d575 01bc b913 c7ba 8b0c efbb 283f 33bc
00000200: 089d c0bc e79a 2bbc d0ac cabb 7d20 13bc
00000210: 1c66 8abc c6cb 1abc ea42 dbbb 569c 9ebc
00000220: 3456 0cbc 0c83 07bc 4ecb 95ba a39c e7bb
00000230: 1202 dbbc 0746 a9bb 8776 23bc f66d a0bc
00000240: 6283 663a 5590 07bc 454c 90bb 11d4 d1bb
00000250: 2e50 90bc 7f2b bfba a431 7dbb de4e 11bc
00000260: d519 88bc 908f 39bc 9dc3 89bc 8e53 2abb
00000270: f825 c5bb 9b8d e0bb 6a69 5fbc 2def 02bc
00000280: 04fa 72bb e8fc 3cbc c4d2 84bb 3a76 da3a
00000290: deb9 14bc fe25 10bc de4c a2bb e148 c4bb
000002a0: c7a8 24bc c965 5dbb 60f9 31bc e6b3 abbb
000002b0: 7915 ce3b e325 67bc ddc4 8ebc 8ac1 d5ba
000002c0: 2ce0 78bc 52ac e1bb 43e3 e2bb cfcb 303c
000002d0: 35e0 8ebb 9f02 a5bb 320f 6abc 8a2e 61bb
000002e0: cbce f139 5bd9 63bc cdd3 1ebc bbbc e1bb
000002f0: bfd2 20bc dac3 58bc 1dcd 16bc 17cc 2ebb
00000300: 5850 33bc 2070 b2ba 0184 c3b9 1c2b 7fbc
00000310: 54ea 78bc ba37 5abc b431 f7bb b28e 5bbc
00000320: 90ee 3ebc ce5f 10bc 3f38 a7bb af49 28bc
00000330: 8862 b7bb bccd 73bc 66f9 95bb 3d67 1bbc
00000340: 9d72 8abc 3fcc 383a cdd3 85bb acd0 853a
00000350: c1b0 47bc e85f 80bc 154b 85bc bee4 9dbc
00000360: feec a5bb f8ac 3bbc d5ee 8abc b330 f3ba
00000370: 23d3 79bb d30f 00bc d58a 8abc 1455 fbba
00000380: 7997 49bc 0e94 19bb d5e0 84bc e1f9 ccbb
00000390: be5e 92bc 5415 76bc c8a8 bdbb 3a18 d9bc
000003a0: 6ceb 73bc 4665 a9bb 1961 44bc 79c7 5abc
000003b0: 48fd 4abc 8a4a edbb 5814 3dbc 3ac2 5ebc
000003c0: 4766 adba 5db8 0ebc 0953 44bc bf39 2dbb
000003d0: 2f61 22bc ec9f 71bb 7400 7abc d833 3ebb
000003e0: 12dc d8bb 47af 25bc 81b5 5abb 7e16 1d39
000003f0: 0b6e 7ebc 94d5 89bc 00b5 3fbc 18ef bdbb

net.2.weight f4 [256, 256]
0.059270546 -0.08053415 0.080560975 -0.042142387 0.0562985 0.05892484 -0.12287137 0.055832095
0.04456904 -0.06267845 0.039753728 0.12909037 0.15029475 0.10498101 -0.14241502 -0.06541989
-0.067522444 -0.05090577 -0.10048235 -0.022689834 0.14366968 0.03303702 0.06312511 -0.14009042
0.033152506 -0.15158817 -0.07822447 -0.07760905 -0.084918074 -0.024528267 -0.060715955 -0.08322828
0.0005219428 0.035475604 -0.043512553 0.06890676 0.1298086 -0.11832055 0.09796256 -0.11117841
0.13183814 -0.11066433 -0.14065666 0.004198732 -0.14509723 -0.123200685 0.11788394 0.08719795
0.118676685 0.13562304 0.12798172 -0.02507663 0.061210677 -0.09180093 0.11232133 0.053009816
0.016408615 0.12319174 -0.1436518 0.11077608 -0.057509966 0.12344694 0.05346728 0.084143214
-0.021370335 0.06318024 -0.050869264 -0.029536178 -0.053543273 0.096377075 -0.032542307 0.15180409
-0.15602274 -0.09872401 0.0058384202 0.043495413 0.05408791 0.024728687 -0.10688985 -0.06268739
0.09773159 -0.13618036 -0.114200376 -0.014306526 0.0403535 -0.0010486353 -0.01725649 -0.03051295
-0.007988054 0.01840753 -0.15138254 0.029796204 -0.061671868 -0.02360253 0.08076362 0.08662811
0.11898365 -0.13032122 -0.14352366 0.04685265 -0.123456985 0.0052554114 -0.1733886 0.10058963
0.11346425 0.06473146 0.012390606 -0.078909926 0.0768923 -0.053526882 -0.082232885 -0.14269814
-0.09358311 0.113303326 -0.09505684 -0.109138444 -0.14033778 -0.057721566 -0.07068447 0.13894899
-0.08084111 -0.016309151 0.03950339 -0.1213142 0.014241391 -0.071809515 0.10773475 0.04374948
-0.0871771 0.087740354 -0.1088583 -0.015062388 0.14361604 -0.0960731 -0.06823919 0.14045697
0.001906194 0.1267807 0.0863769 0.012143433 -0.053994782 -0.14969274 0.019158626 -0.0032985848
0.14199777 0.08983099 -0.091341965 0.12308296 -0.10563517 -0.11023517 -0.09173387 0.07685356
-0.12158838 -0.044196513 -0.15313491 0.08045816 -0.15033647 0.12989205 -0.0021765728 0.07609061
0.023846164 0.04239794 -0.04043918 -0.07877581 -0.055957265 -0.051150896 0.03953617 0.14422996
-0.02615622 -0.08840197 -0.074874684 -0.12941821 -0.052849628 0.011303193 -0.015944818 0.08557074
0.054334525 -0.12971921 0.113935135 0.07908724 0.008010034 -0.015202831 -0.11760679 0.061657712
0.021379646 -0.111470476 0.07773869 0.1146936 -0.036645345 -0.07919156 0.14569922 0.009588626
-0.14554128 0.082569644 -0.052857075 0.08885198 -0.07974737 0.124467276 0.10548169 0.022257699
0.08320443 -0.1297818 -0.018920582 -0.06721399 -0.008411807 -0.0036074582 -0.08924538 -0.036732513
0.06869218 -0.0018595387 -0.10842318 -0.015435103 -0.019718913 -0.14328225 -0.07536791 -0.054918658
0.0676789 0.016197018 -0.13281566 -0.07913046 0.097838886 -0.14065668 -0.054639257 -0.00021893231
-0.0742235 -0.1156726 0.08022569 -0.03939685 0.10326142 -0.11517938 -0.0851088 -0.13046426
-0.02323596 -0.065452665 0.11625971 -0.13320607 -0.067804076 -0.14303489 0.13141681 -0.027742822
-0.14514193 -0.0989535 0.04744199 -0.08373194 0.1409219 -0.10145391 -0.14361903 -0.03766011
0.0009865393 0.009282781 -0.113814436 -0.14690323 -0.080574386 -0.115727976 0.09659165 -0.004509794
00000000: acc5 723d 17ef a4bd 27fd a43d 7f9d 2cbd
00000010: 4299 663d 2c5b 713d fca3 fbbd 32b0 643d
00000020: 078e 363d 8f5d 80bd ced4 223d 4430 043e
00000030: dee6 193e 4900 d73d 3ed5 11be ddfa 85bd
00000040: 3549 8abd 9282 50bd b1c9 cdbd 08e0 b9bc
00000050: 251e 133e d451 073d bd47 813d dd73 0fbe
00000060: ecca 073d ee39 1bbe 2734 a0bd 7ef1 9ebd
00000070: 87e9 adbd 81ef c8bc 4bb1 78bd 9773 aabd
00000080: fdd2 083a de4e 113d 383a 32bd fd1e 8d3d
00000090: 8cec 043e 0b52 f2bd 98a0 c83d 82b1 e3bd
000000a0: 9400 073e fba3 e2bd 4d08 10be 8495 893b
000000b0: 5e94 14be a450 fcbd 236d f13d d794 b23d
000000c0: c30c f33d c4e0 0a3e a40d 033e 816d cdbc
000000d0: 0cb8 7a3d 2002 bcbd ba08 e63d d220 593d
000000e0: 5c6b 863c f34b fc3d 7519 13be 92de e23d
000000f0: 928f 6bbd c0d1 fc3d 8200 5b3d 4753 ac3d
00000100: d710 afbc a464 813d 4a5c 50bd dbf5 f1bc
00000110: 3150 5bbd 5861 c53d 154b 05bd 8872 1b3e
00000120: 6dc4 1fbe d02f cabd 3850 bf3b 3f28 323d
00000130: 498b 5d3d d193 ca3c 11e9 dabd 3f62 80bd
00000140: 8027 c83d dd72 0bbe e3e1 e9bd eb65 6abc
00000150: b649 253d 5d72 89ba 7c5d 8dbc 4bf6 f9bc
00000160: 54e0 02bc 63cb 963c 0604 1bbe 2b17 f43c
00000170: a49b 7cbd 185a c1bc 6667 a53d 146a b13d
00000180: b3ad f33d ed72 05be def7 12be 90e8 3f3d
00000190: 04d7 fcbd 9635 ac3b c88c 31be f001 ce3d
000001a0: f25f e83d ed91 843d f801 4b3c 879b a1bd
000001b0: b679 9d3d 013f 5bbd b769 a8bd 761f 12be
000001c0: 80a8 bfbd 930b e83d 29ad c2bd fa83 dfbd
000001d0: b5b4 0fbe 736d 6cbd 05c3 90bd a548 0e3e
000001e0: 0690 a5bd c59a 85bc 4fce 213d 9473 f8bd
000001f0: b954 693c de10 93bd 09a4 dc3d a832 333d
00000200: e889 b2bd 37b1 b33d 1af1 debd 3cc8 76bc
00000210: 1510 133e f9c1 c4bd fdc0 8bbd f4d3 0f3e
00000220: 42d9 f93a cdd2 013e 5fe6 b03d 40f5 463c
00000230: a229 5dbd 0e49 19be 8df2 9c3c 122d 58bb
00000240: dd67 113e 4ff9 b73d 7f11 bbbd eb12 fc3d
00000250: 4157 d8bd fac2 e1bd f8de bbbd 6665 9d3d
00000260: 5403 f9bd 6707 35bd 66cf 1cbe 3fc7 a43d
00000270: cef1 19be 6c02 053e d5a4 0ebb 65d5 9b3d
00000280: 0859 c33c 76a9 2d3d 8ea3 25bd 3655 a1bd
00000290: 7233 65bd 9a83 51bd aef0 213d 05b1 133e
000002a0: 9245 d6bc 180c b5bd e657 99bd 3586 04be
000002b0: da78 58bd 0731 393c b59e 82bc b63f af3d
000002c0: e18d 5e3d 1dd5 04be d356 e93d 7ef8 a13d
000002d0: 853c 033c 4b15 79bc d4db f0bd cc8c 7c3d
000002e0: 5e24 af3c a24a e4bd 7635 9f3d 7ae4 ea3d
000002f0: 6e19 16bd 2f2f a2bd 2d32 153e 9d19 1d3c
00000300: c608 15be 461a a93d a980 58bd 07f8 b53d
00000310: 9752 a3bd b3e8 fe3d c906 d83d c755 b63c
00000320: 1667 aa3d 85e5 04be 56ff 9abc 7da7 89bd
00000330: add1 09bc 1b6b 6cbb 48c6 b6bd d574 16bd
00000340: 7cae 8c3d c4bb f3ba f90c debd 84e3 7cbc
00000350: 8f89 a1bc 95b8 12be 7e5a 9abd 63f2 60bd
00000360: 3c9b 8a3d 9caf 843c d400 08be 270f a2bd
00000370: c15f c83d 4e08 10be 6acd 5fbd 3291 65b9
00000380: 7e02 98bd c2e5 ecbd 5e4d a43d 975e 21bd
00000390: b97a d33d 2be3 ebbd 864d aebd 6c98 05be
000003a0: 5759 bebc 0c0c 86bd 9219 ee3d 2c67 08be
000003b0: dddc 8abd bd77 12be 2192 063e ea44 e3bc
000003c0: 16a0 14be 22a8 cabd 8852 423d a77b abbd
000003d0: d54d 103e 11c7 cfbd de10 13be 7d41 1abd
000003e0: c44e 813a ce16 183c 8b17 e9bd cd6d 16be
000003f0: 2f04 a5bd ca02 edbd d8d1 c53d e5c6 93bb

net.2.bias f4 [256]
-0.027707806 -0.022933468 -0.0021044419 -0.013889107 0.0020998782 -0.02900197 -0.00080175896 -0.028895801
0.00594189 -0.0006344466 -0.00996898 -0.0037431053 0.014302986 -0.0044080005 -0.0022297513 -0.017835405
-0.017988514 0.0014482428 0.0014978126 -0.0059193526 -0.013322117 -0.013407985 -0.010414152 -0.0055000708
-0.027585242 -0.037733875 0.004489212 0.0033697844 -0.01045513 0.0031441713 -0.006478426 -0.01372389
-0.014779825 0.0012490328 -0.012890169 -0.0012533402 0.0052504754 -0.007807238 -0.0026371586 0.002081112
-0.0014485689 -0.009510769 -0.003809276 -0.0045461156 -0.0026846563 -0.0067390096 -0.009405901 -0.006043218
-0.00430928 0.003700777 -0.00865395 -0.016191432 -0.012694217 -0.015719438 -0.0026338524 0.00198635
-0.016689131 -0.0020708675 -0.028791493 -0.021539465 -0.0071604336 -0.0010034661 0.002425888 -0.0414167
0.0073959655 -0.0018274079 -0.046018183 0.0027563681 -0.0031206089 0.019075552 -0.009208834 -0.0121177295
0.0014328994 -0.02044609 -0.0070479303 -0.019093433 -0.05021212 0.0009459627 -0.01244127 -0.0013662633
-0.0016946013 -0.0045023435 -0.021061134 -0.011822313 -0.012897806 -0.0052555045 -0.007565839 0.030667923
-0.0032065234 -0.017498637 -0.0018425188 -0.015765259 -0.015156452 -0.00025493526 -0.019267779 -0.0032310174
0.004205531 -0.0020614145 -0.0145930005 -0.025541173 0.009000589 -0.00612564 -0.016300583 -0.023265764
-0.0014053555 -0.011478468 -0.0067734686 0.0025264246 0.0014324337 -0.017759036 -0.0025448182 -0.004170886
-0.0026321763 -0.015117709 -0.016726011 -0.0037168886 -0.0008174633 -0.012455427 0.013298834 -0.01588037
-0.0054007913 -0.0016208171 -0.0037179596 -0.01102864 -0.008516674 -0.005058996 0.0007394767 0.0056244023
0.001721726 -6.186098e-05 -0.009135818 -0.015740298 0.0066257613 -0.008787503 -0.00928632 -0.00546645
-0.004347744 -0.010210193 -0.027653417 -0.005843915 -0.025359752 0.0 0.0032697602 -0.0133454
-0.005766336 -0.030492835 -0.015485766 -0.012497709 -0.010176293 -0.018697435 -0.028653285 -0.012151815
-0.002439951 -0.007762814 -0.026037384 -0.021298064 -0.017853286 0.0027442146 0.0007356932 -0.035220794
-0.00070330634 -0.0112465685 -0.00066232815 0.013429032 0.0024396717 -0.0035934881 -0.01117225 -0.009874543
-0.03302883 -0.0008254029 0.006453746 -0.021279065 -0.011078558 -0.026858065 -0.0040122815 0.0066915127
-0.023253098 -0.0050479127 -0.025740106 -0.00027374798 0.0057497583 -0.027152736 -0.016158275 0.010436504
0.0050730584 -0.020618943 -0.0037825468 -0.012981439 -0.012593821 -0.013675833 -0.022650346 -0.02450666
-0.005977746 -0.014989186 -0.0010963656 -0.008229639 0.0029610735 -0.013680863 -0.0027956702 -0.002577647
0.0054209083 -0.006033812 -0.009453957 0.022644756 -0.0018214475 -0.024721608 -0.024165424 -0.008313832
-0.013033033 -0.00866196 -0.021171777 0.004095169 -0.0295332 -0.014610696 -0.036433004 0.0054403725
-0.010889314 -0.012376823 -0.029781677 0.00031429547 -0.0017620291 0.0024393455 -0.0026300808 -0.021804333
0.0018623326 -0.008735534 0.000505144 -0.014536004 -0.027048426 -0.0021174338 -0.01898801 0.0021443025
0.01684224 -0.004399433 -0.02836383 -0.014248224 -0.005396414 -0.003013693 -0.032151897 -0.0067528863
-0.0029092447 0.0035502284 -0.0042379405 0.008345123 -0.012368069 -0.01689216 0.002526285 -0.00011837194
-0.010455502 -0.005789898 -0.018980557 -0.018327514 -0.028451001 -0.0055710375 -0.017317958 -0.016841495
00000000: 7bfb e2bc f8de bbbc adea 09bb 238f 63bc
00000010: 1c9e 093b 8a95 edbc 222d 52ba e3b6 ecbc
00000020: 30b4 c23b fe50 26ba ef54 23bc e34e 75bb
00000030: 1257 6a3c fd70 90bb 0521 12bb 8e1b 92bc
00000040: a65c 93bc f7d2 bd3a 4052 c43a 21f7 c1bb
00000050: 0245 5abc 2aad 5bbc 1fa0 2abc f039 b4bb
00000060: 72fa e1bc d68e 1abd 3d1a 933b 9ad7 5c3b
00000070: fe4b 2bbc 710e 4e3b fa48 d4bb 2bda 60bc
00000080: 1427 72bc 96b6 a33a 4a31 53bc 1e47 a4ba
00000090: 2e0c ac3b dcd3 ffbb 2ed4 2cbb 4463 083b
000000a0: e8dd bdba 0ed3 1bbc 0ca5 79bb 95f7 94bb
000000b0: 0ff1 2fbb e9d2 dcbb 351b 1abc 3006 c6bb
000000c0: dc34 8dbb bc88 723b 4cc9 0dbc e5a3 84bc
000000d0: 68fb 4fbc 0dc6 80bc b69c 2cbb 6c2d 023b
000000e0: a5b7 88bc 64b7 07bb 23dc ebbc 8873 b0bc
000000f0: 12a2 eabb bc86 83ba a6fb 1e3b 8fa4 29bd
00000100: db59 f23b a285 efba 907d 3cbd 2fa4 343b
00000110: 2183 4cbb 5544 9c3c a6e0 16bc 7189 46bc
00000120: 20d0 bb3a 8f7e a7bc 53f2 e6bb d569 9cbc
00000130: 39ab 4dbd 7bfa 773a 78d6 4bbc 3014 b3ba
00000140: 621d deba 6588 93bb 6688 acbc 60b2 41bc
00000150: 5251 53bc 5e36 acbb dcea f7bb 4c3b fb3c
00000160: 8924 52bb 4d59 8fbc ac80 f1ba 2526 81bc
00000170: c452 78bc d5a8 85b9 76d7 9dbc 7abf 53bb
00000180: 8dce 893b cc18 07bb 7b17 6fbc b93b d1bc
00000190: 3577 133c 98b9 c8bb cd88 85bc d897 bebc
000001a0: e833 b8ba 2f10 3cbc f9f3 ddbb 5f92 253b
000001b0: 80c0 bb3a 667b 91bc f7c6 26bb edab 88bb
000001c0: 9780 2cbb 44b0 77bc fd04 89bc 0b97 73bb
000001d0: 094b 56ba d911 4cbc 5ae3 593c 8d17 82bc
000001e0: 1ff9 b0bb 9971 d4ba 03a9 73bb 78b1 34bc
000001f0: 8589 0bbc efc5 a5bb 71d9 413a e84c b83b
00000200: 8aab e13a 5cbb 81b8 66ae 15bc ccf1 80bc
00000210: ea1c d93b 75f9 0fbc a625 18bc e81f b3bb
00000220: 8577 8ebb a748 27bc 6b89 e2bc 507e bfbb
00000230: 41bf cfbc 0000 0000 7949 563b aaa6 5abc
00000240: 88f3 bcbb 1ccc f9bc 03b8 7dbc 31c3 4cbc
00000250: 77ba 26bc 5d2b 99bc 4bba eabc 6818 47bc
00000260: 96e7 1fbb 345f febb 5a4c d5bc 4779 aebc
00000270: 0e41 92bc 48d8 333b 89db 403a ae43 10bd
00000280: 175e 38ba 8743 38bc 17a0 2dba 7105 5c3c
00000290: e6e2 1f3b ba80 6bbb d00b 37bc d6c8 21bc
000002a0: 3d49 07bd da5f 58ba f279 d33b 6f51 aebc
000002b0: d782 35bc 7205 dcbc 7579 83bb 7a44 db3b
000002c0: 487d bebc f668 a5bb eadc d2bc d585 8fb9
000002d0: 7868 bc3b 6a6f debc 5c5e 84bc dffd 2a3c
000002e0: e63b a63b 0fe9 a8bc 9be4 77bb 1ab0 54bc
000002f0: 5056 4ebc 9a10 60bc 388d b9bc 31c2 c8bc
00000300: f8e0 c3bb 3495 75bc edb3 8fba 9cd5 06bc
00000310: 920e 423b b325 60bc 9037 37bb beed 28bb
00000320: e0a1 b13b 49b7 c5bb c5e4 1abc 7f81 b93c
00000330: a3bd eeba f884 cabc 91f6 c5bc bd36 08bc
00000340: 8188 55bc e5ea 0dbc 6f70 adbc c430 863b
00000350: 9cef f1bc b361 6fbc c63a 15bd 2745 b23b
00000360: 1869 32bc 29c8 4abc b4f8 f3bc 06c8 a439
00000370: e3f3 e6ba 6ddd 1f3b 6f5d 2cbb 009f b2bc
00000380: 8319 f43a 7c1f 0fbc a46b 043a 6b28 6ebc
00000390: a994 ddbc a5c4 0abb be8c 9bbc 6d87 0c3b
000003a0: bdf8 893c 1e29 90bb 435b e8bc 6271 69bc
000003b0: 67d4 b0bb 6181 45bb b5b1 03bd 5147 ddbb
000003c0: 07a9 3ebb f3aa 683b 6cde 8abb fcb9 083c
000003d0: 71a3 4abc 6d61 8abc 0790 253b 743e f8b8
000003e0: 8e4d 2bbc 2fb9 bdbb 1d7d 9bbc 9523 96bc
000003f0: 1312 e9bc 408d b6bb 64de 8dbc 2df7 89bc

net.4.weight f4 [1, 256]
-0.0008462063 -0.052280404 0.09280526 0.075354494 0.049630225 -0.07817529 0.09047323 0.0028543433
0.124567114 -0.008650598 0.08368723 -0.03830608 0.034204528 -0.044430465 -0.04039746 -0.1328842
0.11741307 0.12260612 0.13240737 0.04595783 -0.076712 0.10958548 -0.084493384 0.055987813
-0.08982503 -0.021477621 0.029942608 -0.043197393 0.00986374 -0.04978818 -0.113796555 -0.0045520766
-0.06397298 0.13083678 -0.08943462 -0.13162656 0.084755644 -0.09296173 -0.042064156 -0.0694432
0.06282261 0.08410148 0.054298017 -0.03600683 0.07287494 -0.09337151 -0.010381556 -0.04913849
-0.094459295 -0.034711916 -0.058940485 0.12013253 0.06743602 -0.061472934 -0.012884954 0.040655993
-0.11207993 -0.047932982 -0.11217977 0.09591365 -0.12825592 -0.03729578 -0.010652385 0.14103217
0.11193539 -0.016366893 -0.006461103 0.033009455 0.090461306 0.051320765 0.045964535 0.12757343
-0.07076047 -0.069443196 -0.10702694 -0.020710958 -0.0024241186 -0.048823327 -0.08822614 0.07217459
-0.07605784 -0.13729794 -0.0094938185 -0.08541875 0.072655894 -0.082101755 -0.052091155 -0.052121706
-0.084536605 0.04210439 -0.062808834 0.000779605 -0.11075225 0.06463012 0.06786963 -0.0006279507
-0.054706316 -0.13258022 0.059259366 -0.039773848 0.063397795 -0.04161116 3.7857978e-06 -0.09402568
0.098561585 -0.11093553 -0.14888212 -0.10998931 -0.07441275 -0.043703288 0.008845617 0.039404295
0.09270691 -0.04131761 -0.0778713 -0.05924596 -0.0715249 0.054031286 -0.028721457 0.05051014
-0.029039225 -0.11178192 -0.13377233 0.059394967 -0.060417186 0.124577545 -0.06221427 -0.12560724
0.08522503 -0.12760921 -0.08571379 -0.07812612 -0.040246956 -0.10439987 0.08097671 -0.024080858
-0.032196596 0.10492141 -0.05864693 0.06265758 0.06632289 0.011299745 0.09706998 0.1071387
0.07743768 -0.08511327 -0.0327159 0.09083086 0.13210934 -0.10306472 0.06320855 -0.08387052
-0.13545316 0.080912635 0.020587277 -0.03403987 0.026769029 -0.14011426 -0.034021247 0.02535528
-0.13096793 -0.0863173 -0.07414303 0.022838473 -0.13789696 -0.09284401 0.04539233 -0.061747864
0.08294366 0.08934372 -0.07061444 0.014753561 -0.0114458725 -0.058565713 0.021193754 -0.12759131
-0.10330613 -0.02599417 0.003652115 0.044934865 -0.072317645 0.054861285 -0.10692264 -0.028724065
0.044264313 -0.06461373 -0.018052962 -0.057582982 -0.08455896 -0.0080171125 -0.1588361 -0.08708918
-0.032922287 -0.015171725 0.06476572 -0.13605817 -0.029612176 0.06508759 0.03866445 -0.068689205
-0.08913511 0.0012557616 -0.04044589 0.074847855 -0.044161495 -0.06964735 -0.006881968 -0.06986639
0.0010035592 -0.06980977 0.12669128 0.12269553 -0.043537136 -0.108728655 0.0015956248 -0.25415146
0.14105304 -0.17830002 0.041406266 0.08832597 0.020978805 0.03217797 0.09245806 0.09218984
0.12806517 -0.096925445 0.07864766 0.015258337 -0.007722022 0.08561693 -0.034581527 -0.27937022
-0.015995482 0.060113948 -0.07993214 -0.08749449 -0.039637502 0.0045215287 0.017874518 -0.051644124
-0.0065694163 -0.09285742 -0.071927235 0.057074852 -0.0966155 -0.0040000807 -0.0265552 0.12357321
-0.11362369 -0.081334345 -0.08522206 -0.15273556 0.099716425 0.06871751 -0.030487247 -0.032992322
00000000: f2d3 5dba fa23 56bd af10 be3d 7553 9a3d
00000010: 1049 4b3d 5e1a a0bd 074a b93d ef0f 3b3b
00000020: 0b1d ff3d 3dbb 0dbc 3664 ab3d d6e6 1cbd
00000030: 0c1a 0c3d b8fc 35bd cf77 25bd cc12 08be
00000040: 4376 f03d eb18 fb3d cc95 073e 473e 3c3d
00000050: 2e1b 9dbd 5a6e e03d de0a adbd 7a53 653d
00000060: 2ff6 b7bd d6f1 afbc 334a f53c c0ef 30bd
00000070: 869b 213c b1ee 4bbd 2b0e e9bd 9629 95bb
00000080: 4404 83bd 14fa 053e 8029 b7bd 1dc9 06be
00000090: 5e94 ad3d b862 bebd 774b 2cbd 3d38 8ebd
000000a0: 24a9 803d 663d ac3d 9967 5e3d e67b 13bd
000000b0: 753f 953d 9039 bfbd 6717 2abc 7145 49bd
000000c0: e073 c1bd 152e 0ebd 946b 71bd 0b08 f63d
000000d0: e51b 8a3d 0bcb 7bbd 6a1b 53bc e686 263d
000000e0: 2a8a e5bd 6055 44bd 82be e5bd 606e c43d
000000f0: 8555 03be 76c3 18bd 5787 2ebc bd6a 103e
00000100: 623e e53d dd13 86bc a9b7 d3bb ec34 073d
00000110: c743 b93d b935 523d 4f45 3c3d 9ca2 023e
00000120: deea 90bd 3c38 8ebd f130 dbbd 07aa a9bc
00000130: f6dd 1ebb f8fa 47bd e8af b4bd 45d0 933d
00000140: 36c4 9bbd d597 0cbe f68b 1bbc 07f0 aebd
00000150: 9dcc 943d f724 a8bd 895d 55bd 927d 55bd
00000160: 8721 adbd a775 2c3d eba1 80bd 685e 4c3a
00000170: 13d2 e2bd cc5c 843d 3cff 8a3d 0f9d 24ba
00000180: bb13 60bd 1cc3 07be f3b9 723d e7e9 22bd
00000190: b4d6 813d 7770 2abd 830f 7e36 8990 c0bd
000001a0: a8da c93d 2b32 e3bd 8e74 18be 1342 e1bd
000001b0: b665 98bd 3802 33bd 35ed 103c 6666 213d
000001c0: 1fdd bd3d a73c 29bd fd7a 9fbd e4ab 72bd
000001d0: a67b 92bd e94f 5d3d 4349 ebbc b8e3 4e3d
000001e0: abe3 edbc ebed e4bd 9dfb 08be 2348 733d
000001f0: 0378 77bd 8322 ff3d 64d4 7ebd 2f9f 00be
00000200: 768a ae3d fdab 02be b68a afbd 9600 a0bd
00000210: fed9 24bd 99cf d5bd 1ed7 a53d 3845 c5bc
00000220: 94e0 03bd 09e1 d63d c337 70bd 9e52 803d
00000230: 4cd4 873d 9122 393c a0cc c63d 896b db3d
00000240: a597 9e3d de4f aebd 1c01 06bd 8805 ba3d
00000250: ac47 073e 9913 d3bd 7c73 813d 4fc4 abbd
00000260: 3cb4 0abe 86b5 a53d a6a6 a83c 646d 0bbd
00000270: b94a db3c 1d7a 0fbe dd59 0bbd e0b5 cf3c
00000280: 751c 06be 20c7 b0bd 4dd8 97bd c017 bb3c
00000290: dc34 0dbe 0025 bebd 4fed 393d 54eb 7cbd
000002a0: 5ede a93d d7f9 b63d 4e9e 90bd ebb8 713c
000002b0: 7887 3bbc 9ae2 6fbd 869e ad3c 4ca7 02be
000002c0: 2a92 d3bd baf1 d4bc 5258 6f3b 9f0d 383d
000002d0: 461b 94bd 3ab6 603d 42fa dabd bb4e ebbc
000002e0: 7f4e 353d 3454 84bd cee3 93bc 22dc 6bbd
000002f0: 3f2d adbd 355a 03bc eea5 22be d05b b2bd
00000300: 85d9 06bd d492 78bc e4a3 843d d552 0bbe
00000310: 3c95 f2bc a44c 853d 9d5e 1e3d edac 8cbd
00000320: 788c b6bd 5e98 a43a 97aa 25bd d549 993d
00000330: afe2 34bd 45a3 8ebd 2282 e1bb 1c16 8fbd
00000340: dc89 833a 6df8 8ebd 5cbb 013e cb47 fb3d
00000350: ff53 32bd 21ad debd 4924 d13a 2420 82be
00000360: 3570 103e 4894 36be 9e99 293d 3fe4 b43d
00000370: bedb ab3c 0ccd 033d a75a bd3d 07ce bc3d
00000380: 8423 033e d980 c6bd 0612 a13d 1bfe 793c
00000390: 0409 fdbb ee57 af3d 5ca5 0dbd 9d09 8fbe
000003a0: f508 83bc 0b3a 763d 76b3 a3bd 5030 b3bd
000003b0: ef5a 22bd 5529 943b 956d 923c ca88 53bd
000003c0: 4244 d7bb 082c bebd 964e 93bd 52c7 693d
000003d0: 59de c5bd 1c13 83bb 4a8a d9bc f313 fd3d
000003e0: 8ab3 e8bd 9f92 a6bd e788 aebd b666 1cbe
000003f0: 2038 cc3d c4bb 8c3d 64c0 f9bc f522 07bd
