output/CarlaNavigation-v0/sac/2/base.pt (torch, 11367 bytes, 2 tensors)

dynamic_emb.0.weight f4 [256, 9]
00000000: 37e5 ccbe bda1 a3be 6db4 32bf 0f3f d83d
00000010: e1f3 573e 0cfa d53c 2bf1 213d aecd 823f
00000020: e997 8dbf c0b3 8f3c d109 5c3c 61f5 2bc0
00000030: 0b12 6a3c db86 efbe 5b49 543a 74a4 df3b
00000040: d696 9fbf e326 043f 41a5 953c 5044 f9bd
00000050: ab15 6f3e 7818 a03d 56dd acbd 4156 41bc
00000060: 2a49 b0bc 8463 b23f 7a7c 393f f1b1 c73d
00000070: caa6 f1be 2cdb f93e c632 9ebe 0bdd fabb
00000080: deda 1c3c 68f2 bebc d357 2e3f 1ea0 c83d
00000090: 6754 92bc f027 d9bd e04a a23e 894e 8a3d
000000a0: 5f14 cfbe cc28 2abc 4675 113c d848 1dbf
000000b0: 7e7f ff3e cd57 c83a c7e3 793d 4f00 d63e
000000c0: dbe9 2a3d 93eb efbd 3db3 24bc e7b1 8bbc
000000d0: 874c f63e 93b1 85be 955c 993e 186a 7fbd
000000e0: 3be2 a73e d956 59be 8139 29be 077d a2bc
000000f0: 754f 943c 63cd b23e 6592 9ebe 0750 14bc
00000100: 3856 983c 5bc4 a5be 4c98 99bd 5755 8f3e
00000110: 0c79 25be 35b7 03bc fc5f c53f 5ba2 a83f
00000120: df86 913d e200 863e 29b2 d2be d38e 0a3f
00000130: 9812 6ebe 874c 40bc 9462 4bbb e03d e33f
00000140: ae15 96bf d9be bcbd 9ab4 41be 4fb0 2a3f
00000150: 6f0c bc3e 2b9a 4cbe 1dfd 44bc 5113 4c3a
00000160: 7424 79be 626e 82be cb90 833d 8dc8 1dbe
00000170: 7707 513e 4f79 c9be 7876 adbe e2c6 623c
00000180: aba4 713c f46a 1ac0 a2b0 823d f74a 92bc
00000190: fdcd 213e 5036 5fbd 41f0 71be 3f60 d73e
000001a0: 5524 22bc 70c9 93bc 9de5 653f 8129 5fbd
000001b0: 04a4 90bd 09eb 07be 984f 78be ce57 a43e
000001c0: c2ac edbc 980d 1abd cbff 13be 524c b03f
000001d0: 7a41 c9bf 89fe 6fbe 4237 abbe d7a8 183e
000001e0: 9716 8abe 2e60 3fbf 7dda 9bbc 7c5c cbbb
000001f0: 8788 b83f 7a07 a53e 1c81 fb3c 13d5 603d
00000200: 2fce bd3e 966d 44bd 6a2b 71be a202 5bbb
00000210: 116d b83c ff5a 1abf ab61 53bf c16f ce3c
00000220: cda4 92be af5a 22bf 7ff6 c0bd ea9c fe3e
00000230: 25f6 f9bb 9818 7bbc 963a 853e 4189 3f3e
00000240: 49ca 5cbc 2143 a4be 86df 17bf fd8b a8bd
00000250: 0472 6b3d 11bf 20bc 8f6b 0a3c ab84 94bf
00000260: 008c dcbe c484 353e e2bb 11be c183 cb3e
00000270: 8d04 f6be cd01 3cbd 90f3 dbbc f5e4 3fbd
00000280: 1ed4 373f 5af6 7bbf 5d35 d03d af96 33bd
00000290: 49ca 923e 802d 8b3e 716c a3be e1a4 d73a
000002a0: b848 bfbc 37c6 973f 212a f33e d8fc 633e
000002b0: cfd4 153e 4a72 54be 68a8 d0be 25b0 9abe
000002c0: 33c7 04bd 915a eebb 30ec 88bd 2b8a 9abe
000002d0: 259c 88bd 4cfa 963e fc07 8dbe daf3 9abe
000002e0: 27ca d63d 26e3 66bc a779 053c 7230 2b3f
000002f0: edc9 07bf 3566 b53c 25d3 a93e e7af aa3e
00000300: 2c35 55bd bd9e eabe f419 f6bc 5803 513c
00000310: ced2 7d3f 0d14 4c3f c90e 263e b99c 95be
00000320: 38ea 2f3f 2cd7 333e ec44 96be d190 a0bc
00000330: cced 92bc 186e d1be eae3 623e 68ef d5bc
00000340: 068d 91be a884 fbbd 4937 97be c06c bcbe
00000350: 8b43 72bc 5ff1 1fbb 5387 983d e10c 8cbf
00000360: 626e 5dbd 7a48 a1bd 0cfe dcbf 0b50 4ebe
00000370: 4731 ed3b 07c4 9cbb 3e02 173c ce6a 80bf
00000380: a1c4 2abf 64a0 693e ff25 943c fbf5 2b3f
00000390: d473 c0bd 161c 2e3e 98a4 ebbb 6037 e43c
000003a0: 08fb ed3f 14d1 833e 2127 513d 1510 e03c
000003b0: d31c bfbd a438 0dbe b344 10bf 85a3 833c
000003c0: 4ab7 7bbd 0b22 f53e 41ad 3d3f eed1 9e3b
000003d0: 3f60 9d3e 2c62 943f 22ff c33e cee6 a7b9
000003e0: c725 9239 d2da 26bc 82f6 013e 53ee 5d3c
000003f0: 6a80 38bc c48d c7bd 2a5e ed3f a6b2 e73d
-0.40018627 -0.31959334 -0.6980656 0.105589025 0.21089126 0.026120208 0.039536636 1.0219018
-1.1061984 0.017541766 0.013430075 -2.6868517 0.014286528 -0.46782574 0.0008098089 0.0068250243
-1.2467906 0.51621836 0.018267276 -0.12171233 0.2334811 0.07817167 -0.08440654 -0.01180035
-0.021519262 1.393662 0.7245556 0.097507365 -0.47197562 0.48800027 -0.30898112 -0.007655745
0.009573666 -0.023308948 0.6810276 0.09796165 -0.017862512 -0.106033206 0.3169775 0.06753261
-0.4044523 -0.010385703 0.008878058 -0.61439276 0.49901956 0.0015284956 0.06100824 0.4179711
0.04172693 -0.11714854 -0.010052499 -0.017052604 0.4810526 -0.2611204 0.29953447 -0.06235704
0.32789788 -0.21224536 -0.16525842 -0.019835008 0.018104294 0.34922323 -0.30971065 -0.009052283
0.0185958 -0.3237637 -0.074997514 0.27994797 -0.16159457 -0.008039285 1.5419917 1.3174547
0.07105803 0.2617255 -0.4115155 0.5412418 -0.2324928 -0.011736996 -0.00310341 1.7753258
-1.1725366 -0.09216089 -0.1891655 0.66675276 0.36728236 -0.19980685 -0.0120232375 0.0007784861
-0.24330312 -0.2547484 0.064241014 -0.15408535 0.20413004 -0.39350364 -0.33879447 0.013841363
0.014748733 -2.412778 0.06381346 -0.017858012 0.15801235 -0.054495156 -0.23626806 0.42065617
-0.009896358 -0.018040389 0.8980349 -0.05448294 -0.070625335 -0.13273253 -0.24249113 0.3209824
-0.029013041 -0.03761062 -0.14453046 1.3773291 -1.5723107 -0.23436941 -0.33440596 0.14908157
-0.2697036 -0.74756134 -0.019025082 -0.0062060934 1.4416665 0.32232267 0.030701213 0.054890703
0.37071368 -0.04795607 -0.23551717 -0.0033418317 0.022512944 -0.602951 -0.82570904 0.025199773
-0.28641358 -0.6341962 -0.094220154 0.4972909 -0.0076282197 -0.015325688 0.2602126 0.18704702
-0.013475963 -0.32082465 -0.59325445 -0.08229826 0.05748178 -0.009811179 0.0084484955 -1.1602987
-0.43075562 0.17726427 -0.14231828 0.39748958 -0.48050347 -0.045900155 -0.026849538 -0.04684921
0.7180804 -0.9842278 0.10166428 -0.043844875 0.28669956 0.2718315 -0.31918672 0.0016452336
-0.023350105 1.1857365 0.4749308 0.22264421 0.14631961 -0.20746723 -0.40753484 -0.30212513
-0.032416534 -0.00727398 -0.06685674 -0.3018354 -0.06670407 0.29487836 -0.27545154 -0.3026417
0.10487776 -0.014092242 0.00814668 0.66870797 -0.5304249 0.022143463 0.33168903 0.33337328
-0.05205266 -0.45824233 -0.030041672 0.012757145 0.9914979 0.79718095 0.16216578 -0.29221132
0.68716764 0.1756255 -0.29349458 -0.019600304 -0.017935656 -0.40904307 0.22157255 -0.026115134
-0.28427905 -0.122811615 -0.29534367 -0.3680172 -0.014786611 -0.0024405343 0.07447686 -1.094143
-0.054060347 -0.07875152 -1.7265029 -0.20147721 0.0072385403 -0.0047841105 0.009216843 -1.0032594
-0.6670628 0.2281509 0.018084524 0.6717221 -0.093970925 0.17002901 -0.007191252 0.027858436
1.8592234 0.2574545 0.051062707 0.027351419 -0.0933167 -0.13791138 -0.56354827 0.016069183
-0.061454095 0.47877535 0.7409249 0.004846803 0.30737492 1.159246 0.38280588 -0.00032024685
0.00027875436 -0.010184007 0.12691692 0.01354559 -0.011261085 -0.097438365 1.8544362 0.11313371

dynamic_emb.0.bias f4 [256]
00000000: 33e4 763c 7b6d 08bf a0fc 04bf e109 8dbc
00000010: e579 c9be 0e88 0dbe 682b 73bd 158f 363d
00000020: 4965 95be 3fad 6dbe 25e0 d8bd c873 66be
00000030: e097 533c 4d73 21be 506e b1be 46a4 94be
00000040: 727c c8be 1805 8cbe 9d2d f2be cb4a 8cbe
00000050: 4df7 59be f37e 98be 666f 89bd 17ae 0fbd
00000060: a89b 7fbe faf1 8cbc 691b 75be 4636 afbe
00000070: 9201 dbbe f100 873d 3dfe 143d 495e 05be
00000080: 673f 1ebe 0b53 8dbe 7bb1 9fbe 10c1 c3bd
00000090: e530 a83c ceb7 6abe 94b1 1ebf 619e 11bd
000000a0: cadc c0bd c5db b4bd c122 0dbe 10e8 d1bd
000000b0: 23fc a0bd 0bcf f5be 6b54 e3bd fa37 083e
000000c0: 9c99 42be a51e 04be c0e1 95be bfd4 f3bd
000000d0: 15ee 5bbe 2542 4dbb 03f0 64be bb6e 3fbe
000000e0: 02e6 22be 5790 efbe 87f2 0abe 504e 51be
000000f0: 2b87 09be 1610 e4bd 48c6 3abe 715b 14be
00000100: 83f7 a2bd d17f b8bd e4b7 e3be a1e2 91bd
00000110: 5dde e53c cd55 c2be 2461 b8be 437d 4dbe
00000120: 2a8f 01be 8d07 13be 649b 67be b12b 57bd
00000130: 5672 4bbf 9a1f 7bbe 1012 8ebe 158c c1be
00000140: 5e20 1cbf eb88 f0be 0315 debd 2bca 113d
00000150: 0059 86bd 2570 10be 26a5 86be afa0 04bf
00000160: a270 0dbf 3867 973b 3731 213c 1b06 b1be
00000170: 2f29 83be d366 f1bd 29f0 b0be 2e9e 03be
00000180: c50f 96bd 9fcb f6be 6664 10be 0177 c8be
00000190: 91d8 8cbe 9faf 67be 24ad 5ebc 378c 2abe
000001a0: 17d4 b3bc 2e17 33be d10f 443c 983f f3be
000001b0: 7f79 f8bd 1808 93be 8341 37be 7f59 25be
000001c0: 8582 11be 0b27 c1be 2c22 54be 5ca9 9d3b
000001d0: d9a4 16bd b58d a53c bb75 a53c b738 69bd
000001e0: ad9f a73a 4fc1 22be c4fb 093c 8293 34bf
000001f0: 9f72 bdbe 1557 a5be d405 03be 9704 66bd
00000200: c997 9dbc 60e9 b4bc c672 1bbe 108f d4be
00000210: c62f 02bf 6309 b4bd 05ad 6ebe 785a 38be
00000220: 55d3 8dbd 5a5d 22bb adee 46be fd57 e3bd
00000230: 2de1 98be 90f2 09be ac1c f3be 9861 cdbc
00000240: 25b9 b4be 041c 54be be0d f0bd 3197 23be
00000250: 74d4 843c 2601 cdbe 948b 603d 3d60 d3be
00000260: c29b ff3c 2793 0bbe 7e6d c8bd 13dd 14be
00000270: 0756 34be ac5a 16bf 72b3 c2be 0364 81bb
00000280: 0cdf 22be ad9a 2fbf 8ec2 4cbe bc7a 7bb9
00000290: ade9 f6be 1b3b e03b 2020 64bc 397c 22be
000002a0: e6c9 e9be 6b6c 993c c797 89be c4a2 d7bd
000002b0: 7b47 22bf 8282 aabe 9ae4 28be bd9c bcbe
000002c0: 98b6 00bf ceb9 7fbe 4dcc d8be f307 86be
000002d0: 3f98 b6bc feb2 c03b dbf3 02be 14c0 99be
000002e0: 7da9 a4be ac37 d4be 7f2f 42be 9681 56be
000002f0: 830e 22bf 7862 a1bd d51a d0be ae15 ecbe
00000300: eafb a5be 7367 a3be 36e1 61be fcca 9abe
00000310: 9f20 c0bb 54f9 16bf 5a01 94be 4e7e 4abe
00000320: ff6d aebd b0da c3be 2fd4 9a3d b875 3cbe
00000330: 90e6 58be 9156 07be 364a 06be c24c 8fbd
00000340: da05 2cbf 9c89 d4bc c877 bfbe fe25 8fbe
00000350: fc8d d0be 1896 a1bc 07b2 21be 25a9 26bc
00000360: 8cc3 9abe 5ded babc f2d9 49be 7007 84be
00000370: 0a5d 99be 6b18 8ebc 9a53 12be 1c2f 27be
00000380: 55f4 48be bc51 c8bd 71ef 7fbe c733 cebd
00000390: b056 e6be 03eb f0bc 2768 0abe 25ae a7bc
000003a0: ceac 99be 144f 36bd c541 89bd a283 96be
000003b0: b3ef 0abe 286e 84bd 912a c2be 9aa0 8abe
000003c0: fe9b 99bc 4e5c aebe 1afe 24bd eb64 8dbe
000003d0: 12bd a8be 8159 1abe 4fb5 ccbe ae25 5dbd
000003e0: bf79 97bd cb0b 18be e3e6 78be 8584 2cbe
000003f0: 708c 1abe 0a10 02be 67ac 3ebe 5d51 1bbe
0.015069055 -0.53292054 -0.51947975 -0.017216625 -0.3935081 -0.13821432 -0.059367567 0.044570047
-0.29178837 -0.2321062 -0.10589627 -0.22505105 0.012914628 -0.1576664 -0.34654474 -0.2903158
-0.39157444 -0.27347636 -0.47300425 -0.27400813 -0.21285744 -0.29784355 -0.06710701 -0.035078134
-0.24961722 -0.017205227 -0.23936237 -0.34221095 -0.42774636 0.065919764 0.036375273 -0.13024248
-0.15453874 -0.2760242 -0.31190094 -0.09558308 0.020531127 -0.22921678 -0.6198971 -0.035551433
-0.09417112 -0.0883098 -0.13782789 -0.102493405 -0.07860591 -0.48009524 -0.11100086 0.13302603
-0.1900391 -0.12902315 -0.29273796 -0.119058125 -0.2147754 -0.0031319943 -0.22357182 -0.18694584
-0.15908054 -0.4678981 -0.1356908 -0.2044003 -0.13430469 -0.11135881 -0.18239701 -0.14488007
-0.07957365 -0.09008754 -0.44476235 -0.07123304 0.028060133 -0.37956086 -0.36011612 -0.20067315
-0.12652269 -0.14358349 -0.2261787 -0.0525319 -0.7947134 -0.24523774 -0.27748156 -0.37802187
-0.6098689 -0.4697946 -0.108438514 0.035593193 -0.06559944 -0.1410528 -0.26297873 -0.51807684
-0.5524999 0.004620459 0.009838394 -0.3457497 -0.25617358 -0.1178719 -0.34558228 -0.1285331
-0.073272265 -0.48202226 -0.14100799 -0.39153293 -0.27508977 -0.22625588 -0.013591085 -0.1665505
-0.021951718 -0.17489311 0.011966662 -0.47509456 -0.121325485 -0.28717113 -0.17896084 -0.16147421
-0.14209945 -0.377251 -0.2071616 0.004811449 -0.036778305 0.020209173 0.02019774 -0.056938853
0.0012788676 -0.15894054 0.008421842 -0.7053758 -0.3700151 -0.32293 -0.12795192 -0.05615672
-0.019237416 -0.022083938 -0.15180501 -0.41515398 -0.50854146 -0.08790853 -0.23308189 -0.18003261
-0.06925074 -0.002477488 -0.19426985 -0.11100767 -0.29859295 -0.13471437 -0.47482812 -0.02507095
-0.35297504 -0.20713812 -0.11721371 -0.15975644 0.016214587 -0.4003994 0.054820612 -0.4128436
0.0312022 -0.13630353 -0.09786509 -0.14537458 -0.17610942 -0.58732104 -0.3802753 -0.00394869
-0.15905398 -0.6859539 -0.19996092 -0.00023982947 -0.48225155 0.0068429834 -0.013923675 -0.158677
-0.4566185 0.018728456 -0.2687361 -0.10529092 -0.6339032 -0.33302695 -0.16493455 -0.36838332
-0.50278616 -0.24973223 -0.4234337 -0.2617794 -0.022289393 0.0058807125 -0.12788336 -0.30029356
-0.3216056 -0.41448724 -0.18963431 -0.2094787 -0.63303393 -0.078801095 -0.4064547 -0.4611029
-0.32418758 -0.31914863 -0.22058567 -0.3023299 -0.0058632637 -0.58974195 -0.2890728 -0.19774744
-0.08517074 -0.38252783 0.07560002 -0.18404281 -0.21181703 -0.13216616 -0.13114247 -0.06997062
-0.6719643 -0.025944524 -0.37396073 -0.27958673 -0.40733325 -0.01972489 -0.15790568 -0.010172163
-0.30227315 -0.022818262 -0.19712046 -0.25786924 -0.29953796 -0.017345628 -0.14289704 -0.16326565
-0.19624455 -0.097812146 -0.24993683 -0.100684695 -0.44988012 -0.029408937 -0.13516293 -0.02046878
-0.30014652 -0.04450901 -0.06701998 -0.29397303 -0.13568 -0.06466323 -0.379231 -0.27075654
-0.01875114 -0.34054798 -0.040281393 -0.27616057 -0.3295675 -0.15073206 -0.39982077 -0.053991012
-0.07396268 -0.14848249 -0.24306826 -0.16847427 -0.15092635 -0.12701431 -0.18620454 -0.15167756
