output/CarlaNavigation-v0/sac/3/actor.pt (torch, 535763 bytes, 7 tensors)

action_log_std f4 [1, 2]
00000000: 197c 37bf 2726 27c0
-0.71673733 -2.6117036

linear1.weight f4 [256, 261]
00000000: 897a 623d 260e 363e 23d3 11c0 784d 6c3e
00000010: de6e a6bf c679 c93d eb66 d33d 915f 453e
00000020: 4303 bf3d 325a 473d 720b 003d fb95 a33e
00000030: 7d84 ffbe 6038 e83c fed8 5e3e d317 c6bd
00000040: 349a 963b 8c52 b83d 94ee 1cbe 6c12 ea3d
00000050: 6077 a9bd 63ba 31be 02ed ee3c 5409 673d
00000060: 0d73 153e 4f96 343e 19fc b0bd 9a21 06be
00000070: 0ceb 0f3d bf90 e5bd 2d87 09be 6ab9 f2bc
00000080: 08a8 483e f1ba bcbd 09f0 f6bd e493 013e
00000090: b4f4 843e 2219 dc3d efac 49bc b4a3 723c
000000a0: 9945 273d 4ec1 5c3c 311a 4c3d b118 8abd
000000b0: dfd3 e0bd a9e5 003e 4f8c 5dbe ed34 2bbe
000000c0: 812e 2ebd 1a01 21bd 9f7f efbd c8fa 3abd
000000d0: 1a76 adbd 28df 553e 74eb 93bc bae1 34bb
000000e0: 30c4 11be 80a6 543d 8880 09be 9149 fbbd
000000f0: c440 d53d 760d a7be 97fa 1abe 8711 02be
00000100: 1566 9d3e edbb 9a3c 6620 51be 03bc 87bd
00000110: 739c 36bd c5aa 2d3c e579 9dbd ac27 da3d
00000120: c5e6 aabc 4662 a53d 9f79 45bb bcdd 8dbe
00000130: 01ef 543e 05bd 42bd 9256 b53e 0578 90bd
00000140: a989 763c 9b62 97bc d1e1 59bd a75e bfbd
00000150: e205 763d be0a 97be 51e6 41be db4c e6bd
00000160: 4fb7 bfbd b99a b5ba 6fa0 26be a3e6 a13d
00000170: bf82 e6bd 186d a73d c263 1c3e 6372 493d
00000180: 0cca 703d 951a 773e a144 26be bc4f 81bd
00000190: 1f5c 30be 2772 063e d7e6 dbbc 9ac2 813d
000001a0: 5169 153d 4e8e 053e 1f27 3d3e 13bf 6e3c
000001b0: 2387 943d c0b8 c3bd 9059 023e ae11 803e
000001c0: 8611 40bd 65bf 63be 9cd0 f4bc d4ab bfbe
000001d0: ba4d 79bc 2d35 38be 10ce 8abe 3487 45be
000001e0: 20c9 ae3d 69db 57bb af95 14be 91fa d4bd
000001f0: 1b5d 503d d1d8 7bbe a02e e63d e7b6 8f3e
00000200: e0dc 783d 0192 c1bc 4e0f 213d 61f0 2bbe
00000210: cd76 34be 7a77 9e3d 5312 35be 8eda df3c
00000220: c309 433c 5251 53be ed5e a23d a00d 3dbe
00000230: f0bf 1a3d 074f 213e 3f85 e03d d792 afbd
00000240: 0fb0 2dbe 8d8c e8bd d5ea 883e 4e3b b23c
00000250: a2e9 a2be f9a8 99bd 93b9 0fbe 7f34 a83c
00000260: d0f8 84be 3323 853d 2cfb c8bc d5ba 3d3e
00000270: bc79 11be 7574 023e 8482 bbbc 0624 99bc
00000280: d4b2 8ebd 36d6 7f3d 15df 723e 83e2 33be
00000290: ac59 773e d31d 0c3d 333a 26be f0d2 fcbb
000002a0: aeca 54bd 1c3c 8abc 31fd f9bd 9d59 513d
000002b0: 2279 c63d eee5 6ebe 0c06 0abf 163f 84bc
000002c0: 3506 59be 82b6 83bd ed08 efbb ff7b 263e
000002d0: 2daa 6a3e 06f1 ab3a bf38 77be 2bd3 02be
000002e0: a1c9 8c3e bcfd 93bd fe2d 89bd 6f89 843d
000002f0: 370c 0c3e 8693 993e 0e8c 02bf bae2 08be
00000300: 9570 1ebe 127d 503d c892 d7bc bdc1 573b
00000310: ae9d 50be facd debd 204b 1ebd 5eb6 883c
00000320: 97aa 91bd 36e5 7a3c 6867 213e d3ea df3d
00000330: 78a8 78bd 97ac 6b3e fdcc 83bd 3831 9e3e
00000340: 11ef 993d 1e83 33bd 5913 453e 96b1 13bc
00000350: cc3e bdbc 935d a73e 36b3 9bbd 616e 42b9
00000360: c581 dfbd 3e5f 0f3e e49d 23be 4a4a 0cbe
00000370: d130 49bd 1d47 4c3e 7310 85be cf92 103e
00000380: d5ec a83d 6ff6 64be 56f4 be3d 8fc7 8abe
00000390: fd01 df3d 36d7 0f3d 7045 e8bd 39e1 88bc
000003a0: 0d28 a7bd c2d6 00be 5285 7cbe 5eb8 20be
000003b0: cb79 10be 3b2e f4bc 7206 943d fffb 17be
000003c0: 6f23 a93e 1c06 1ebd db90 11be 9339 9ebd
000003d0: f37c 8bbd dc79 133e 3e4b a3bc 7622 913e
000003e0: 4dce bd3d 8d9f a2bd dc04 7d3e dd0e 43be
000003f0: 8f1a 0ebd 2cd1 333e c60c 043e 7f83 bb3e
0.05529264 0.17778835 -2.2785118 0.23076427 -1.3002584 0.098376796 0.103223644 0.19274737
0.09326794 0.04867 0.031260915 0.31950364 -0.49905768 0.028347194 0.21762463 -0.09672513
0.004596019 0.090001196 -0.15325385 0.11429295 -0.08274722 -0.17356257 0.029165749 0.05640538
0.1459467 0.17635463 -0.08641834 -0.13098755 0.035136268 -0.11209249 -0.13430472 -0.029629428
0.19595349 -0.09215344 -0.12057502 0.12654072 0.25967944 0.10746981 -0.012309297 0.014809538
0.040837858 0.013473822 0.049829666 -0.06742991 -0.10977911 0.12587608 -0.21635555 -0.16719408
-0.04252482 -0.03930769 -0.11694264 -0.04564932 -0.08469792 0.20885909 -0.018056609 -0.0027600364
-0.14234996 0.0519166 -0.13427937 -0.12269891 0.10412744 -0.32627457 -0.15134655 -0.12701999
0.30741945 0.018888438 -0.20422515 -0.06627657 -0.044582795 0.010599797 -0.07689265 0.10652098
-0.020861993 0.08075385 -0.0030132306 -0.27708232 0.20794298 -0.047543544 0.3541761 -0.07054142
0.015047469 -0.018479636 -0.05319387 -0.093442254 0.060064204 -0.29500383 -0.18935515 -0.11245128
-0.09361135 -0.0013855315 -0.16272138 0.079053186 -0.112554066 0.08175105 0.1527243 0.049181353
0.058786437 0.24131234 -0.16237117 -0.06314036 -0.17222641 0.13129483 -0.026843471 0.063359454
0.03647739 0.13042566 0.18471955 0.014571923 0.07252338 -0.09556723 0.12729478 0.2501349
-0.04689171 -0.2224098 -0.029884629 -0.37435782 -0.015216285 -0.17989035 -0.27110338 -0.19289857
0.08534455 -0.0032937175 -0.14510225 -0.10399354 0.050870042 -0.24594428 0.11239362 0.2806923
0.060757518 -0.02362919 0.039321236 -0.16790916 -0.17623444 0.07737632 -0.17682771 0.027325895
0.011904183 -0.2063649 0.07928262 -0.18462229 0.037780702 0.15752803 0.10962915 -0.08572929
-0.16961692 -0.11354933 0.26741663 0.021756794 -0.31818873 -0.07502932 -0.14035635 0.020532845
-0.2597108 0.06500854 -0.02453383 0.18528302 -0.14206594 0.12739737 -0.022889383 -0.018693935
-0.069677025 0.062460147 0.23717912 -0.17566876 0.24155301 0.03420813 -0.16233139 -0.0077155754
-0.051951103 -0.016874366 -0.122064956 0.051110853 0.09691073 -0.23329899 -0.53915477 -0.016143363
-0.21193774 -0.06431295 -0.007294765 0.16258238 0.2291648 0.0013118095 -0.2414274 -0.12775867
0.2749758 -0.0722613 -0.066982254 0.06471526 0.13676535 0.29995364 -0.50994956 -0.1336774
-0.15472634 0.050900526 -0.026315108 0.0032921873 -0.2037265 -0.10879131 -0.038645864 0.016688522
-0.071126156 0.015313437 0.15762103 0.10933461 -0.06070754 0.23015057 -0.06435583 0.30896926
0.075163014 -0.043826215 0.19245662 -0.009014508 -0.023101233 0.3268858 -0.07602541 -0.00018542401
-0.109134234 0.14001176 -0.15978199 -0.13700214 -0.04911882 0.19949003 -0.25989112 0.14118503
0.08248297 -0.22359632 0.09323947 -0.27105376 0.10889051 0.03511735 -0.11341369 -0.016708957
-0.08161936 -0.12581924 -0.24660233 -0.1569533 -0.1410896 -0.0298072 0.07227792 -0.14842223
0.33034846 -0.038580045 -0.14215414 -0.07725825 -0.068109415 0.14401954 -0.01993334 0.28346604
0.092678644 -0.07940588 0.24708885 -0.19048639 -0.034693297 0.17560261 0.12895498 0.3662376

linear1.bias f4 [256]
00000000: f231 07be e055 68bd 7ae2 9abe 4fcf 1e3f
00000010: df10 cbbd 2716 2d3e d145 8cbd ced6 313e
00000020: 22e2 f43d cb37 9fbe c646 b6bd 764c 2b3e
00000030: 2d20 76bd 3177 76bd 5453 3b3e 2e4d 6cbc
00000040: 8d83 793e 7ca1 b0be 23f2 b63d af89 a63e
00000050: b73a e9be 290f 6fbd 2f75 b3be 2f0e 11bd
00000060: 101b 223a e8e8 13bd 785f 583e 6332 53bd
00000070: 0966 7f3e 6e2b 0b3d b664 8d3e e33b cabd
00000080: a456 42be 1fb6 b6bd ecfe 7c3c 7088 cebe
00000090: 9b0f b3be 361e b1be 6d0e 763d 2149 41bd
000000a0: 89fc 64be 924f 82bc 53c5 fcbd 187a de3c
000000b0: 308f 22bd 758c 7a3e 1947 0a3d cdb4 55bd
000000c0: ffe0 88bd cf4c 9cbc d399 9c3e eec7 4fbe
000000d0: 15b2 8a3e 17b4 4d3e 535a 36bc 7336 263c
000000e0: 96f3 a3be 3bb5 7abe 153b 973c 639c 963d
000000f0: 1535 1bbe 6946 f7bc 3e46 adbc ed23 6ebd
00000100: a19e 243b eafb 1f3e 191c 253e 20b7 d2bd
00000110: c9d7 6ebe a5da 0bbe f6b4 ce3a 4a40 09be
00000120: d272 903e 2f46 503e 2cf8 65be 2bfe 52be
00000130: bd48 6c3e 6ac6 5ebe f455 5c3e ec37 84bd
00000140: 7ece 303e dce9 4c3e 9f69 bd3e 60ad 4cba
00000150: 6db3 183d 1bb9 23be b634 26bf f2df c03e
00000160: 0321 313e ebab 443d 1786 4b3e 2173 5a3e
00000170: 35f0 833b 3a96 893e 63be 9b3e 4f91 12bd
00000180: c7c4 343e 0553 9a3e 4baa 483e 3a2f 94be
00000190: 90bc ddbc 4f1a 803d 71e5 52be 8025 9f3d
000001a0: 8c01 743d 0f3e 6abe 9f50 cebe 2f7d 113d
000001b0: 7541 543d f698 9cbc bc6d 29bc ddc2 923d
000001c0: eba8 0cbe efd3 263e 7db0 4b3b 7797 82bd
000001d0: e881 bfbd c5d9 58be 5c54 573e 69ed 05bd
000001e0: 8524 90be ee07 6dbe 5ff7 353e 56b0 f6bc
000001f0: 725e d3bd 891e a5bd bcbd 69be 6e91 b53d
00000200: c59b a13e 1747 353e ec77 383e eec2 b4be
00000210: 1fe3 473c 7a89 063e d8ad 45be 4d54 9b3d
00000220: 8b78 843e ad1b e53d 6155 28be 5ee1 cabc
00000230: 1db2 0e3e 2aac 853d 2b78 1bbe 9b8d 7fbe
00000240: a3ea 37be 5f6d a6be 5886 d4bd 75fc dc3c
00000250: f8f9 443c b3a5 56bd cf13 cabb cad9 a3be
00000260: 7cc5 26be d0c3 053e d689 853e 5f28 e63c
00000270: 1905 ef3d 9653 f73e 8cf2 87bd e515 ccbd
00000280: 943a 023f 33cd 973c 97fe 6cbe 2f40 91be
00000290: e364 ecbb e950 933e 2a83 58bd ed41 aabc
000002a0: 53fb 26bd 585d c0bc 8ade aebc aa9e 0fbe
000002b0: 3613 bebd aa34 9dbd 32b3 81bc 0fd7 27be
000002c0: acdf 24be c7d7 dfbc ca72 27be f01b 9abd
000002d0: 2f3b d33d f30f f53d b1e6 7c3e b8a1 1fbe
000002e0: 2a30 3bbe a695 a93e 88a5 233d 1f0f 1ebd
000002f0: 8206 3fbe c130 1abc 9158 f9bc 7dab 8fbd
00000300: d32d 23bf b43d 6bbd 0b7a 043e 8fd7 343c
00000310: 4476 edbd e09c 90be 28fe 2fbe ce1b 05be
00000320: 4d18 8c3e 1bbf 2dbd b488 22be 81b0 633e
00000330: 6c5b f63d 2ad8 0fbd 6aa6 d3be cb54 963e
00000340: b370 9dbc 17b7 023d a4a7 7fbe d12d 82be
00000350: fa60 943e 64dc 91bd 40e3 1f3f c7aa b0bd
00000360: 7251 d63e 016f 773e 297a e7bd cac6 0dbe
00000370: 269f 62bd ace2 903e 4ac6 6d3c 7fd5 7cbc
00000380: 7c06 7e3e 5e36 2c3d 4e19 72be 06e3 06be
00000390: 21f6 dabd 5851 a23d c1ce 9e3e 2ea5 81bd
000003a0: bdeb e5bd db86 96bd 6e9d d53c fca2 92bc
000003b0: 94f6 9ebe d5e8 513d d64e c63e e2eb c23b
000003c0: 91a7 0d3e 92b0 d6bd 3e32 0dbe 1f69 1cbe
000003d0: 71a7 053e 8073 eebd 490f d73d aaaa 43bc
000003e0: a228 933e e58f 303d a11c 70be 8d05 483c
000003f0: 81f6 2f3e d032 e2be 529f 27be 2823 8e3d
-0.13202646 -0.05672252 -0.30250913 0.6203508 -0.09915327 0.16902982 -0.06849254 0.17367098
0.11957194 -0.31097254 -0.08900218 0.16728386 -0.06008928 -0.060172264 0.18293506 -0.014422698
0.24366589 -0.34498203 0.08932903 0.3252692 -0.45552608 -0.058364067 -0.3505034 -0.035413917
0.0006183842 -0.03611079 0.21130168 -0.051561724 0.24941267 0.033976965 0.276159 -0.09874704
-0.18978363 -0.089214556 0.0154416375 -0.4033847 -0.34972844 -0.34593362 0.06007235 -0.04718888
-0.2236196 -0.015907083 -0.12342324 0.027157828 -0.039687335 0.24467643 0.03375921 -0.05217438
-0.066835396 -0.019079594 0.3058611 -0.20291111 0.2708899 0.2008823 -0.011129933 0.010144818
-0.3202178 -0.24483196 0.01846079 0.07354047 -0.15156968 -0.030184941 -0.021151658 -0.05813973
0.0025118964 0.15623441 0.16124 -0.102888346 -0.23324503 -0.13657625 0.0015770483 -0.1340343
0.282126 0.20339273 -0.22457951 -0.2060477 0.23074622 -0.21755376 0.21517164 -0.06455979
0.1726627 0.20011085 0.36994645 -0.00078078173 0.03728049 -0.15988581 -0.6492418 0.37670857
0.17297749 0.048015516 0.1987537 0.2133298 0.0040264376 0.26872426 0.3041869 -0.03578311
0.1765319 0.30141464 0.19596212 -0.2894228 -0.027067453 0.06255018 -0.20595337 0.077708244
0.059571788 -0.22875236 -0.40295884 0.035519775 0.051820237 -0.019115906 -0.010341104 0.071660735
-0.13736312 0.16291784 0.0031080537 -0.06376546 -0.093509495 -0.21176822 0.21028274 -0.032697115
-0.28152862 -0.23147556 0.17770146 -0.03011338 -0.103207484 -0.08062465 -0.22826284 0.08865629
0.31564155 0.177029 0.18014497 -0.3530497 0.012200146 0.1313838 -0.19304597 0.075844385
0.25873217 0.11186919 -0.1643882 -0.024765667 0.13935132 0.06526978 -0.15182559 -0.24956362
-0.179606 -0.3250532 -0.103771865 0.02697585 0.012022488 -0.052404117 -0.006166912 -0.32002097
-0.16286272 0.13062978 0.26081723 0.028095422 0.11670894 0.48305959 -0.06638059 -0.099651136
0.50870633 0.018530464 -0.23143993 -0.2836928 -0.007214175 0.28772667 -0.052859463 -0.020783389
-0.040767025 -0.02348201 -0.02134635 -0.1402537 -0.09281008 -0.076760605 -0.015832517 -0.16390632
-0.16100949 -0.02732457 -0.16352382 -0.0752486 0.10314023 0.11965933 0.24697377 -0.15589035
-0.18280092 0.33121985 0.039952785 -0.03858864 -0.18654826 -0.009411038 -0.03043774 -0.07015131
-0.637418 -0.05743189 0.1293718 0.011037721 -0.11594823 -0.28244686 -0.17186797 -0.12998888
0.2736229 -0.04241858 -0.1587246 0.222353 0.12029156 -0.03511826 -0.413379 0.29361567
-0.019218778 0.03191289 -0.24966294 -0.2542558 0.28980237 -0.07122114 0.6245613 -0.08626323
0.41859013 0.24163438 -0.11302597 -0.13845363 -0.055327557 0.28297937 0.014512608 -0.015431761
0.24807161 0.042044036 -0.23642465 -0.1317254 -0.106914766 0.07925671 0.31017116 -0.06330334
-0.11226604 -0.073499404 0.026076045 -0.017899983 -0.310475 0.051247437 0.38732022 0.0059485296
0.13833453 -0.10482897 -0.13788697 -0.15274476 0.13052155 -0.116431236 0.10500962 -0.011942545
0.28741938 0.04310598 -0.23448421 0.012208355 0.17183878 -0.44179392 -0.1636937 0.06940299

linear2.weight f4 [256, 256]
00000000: 8a2b 653e bc89 f9bc b75d 683e b1f1 bebd
00000010: c544 a4bd dd7a 1abd f45a 5b3e 71a8 6d3d
00000020: 842e bf3d 80e4 153e f7d6 d1bd c5ef 87bd
00000030: 9d75 23be a756 a7bd 85ec 093e 51cb 85be
00000040: e528 2a3e fbfe 7ebd 1678 2ebe 6f94 56be
00000050: 237f 943d deb6 253e cc56 0fbe 336b 85bd
00000060: af01 c2be 4270 ff3d cc99 88be 5294 763d
00000070: 749e fc3d 406f 8f3e 160e 513e ea94 aa3d
00000080: b26a 15bd fbd6 b83d 522d 87bd 6ec2 15bd
00000090: d3a0 473d 4fe0 0b3d f8a8 2c3e 54dc c03e
000000a0: 6bbd d53d efcd 203e 30cc 57bd 48b4 b63d
000000b0: 4870 61be 36ef eb3d 3ad4 5b3d 12af 133d
000000c0: e57f bc3d 78ac 073d 1ee0 1b3f 87e3 d73e
000000d0: 4f75 e2bd 2238 c8bd d23d 80be 9e6c 723d
000000e0: c52b 413e a449 133d 4ba3 a43d dc29 92bd
000000f0: 17e0 5fbd a474 1fbc dd69 643e 7b6f 60bd
00000100: 0cea 94be b30a d33e 2f99 5ebe 6b0b d7bd
00000110: 27c8 213d 793c 0ebb 7c0c 833e f394 05be
00000120: 1bcd abbd 3af7 9b3e 3343 62be 1735 92be
00000130: 8937 833d 94fd 0fbe 117d 823d 89b0 c73d
00000140: fa0f 2e3d f37e 493e a796 fabd 4c82 533e
00000150: 84cf ce3b 4b9c 84be ff21 d13d 190c 543d
00000160: 9b39 44be 72e6 1dbf 0b77 613d 644b ddbe
00000170: 6519 59bd 1263 fc3c f4c2 c4bc 591c a13e
00000180: 09b6 2fbe d460 62be 5c7c 22be 9ae5 12be
00000190: d0da 223e bac6 993e 84c1 10bf 8c39 b53c
000001a0: ef2e 0bbe f521 be3c cf48 febc b847 6ebe
000001b0: 587c 633b efc8 493e f0e2 0fbe d9ba 8abd
000001c0: ea8d 973c 119d e73b b1ba 333e 06d9 81be
000001d0: ce19 c7bd e02a 42be 57ae bcbe d3eb 323d
000001e0: 86ea a83d 53ed 553c 5df3 d93d fd6b 1b3d
000001f0: 4d41 2e3e 8567 e1bd 1ab1 35bd 60ce d5be
00000200: c30b a83d 32df 433e 9062 4f3a 726c b43e
00000210: 59a7 2dbe edf8 a3be c970 9b3d c588 7f3d
00000220: 92b4 3a3e f82e 283e 66ae b23c dcdb bcbe
00000230: 41c0 2b3e afde 823e 2004 0fbd 2994 c2be
00000240: 4383 dabd 9835 883e 7fad e83d 715c 8e3e
00000250: c88e 843c 3c1e 92be 0a5a 1abe 91c6 4d3e
00000260: 81cb 7cbe 3626 3a3e 6299 95be 2b07 643e
00000270: 8038 35be 53dc d4be 9421 fabe 92a8 903e
00000280: bd9a 373e 9e9c e1be 6cbc 853e 7c11 743e
00000290: 23c7 9cbd cc79 b2be 2b49 9f3e c7ec 69bd
000002a0: 2e15 8a3d 973f 7e3d 6eea 693d fa8f eb3d
000002b0: c87f e83e 1806 5fbe 0630 92be 0d3e 4e3e
000002c0: 4b32 35be 6694 5cbe 89c8 0dbd 5851 0a3f
000002d0: 8e09 14be e9e0 ce3d 1ee3 3f3d 4a5f 0a3e
000002e0: 8c6d 02bf 4d0d 743d 6f0a 703e 3185 aa3d
000002f0: 8d7c e13c 6e9b 78be 5ab9 023e 9c47 a93c
00000300: 7034 6cbd 6831 b3bd 18de a33e 405f 983e
00000310: 0659 2a3e ff0e 103e bb92 42be 64a0 6b3d
00000320: 74e6 80bd 89f0 0e3f 4e2f a13e 2047 3d3d
00000330: c897 47be 9404 1b3e 5055 9bbe aeda bf3e
00000340: 827b cc3e f9d8 dcbd f5e1 84be be25 aebc
00000350: 5cec 46be f34f babe bdfa 59bd fbab 83be
00000360: 45ef c9bd 9f5d 53be c8d5 0c3f 53aa ed3d
00000370: 9e13 cf3e 30f0 c8be 5291 c23e 7829 32be
00000380: 20fc 6dbe da44 8cbe 56f5 103e b22c fdbd
00000390: 68b9 94bd ca05 5dbe c5b6 f83c 43d1 a23d
000003a0: 822c 113e 7b5d 41bf 4053 86bd 1ce8 103e
000003b0: 6095 0f3e e7bc af3d 97ea 8ebe 4ec6 093c
000003c0: d064 083e 6265 473e a102 c03e d9ec 82bd
000003d0: 5e28 5abe e46f e2bd 7cfa 3abd f13d 6cbe
000003e0: 10c8 6f3d 813e 8bbe 32d1 87be b0e9 36bc
000003f0: 838e a13d 302e 10bd 9398 753e 5f41 aebc
0.2237989 -0.030461185 0.22692 -0.09323443 -0.08020929 -0.037714828 0.21421415 0.058021966
0.09335044 0.14637947 -0.102460794 -0.06637529 -0.15962835 -0.081708245 0.13469131 -0.2613168
0.16617163 -0.062254887 -0.17037997 -0.2095506 0.07250812 0.1618304 -0.13997954 -0.06514587
-0.3789191 0.12472583 -0.26679838 0.060200043 0.1233491 0.28014565 0.2041553 0.08329184
-0.036478706 0.09025379 -0.06600441 -0.036562376 0.04873736 0.034149464 0.16861331 0.37668097
0.10436519 0.15703557 -0.052684963 0.08921105 -0.22015488 0.11520235 0.053669192 0.036055632
0.092040814 0.033123463 0.6088885 0.42165777 -0.11057531 -0.097763315 -0.25047165 0.059185617
0.18864353 0.0359589 0.08038958 -0.0713689 -0.054657068 -0.009732399 0.22306009 -0.054793816
-0.29084814 0.412191 -0.21738122 -0.10500225 0.03949752 -0.0021703525 0.25595462 -0.13045101
-0.0838873 0.30462056 -0.22095947 -0.2855613 0.06407077 -0.14061576 0.06371511 0.09750468
0.042495705 0.19677334 -0.12235766 0.20655173 0.006311359 -0.25900492 0.10211562 0.05176935
-0.191626 -0.61679757 0.05504517 -0.4322158 -0.053002734 0.03080896 -0.024018742 0.3146694
-0.17159285 -0.2210725 -0.15867752 -0.14345399 0.15903783 0.3003443 -0.5654528 0.022122167
-0.13592122 0.023209551 -0.031040577 -0.23269546 0.0034711566 0.19705556 -0.14051414 -0.067739196
0.018500287 0.0070682843 0.17551686 -0.25360888 -0.09721719 -0.18961668 -0.3685176 0.04368193
0.08247857 0.013057071 0.10642121 0.037944783 0.17017098 -0.11006073 -0.04435835 -0.41759014
0.08205368 0.19128111 0.00079111103 0.35238987 -0.1695837 -0.32025853 0.075898714 0.062386293
0.18232945 0.16424167 0.021811675 -0.3688649 0.16772558 0.2556052 -0.034916043 -0.38003662
-0.106695674 0.2660339 0.11361217 0.27804902 0.016181365 -0.28538692 -0.1507341 0.20095278
-0.24687006 0.18178639 -0.29218584 0.2226836 -0.17697334 -0.41574344 -0.48853743 0.2825361
0.17930122 -0.44064802 0.26120317 0.23834795 -0.0765517 -0.3485855 0.3111051 -0.057110574
0.06742321 0.062072363 0.057108335 0.11502071 0.4540999 -0.21779668 -0.28552264 0.20140858
-0.17694966 -0.21540985 -0.034615073 0.5403037 -0.1445677 0.10101492 0.046847455 0.13512912
-0.50948405 0.059582997 0.2344148 0.083261855 0.02752521 -0.24278042 0.12766019 0.020664029
-0.057667196 -0.08749658 0.32005382 0.2976017 0.16635522 0.1406822 -0.19001286 0.057526007
-0.062939554 0.5583578 0.31481403 0.04621041 -0.19491494 0.15138465 -0.30338526 0.37471527
0.3993798 -0.10783572 -0.25953642 -0.021258231 -0.19426101 -0.3638912 -0.05321764 -0.25717148
-0.0986009 -0.20641182 0.55013704 0.116047524 0.40444654 -0.3924575 0.38001496 -0.17398632
-0.2324071 -0.2739628 0.14156088 -0.123620406 -0.07261926 -0.2158424 0.030360589 0.0795007
0.14177135 -0.75533265 -0.065588474 0.14151043 0.14021826 0.08580952 -0.27913353 0.008409096
0.13319707 0.19472268 0.37502006 -0.06392831 -0.21304461 -0.11056498 -0.045649037 -0.23070504
0.058540404 -0.27196124 -0.2652679 -0.011164114 0.0788851 -0.035200298 0.23983984 -0.021271406

linear2.bias f4 [256]
00000000: 2600 7dbd f592 5bbe 498c 21be 179c 903d
00000010: 3246 583d 1a30 84bd ebbc d3bd 75f5 b93d
00000020: 88ba 9a3c 3f97 b33d f632 29bd 178f 853d
00000030: 5dab 00be 65f5 81bc b3e7 06be a7de 243e
00000040: 46b2 983d 783c 1d3e 7daf 173d 8e2c 2dbe
00000050: 1807 12be 779f 4bbc 4957 f63d c21d a4bd
00000060: 2863 233e 27c6 833c 0d2d 87bd 7a69 043e
00000070: be5f 58be ce46 af3c 7bc5 0ebe 8b91 99be
00000080: 9347 50bd 62ff ea3b c951 8fbd 6ab4 c6bc
00000090: a006 51bd e156 493c 8f79 983d f4f5 4abe
000000a0: af45 c13d 48f8 34bd 86a2 a3bd d67f 243e
000000b0: 5ef7 81bb 21a5 0c3e 7f63 fbbd e679 733d
000000c0: 9740 0e3e 34db cf3d 0f25 d5bc 2fab 17be
000000d0: 51c7 ff3d c0c8 e1bc b9b8 bfbd 279a 43be
000000e0: a384 d23d 193d 923c 23a0 0a3e 0d1c d03b
000000f0: f9c0 47bd 7166 d8bc 661d 22bc 11f3 31bd
00000100: d4c9 843d eff0 073d 42f3 9e3d d096 8cbd
00000110: b065 203e 1318 ddbc a2f8 17bd 7dbe a7bd
00000120: 2d6f 623d b60b 6bbe 3c84 09be c7f9 61be
00000130: cf4e 49bd fbc2 9dba 03d2 73bd 4e1b 80bd
00000140: 1fba 803d 3cbe 36be 3e14 393c 630f 5c3e
00000150: 6d07 6c3c 33b1 283e 78e7 2e3c c220 db3d
00000160: 7981 623e de43 a43d 59d1 c5bc 85b7 113d
00000170: dcd7 c03e 8558 b0bc 16cb 703e 7bbf dcbd
00000180: d10a 82bd 9f37 e13d 2d48 6cbe aaa4 dcbc
00000190: ed6c 403b 14d5 dabd 6a70 be3d 36c7 dbbd
000001a0: 7e02 fb3d f20a eabd 4c91 c53d 222c 8b3d
000001b0: a722 52be 00f1 07be 63d2 d1bd 7626 01bd
000001c0: 8c53 08be c5aa 81bd 5641 b43d b3a1 03be
000001d0: 5c9b ab3b 5609 063e 5ea8 56bd 981c fe3d
000001e0: 53ce 92bd 674c e33d bc23 0abe 2bf0 06be
000001f0: bd0f ddbd af58 96bd 34c6 803e 7820 b83d
00000200: cc02 883c ed81 533b da39 66bc 87ae 283e
00000210: f569 a2bc dfb5 4d3d 6559 0b39 6f04 973d
00000220: 8743 a63c 69a5 cfbc 66ba a63d dd32 993c
00000230: 788f 1f3e 0345 0abb 252a 2e3e 4ef9 3f3e
00000240: 5a67 963c a49c d6bc 4c0c 473d 3e8c 3c3b
00000250: c926 fc3d bb0a 3dbb a72e 113e d713 0d3d
00000260: daff c8bc db67 d1bd 23d0 143c 2ad1 913c
00000270: f5e2 c03d 788f 3cbc d3c3 44be 0906 bdbd
00000280: 4e3f a0bc 014a 69bd 8d38 a6bd b4b9 02be
00000290: 932f 143e caf7 75be 0f28 513d 9f62 c1bc
000002a0: efcf e6bd 1eef 823d f47e f4bc 3100 ce3c
000002b0: a5f8 a7bd 6f6e 9fbe 7782 5a3d 57a2 e2bd
000002c0: e745 253d 091b e43d f274 64be 3113 df3d
000002d0: f162 62be 1aab d6bd 1295 4bbc f1d7 7ebb
000002e0: 3d3c 183e f86b 2e3d bb79 fdbc 6a6c d0bc
000002f0: 80a9 4e3e de41 45be cb60 b3bc e1d6 afbe
00000300: 90b1 0f3d 05f3 b13d 6593 b8bc dbe9 afbd
00000310: 3658 74bd a7c6 06be 3332 ae3c ec76 16bc
00000320: 3afe 03be 92e9 d33c 7256 6e3e 180c 073d
00000330: 38ca 283d 7904 823d d3f8 90bd 1b5e eebd
00000340: 696c be3c a2f5 e83d fda5 5d3d d9c4 5cbc
00000350: 48bb 723d 49f2 acbd 9d07 823d fb30 863c
00000360: 8006 f63d 28eb bb3d 8307 6abd 2ea1 9a3d
00000370: c9e8 6ebe 7784 10ba f65a 1f3e 0237 763d
00000380: 129b 8dbc 50a3 eebc cc97 093d 65ba c03d
00000390: 7db5 a73d 073d 49bc 17a1 103d fe4a fe3c
000003a0: 2e90 2d3e a0af 2fbe 14f6 46be 8847 30bc
000003b0: bcc7 e93a 3e4f 84bd 50fb 2f3c cd9b f03b
000003c0: 2cbc 9f3d b573 093d d9cf d93d 1d31 413e
000003d0: 1239 413e 1fe6 53bd dc14 373d 7d88 963d
000003e0: 099a 45be 8aa8 0ebc 29b0 95bd dd03 02be
000003f0: 2868 c83c a0cf 103b 40c5 c63c 91e1 aebd
-0.06176772 -0.21442778 -0.15776171 0.07061022 0.05280132 -0.06454487 -0.103387676 0.0908002
0.018887773 0.08769082 -0.041308366 0.06521433 -0.1256537 -0.015864084 -0.13174324 0.1610056
0.07455878 0.15355098 0.037032593 -0.16911528 -0.14260519 -0.012428156 0.12028367 -0.08013488
0.15955794 0.016085697 -0.0660039 0.12930861 -0.21130273 0.021396067 -0.1394252 -0.29993853
-0.05084951 0.0071715573 -0.06998021 -0.02425595 -0.05103171 0.01228878 0.074450605 -0.19820386
0.09437119 -0.044182092 -0.07989983 0.1606439 -0.003966256 0.13734867 -0.12274837 0.059442423
0.13891827 0.101492316 -0.026018647 -0.14811395 0.124891885 -0.027561545 -0.09361405 -0.19101773
0.10279205 0.0178514 0.1353765 0.006351 -0.048768017 -0.026416035 -0.009894704 -0.043444697
0.06483808 0.033188757 0.077612415 -0.06864703 0.1566379 -0.026989019 -0.03710235 -0.0819063
0.055281807 -0.22953686 -0.1342935 -0.22067939 -0.049147423 -0.0012036258 -0.059526455 -0.06255208
0.062855 -0.17846006 0.01129633 0.21490245 0.014406067 0.16473846 0.010675304 0.106996074
0.22119702 0.08020757 -0.024147676 0.03557541 0.37664688 -0.021526584 0.23514971 -0.107787095
-0.06349719 0.10996937 -0.23074408 -0.026933987 0.00293618 -0.10685173 0.09298785 -0.10731356
0.12256335 -0.11427869 0.09646854 0.06795527 -0.20521031 -0.13275528 -0.10245206 -0.03153082
-0.1331312 -0.063314 0.08801524 -0.12854652 0.005237026 0.13089499 -0.05240666 0.124077976
-0.071682595 0.11098557 -0.13490194 -0.13177554 -0.107940175 -0.07341134 0.25151217 0.08990568
0.016602896 0.0032273487 -0.014051879 0.16472827 -0.019825915 0.050222274 0.00013289375 0.073738925
0.020295871 -0.025347428 0.081410214 0.018701011 0.15582073 -0.0021098263 0.17008264 0.18747446
0.018359829 -0.026197739 0.04859571 0.0028770114 0.12312085 -0.0028845507 0.14177953 0.03444275
-0.024536062 -0.10224887 0.009082827 0.017799933 0.094182886 -0.011508815 -0.19215326 -0.09229667
-0.019561436 -0.05695534 -0.08116255 -0.12766153 0.14471273 -0.24020305 0.051063593 -0.023606597
-0.11270129 0.06393264 -0.029845692 0.025146576 -0.08201722 -0.31138942 0.053347077 -0.1106612
0.040349867 0.11137969 -0.22310236 0.10892332 -0.22108056 -0.10481854 -0.012425678 -0.0038886035
0.14866729 0.042583436 -0.030941835 -0.02544232 0.20181847 -0.19263408 -0.02189674 -0.34343627
0.035081446 0.086889304 -0.02253122 -0.08589526 -0.059654437 -0.13161717 0.021264171 -0.009183627
-0.12889948 0.025868211 0.23275164 0.032970518 0.041208476 0.06348509 -0.070787095 -0.11639043
0.023245053 0.11374976 0.054113377 -0.0134746665 0.059260637 -0.0844465 0.06349108 0.016380778
0.120129585 0.09175712 -0.05713607 0.07550274 -0.23330988 -0.0005512903 0.15562043 0.060111053
-0.017285857 -0.029130608 0.03359203 0.09410552 0.08188913 -0.012282616 0.035309877 0.031041618
0.16949531 -0.1715684 -0.19429809 -0.010759242 0.0017836015 -0.06460427 0.01074107 0.0073427917
0.07799563 0.033557612 0.10635347 0.18866391 0.18869427 -0.051733132 0.044697627 0.07350252
-0.19297041 -0.008707175 -0.073089905 -0.12696786 0.024463728 0.002209641 0.024263978 -0.08539117

mean_linear.weight f4 [2, 256]
00000000: 3cbf 913e 61f0 093d c32a a73e 3f16 913d
00000010: 6cf6 88be 3501 a4be 175f 253e d95c 90be
00000020: 0d3c 093e e8d3 87be 759c 523e add3 623e
00000030: 99e0 423e 8fc1 40be 2fad 9c3e 7cb7 9a3c
00000040: 8771 d4bd 098c debd 08e9 0b3e 5516 69be
00000050: 9abe ac3e 2435 0d3e 0e65 2a3c 2586 b53e
00000060: 9a8f 603d 6d5d 6fbd a957 d03c a88e b13d
00000070: b977 4b3d b86f f93d a1a2 8c3e 7d98 62be
00000080: 929a 9f3e 3e35 43be 0458 6c3e a962 81bc
00000090: 341b 86be 1f54 ba3e 5925 b53e a69d 2a3e
000000a0: fa62 82be e3cc 88bd ddf8 c8bd c387 243e
000000b0: 386d 223e 288a 813c 433c 6c3e 39ad 8b3e
000000c0: e216 30be 61fa 0cbe b98c 57be 252d bf3d
000000d0: c2f5 aebe 796e 81be 4cf0 0abe b1e1 ba3e
000000e0: 2ea8 b43e 87f6 72be 66d7 63be 322e f3ba
000000f0: f93c 043d eb16 c13d 4bec 8c3d 0a62 6b3e
00000100: 652e 98be c2d7 51bd 9d52 453c e187 a3be
00000110: e7e6 efbd 10d9 97be 4274 9abe ceda 9dbe
00000120: 909e 68be 552f bd3e 1312 133e 12eb 9cbd
00000130: 5b62 a93e e998 7c3e c05d d53e 262d e23d
00000140: 716d 99be 371c 233e a73c 43be 10ae 403d
00000150: ba05 edbd ccda 85be 3fc0 1abe 5be6 38be
00000160: b15e 4f3e 6946 a8bd 2557 ef3d f136 d6bd
00000170: 7426 dabc 4515 7c3d 0799 853d eae8 26be
00000180: 771f 95be c224 48be 6b65 bd3d d344 6d3e
00000190: db7a fb3d accb 17be ddb2 e73d e6d3 563c
000001a0: 0de0 393e a347 a73e 77ef a1be eeb0 9cbe
000001b0: 0f3a 8bbe 682e 3e3e 9066 803e a9a4 393e
000001c0: 3b5f 823e b699 4c3e ee43 9c3e c503 57be
000001d0: 01b0 713e eda6 c03e 86c5 7abe 0618 10be
000001e0: 54ff 12be 3bc2 b1be 3b93 603e c326 95be
000001f0: 17e3 7cbe f5a7 22be fed7 47be e087 863e
00000200: a073 893e f20b a63e e04b 583e 76a1 4d3e
00000210: 104d b5be 85ee 49be e70a 3f3e eda2 383e
00000220: 6754 05be 6528 19be 5f62 92be c056 a93c
00000230: 0f59 213d a8f2 83be 0c77 19be 23a8 47be
00000240: b33f 003e 1592 ddbd 612e 883e 35be c73d
00000250: b75b dfbd a04d cdbd 0caa ca3d 0de8 9b3e
00000260: 9fc5 a33e c24c 73be 9ebb 013e 2447 11bd
00000270: 4be9 0c3e 7e9f 573e 0bb7 bbbe 7051 44be
00000280: 5ae7 aa3d 3a06 993e 9c1c 173e a04f 9d3d
00000290: af92 e8bd 031d 6f3d 23d6 40bd 4d9a 693e
000002a0: a0e9 22be 2dd9 253e fffa 263e 696a 873e
000002b0: c859 3a3e d640 a63d 9240 dc3d 40d2 4bbd
000002c0: de42 303e e462 1c3e c492 c13d 7cee 403e
000002d0: 2cd8 ef3d 989d 91be 6283 0dbe 1629 403d
000002e0: 102f 933e 2f28 3abd cea2 8dbe b99f a43e
000002f0: 9a2f 783e 958a 963d 5ec8 b1bd 46d1 aabd
00000300: f863 193e 02ed 58be a1b7 19bd d83d a43e
00000310: bc14 033e 16df c43e 2dd0 2b3e 7f88 88be
00000320: b0a3 253e b477 92be 7a49 683e 18c0 ce3b
00000330: 49bc 843e 0733 2a3e d92d ce3d 7711 203e
00000340: 1274 86be 94bb c13d 8a85 2d3e dfd9 76be
00000350: b80f 65bd 2d45 7d3e b9e3 51be 02ae ecbe
00000360: ea1b c63e bd85 c8be ff11 083e e650 38be
00000370: a8d2 f23e 9bfd 52bd 826b d73d 5d5f 973e
00000380: 5990 8c3e 76d6 823e 45be babe a249 9c3c
00000390: b9a2 413e e52d 42bc 1ec4 87be 96a0 a03d
000003a0: afe9 c4bc ce85 f53d 8bb0 bebe 5590 d1bd
000003b0: 36d5 513e 8233 69be 8011 5ebe 48cb b0be
000003c0: d6b6 b63e ba6a a43e 4ede 36bd 628a a83e
000003d0: a248 ecbd 0e74 e53a 0a9e 33be 3ff3 82be
000003e0: 8327 6a3e 51be 49be a390 afbe 83a3 483e
000003f0: ed79 8d3e 4b21 9cbe 6893 8c3e 3f20 ae3d
0.28466213 0.03367651 0.32649812 0.07084321 -0.26750505 -0.3203217 0.16149555 -0.28195837
0.13401814 -0.2652886 0.20567496 0.2215106 0.1903099 -0.18823837 0.3060088 0.01888632
-0.10373216 -0.10866553 0.13663113 -0.22762425 0.33739167 0.13789803 0.01040007 0.35453907
0.05482445 -0.058438707 0.025432425 0.08669788 0.049674723 0.12179512 0.27467826 -0.22128482
0.31172615 -0.19063279 0.2308045 -0.015794115 -0.2619263 0.36392304 0.35380057 0.166617
-0.25466138 -0.06679704 -0.09813092 0.16067414 0.15861976 0.015812948 0.23069863 0.27280596
-0.17196229 -0.13767387 -0.21049775 0.093347825 -0.34171873 -0.25279596 -0.13568228 0.36500314
0.3528456 -0.23726855 -0.22250137 -0.0018553196 0.03228471 0.094281994 0.06881007 0.22986618
-0.29722896 -0.051231153 0.012043622 -0.31939605 -0.11713963 -0.29657793 -0.30166823 -0.30830997
-0.22716737 0.36950174 0.14362364 -0.076620236 0.33082852 0.24667706 0.41673088 0.11043768
-0.2996631 0.15928732 -0.19066106 0.047041 -0.11573358 -0.2614349 -0.15112399 -0.18056624
0.20250966 -0.08216555 0.116865434 -0.10459698 -0.026629664 0.06154372 0.06523328 -0.16299787
-0.29125568 -0.19545272 0.092478596 0.23170786 0.12279292 -0.14823788 0.11313412 0.013112044
0.18151875 0.32671842 -0.3162801 -0.30603737 -0.27192733 0.1857239 0.2507825 0.18129219
0.2546328 0.19980511 0.30520576 -0.20997532 0.23602296 0.37627354 -0.24489412 -0.14071664
-0.14355212 -0.347185 0.21931164 -0.29131135 -0.24696003 -0.15884383 -0.19515988 0.2627554
0.26846027 0.3243099 0.21122694 0.20081124 -0.35410357 -0.19719894 0.18656503 0.18030901
-0.13020478 -0.14956816 -0.28590676 0.020671248 0.039391574 -0.2577107 -0.14986819 -0.19497733
0.125243 -0.108188786 0.26597884 0.09753076 -0.10906165 -0.100245714 0.09895715 0.30450478
0.3198671 -0.2375975 0.12669227 -0.035468236 0.13760869 0.21056935 -0.36663088 -0.19171691
0.08344908 0.29887563 0.14757007 0.07681203 -0.11356103 0.058377277 -0.047079217 0.22812767
-0.15909433 0.16196127 0.16306685 0.26448372 0.18198311 0.08117835 0.10754503 -0.049761057
0.17213008 0.15272099 0.094518214 0.18840975 0.117111534 -0.28440547 -0.1381965 0.046914183
0.28746843 -0.04544848 -0.27663273 0.3215311 0.24236909 0.07350651 -0.08680795 -0.08340697
0.14979541 -0.21184161 -0.037528638 0.32078433 0.12800878 0.3845145 0.16778632 -0.26666638
0.16175723 -0.2860695 0.22684279 0.0063095205 0.259249 0.16621028 0.100673385 0.15631662
-0.2626043 0.09459606 0.16945472 -0.24106549 -0.055923194 0.2473342 -0.20497026 -0.46226507
0.38693172 -0.39164534 0.13288115 -0.1799961 0.47426343 -0.05151139 0.10518552 0.29564944
0.2745388 0.25554246 -0.3647329 0.01907808 0.1890973 -0.011851762 -0.26516813 0.07843129
-0.02403721 0.11988412 -0.37244067 -0.10232607 0.2049149 -0.22773555 -0.21686363 -0.3453009
0.35686368 0.32112676 -0.0446456 0.32918078 -0.11537291 0.00175059 -0.17540756 -0.25576207
0.22866635 -0.19701506 -0.34290037 0.19593625 0.27632084 -0.3049415 0.27456212 0.08502244

mean_linear.bias f4 [2]
00000000: 0011 b7bd 71a0 db3c
-0.08938789 0.026809903
