output/CarlaNavigation-v0/gin/5/base.pt (torch, 69735 bytes, 2 tensors)

dynamic_emb.0.weight f4 [256, 66]
0	0xbf351433	-0.70733947
1	0x3eb8419a	0.3598755
2	0x3ee5913c	0.44837368
3	0x3f110a4e	0.5665635
4	0xbe8b31f2	-0.27186543
5	0xbef3c677	-0.47612354
6	0x3e89f799	0.26946715
7	0xbf2b2fd7	-0.6686987
8	0x3f258030	0.64648724
9	0xbe7798fa	-0.2417945
10	0xbebd2bfa	-0.36947614
11	0x3ed49912	0.41523033
12	0x3eb185b8	0.34672332
13	0xbf12e029	-0.5737329
14	0x3f3c1fce	0.7348603
15	0x3e7c3c57	0.24632393
16	0x3f128af1	0.5724326
17	0xbe727a83	-0.23679547
18	0xbeadb0ee	-0.3392405
19	0xbf003f3f	-0.50096506
20	0x3e9a3e87	0.3012583
21	0xbea0516f	-0.3131213
22	0xbd1f6f9d	-0.038924802
23	0x3f1b12bc	0.6057546
24	0xbe73300a	-0.23748794
25	0x3e96751a	0.29386216
26	0x3f022d3f	0.5085029
27	0xbbb35e76	-0.005473907
28	0xbf218d30	-0.6310606
29	0xbd346673	-0.044043016
30	0x3f1a9ee8	0.6039872
31	0xbe42e9db	-0.19034521
32	0xbf1328eb	-0.5748431
33	0xbf3bacc4	-0.73310494
34	0x3e4c4647	0.19948684
35	0x3eab3910	0.33441973
36	0x3e9461d9	0.28980902
37	0xbf109481	-0.564766
38	0xbed080cb	-0.4072326
39	0x3f392942	0.7232858
40	0xbf0270ce	-0.50953376
41	0x3ed6b170	0.4193225
42	0x3f3d5310	0.7395487
43	0xbe7fbd1c	-0.24974483
44	0x3e7aaae9	0.2447926
45	0xbe986243	-0.29762468
46	0x3ef8591b	0.48505482
47	0xbf22f427	-0.63653797
48	0x3ef53062	0.47888476
49	0xbf40e535	-0.7534974
50	0x3d351b45	0.04421546
51	0xbf0cf199	-0.5505615
52	0xbd5248c3	-0.051338922
53	0x3f1fee1a	0.6247269
54	0xbeca70d2	-0.395392
55	0xbf0e1e0f	-0.55514616
56	0xbf132f04	-0.57493615
57	0xbe7b60d0	-0.2454865
58	0x3ef925fb	0.4866179
59	0xbe822ccd	-0.25424805
60	0x3e858dae	0.26084656
61	0xbebac57a	-0.36478788
62	0xbf0ca7e9	-0.5494371
63	0xbe2af9a5	-0.16696794
64	0x3fb45296	1.4087703
65	0xc05ad1f3	-3.4190643
66	0x3dfb2844	0.122635394
67	0x3de55a94	0.11198917
68	0x3e37c96b	0.17947929
69	0xbe1d009e	-0.15332267
70	0xbd9bb7b5	-0.07603399
71	0xbe046004	-0.12927252
72	0x3c807c0b	0.015684148
73	0xbe8dc1c4	-0.27686894
74	0x3e7e4daa	0.24834314
75	0x3e90456e	0.2817797
76	0xbe481daa	-0.19542566
77	0x3dc77d24	0.097406656
78	0x3ce31ba4	0.027723141
79	0x3d335076	0.043777905
80	0xbe97bae2	-0.29634768
81	0xbd42f0d3	-0.04759295
82	0xbdd6706f	-0.10470664
83	0x3e9fb5c6	0.3119337
84	0xbeb6fb2f	-0.35738513
85	0xbe8da0fc	-0.27661884
86	0x3e86f932	0.26361996
87	0xbd99adcb	-0.075038515
88	0xbeb8d465	-0.36099544
89	0xbe213836	-0.15744099
90	0xbd03f558	-0.0322164
91	0xbe4fb81f	-0.2028508
92	0xbe305ae1	-0.17222168
93	0x3c92d230	0.01792249
94	0x3e2b6e58	0.16741312
95	0xbea8173e	-0.32830232
96	0x3e2a9d5b	0.16661589
97	0xbe53ee11	-0.20696284
98	0xbe766a73	-0.24064045
99	0xbeced419	-0.40396193
100	0x3e772596	0.24135432
101	0xbdb6b2c7	-0.08920818
102	0x3eb47b3e	0.35250276
103	0xbea5a978	-0.32355857
104	0xbec5a980	-0.3860588
105	0xbc992f38	-0.018699273
106	0x3deea12e	0.11651836
107	0x3e36ada2	0.17839673
108	0x3e3c885f	0.18411396
109	0x3c01fcce	0.0079338085
110	0x3e92beec	0.28661287
111	0xbe23322b	-0.15937106
112	0xbdc2328d	-0.09482298
113	0xbe077ae3	-0.13230471
114	0x3df62af7	0.12019914
115	0xbd237fd4	-0.03991683
116	0x3dcf0bb4	0.10109654
117	0x3c72f59a	0.014829064
118	0xbe3899ea	-0.18027464
119	0xbe0e90d7	-0.1392244
120	0xbe46c084	-0.19409376
121	0x3ebc25e8	0.3674767
122	0x3d74a914	0.059731558
123	0x3e636f12	0.22210339
124	0xbe028f7a	-0.12750044
125	0xbe9d02f2	-0.3066631
126	0xbdc94658	-0.0982787
127	0xbe24f2d4	-0.16108257
128	0x3e29212e	0.16516563
129	0x3d785712	0.06062991
130	0x3e0ceccb	0.13762204
131	0x3f9e8118	1.2383146
132	0x3dded753	0.108809136
133	0x3dddd48f	0.10831558
134	0x3e631ce4	0.2217899
135	0xbd5e9707	-0.05434325
136	0xbccc5449	-0.024942534
137	0xbe08e93b	-0.1337022
138	0x3e59f55c	0.21285003
139	0xbedb5e9f	-0.42845628
140	0x3ecb0ddf	0.3965902
141	0xbe9b4c03	-0.3033143
142	0xbe6da6d0	-0.23208165
143	0x3a41eaf3	0.0007397376
144	0x3d4bb7ba	0.049735762
145	0xbd8657d6	-0.06559722
146	0x3ee653ea	0.44985896
147	0xbbb8b06f	-0.005636267
148	0x3cfcd984	0.030865438
149	0x3d7944cb	0.06085662
150	0xbc2a2291	-0.010384218
151	0xbdd7abdf	-0.10530829
152	0x3d034087	0.03204396
153	0xbe0ba950	-0.13638806
154	0xbe644338	-0.22291267
155	0x3ed968c6	0.42462748
156	0x3d0c6067	0.034271624
157	0x3ed047da	0.40679818
158	0x3efd8a95	0.49519792
159	0xbde925f6	-0.113841936
160	0x3d32e2a1	0.04367316
161	0x3eb3dbfb	0.3512877
162	0x3e1b01ee	0.15137455
163	0x3d363afa	0.04448984
164	0xbe8847fd	-0.26617423
165	0xbd76fd72	-0.060300298
166	0x3eb6baae	0.356893
167	0x3e9450c3	0.28967866
168	0x3e3ec134	0.18628389
169	0x3e04ac66	0.1295639
170	0xbe9223c1	-0.28542903
171	0x3ef24be0	0.47323513
172	0xbe8ceacf	-0.27522895
173	0x3e8db128	0.27674222
174	0x3d4d23f5	0.05008312
175	0xbdf972c4	-0.12180093
176	0x3eabe8f6	0.33576173
177	0xbe0c2074	-0.13684255
178	0x3dc40416	0.09571092
179	0xbe5a0c3e	-0.21293733
180	0x3e51bfa3	0.2048326
181	0x3d8706b9	0.06593079
182	0x3eba9c9d	0.3644761
183	0xbd82e368	-0.063910306
184	0xbe5f15be	-0.21785638
185	0x3d01ef5c	0.03172241
186	0xbedf68ae	-0.43634552
187	0xbeb8a197	-0.36060783
188	0x3d05027f	0.032473084
189	0xbe79f48c	-0.24409693
190	0x3ee29c20	0.4425974
191	0x3daa6e2f	0.08321797
192	0x3eb02627	0.34404108
193	0xbe9ba028	-0.30395627
194	0xbeaf40c5	-0.34229103
195	0x3ccb6ff5	0.024833659
196	0x3f6293ee	0.8850697
197	0xbfc76043	-1.5576252
198	0xbdea0db5	-0.11428396
199	0xbcd67359	-0.026178049
200	0x3eb0234e	0.34401935
201	0x3e8bc3ec	0.27297914
202	0x3c1bc6a6	0.009507811
203	0x3e5c07fa	0.21487418
204	0x3e17d1d7	0.14826141
205	0xbc5bc89d	-0.013414529
206	0x3d028a69	0.03187028
207	0x3d965b26	0.07341604
208	0xbd88977d	-0.06669519
209	0x3c42964a	0.011876652
210	0xbe0c9def	-0.13732122
211	0x3e41161d	0.18856092
212	0xbd9b3281	-0.07577992
213	0x3d1b147a	0.037861325
214	0xbd934be6	-0.07192211
215	0x3e70735f	0.2348151
216	0x3da6aaa0	0.08138013
217	0xbeb5e30b	-0.35524783
218	0x3e93462f	0.28764483
219	0x3d914740	0.07093668
220	0xbddf39df	-0.1089971
221	0xbe364e97	-0.17803417
222	0x3d66af90	0.056319773
223	0x3e1f4283	0.15552716
224	0x3e98618c	0.29761922
225	0x3e4eb599	0.20186462
226	0xbe04176b	-0.12899558
227	0xbe1abbfc	-0.15110773
228	0xbce9b1de	-0.028527196
229	0xbdb34519	-0.08753414
230	0xbe6333d3	-0.22187738
231	0xbe741c72	-0.23838976
232	0x3eb25962	0.3483382
233	0x3e29fc76	0.16600212
234	0x3e98c445	0.29837242
235	0xbe127e1e	-0.14305922
236	0x3e5d0572	0.21584108
237	0x3d95d3ea	0.0731581
238	0xbe11440c	-0.14186114
239	0x3d8f662d	0.0700191
240	0xbd9cda34	-0.076588064
241	0xbdf90d8d	-0.12160788
242	0x3e965034	0.29358065
243	0xbe97c9f6	-0.2964627
244	0xbe47ba34	-0.19504625
245	0xbda216fd	-0.07914541
246	0xbe5bc79b	-0.21462862
247	0x3d13f97d	0.036126602
248	0x3ccc24e7	0.02491994
249	0xbde34f22	-0.11099078
250	0x3e798bd9	0.24369754
251	0x3dd1f084	0.10250953
252	0xbdfc1a15	-0.12309662
253	0x3d4c14be	0.04982447
254	0xbe74f6fa	-0.23922339
255	0xbeb69cf5	-0.35666624

dynamic_emb.0.bias f4 [256]
0	0xbefaf3a4	-0.49014008
1	0xbd80f6bb	-0.0629706
2	0xbe385f9f	-0.18005227
3	0xbd5d1f9c	-0.053985223
4	0x3d5cc663	0.053900134
5	0xbf5a99cd	-0.8539093
6	0xbd0704f5	-0.03296371
7	0xbf07b700	-0.5301361
8	0x3ca04b47	0.019567145
9	0xbd56d566	-0.052449606
10	0xbe7c60ac	-0.24646252
11	0xbd1e8e7f	-0.038710114
12	0xbeee08b3	-0.46491012
13	0xbd61bf30	-0.05511397
14	0xbe0139d1	-0.12619711
15	0xbd358659	-0.044317577
16	0xbdb2f527	-0.08738165
17	0xbdaf6eb1	-0.085660346
18	0x3d51ae78	0.051191777
19	0xbe869dbf	-0.26292226
20	0xbd900b4a	-0.07033403
21	0xbe8ec028	-0.2788098
22	0x3b1e75d6	0.0024179122
23	0xbd8abc8b	-0.06774243
24	0xbd1357e4	-0.03597249
25	0x3cab3c8c	0.020902894
26	0x3bc4aa7f	0.00600177
27	0xbee041a5	-0.43800083
28	0x3cc246af	0.023715345
29	0xbd675aa7	-0.056482937
30	0x3d78f5ea	0.060781397
31	0xbe4b41a8	-0.19849265
32	0xbe80e4e1	-0.2517462
33	0xbf2af657	-0.66782135
34	0xbce16028	-0.027511671
35	0xbec35fb8	-0.38158965
36	0xbea82a8d	-0.32844964
37	0xbd7612d3	-0.060076546
38	0xbdfc377b	-0.123152696
39	0xbe5730d6	-0.21014723
40	0xbfc85199	-1.5649902
41	0xbe1c7857	-0.15280281
42	0xbe466389	-0.19373907
43	0xbc64c30e	-0.01396252
44	0xbbd38f07	-0.006456259
45	0xbd030ecd	-0.031996537
46	0xbe50ee3e	-0.20403382
47	0xbf325f2d	-0.69676477
48	0xbdafcfe1	-0.08584572
49	0xbf205d3f	-0.6264228
50	0x3d104697	0.03522357
51	0xbca39eb5	-0.019973138
52	0xbedb7165	-0.4285995
53	0x3dbc6680	0.09199238
54	0xbedf52f5	-0.4361798
55	0xbddb566d	-0.10709844
56	0xbe84fcd2	-0.25974137
57	0xbd06949f	-0.03285658
58	0xbec347a4	-0.38140595
59	0x3d3e5fec	0.046478197
60	0xbce85a69	-0.028363423
61	0xbf6ea0a4	-0.9321387
62	0xbdf2cb3f	-0.11855172
63	0xbf457811	-0.7713633
64	0xbe6d37c3	-0.23165803
65	0x3d8c8deb	0.06863006
66	0x3c80ff76	0.015746813
67	0xbcaf8410	-0.021425277
68	0xbe830a5b	-0.25593838
69	0x3bb979e2	0.0056602815
70	0xbcd352a4	-0.025796242
71	0x3bb70d5e	0.0055863103
72	0xbdefea2b	-0.11714586
73	0xbd3ec957	-0.04657873
74	0xbede208c	-0.43384206
75	0xbf0e38c7	-0.55555385
76	0xbc5365de	-0.012902705
77	0xbed6b4ba	-0.41934758
78	0xbe9663a0	-0.29372883
79	0xbe45d5cd	-0.1931984
80	0xbcfb6155	-0.03068606
81	0xbf008f62	-0.50218785
82	0x3d5e55cf	0.054281052
83	0xbcdf21f9	-0.02723788
84	0x3ce573e8	0.02800937
85	0xbf24f2bf	-0.644329
86	0x3cfdb9b5	0.030972341
87	0xbc87c293	-0.016572272
88	0xbe688ced	-0.22710009
89	0xbdf09470	-0.11747062
90	0xbe99077f	-0.29888532
91	0xbc706110	-0.014671579
92	0xbcb410ee	-0.021980729
93	0xbe2033ed	-0.15644808
94	0xbe8efab8	-0.27925658
95	0xbda71f03	-0.08160212
96	0xbf9bdb41	-1.2176286
97	0xbdcc0c1b	-0.099632464
98	0xbcfd8b64	-0.030950256
99	0xbd01dd3b	-0.031705122
100	0x3beb58e3	0.007182227
101	0xbe49a09a	-0.19690171
102	0xbf72b10f	-0.9480142
103	0xbde7f1a8	-0.11325389
104	0xbe8dabd6	-0.27670163
105	0x3cb8f522	0.022577826
106	0xbe47b5b9	-0.19502915
107	0xbe19a9fd	-0.15006252
108	0xbd8bc13c	-0.06823966
109	0xbab53745	-0.0013825676
110	0xbe89becd	-0.26903382
111	0x3c4a9299	0.012364053
112	0xbd242307	-0.040072467
113	0xbf25193d	-0.64491636
114	0xbdf4202d	-0.119201995
115	0xbf75bc9a	-0.9599091
116	0xbf81a173	-1.0127395
117	0xbc6bbe79	-0.014388674
118	0xbea23061	-0.31677535
119	0xbddbed11	-0.10738576
120	0xbdce9411	-0.10086835
121	0xbdeaa735	-0.114576735
122	0xbdc5677c	-0.09638879
123	0xbeddcaeb	-0.43318877
124	0xbe60af07	-0.21941768
125	0xbb16a31c	-0.0022985404
126	0xbc766a40	-0.01503998
127	0xbdd6b0a7	-0.104829125
128	0x3d2dd823	0.042442452
129	0xbf486fd0	-0.7829561
130	0xbe226700	-0.15859604
131	0xbc918415	-0.017763177
132	0xbe763626	-0.24044093
133	0xbe9d343b	-0.3070391
134	0xbe82afe0	-0.25524807
135	0x3c07adc4	0.008281175
136	0x3d46dfc5	0.048553247
137	0xbbec81b5	-0.0072176107
138	0xbe479855	-0.19491704
139	0xbd79091a	-0.060799696
140	0xbe89528c	-0.2682079
141	0xbfb2f858	-1.3982038
142	0xbd1abc29	-0.0377771
143	0xbf6c9f27	-0.9243035
144	0xbc8cdae2	-0.017194215
145	0xbc644102	-0.013931515
146	0xbfa58f2f	-1.2934321
147	0x3b011c47	0.0019700693
148	0xbda523c9	-0.08063466
149	0xbcd55cbb	-0.026045194
150	0xbd20745e	-0.039173476
151	0xbd2e199a	-0.042504884
152	0xbe945c30	-0.28976583
153	0x3d52d476	0.05147215
154	0xbc2fa6a0	-0.010720879
155	0x3bb6d01d	0.0055790083
156	0xbca61e2e	-0.020278063
157	0xbbbb9f40	-0.005725771
158	0xbe751a1c	-0.23935741
159	0xbaca5a57	-0.00154383
160	0xbe18ce1b	-0.14922373
161	0xbb073190	-0.0020628907
162	0xbf072748	-0.52794313
163	0xbd9aca33	-0.07558098
164	0xbe3db9c8	-0.18527901
165	0x3a9de1af	0.0012045408
166	0xbf32cb50	-0.6984148
167	0xbe5e2b4f	-0.21696208
168	0xbe288ad5	-0.1645921
169	0xbc0008b0	-0.007814571
170	0xbec1699d	-0.3777589
171	0xbe05b92f	-0.13058923
172	0xbedf6ec7	-0.43639204
173	0xbe9da1b8	-0.30787444
174	0xbc444e9e	-0.011981634
175	0xbea64123	-0.3247157
176	0xbe908fb5	-0.2823464
177	0xbe91b782	-0.28460318
178	0xbff4fb84	-1.9139256
179	0xbd1fa498	-0.03897533
180	0xbd89ac5b	-0.06722327
181	0xbd4286ac	-0.047491714
182	0xbe935527	-0.28775904
183	0xbe08e9dc	-0.1337046
184	0xbe77007d	-0.2412128
185	0xbe28c72e	-0.16482231
186	0xbd7d0ce8	-0.061779886
187	0xbe252672	-0.16127947
188	0xbd56285b	-0.05228458
189	0xbdb3f984	-0.08787826
190	0xbdf773bd	-0.12082622
191	0xbd89c604	-0.067272216
192	0xbd0e2909	-0.034707103
193	0xbeafe2d1	-0.34352735
194	0xbd2ddf4e	-0.042449288
195	0xbcf6b7b6	-0.030116897
196	0x3c9bee46	0.019034516
197	0xbcc0ee6e	-0.023551192
198	0xbd269c9b	-0.040676694
199	0xbf236c10	-0.63836765
200	0xbbebfc6c	-0.007201722
201	0xbf985519	-1.190097
202	0xbf74e4a2	-0.95661366
203	0xbee39100	-0.44446564
204	0x3c08c292	0.00834717
205	0xbf126281	-0.57181555
206	0x3b2c018e	0.0026246044
207	0xbe331f35	-0.17492373
208	0xbe78004e	-0.24218866
209	0xbd0801c2	-0.0332048
210	0xbdf657e2	-0.12028481
211	0xbf9d1799	-1.2272826
212	0xbeb254a9	-0.34830216
213	0xbecfd3a7	-0.40591165
214	0xbcfabf6f	-0.03060886
215	0xbd840d6d	-0.06447873
216	0xbf01ab74	-0.5065224
217	0xbf1d1842	-0.6136514
218	0xbe0191fb	-0.12653343
219	0xbf22ae7e	-0.63547504
220	0xbf0d832d	-0.55278283
221	0xbf11169f	-0.5667514
222	0xbe8b0988	-0.2715571
223	0xbf9e0ea2	-1.2348216
224	0xbe247f0d	-0.16064091
225	0xbe0b8c2f	-0.13627695
226	0xbebd40d3	-0.3696352
227	0xbf84bbc6	-1.0369804
228	0xbe2b2961	-0.16715004
229	0xbf7fbb34	-0.99895024
230	0xbf9a9311	-1.2076131
231	0xbf3502bc	-0.707073
232	0xbe080cf9	-0.13286199
233	0x3d1b9182	0.037980564
234	0x3d4a8b57	0.04944929
235	0xbd3216cf	-0.043478783
236	0xbf204b87	-0.62615246
237	0xbc5796cd	-0.013158512
238	0xbd6c6754	-0.05771573
239	0xbe8b8c6e	-0.27255577
240	0xbd9550c5	-0.07290796
241	0xbcb85ade	-0.022504266
242	0x3cd2f5eb	0.025752028
243	0xbe4fe5bc	-0.2030248
244	0xbde470ac	-0.11154303
245	0xbf48411f	-0.78224367
246	0xbe25757f	-0.16158102
247	0xbdbaa76b	-0.09113964
248	0xbeb91956	-0.36152142
249	0xbe2838a2	-0.16427854
250	0xbd82ef61	-0.06393314
251	0xbe11ffd2	-0.14257744
252	0xbdfcfa3d	-0.12352417
253	0xbcd99880	-0.026561975
254	0xbe7970d6	-0.2435945
255	0xbd0ce4a4	-0.034397736
