output/CarlaNavigation-v0/gin/5/cost.pt (torch, 536535 bytes, 5 tensors)

net.0.weight f4 [256, 263]
00000000: ed98 6cbd 1960 d5bd 0c39 0e3d bf78 fabd
00000010: d40b d23d 95cf e13d a085 72bc 18cf dc3d
00000020: 9c8e 5abc 661f a7bd 1300 dc3d c06b af3c
00000030: 3189 c83c 7ebd cc3d 73b4 dbbd fa53 1bbe
00000040: e307 afbd 4971 0f3d a41b 82bb 784e e13d
00000050: e6bc bf3d 3f3a 83bd d945 66bd 7a1e 0ebe
00000060: ffce 143b 9fd8 a5bd 5cbe 113e fe2d 923c
00000070: c2c3 8438 753b b93d 1eee 15bd 5249 ed3d
00000080: fc05 11be db58 d5bd 2b1d 9d3d 65d0 0a3c
00000090: d772 6dbd d45a 11be c74a c43d f074 f3bd
000000a0: d5b1 c63d 7964 2e3d 3ded 663d 3e33 8dbc
000000b0: fa08 693c 6ce5 683c 2de2 a5bd a53b 273c
000000c0: 8919 9f3d 7e5f d93d 80e3 5bbc eab7 073e
000000d0: 4a89 99bd 3c06 7c3d 0dc7 b3bd 916f bcbc
000000e0: 536b c03c 1bde 1bbe a242 073d 7e56 863d
000000f0: eca7 23bc 9bd6 133e 665d fa3d 0849 143e
00000100: 03af 0fbe 1b34 3f3d 4496 b63d e3f7 b13d
00000110: e5f9 183d 479d 563d 80c2 b3bd 2ef7 4e3d
00000120: 7e14 c6bd 5910 e53d 8fc5 283d ca19 d33c
00000130: 97f0 f33c f952 32bc 05eb 03be d572 b83b
00000140: 57ad 153e fecd 01be 46d2 b83c ef95 b6bd
00000150: dc94 06be 3ac7 f23d 21ff 4d3d f481 0bbe
00000160: 88c9 bf3d 02ed d2bd 778c 4bbd 9b9a fa3d
00000170: 609d b23d 0dd5 7bbd bffe b8bd 119f ec3b
00000180: 9f17 6b3d d4f1 fdbb 242e dbbd b80f a03d
00000190: 4a82 c73d 7d27 1bbe 4f32 463d 2c9c d03d
000001a0: 37e9 0bbe bdcc a4bc 84f3 ea3d 04c4 06be
000001b0: a44f 82bd b849 29bc c672 91bd 0ef1 423d
000001c0: 80f2 fc3d 3aa9 e4bd 1e9e 4a3d 39ad afbd
000001d0: c3c6 1a3d e461 c6bd 214a e5bb ad98 03bd
000001e0: 82bf bfbd 6f77 203c 6ea1 c53d a329 c6bd
000001f0: 805c 71bd b8e1 08be 4789 103c 984e eabd
00000200: 95f8 073e 8664 d53d 17fb e33b d2a5 c8bd
00000210: 0087 973d ee4f ebbc e2e8 56bc bbe0 413d
00000220: 7b9c 2ebd 3a81 1bbd 4a39 38bd 93af 983d
00000230: 820d 083e 301f c5bd a42b bbbb 6105 f83d
00000240: beac f23d 17ac d3bd 616a 25bc 5abc 02be
00000250: 7c58 2fbd 9017 47bd 3c69 913d 78e1 0b3e
00000260: 0071 ca3d c60e ed3d a82b 163e 7adb f3bd
00000270: 64ae 17be d7b5 0a3d a9b9 0d3d 79ce efbd
00000280: d21c bf3d 0e3e 8dbd 8c8f 963d fa7b c23d
00000290: f356 99bd 8562 ea3d cb0c 02be c752 9cbd
000002a0: c984 c83d 97bd eabc d18f eb3d 02c4 98bc
000002b0: d9ac 0c3e 123a cc3d fee0 0abe 3a8b 063d
000002c0: 5cce 07be 9048 c83d bd0c a93d d065 89bb
000002d0: 54f8 b73b 2d35 063e 3771 89bc 3d42 c03d
000002e0: 7998 813d 0fcf f9bc a6f7 cb3c 4977 f5bb
000002f0: 5a4b fb3d fd76 c2bd 8ea5 76bd 141c 6fbc
00000300: b9f0 5bbd f797 09be 0203 eeba 5081 f93d
00000310: 4e06 243d 069b 163e 1880 c73d 24e8 dd3d
00000320: ad70 8e3d 7794 d23d d080 003e 662a 80bd
00000330: 9f9d ea3d f2bc b53d a381 e5bb d8b9 f33d
00000340: 2608 cc3d 7078 b3bd f71f 963d 1f02 5e3d
00000350: 2826 3e3c a07d f1bd 4c9c f3bd a0c5 223d
00000360: 9b18 17be 4ef7 a23d f303 d63d 91f0 0cbe
00000370: e900 d53c d9d1 8e3a 2d1c a83d 0abe 153d
00000380: e650 38bd 89b1 343d b0dd 16be d476 973d
00000390: 8a95 9cbd 0b86 143d 16e0 053d a7c8 f4bd
000003a0: 08d6 90bd beb4 083e 1748 b63d ba5e bcbd
000003b0: 5358 9bbd be4e 01be c973 05be 19f9 983d
000003c0: 52d4 9c3d 45e3 6dbd 9389 22bc 6a06 0dbd
000003d0: dc1f d8bd 6bf2 eebd 4da1 443d 4b56 42bd
000003e0: 68da 9dbc b7b1 0dbe f26f 043e c053 0a3e
000003f0: b889 a53c 5126 0f3e 0681 c0bd 74e9 47bd
-0.05776303 -0.1041872 0.034722373 -0.12230062 0.10256162 0.11025921 -0.0148023665 0.107816875
-0.013339665 -0.08160286 0.10742202 0.021413684 0.02447948 0.0999708 -0.10727777 -0.15168753
-0.08546426 0.035020147 -0.00397058 0.11001295 0.093622014 -0.06407594 -0.056218956 -0.13878813
0.0022706387 -0.08097958 0.14232773 0.017844196 6.330713e-05 0.09044544 -0.03660404 0.1158625
-0.14162439 -0.104173385 0.07671579 0.008472537 -0.057970848 -0.14194804 0.09584575 -0.118875384
0.097018875 0.042576287 0.05637859 -0.017236348 0.014223332 0.014214855 -0.0809978 0.010207091
0.07768542 0.10613917 -0.013420939 0.13253751 -0.07496889 0.061529383 -0.087782 -0.023002418
0.023488676 -0.15221445 0.03302253 0.06559466 -0.009988766 0.14437334 0.122248456 0.14480984
-0.14031605 0.04668055 0.0891538 0.08689859 0.037347693 0.052396085 -0.08777332 0.050528698
-0.09671877 0.11184759 0.04120403 0.025769133 0.029777808 -0.01088404 -0.12882622 0.0056289234
0.14616905 -0.12676236 0.022561204 -0.08915316 -0.13142723 0.11854406 0.050292138 -0.13623792
0.09364611 -0.10299112 -0.049694505 0.1223652 0.08721423 -0.061482478 -0.09032964 0.0072211106
0.057395574 -0.0077497754 -0.1070216 0.07815498 0.097416475 -0.15151782 0.04838782 0.101860374
-0.13663183 -0.020117158 0.11472228 -0.13160712 -0.063628465 -0.010332517 -0.071019694 0.04759317
0.12350941 -0.1116509 0.0494672 -0.085779615 0.03778721 -0.0968664 -0.0069973622 -0.032128025
-0.09362699 0.0097941 0.09649931 -0.0967591 -0.058926105 -0.13367355 0.008821792 -0.11440772
0.1327842 0.10419564 0.0069574225 -0.09797253 0.07398796 -0.028724637 -0.013117047 0.04733346
-0.0426297 -0.037965037 -0.04497651 0.07455363 0.13286403 -0.09625089 -0.0057119895 0.12110401
0.11849354 -0.10335558 -0.0100961635 -0.12767163 -0.042808995 -0.048606455 0.0710015 0.13660228
0.09884834 0.115750834 0.14665091 -0.11907096 -0.14812618 0.033864822 0.034600887 -0.117093034
0.09331669 -0.068966016 0.07351598 0.09496303 -0.07487287 0.11444572 -0.12700193 -0.07632976
0.09790952 -0.028654857 0.1150204 -0.018648151 0.13737811 0.099720135 -0.1356239 0.03284762
-0.13262314 0.09779465 0.08254383 -0.004193045 0.00561432 0.13106222 -0.016777618 0.09387634
0.0632791 -0.030494241 0.024898361 -0.0074910265 0.122702315 -0.094953515 -0.06021648 -0.014594097
-0.053696368 -0.13436876 -0.0018158855 0.121828675 0.040045075 0.14707574 0.09741229 0.10835293
0.06955085 0.10282224 0.12549138 -0.06258087 0.11455845 0.08873929 -0.0070039793 0.11900681
0.09962492 -0.08763206 0.073303156 0.05420124 0.011605777 -0.11791539 -0.11895046 0.03973925
-0.1475548 0.07957326 0.10449972 -0.13763644 0.02600141 0.001089628 0.08208499 0.03655819
-0.044999026 0.044114623 -0.14733005 0.073957115 -0.0764571 0.036260646 0.032684408 -0.11952334
-0.07072073 0.13350198 0.08900469 -0.09197755 -0.07585206 -0.12627694 -0.1303245 0.074693866
0.076576844 -0.05807807 -0.009920496 -0.034429945 -0.10552952 -0.11667331 0.04800539 -0.047445577
-0.019269183 -0.13837324 0.12933329 0.1350851 0.020207271 0.1397946 -0.09399609 -0.048806623

net.0.bias f4 [256]
00000000: 6bfb e9ba 0869 e73a 36c6 e8ba 2dd9 e93a
00000010: 0000 0000 0000 0000 5544 eaba 7bd1 e93a
00000020: 9fd5 c9ba 47ca e93a 0000 0000 0000 0000
00000030: efbd e93a a361 eaba 0000 0000 6abd e53a
00000040: 4c9b e73a 891a ea3a b3d4 e8ba 72af e93a
00000050: cfef e9ba ec21 eaba d7a5 e13a 2bef e63a
00000060: e9cc e93a 0000 0000 5005 e9ba 2b76 ea3a
00000070: d560 eaba 876b eaba b619 eaba 0000 0000
00000080: aa68 ea3a 5a7c e93a c71f e9ba 42f2 e83a
00000090: b6ed e93a d69e e9ba 3a08 ea3a b4ba cfba
000000a0: b628 eaba 6df0 c9ba a795 e73a 5c47 e73a
000000b0: 0000 0000 b3d8 e9ba 7753 e93a 8f4f eaba
000000c0: b970 ea3a 2d1b eaba bc14 e3ba 434b e93a
000000d0: 37de e93a 0000 0000 6eef e9ba 8865 e4ba
000000e0: 4d55 e73a 97ea e8ba 56fd e93a 2d7c eaba
000000f0: cbeb e93a 55ac d33a 7a79 e73a c8e5 e9ba
00000100: a992 e53a 596c ea3a 2891 d73a d70d e93a
00000110: b51f e9ba 8d54 e7ba 55d3 e93a 6d2f ea3a
00000120: 6d82 e9ba 906a eaba 631e ea3a 42ab e83a
00000130: 6e51 4aba 7c75 cdba 0fd6 e9ba 9253 e9ba
00000140: 117c eaba e090 d9ba 0000 0000 0000 0000
00000150: 2222 eaba 64a4 e6ba a889 e83a 0bda db3a
00000160: 6dee e93a 4814 e9ba 6623 e9ba cdad e9ba
00000170: a490 e73a 0000 0000 6bbc e9ba a263 ea3a
00000180: bd4f e7ba 0000 0000 e0f6 e93a 0020 eaba
00000190: 57fe e9ba 0b3c eaba 116e ea3a 4e6e e83a
000001a0: 8d43 eaba a879 e93a 0000 0000 0000 0000
000001b0: 6902 ea3a f96d eaba f0ab e9ba 746f e9ba
000001c0: 8ecb e9ba 76d0 cc3a caff e93a 0a33 e7ba
000001d0: a45d eaba 3c3e eaba 7e5b ea3a 0000 0000
000001e0: 325a eaba 9560 eaba 29b7 e9ba 2441 ea3a
000001f0: 2b56 e83a 4258 e83a ba99 e83a 98b1 e9ba
00000200: 9a55 e9ba c2ab e93a 7883 e43a cde3 e9ba
00000210: f0c3 e8ba aa6b ea3a 3d78 ea3a 0000 0000
00000220: 0000 0000 587d e9ba 81be e9ba 1e80 e9ba
00000230: e33f ea3a 243d ea3a c823 eaba 190d e9ba
00000240: 985e eaba 0000 0000 e144 ea3a 7f0a e8ba
00000250: f4af e63a 0000 0000 b71d e9ba d0f8 d33a
00000260: 49f1 e83a d402 ea3a 9413 e93a b210 eaba
00000270: 3d4c e1ba 0ed6 e23a 2e4b d73a 0000 0000
00000280: f659 ea3a 0240 e9ba e414 ea3a b233 e8ba
00000290: 99a2 e1ba 3d4e eaba 0736 e4ba aa39 ea3a
000002a0: 8b57 e93a 45a5 e73a 398e ea3a 007f e33a
000002b0: 771a eaba 9713 eaba 6924 e93a 0000 0000
000002c0: 6dcc e4ba 6fdb e83a 0000 0000 d8c3 e73a
000002d0: 0000 0000 afdc e73a 0000 0000 363e e9ba
000002e0: 1a0f ea3a aa38 eaba 0000 0000 eeb4 e9ba
000002f0: 0000 0000 f33f ea3a f114 e93a ff79 e93a
00000300: 1a2f e93a ffa3 e6ba 9b91 e8ba c988 eaba
00000310: 0000 0000 bb25 ea3a 0e52 e8ba ef60 eaba
00000320: 8e45 e93a 9615 e53a 39fd e7ba c04a eaba
00000330: df26 e93a 9d39 413a 0f2f e4ba cb69 eaba
00000340: 0000 0000 147e e9ba 1749 e93a ce5b e5ba
00000350: 2523 ea3a 4a9f e8ba 1ed8 e9ba 1c08 eaba
00000360: c11d e7ba 0000 0000 ab0d e73a e3a5 e93a
00000370: c672 e9ba 0f84 ea3a c062 e7ba 2610 e83a
00000380: f014 e8ba b960 e93a 0000 0000 ba71 d1ba
00000390: 0000 0000 744f e53a 3c4d ea3a ca91 ddba
000003a0: 3446 de3a b32d ea3a fb1b eaba 3dad e83a
000003b0: 1c54 e0ba 205a e9ba ff80 ea3a 3e10 e5ba
000003c0: 0000 0000 36d8 e9ba ae37 e2ba f96f eaba
000003d0: 0000 0000 f1e9 e9ba d15a ea3a 6087 e4ba
000003e0: 8114 ea3a 30c6 e93a 0000 0000 69cd e8ba
000003f0: 0000 0000 6305 eaba a838 eaba 8bb6 e9ba
-0.0017851418 0.0017655203 -0.0017759267 0.0017841213 0.0 0.0 -0.0017873148 0.0017838919
-0.0015398747 0.0017836773 0.0 0.0 0.0017833094 -0.0017881881 0.0 0.0017527763
0.0017670183 0.0017860691 -0.0017763585 0.0017828776 -0.0017847958 -0.0017862893 0.0017215562 0.0017618885
0.0017837557 0.0 -0.0017778073 0.0017888 -0.0017881641 -0.0017884829 -0.0017860446 0.0
0.0017883976 0.0017813549 -0.001778596 0.0017772394 0.0017847333 -0.0017823826 0.0017855235 -0.0015848489
-0.0017864916 -0.0015406735 0.0017668501 0.0017645168 0.0 -0.0017841071 0.0017801364 -0.0017876494
0.0017886377 -0.0017860882 -0.0017324905 0.0017798919 0.0017842714 0.0 -0.0017847845 -0.0017425278
0.0017649323 -0.0017770109 0.0017851989 -0.001788979 0.0017846761 0.0016149381 0.0017660104 -0.0017844969
0.0017515022 0.0017885073 0.0016446458 0.0017780614 -0.0017785939 -0.00176491 0.0017839471 0.0017866917
-0.0017815359 -0.0017884541 0.0017861839 0.0017751234 -0.00077178224 -0.0015675272 -0.0017840284 -0.0017801395
-0.0017889758 -0.0016598962 0.0 0.0 -0.0017862956 -0.00175966 0.001774122 0.0016773356
0.0017847546 -0.0017782534 -0.0017787039 -0.0017828286 0.0017667008 0.0 -0.0017832642 0.0017882476
-0.0017647665 0.0 0.0017850064 -0.001786232 -0.0017852288 -0.0017870677 0.0017885586 0.0017733069
-0.0017872915 0.0017812746 0.0 0.0 0.0017853501 -0.0017885558 -0.0017827731 -0.0017809705
-0.0017837153 0.0015626091 0.001785272 -0.0017639112 -0.001788069 -0.001787133 0.001788005 0.0
-0.0017879664 -0.0017881567 -0.0017831075 0.0017872197 0.0017725875 0.0017726498 0.0017746009 -0.0017829416
-0.0017802 0.0017827677 0.00174342 -0.0017844379 -0.0017758589 0.001788487 0.0017888617 0.0
0.0 -0.0017813845 -0.0017833264 -0.0017814671 0.0017871823 0.0017871005 -0.0017863447 -0.0017780393
-0.0017880974 0.0 0.0017873311 -0.0017703323 0.0017600046 0.0 -0.0017785345 0.0016172174
0.0017772104 0.0017853626 0.0017782324 -0.0017857759 -0.0017188858 0.0017306225 0.0016425604 0.0
0.0017879594 -0.0017795565 0.0017859009 -0.0017715602 -0.0017214596 -0.00178761 -0.0017411121 0.0017869968
0.0017802579 0.0017673156 0.0017895169 0.0017356575 -0.001786067 -0.0017858621 0.001778734 0.0
-0.0017455943 0.0017765592 0.0 0.0017682267 0.0 0.001768967 0.0 -0.001779503
0.0017857284 -0.001786967 0.0 -0.001783041 0.0 0.0017871842 0.001778273 0.0017812847
0.0017790527 -0.0017596482 -0.0017743589 -0.0017893548 0.0 0.0017864028 -0.001772465 -0.0017881672
0.0017797218 0.0017477747 -0.0017699368 -0.001787506 0.0017788074 0.0007370951 -0.0017409044 -0.0017884312
0.0 -0.0017814063 0.0017798272 -0.0017498673 0.0017863257 -0.0017747667 -0.0017840897 -0.00178552
-0.0017632769 0.0 0.0017627975 0.0017825927 -0.0017810694 0.001789214 -0.0017653331 0.0017705008
-0.0017706435 0.0017805315 0.0 -0.0015979328 0.0 0.0017494992 0.0017875801 -0.001690441
0.0016958178 0.0017866403 -0.0017861122 0.0017751824 -0.001711491 -0.0017803349 0.0017891227 -0.0017476154
0.0 -0.0017840925 -0.0017259025 -0.0017886154 0.0 -0.0017846209 0.0017879849 -0.0017435364
0.0017858894 0.0017835554 0.0 -0.0017761412 0.0 -0.0017854389 -0.0017869668 -0.0017830891

net.2.weight f4 [256, 256]
00000000: d5ab fc3b 3982 f63d fc7e 62bd f75c eb3b
00000010: 3f81 d53d 3f14 c1bd e27a 0abe 6a57 00be
00000020: 8b4d 073e 5f5c 933d 1914 673b f933 bb3d
00000030: 5ab2 febb b01e eabc 7a18 f13d 07f5 1a3c
00000040: 8368 ea3d 3a88 80bd 429a 873d 6b55 0abe
00000050: 90d7 a5bd f7c6 95bd e35d fd3d ec01 073e
00000060: 4db1 62bc 92fb adbc 94eb 6bbd 4f90 08be
00000070: 3e6c 433a 49ba d5bb 2ee5 403d a9b1 55bd
00000080: 9a26 b5bd 3db7 0b3e a9e4 063d 7acf b53d
00000090: 905d 013d 9586 11be f974 e13d 18a2 9ebc
000000a0: 7042 7f3d d777 f03c e1c4 f63d e5e1 7ebd
000000b0: 083b 34bd 9339 49bd 0c95 6f3d 4237 003e
000000c0: dc73 b6bd d575 04be cfe3 bf3d 082c 873b
000000d0: 0edb eabd 25f0 273d eaea a3bd f546 183e
000000e0: 3034 553d 36d6 d0bd 617d a13d df49 6a3d
000000f0: e3bc 583d 5f7e 99bc 0966 d9bd c99a 8fbd
00000100: 45f6 173e 62e0 b8bd f8a0 0a3e 61ed 2a3b
00000110: 25ad bcbd 0a18 9e3d baea 68bb 53de 1dbc
00000120: e963 de3d 8cf2 0c3e 6b80 8bbd 65f9 ef3d
00000130: 7a90 a23d 8381 b53d 0fba b0bb 5741 04be
00000140: b124 143e 86b4 6f3d 7ca1 083e 76fb 9fbd
00000150: ace9 e63d cf1f 9c3d c261 b0bc aef7 30bd
00000160: fc61 7e3d 262f 38bd da49 02be 53a3 173e
00000170: 45cc 413d 4001 ed3d f32f b3bd b9fa 0d3e
00000180: 0b0b 0c3e 26f5 563d d418 0e3e b884 183e
00000190: 0776 cabc 93b0 843a 0e3a c0bc 5b39 ea3d
000001a0: 5678 8fbd 933e 29b9 05bb 8f3d e5c9 333d
000001b0: 648a cfbd e071 84bc 0236 0c3e ad41 8e3d
000001c0: 83fe b63d c918 dc3c 3664 9bbc 2cc4 97bc
000001d0: e776 3abd d33e 163e ae70 033e ae5c 10bd
000001e0: 45f3 09bd f3d2 4eba 50ae 12be 786d 8e3c
000001f0: 1a09 db3d 51e3 98bc b31e 853d 1e96 d4bd
00000200: 74d5 01be 0ab4 3fbd d412 09be 42a7 02be
00000210: 8fc3 ccbd f200 f93a 5be8 b73d 10fb 8e3d
00000220: ef4c 393d 1874 a7bd 1c66 89bd 1b0b e2bd
00000230: 25c7 053e 9e84 c33d 493a a0bd 3167 a6bc
00000240: 70bf d2bd a162 023e 1815 b93a 2883 1bbd
00000250: 8c56 c3bd cb75 e9bd 846d bd3d ff82 8ebd
00000260: 9553 dfbd 21f0 b33d 294b e0bd e40d a4bd
00000270: 8a88 09be 69e1 08bd 3bbc e4bd 99fb bebd
00000280: 0697 1c3e 7fe9 083e 15c7 b5bd 2fa6 0cbd
00000290: c694 0cbe 7b68 f13d af3e e83d 1053 07be
000002a0: 3707 023e 3eba ebbb 2b80 a0bd 1f1b a6bd
000002b0: ece9 52bd 6c1f fc3b 2e6b e93d 3687 41bd
000002c0: 96bf 583d 4247 1b3c fd6a ffbd ef4a ccbd
000002d0: 25c3 f53b 34f5 273c dc3d 17bd 56e1 dabd
000002e0: 4713 56bc f6a0 993c c546 5fbc 364a efbd
000002f0: c5f6 adbd 090f ad3d a374 a3bc 3eff d43d
00000300: 5252 84bd a1b7 e73d 6f22 753d e50d d4bd
00000310: b81c 38bd 32ac 123e 6e78 14bc 47ac 023e
00000320: 8d51 d0bd 5313 b7bd 3ec3 0abe 9428 acbc
00000330: d8ba 0e3e 7479 df3d 4d58 d4bd 9d2e 433b
00000340: 239e 9a3d eae6 983d 107c 90bc b106 1abe
00000350: ed3b 433c ea6c 17be 5a64 bd3d 3e7c 1c3e
00000360: 115a 8a3d e683 263d 7232 c8bd 6516 97bc
00000370: 47e1 d6bd 670a 43bc 07d7 0cbe 07f8 0b3e
00000380: 5e2f c1bd 0014 0c3e 54b4 4e3a 9c45 cdbd
00000390: 862b a2bd 7650 05be 87d4 bcbd 5114 f33d
000003a0: befa 643c 8255 b93c 2efc d3bd 5b20 a33c
000003b0: ce77 133d aaa2 6e3d 7421 ffbd 71ac 78bd
000003c0: cbe1 c23d ce54 96bd b0a6 c1bd 4faa 013d
000003d0: 802a d13c 94f5 7c3d 3ce1 86bc 1cc6 efbd
000003e0: 4401 afbc ba75 efbd e16d 4fbb 3880 653d
000003f0: cc01 40bd ce64 dd3d 2287 fb3d 4533 d3bc
0.0077109137 0.12036557 -0.055296883 0.007182713 0.10425042 -0.0942769 -0.13523439 -0.12533346
0.13213174 0.07195353 0.0035259782 0.09140772 -0.007772726 -0.028579086 0.11772247 0.009457833
0.11445715 -0.06275983 0.06621219 -0.13509147 -0.08097756 -0.0731334 0.12371423 0.13184327
-0.013836217 -0.021238122 -0.05759771 -0.133363 0.0007454789 -0.006522451 0.047093563 -0.052171383
-0.08845253 0.13644119 0.03293291 0.08877464 0.03158337 -0.14211495 0.11008639 -0.019364402
0.06231922 0.02935402 0.120492704 -0.06222715 -0.04400161 -0.049127173 0.05849175 0.12521079
-0.08908817 -0.12935574 0.09369623 0.004125122 -0.114675626 0.041000504 -0.08003791 0.14870818
0.052051723 -0.101971075 0.07885242 0.057199355 0.05291451 -0.018737016 -0.10615165 -0.07011945
0.14840038 -0.090271726 0.13537967 0.002608143 -0.09212712 0.07719429 -0.0035540299 -0.009635526
0.108589 0.137644 -0.06811603 0.1171749 0.07937713 0.08862593 -0.0053932737 -0.1291555
0.14467122 0.05852177 0.13342851 -0.07811634 0.11275038 0.076232545 -0.02153099 -0.043204956
0.062105164 -0.04496684 -0.12723485 0.14808397 0.047313947 0.11572504 -0.0874938 0.13865174
0.13676088 0.052479886 0.13876659 0.14894378 -0.024714483 0.0010123424 -0.023465183 0.11436721
-0.07005374 -0.00016140407 0.07018093 0.043893714 -0.10133818 -0.016167581 0.13692477 0.069461204
0.08935263 0.026867287 -0.018968683 -0.01852616 -0.04552355 0.14672403 0.12835953 -0.035244636
-0.033679266 -0.000788971 -0.14324307 0.017386183 0.10695095 -0.01866308 0.06499996 -0.10380195
-0.12679082 -0.046802558 -0.13386089 -0.12759116 -0.09998237 0.0018997474 0.08979865 0.0698148
0.045239385 -0.0817644 -0.06708929 -0.110372745 0.13064249 0.09546779 -0.07823617 -0.020312877
-0.1029042 0.12732936 0.0014120666 -0.037966877 -0.09537992 -0.1139942 0.09249404 -0.06958579
-0.10904614 0.08786035 -0.10951836 -0.08010462 -0.13430992 -0.033418093 -0.111687146 -0.09325332
0.15291986 0.13370322 -0.088758625 -0.034338173 -0.13728628 0.11787506 0.11340081 -0.1321528
0.12698065 -0.0071938327 -0.07836946 -0.08110642 -0.051492617 0.0076941755 0.11397396 -0.047248088
0.052917086 0.009477438 -0.12471578 -0.0997523 0.0075000697 0.010251332 -0.036924228 -0.10687511
-0.0130661195 0.01875351 -0.013627713 -0.116840765 -0.08494333 0.08450133 -0.019953078 0.10400246
-0.06461014 0.11314321 0.05984729 -0.10354213 -0.044949263 0.143235 -0.009061916 0.12761031
-0.101718046 -0.08939233 -0.13551041 -0.021015443 0.13938463 0.10911837 -0.103684045 0.0029782422
0.075496934 0.07465918 -0.017637283 -0.15041615 0.011916143 -0.14787641 0.09247656 0.1528177
0.0675546 0.040653132 -0.09775247 -0.018443296 -0.10492187 -0.011904336 -0.13753901 0.13668834
-0.09432863 0.13679504 0.00078851474 -0.100230426 -0.07918458 -0.13018975 -0.09220224 0.118691094
0.013975797 0.022623781 -0.10350834 0.01991289 0.036002927 0.058260597 -0.124575526 -0.060711328
0.09515723 -0.07340394 -0.09455621 0.03165656 0.02553296 0.06175764 -0.016464822 -0.11707708
-0.021362908 -0.116923764 -0.0031651186 0.056030482 -0.046876714 0.108102426 0.12281634 -0.025781283

net.2.bias f4 [256]
00000000: 8673 e13a 54bb e8ba 0000 0000 0000 0000
00000010: ee6f e73a 5d6e ea3a 48bc e93a 6253 ea3a
00000020: 4270 eaba 0000 0000 4a5d eaba b36b eaba
00000030: 0000 0000 557b eaba 0000 0000 0000 0000
00000040: 07d3 e9ba adfe e9ba e90b ea3a 60a7 e53a
00000050: 0000 0000 0000 0000 9c21 eaba 0000 0000
00000060: b04b ea3a 3f2a e93a 6538 ea3a 4369 e93a
00000070: 150f e8ba df76 e33a 0000 0000 0000 0000
00000080: 468c e9ba 125d ea3a 35c1 d53a bae4 e9ba
00000090: 49e3 e83a 5f43 ea3a 0000 0000 f063 ea3a
000000a0: ca73 d83a 1652 ea3a 0000 0000 0000 0000
000000b0: 0000 0000 adf7 e83a cd6f ea3a e953 ea3a
000000c0: 0000 0000 ed5b ea3a f3fe e93a 1095 e83a
000000d0: 9e35 eaba 8aca e93a 0000 0000 0000 0000
000000e0: 0000 0000 9c26 e8ba f5e1 e9ba f66a eaba
000000f0: 53ca e93a 5104 ea3a 4b7a eaba fd6a ea3a
00000100: 2c2c eaba 4e5b ea3a 0000 0000 0000 0000
00000110: 0b76 eaba 6e45 ea3a a28c e7ba f19e e9ba
00000120: 914a eaba bdab e9ba be79 e9ba 0000 0000
00000130: e261 ea3a 0000 0000 0f3f eaba 5f7b eaba
00000140: ec5f eaba c725 ea3a 1469 ea3a 0000 0000
00000150: a437 eaba 0000 0000 2a31 eaba 40be e93a
00000160: bfe6 e93a 5d2c eaba 2a5e eaba e36a e83a
00000170: 0000 0000 05fc e8ba 2ad8 e5ba ad4f e93a
00000180: 3f41 eaba 0000 0000 bcc3 e53a 0000 0000
00000190: 0000 0000 7383 e2ba 0000 0000 92e7 e93a
000001a0: b932 eaba 3612 ea3a 3eb1 e93a 85c0 e83a
000001b0: 0000 0000 0000 0000 0477 eaba 4fa8 e73a
000001c0: 8187 e8ba 34d2 e83a 5e7d e8ba 0000 0000
000001d0: 0000 0000 2c7c ea3a ef59 e9ba 4037 ea3a
000001e0: 4fb4 e93a 874e eaba 8f17 e93a 0932 ea3a
000001f0: 3813 ea3a 0000 0000 9ecd e93a f745 eaba
00000200: dee1 e7ba 86e5 e93a 146e ea3a 531f ea3a
00000210: 8512 eaba 5e69 e7ba 31a2 deba 8e32 ea3a
00000220: 8d34 ea3a 0000 0000 c86a e93a ab66 ea3a
00000230: 0000 0000 0000 0000 d570 e73a c367 ea3a
00000240: ab79 eaba c970 eaba 80d9 de3a 0000 0000
00000250: ff6a ea3a d03c e53a 0d13 ea3a 0000 0000
00000260: 67c9 e83a 822c eaba 7461 e93a 0f8e e7ba
00000270: 6543 ea3a 0000 0000 f58a ad3a 847b eaba
00000280: f9be e9ba eec3 e3ba 0000 0000 0000 0000
00000290: 0000 0000 3dd7 d7ba e4d6 d63a 412e e7ba
000002a0: 30d1 e93a 6655 e6ba fe69 ea3a 2d14 eaba
000002b0: 0000 0000 0000 0000 6eff e93a 355c e93a
000002c0: 0671 e83a 57cd e93a 0000 0000 397b ea3a
000002d0: 07d3 e43a ae45 eaba 45bc e9ba 0000 0000
000002e0: 5b0f eaba a868 e9ba 3030 e8ba e852 ea3a
000002f0: 091f eaba 5cd8 e83a 17af e7ba e43d ea3a
00000300: 5dfb e8ba 3d91 e6ba 5933 eaba a97e e83a
00000310: 0000 0000 0000 0000 0000 0000 0000 0000
00000320: 184b ea3a bc7a eaba 0000 0000 62af e9ba
00000330: a6fa e4ba 9288 e6ba 0000 0000 b809 e4ba
00000340: c2ee e9ba a45d ea3a 896f eaba 7243 ea3a
00000350: b6cf e43a 5340 e63a 0000 0000 e878 ea3a
00000360: 4450 e7ba 20eb e9ba 4ed1 e9ba 45ed e93a
00000370: f5b4 e5ba ee29 ea3a 0000 0000 0000 0000
00000380: 9e2f ea3a 0000 0000 bcb5 e9ba 8b01 dd3a
00000390: 0000 0000 9e28 db3a 0000 0000 0000 0000
000003a0: 3e77 eaba 0000 0000 c19d e93a 6425 eaba
000003b0: 0000 0000 0000 0000 aa1c e9ba 371f eaba
000003c0: c626 ea3a 5ba8 e9ba 0000 0000 a4e3 e8ba
000003d0: 6209 ea3a be6d eaba 6b62 e9ba 0000 0000
000003e0: 73fa e93a 5399 e8ba 38ac e7ba f6f5 e8ba
000003f0: f4e6 e93a ea6f ea3a f6d5 e93a 128b e9ba
0.0017200566 -0.0017756023 0.0 0.0 0.0017657259 0.0017885674 0.0017832601 0.0017877633
-0.0017886239 0.0 -0.0017880586 -0.001788488 0.0 -0.0017889539 0.0 0.0
-0.001783938 -0.0017852389 0.0017856333 0.0017521195 0.0 0.0 -0.00178628 0.0
0.001787534 0.001778908 0.001786959 0.001780786 -0.001770469 0.0017354152 0.0 0.0
-0.0017818294 0.001788052 0.001630819 -0.0017844655 0.0017767932 0.0017872861 0.0 0.0017882567
0.0016514 0.0017877247 0.0 0.0 0.0 0.0017774008 0.0017886102 0.001787779
0.0 0.0017880179 0.001785247 0.0017744619 -0.0017868762 0.0017836851 0.0 0.0
0.0 -0.0017711702 -0.001784383 -0.001788466 0.0017836787 0.001785407 -0.0017889229 0.0017884668
-0.0017865947 0.0017879994 0.0 0.0 -0.0017887963 0.0017873475 -0.0017665813 -0.0017823857
-0.0017875006 -0.0017827671 -0.0017812771 0.0 0.0017881955 0.0 -0.0017871576 -0.0017889551
-0.001788137 0.0017864042 0.0017884099 0.0 -0.0017869365 0.0 -0.0017867435 0.0017833188
0.0017845257 -0.0017866004 -0.0017880846 0.001773205 0.0 -0.0017775303 -0.0017535735 0.0017800234
-0.0017872228 0.0 0.0017529647 0.0 0.0 -0.0017281607 0.0 0.0017845503
-0.00178679 0.001785821 0.0017829312 0.0017757571 0.0 0.0 -0.0017888253 0.0017674061
-0.0017740579 0.0017762841 -0.0017737558 0.0 0.0 0.0017889789 -0.0017803292 0.0017869249
0.0017830225 -0.0017876186 0.001778351 0.0017867695 0.0017858511 0.0 0.0017837768 -0.0017873634
-0.0017691215 0.0017844893 0.0017885589 0.0017862119 -0.0017858302 -0.0017655303 -0.0016985593 0.001786785
0.0017868445 0.0 0.0017808313 0.0017883381 0.0 0.0 0.0017657528 0.0017883707
-0.0017889043 -0.0017886396 0.0017002076 0.0 0.001788467 0.0017489437 0.0017858461 0.0
0.0017760218 -0.0017866048 0.0017805533 -0.0017666238 0.0017872868 0.0 0.0013240265 -0.0017889594
-0.0017833404 -0.0017377117 0.0 0.0 0.0 -0.0016467344 0.0016390947 -0.0017637686
0.0017838832 -0.0017573058 0.0017884371 -0.0017858796 0.0 0.0 0.0017852613 0.0017803969
0.0017733879 0.0017837685 0.0 0.0017889506 0.001745791 -0.0017873549 -0.0017832598 0.0
-0.001785736 -0.0017807679 -0.0017714556 0.0017877491 -0.0017862032 0.0017764675 -0.0017676082 0.0017871228
-0.0017775107 -0.0017590892 -0.0017868086 0.0017737943 0.0 0.0 0.0 0.0
0.0017875163 -0.0017889361 0.0 -0.0017828757 -0.0017469719 -0.0017588309 0.0 -0.0017397916
-0.0017847645 0.001788069 -0.0017886023 0.0017872883 0.0017456922 0.0017566778 0.0 0.0017888816
-0.0017647822 -0.0017846562 -0.0017838867 0.0017847201 -0.0017525243 0.0017865279 0.0 0.0
0.0017866974 0.0 -0.001783065 0.0016861422 0.0 0.0016720479 0.0 0.0
-0.001788832 0.0 0.0017823504 -0.0017863926 0.0 0.0 -0.0017785032 -0.0017862086
0.0017864339 -0.0017826663 0.0 -0.0017768038 0.001785558 -0.0017885489 -0.001780582 0.0
0.0017851129 -0.001774589 -0.0017675227 -0.0017773497 0.0017845319 0.0017886136 0.0017840255 -0.0017817935

net.4.weight f4 [1, 256]
00000000: 2069 cabc 3ec1 0c3d dd25 b03d 0092 373c
00000010: 7aab 93bc 709e f6bd a8f5 9abd 1f2a b0bd
00000020: 267a f63d fc4d 7c3b d169 bd3d e7cf e53d
00000030: a471 efbd 5951 153e 6721 13be fcef fbbc
00000040: 90f0 0b3e fdf3 e13d 3547 69bd 58e5 fcbb
00000050: 58e3 c33d eb7e 973d 4c3c 593d 2e5d 84bd
00000060: 0f7a d9bd 73a5 17bd 3db3 dfbd 9a07 80bd
00000070: ca18 1f3c 10db 20bd 44f8 0bbd 2819 dcbd
00000080: c33b cc3c 95ce ecbd 49b3 17bc d616 373d
00000090: 4419 8bbd 2ee0 f5bd 8e9e 5a3c 367e d5bd
000000a0: af0f 2cbc 31c9 adbd 9b35 cfbd 74b2 863d
000000b0: d72b c23d 6e39 05be fd06 fcbd e9cd 19be
000000c0: be9d a7bd 8534 1ebe b111 d6bd 058b 44bd
000000d0: 54eb 7d3d cf55 0abe f5fa 13be 9325 c6bd
000000e0: 2e6f 213c a41d ea3c d2cf 133d 6a6c e33d
000000f0: 32cc a5bd ff98 41bd 516c 123e 6fd4 eabd
00000100: 73ef 883d a352 debd 51ae ac3d e5d0 90bd
00000110: ed9d 073e 4823 06be fd61 473c 9049 913d
00000120: 71fe b23d c6d6 e63c b1ee 113e 6b00 1b3e
00000130: 059d f0bd 984d e4bb 8cd7 893d c46f 153e
00000140: baa5 d13d 01b7 cfbd 6cfc 09be 21cd 9b3d
00000150: 61e9 183e 18b6 d9bd 17ff 103e 75f6 60bd
00000160: eef3 babd 3b27 893d 7408 cd3d dc3f cabd
00000170: 166d a33d 858e 8b3d 2670 8f3b 76e2 3bbd
00000180: de15 f93d 7b30 6b3d 10c9 68bd 9298 86bd
00000190: 9389 183e 6e13 493c b6f4 95bd 0525 1ebe
000001a0: 55d7 123e 7d7d aabd af50 f9bd 5a1c 08bd
000001b0: 19ac e3bd e6a5 e33d e3ee 093e fdcc 62bc
000001c0: 812a 5a3d b5b2 f9bc f689 9e3d e35c efbd
000001d0: 219c aeba 8e68 1bbe 3a2b b33d da28 9dbd
000001e0: e5bc 3fbd 27c2 c23d 97e8 0ebe 804c 9dbd
000001f0: b3d2 97bd c05a 1bbe 4882 14bd a876 f43d
00000200: 2614 133c 3f37 25bd ad1c 0ebe ae95 02be
00000210: a3a1 843d ed38 513d dad6 7f3c 3316 83bd
00000220: d2db d8bd 8d05 913d 9000 c4bd 3146 ddbd
00000230: a2aa 0cbe a33f ba3d d34b 13be 7d80 07be
00000240: 8dbe 103e 156c 103e 1704 9fbc c325 b7bd
00000250: 1ace 0dbe 8fde 54bd 0a8c 03be cfdf 9c3d
00000260: 467c bfbd 7a4e 893d cf68 cdbc d6ab 8b3d
00000270: 71cf 96bd 0d4b a2bd 30ae 2ebb cade 153e
00000280: d030 193d 6e66 ef3c 23d3 9c3d a997 033e
00000290: d079 183e ee4f 113c 0510 39bc 3d80 de3b
000002a0: dbfe 34bd 35d1 663c 53c9 1abe b21e 713d
000002b0: 9bb1 f0bc d332 c03c 4144 a2bd 60c4 2bbd
000002c0: 845d ccbd ae56 14bd 2dae 04bd f4a7 18be
000002d0: 6c6f a2bd b3d0 f33d 649e 933d 970f f7bd
000002e0: f4c0 3f3d 53f0 703d 9a9f b03d b211 eabd
000002f0: a040 553d 5a15 23bd add9 543c 0d15 a6bd
00000300: 9b39 833c 5434 893c e622 793d cfd8 22bd
00000310: 21b0 0abb e290 f13d d446 c9bd b7d1 d4bd
00000320: 6a03 a2bd 8498 133e 35ae 3bbd 685a 543d
00000330: eab3 9f3d 6485 223d 7530 653d cd1e 2e3b
00000340: a019 1e3d 068d c5bd 64b8 f33d 938d d9bd
00000350: a444 5ebc 9769 9bbc 09be f33d 3a63 12be
00000360: 42ad 4a3d 6e11 1b3d 1f97 e23d 29ec b6bd
00000370: 5fb9 053d c6cb 75bd c1ce 96bc 8573 f8bd
00000380: 7ddd 88bd 2201 e3bd e1ea 593d b251 aabc
00000390: 2cdc 4c3d ff8d 74bc e921 293d ca4a e4bd
000003a0: 6387 0a3e 87e0 003e 1e95 f7bc 6556 5f3d
000003b0: d018 e13d 280d 92bd a5e1 0d3e 668a 553d
000003c0: c010 a0bd 09ed 4c3d 966a cebd fae2 833d
000003d0: 37c1 abbd b3b9 093e 2d29 163d 5e62 8b3c
000003e0: d0e4 cebd 7320 b53c 8220 643d 8bac c23c
000003f0: d1aa 1dbe e18b fcbd f982 11be 4cfd 383d
-0.02470833 0.034363978 0.08600972 0.011204243 -0.018026102 -0.12041938 -0.075663865 -0.08601784
0.12035017 0.003849863 0.092486985 0.11221295 -0.11691597 0.14581813 -0.1436821 -0.030754082
0.13665986 0.11032865 -0.056952674 -0.0077177696 0.09564847 0.073972546 0.05303602 -0.06463085
-0.10618984 -0.03702302 -0.10922859 -0.0625145 0.0097105 -0.039271414 -0.03417231 -0.10746986
0.02493084 -0.1156284 -0.0092590535 0.044699512 -0.067919284 -0.120056495 0.013343466 -0.104244635
-0.010501786 -0.0848564 -0.10117646 0.06577006 0.09481018 -0.13010189 -0.123060204 -0.15019955
-0.08184384 -0.15449722 -0.10452593 -0.04798414 0.061992005 -0.13509296 -0.14451201 -0.096751355
0.009853167 0.028578587 0.036086865 0.11104663 -0.08095588 -0.04726505 0.14299132 -0.114663
0.06686296 -0.108556055 0.08431686 -0.070710935 0.13243838 -0.13099396 0.012169358 0.07094109
0.08739937 0.028178584 0.1425121 0.15136878 -0.11748699 -0.0069672577 0.067305654 0.14593416
0.10236688 -0.10142327 -0.13475198 0.076074846 0.14932777 -0.10630435 0.14159809 -0.05492254
-0.09128557 0.06696936 0.10011378 -0.098754615 0.07979791 0.06814293 0.004377383 -0.045870267
0.12162374 0.05741928 -0.056832373 -0.06572069 0.1489623 0.012272699 -0.073220655 -0.1544381
0.14339955 -0.08324716 -0.12173592 -0.033230163 -0.111168094 0.11115627 0.13470034 -0.013842818
0.05326319 -0.030480722 0.07741158 -0.116876386 -0.0013321677 -0.15176603 0.08748479 -0.076738074
-0.046811003 0.09509688 -0.13955913 -0.07680607 -0.074132346 -0.15171337 -0.03625706 0.119366944
0.008976972 -0.04033589 -0.13878126 -0.12752411 0.06476142 0.05107968 0.015615189 -0.064007185
-0.105888024 0.07081137 -0.0957042 -0.108044036 -0.13736966 0.09094169 -0.14384393 -0.13232608
0.1413519 0.1410373 -0.01941113 -0.08942749 -0.13848153 -0.05197006 -0.1284639 0.076598756
-0.09349875 0.06704421 -0.02507439 0.068198845 -0.07363785 -0.07924471 -0.0026654117 0.14635769
0.037400067 0.029223647 0.07657459 0.12850823 0.14890218 0.008869154 -0.011295323 0.0067901895
-0.04418836 0.014087965 -0.15115862 0.058867164 -0.029381564 0.023461735 -0.07923175 -0.041935325
-0.09978774 -0.036215477 -0.03239267 -0.14907819 -0.07931408 0.119050406 0.07207945 -0.120635204
0.046814874 0.05882294 0.086241916 -0.11429156 0.052063584 -0.039815284 0.012991351 -0.08109484
0.01601868 0.016748585 0.060824297 -0.039757546 -0.002116211 0.11795212 -0.098279625 -0.103915624
-0.079108074 0.14413649 -0.045820434 0.05184403 0.07797988 0.039677992 0.055954415 0.0026568652
0.038598657 -0.09646039 0.11900404 -0.10622706 -0.01356617 -0.018971248 0.11901481 -0.14295664
0.049481638 0.03785842 0.1106398 -0.08931763 0.032647487 -0.060008787 -0.018409135 -0.121314086
-0.066828705 -0.110842004 0.053202514 -0.020790908 0.05001466 -0.014926433 0.041292105 -0.111470774
0.13528208 0.1258565 -0.030222472 0.05452575 0.10991061 -0.071314156 0.13855608 0.05213394
-0.07815695 0.05003074 -0.100789234 0.06439777 -0.08386462 0.13449745 0.036660362 0.017014679
-0.10102236 0.0221102 0.055695064 0.023763916 -0.15397193 -0.12331367 -0.14210118 0.045163438
