output/CarlaNavigation-v0/gin/5/cost_var_target.pt (torch, 536535 bytes, 5 tensors)

net.0.weight f4 [256, 263]
00000000: d0ec b7bc c14b 5cbb 8bd4 efbd 55e6 813b
00000010: 3e72 ae3c c6cd 22bd b99b 5a3d ac80 71bc
00000020: 1c69 fdbd 5fcc 2cbe 17e8 3a3d 3d6b 923d
00000030: 9419 073e ad69 123e 47c4 aebd dfe1 b73c
00000040: e5e9 09be 77a8 29be 98c6 b1bd ec9d 023e
00000050: 782d b1bd 7a33 e23c e41c 75bc 6409 72bd
00000060: 7225 dfbd b62b 11bb 8d58 0cbe 04f6 fbbd
00000070: e444 ffbd 1040 c03c dc21 8c3b fc73 033e
00000080: 9b4f e2bd b96a c5bd 8ec0 1cbe 77a1 3f3d
00000090: c615 97bd c62f 1bbd 3f45 29bd b2fe c0bd
000000a0: 9e1e 98bd 58b8 c33c 0760 adbc 7fb0 2dbd
000000b0: a3f3 7e3d 79b8 d03d 9d7a 913d f21c ef3d
000000c0: 5263 d0bd e6e9 a23d eb5f 6bbd 1723 adbd
000000d0: 1316 f93d 9635 ac3d bcd4 0fbe f259 d0bd
000000e0: 3cd4 f4bc fbc0 f23d 1688 98bd 9543 993d
000000f0: ec37 fabd 85ef 13bd ce7a 18be cc97 0f3d
00000100: 6485 073c b9c5 d33d 8d3d 843d 095e 573d
00000110: f7f8 bf3d 2569 933d 2d78 1a3d b262 dabc
00000120: 41d5 5c3d 3e09 1abe ae8e 293b 6862 c33c
00000130: e9f7 41bd 1e49 13be 061b ac3d 4f7b 333d
00000140: 0a5a e03d 38c3 b0bd 0464 8b3d 26bc 1abd
00000150: 6e65 1abd 2ab1 d2bd 66d8 273d e20c 673d
00000160: dd10 933d 11e2 d73d 1c85 093e 3866 cc3d
00000170: c52c 8fbd 631a ebbd a044 cc3d 3e65 13be
00000180: 3d8f 8cbc 6636 a93d 534a 69bd 4880 b1bd
00000190: 5697 a33d 3336 f03c 9e4e 103e aa2b e23d
000001a0: c036 3abc f888 c13d 8d24 1dbe 3040 34bd
000001b0: 0650 1fbd 9bab f4bd e42f 8f3d 30d6 34bc
000001c0: 7573 9dbd aede a43d dce3 f4bd 1071 3cbd
000001d0: e6f1 293d 02cc 50bb 14fb 70bd 22ed e43d
000001e0: 3366 e8bd 429c 59bd 25eb 0ebe 36f8 a33c
000001f0: 63ce 7f3d ee99 243d f816 3bbd dd1e 193d
00000200: 8032 423c 9617 18bd d6a1 9bbd 1a6d 5bbd
00000210: a490 023e be64 11be b4dc 803d 86a5 97bd
00000220: 76aa 18be 8659 13be fa47 e9bd 5ca8 803d
00000230: e411 fbbd 7524 0dbe 1d3a 89bd 5363 69bd
00000240: 6f65 b33d 1c16 0f3d c157 c1bc cc39 0e3d
00000250: a346 ed3d 03bf 67bd c59a 85bd 1d5e 83bd
00000260: 3424 8c3c 9ce5 fbbd a5e7 993d 6ec8 af3d
00000270: 0e75 1abe 5e1f 1bbe edc6 903c a3b4 e3bd
00000280: 6488 fabd 6fae abbd f5af 953d ea24 803d
00000290: e889 b2bd beaf 11bd f1e0 c6bd 1dd6 083e
000002a0: b23a 693c 205b c23b 589f c33d 3e25 263c
000002b0: ae0c 15be f370 fa3d e0cd cb3d 9468 7ebd
000002c0: aa37 803c eaaf e63d 5703 2bbd 8c5f f6bc
000002d0: 20fb b8bd f0af ca3d 5822 c33d 9f72 a3bd
000002e0: b898 ce3d 18fd c33d bde5 08be 7dbb 0ebe
000002f0: a337 63bd cc4a 073d c2cb e83c 1eb3 ab3c
00000300: 6b58 ff3d 0750 383d 0d69 03be 2090 ce3d
00000310: 00c5 4d3d 89f0 49be 49c6 4fba b118 de3c
00000320: 991b da3d ffe6 bf3c ba80 52bd 383b b6bd
00000330: 3c31 f2bc e601 9fbd 2538 97bd 14ef f2bd
00000340: 2b67 efbd 29a7 5c3d a5af 1a3d e3ba 63bd
00000350: 33a7 f23d b5b8 06bb e7de a83d 1b1e e4bd
00000360: 2fe2 b23d 3d1f 0ebe ff88 a5bd e6fe 12bd
00000370: dbb7 f33d 2d38 943d 5130 ccbd 6018 31bd
00000380: 848f 0a3e 4e1d 19be 85f8 1ebe 8741 b03d
00000390: c637 a23d 3dee 11be 6230 5fbc 3369 f43d
000003a0: afaa 353d 1ecc ab3d 65f2 123d e4b7 f0bd
000003b0: 5b66 723c 0a4d debd 26a1 ab3d 82f3 58bd
000003c0: b775 a6bd b5b3 8bbd 144d f4bd 8a83 57bd
000003d0: 9e45 1ebe 944b 073d d869 b5bd e303 753d
000003e0: e7bb b23d 1c15 8b3d a513 9b3d 144a 813c
000003f0: 6c2a 0f3e 8e32 a33d 6677 1abe 49bc c0bd
-0.022451788 -0.0033614489 -0.11710461 0.0039642253 0.02129471 -0.039747022 0.053371165 -0.01474015
-0.12373564 -0.16874836 0.045631494 0.0714936 0.13193351 0.14298125 -0.08533531 0.02244657
-0.1346813 -0.1656817 -0.08680457 0.12755555 -0.086512506 0.027612437 -0.014960501 -0.059090987
-0.10895814 -0.0022151298 -0.13705654 -0.12302783 -0.12464312 0.023468047 0.0042764973 0.12837213
-0.1105034 -0.09639496 -0.15307829 0.046784844 -0.073772 -0.037887357 -0.041325804 -0.09423579
-0.07427715 0.023891613 -0.021163953 -0.042404648 0.06224407 0.10191435 0.07103465 0.11675443
-0.10175194 0.07954769 -0.05746452 -0.084539585 0.121624134 0.08408658 -0.14045995 -0.10173406
-0.029886357 0.11853214 -0.07447831 0.074835934 -0.122176975 -0.036117096 -0.14890596 0.035056874
0.008271549 0.10340447 0.064570524 0.052579913 0.09373658 0.07197789 0.037712265 -0.02665839
0.053914312 -0.15042588 0.0025872397 0.023850635 -0.047355566 -0.1438336 0.08403592 0.043818768
0.109546736 -0.08630985 0.06806186 -0.03777709 -0.037694387 -0.102876976 0.040977858 0.05640877
0.07180951 0.105411656 0.13429683 0.09980434 -0.06990961 -0.11479642 0.09974027 -0.1439409
-0.017158145 0.08262329 -0.056955647 -0.08667046 0.079878494 0.02932272 0.1409249 0.110434845
-0.0113655925 0.09449953 -0.15345974 -0.044006526 -0.038894676 -0.11946794 0.06991556 -0.011037394
-0.07688037 0.08050285 -0.11957523 -0.046006262 0.041490458 -0.003185988 -0.058833197 0.11178042
-0.11347618 -0.053127535 -0.13956888 0.020015817 0.062452685 0.04018586 -0.0456762 0.03738295
0.01185286 -0.03713187 -0.07599227 -0.053570844 0.12750489 -0.14198586 0.06292096 -0.07404618
-0.14908776 -0.14389619 -0.113906816 0.06282112 -0.12259272 -0.13783439 -0.06700537 -0.05697949
0.08759581 0.034933195 -0.023601415 0.03472309 0.115857385 -0.056578647 -0.065236606 -0.06414435
0.017107107 -0.12299654 0.07514886 0.08583151 -0.15083715 -0.15148684 0.01767298 -0.11118438
-0.12233046 -0.0838288 0.07308952 0.06257041 -0.0871771 -0.03556799 -0.09710873 0.13362928
0.014235185 0.005931273 0.09551877 0.010140715 -0.14555618 0.122285746 0.09951377 -0.062111452
0.015651543 0.11264022 -0.041751232 -0.030074857 -0.09032273 0.09896839 0.09528035 -0.079808466
0.100877225 0.09569758 -0.13368888 -0.13938709 -0.05547298 0.033030316 0.028417472 0.020959433
0.12468036 0.044998195 -0.12833042 0.100860834 0.050236702 -0.19720663 -0.000792597 0.027111383
0.10649795 0.023425577 -0.051392294 -0.08898014 -0.029564492 -0.07764034 -0.073837556 -0.11862007
-0.116895996 0.053870354 0.037765164 -0.05559815 0.11848297 -0.0020556871 0.0824564 -0.11138555
0.08734547 -0.13879104 -0.080827706 -0.03588762 0.11900302 0.07237277 -0.09970153 -0.043236136
0.1353131 -0.14952585 -0.1552449 0.08606248 0.07920794 -0.14251037 -0.013622375 0.11934128
0.04435223 0.08388542 0.035875697 -0.11753824 0.014794911 -0.10854538 0.08380346 -0.052966602
-0.08127921 -0.06821386 -0.11928764 -0.05261568 -0.15456244 0.03303106 -0.08858079 0.05981816
0.08727246 0.06791136 0.07572106 0.015782394 0.13981026 0.07968627 -0.1508461 -0.094109125

net.0.bias f4 [256]
00000000: 4024 bbbc dce3 8dbc 75c0 e23d dbc5 f6bd
00000010: 45e5 83be 1d4c 9fbd 4b73 593e 8cfe 013d
00000020: e6ff 6d3e da85 5a3e 4cd8 7ebe 14eb fb3d
00000030: e547 bf3c 7278 e6bd 7228 52be 2e58 97be
00000040: 57a1 563e fbc3 653e e07c 33be b652 973d
00000050: bb07 e2bd ab47 243e f8ad 3fbe 50b2 753e
00000060: 7f62 3abe e3e8 6cbe dca3 133e c472 9b3e
00000070: 169b 99be f464 7c3d 1d39 1e3e e036 e9bc
00000080: 737f 92be 642e 70be 7545 94bd 1e95 97be
00000090: ccd6 f8bd 7eea 963e cca0 70bd 2cd9 8ebb
000000a0: 7e14 15be f6a8 12bc 6c6f 77bd 6f5b a4bc
000000b0: 7c6b a13d bf01 aebc d800 3a3e 81d5 ae3c
000000c0: 3da5 00bd 428f d7bd be29 1f3e 6cb2 093e
000000d0: b762 25bd 5be8 edbd 8864 3fbd a5a3 1c3e
000000e0: ad20 81be f5a4 02bd b0dd b93c e20d 9fbd
000000f0: 2be4 363e 5735 abbd 4237 553d 2567 8bbe
00000100: 6463 7cbe 4b5c 4ebd 5f71 163e 86d0 94be
00000110: ce4a a03c 9a15 1c3e 3f85 263e 0225 57be
00000120: 350f 833d 7ae3 793e d978 823d 8965 dc3c
00000130: fe61 1fbe 3eac 183e 6ec5 193e 1e0f a53d
00000140: 18c1 343e e99f 693d 9e5c 16be cd04 5dbe
00000150: 4f68 323e 6ac8 463e 4315 2b3e 3f71 2abe
00000160: c5f4 0fbe ab91 813e 251d 8fbe 6b11 163e
00000170: 3182 423e 5208 393e 69f9 c7bd c590 8fbd
00000180: 8438 c53c 67df 2a3d 6b84 67be a89c 833e
00000190: f8d7 38be c6cf 99bd 9b1a 6fbe ae34 1fbc
000001a0: 6e37 91be 46ad df3b d206 55be 8470 603d
000001b0: 0627 11bd d13d d03d 1011 333e ccb5 0a3c
000001c0: 1c18 fe3d 858f 8abe ea80 d93d 4285 09be
000001d0: 29b3 41bc b42c 7cbe 1664 9ebe 1eae 17be
000001e0: e024 7a3e 5623 95be a591 86be c333 80be
000001f0: f5dd 85be 1ccb f53d 89a6 4a3e 6ed6 9cbe
00000200: ac1f 7dbe a98e 543e 22d7 d7bc b77a b03c
00000210: da2c 54bd a428 f23d 3886 b63c 62b8 d9bd
00000220: 3a2a 563e 75b3 8abe 0edd 91be 1e11 22bd
00000230: 58c2 b9bd 34fa 313d d575 81bb e0b2 43be
00000240: 1e12 8c3d 48d9 373e 4f16 afbd 802e cb3d
00000250: 1864 083d 6b3e e23a 5ea8 19bd f17b 42be
00000260: c519 8e3d 6e39 19be 1c83 05be 3ac6 1b3e
00000270: 3e13 e13d 7db4 0b3e f622 203d a7c2 343d
00000280: d9be ddbd 08a7 433e 6fe8 0a3e c1ac f8bc
00000290: 69fe 42be 6094 423e d089 3bbe e533 86be
000002a0: 2578 043e 3588 4e3d 0daf 88be b61f 93be
000002b0: 4281 d13d 5545 073e f944 93be 5035 c7bc
000002c0: 260f a23c 9a92 5bbe 65f7 8dbe 3fa4 2ebe
000002d0: 0e38 c1bd c483 74be 1475 7ebe 2bb6 7f3d
000002e0: 30bd b43d 6398 6fbc a25a fa3d 2c56 76be
000002f0: 4ea1 9cbd 90b9 32be 7b5a 593e 3c78 253e
00000300: 24d5 813b 9ec0 5a3c 73b4 663e d759 503d
00000310: e0ec b1bd 8530 85bd 22c3 523e edb1 073e
00000320: 2ea6 153e 79a2 43bd 4901 5bba 782e 4ebd
00000330: 3ee8 12bd cf47 2dbe ed81 5d3e 7cf3 f4bc
00000340: 26c7 6b3e b6cc 213e 1a52 d3bd 83de e83d
00000350: 2195 49bd c576 0b3e 28bd b7bc 1a78 55be
00000360: 3b76 1d3c 53a2 6bbd b692 9dbe b5e5 0b3e
00000370: ce69 bcbd 49fc 503e 0430 03bd 0f64 babc
00000380: 1e42 10be bda6 86be 2c30 743d 8465 78bc
00000390: 0391 953d 9441 853d 9808 57be 90af bcbd
000003a0: 4ea1 1cbd c33d 6fbe 0569 063e 8075 3bbd
000003b0: 2482 fabc 5688 19bd 686b b5bb 47b3 b5bb
000003c0: a638 19bd dffc a63d c968 293e 6c38 473d
000003d0: 46c7 af3d e417 e73c 53c9 cc3c 9224 1d3e
000003e0: 845a 813e 2313 67be 6ba8 613b 2c96 7cbe
000003f0: 9341 f83c 20d4 32be 1576 82be 75de 873d
-0.022844434 -0.017320566 0.110718645 -0.12049457 -0.25760856 -0.07778189 0.21235387 0.031736895
0.23242149 0.21340123 -0.24887198 0.12300697 0.023349712 -0.11253442 -0.20523241 -0.29559463
0.20959984 0.22438042 -0.17528105 0.07388823 -0.11036631 0.16042964 -0.18718708 0.23993802
-0.18201636 -0.23135714 0.14417976 0.30360997 -0.30001134 0.061619714 0.15451474 -0.02846855
-0.2861286 -0.23455197 -0.072398104 -0.29605955 -0.12150344 0.29475778 -0.058747098 -0.004359385
-0.14558598 -0.008951416 -0.060408995 -0.02006313 0.07881829 -0.021241067 0.18164384 0.021342041
-0.031407584 -0.10525371 0.15543267 0.13446969 -0.040377345 -0.11616584 -0.046726733 0.152968
-0.25220242 -0.031895597 0.022688717 -0.0776632 0.17860477 -0.08359783 0.05205465 -0.2722713
-0.2464729 -0.050380986 0.14691685 -0.2906534 0.01956692 0.15242615 0.16261767 -0.21010211
0.06399385 0.24403182 0.06370706 0.026903884 -0.15564725 0.14909455 0.1501672 0.08059524
0.17651784 0.057037268 -0.14683768 -0.21583863 0.17422603 0.1941239 0.1670733 -0.16644762
-0.14058216 0.25306448 -0.27951923 0.14655082 0.18994977 0.1806958 -0.09764368 -0.070100345
0.0240748 0.04171696 -0.22609107 0.25705457 -0.18051136 -0.07510333 -0.23349993 -0.00971715
-0.28362602 0.0068260757 -0.20803383 0.054794803 -0.035437606 0.101680405 0.17486978 0.008466195
0.12406942 -0.27062622 0.106202915 -0.1342974 -0.0118225 -0.24626428 -0.30935735 -0.14812514
0.24428129 -0.29128522 -0.26282993 -0.2503949 -0.26145902 0.12001631 0.1979009 -0.30632347
-0.24719113 0.20757546 -0.0263477 0.02154289 -0.051800586 0.11824158 0.022280797 -0.10630871
0.20914546 -0.2709004 -0.28488964 -0.039567105 -0.09070271 0.043451503 -0.0039508143 -0.19111204
0.06839393 0.1795398 -0.08549177 0.099209785 0.03329858 0.0017261034 -0.037514083 -0.18992592
0.06938509 -0.14963314 -0.13038296 0.15212336 0.10989998 0.1364307 0.03909584 0.044130947
-0.10827417 0.19106686 0.13565229 -0.030355813 -0.19042362 0.19001913 -0.1831429 -0.26211467
0.12936457 0.050422866 -0.26696053 -0.2873513 0.10229732 0.13210042 -0.2876356 -0.024317414
0.019782614 -0.21442643 -0.2772781 -0.17054842 -0.0943452 -0.2387839 -0.2484935 0.06242959
0.08825147 -0.014623734 0.12224318 -0.2405631 -0.07647954 -0.17453599 0.21225922 0.16159147
0.003962176 0.013351588 0.22529773 0.050866928 -0.086877584 -0.06503395 0.2058225 0.13251467
0.14614174 -0.047762368 -0.00083543785 -0.050337285 -0.035866015 -0.16921924 0.21631594 -0.029901259
0.23025188 0.15800747 -0.10318394 0.11370566 -0.049214486 0.13619526 -0.022429064 -0.20846596
0.009610708 -0.05752785 -0.30775994 0.13661845 -0.09199868 0.20408739 -0.032028213 -0.02275279
-0.14087722 -0.26299086 0.059616253 -0.015160922 0.073030494 0.06506649 -0.20999372 -0.092131734
-0.03823977 -0.23363404 0.13126 -0.045766354 -0.030579634 -0.037483536 -0.0055364855 -0.005545053
-0.03740754 0.081537 0.16543879 0.048637792 0.0858293 0.028209634 0.024998343 0.15345982
0.2526437 -0.22565894 0.003443266 -0.24666661 0.030304706 -0.17463732 -0.25480714 0.06634227

net.2.weight f4 [256, 256]
00000000: a3d4 e63d 36f7 1f3e 2832 b13d 61d3 48be
00000010: 0425 70bc 024c ddbd d295 523e b9e0 5bbd
00000020: 4315 e33d 622b 643e 311f df3d de1f 9dbe
00000030: a30b e2bd 9d57 9b3d a4ea f3bd 7785 b33d
00000040: 0576 88be 8eaf 233e 76b8 05be 96e2 243e
00000050: a312 7e3e cafe 693d 8bd9 eabd 3fed a63d
00000060: 98d5 3bbd b879 4f3e f1ec 44bb 876e b5bc
00000070: 4821 c53c ee2a 2a3e 3564 92be 8282 d6bc
00000080: f14b 4abd 668f 16be 3352 7c3d a507 04bd
00000090: 4a7c d3bd 5e94 143a 714a dd3d ec99 f2bd
000000a0: 5f40 a2bd c725 a53d 8383 f33d b8d6 4c3e
000000b0: a739 b63e b180 d5bd 5e7f a43e dd5e 06be
000000c0: 4e21 a93c ae1b 9f3d 8fa8 393d 88d7 b0be
000000d0: 51b8 463e ef60 3a3d e3c4 723e 0304 e9bd
000000e0: 61e5 de3d 12cb 5fbd 023d 533e ab3c f4bd
000000f0: a800 4c3d c4cd 09bd b273 6c3e 9f49 aeba
00000100: 13fe 63bd ae4a acbd 7522 1e3c 5411 ffbd
00000110: 2d4e 08bd d37a e3be 44f4 743d f6e9 9cbd
00000120: 0834 c53d 9e3d 17bd 5e44 99be 64d2 8f3d
00000130: a58e 133d f582 903b 905b 31bd 97d5 bb3e
00000140: 6513 81bd fe50 a6bd 2d14 81bc 4a8f d43d
00000150: 2fca 363d 1f5b a9bc 91fc 44bc 53ac fa3c
00000160: 3ab9 53be a172 d5bd 27c8 b13d 2bac 703d
00000170: fcae 8e3e 4893 323a 34ce f8bc 9633 243e
00000180: 1113 543e d818 4f3e 3f15 313c 7fcf acbe
00000190: 0302 e1bc 0f8a 23bf 341e 0d3e 3660 9bbc
000001a0: 842a 863d 8dd3 843e fcc6 71bd dd62 16be
000001b0: 2724 2b3e 4a05 eb3c e826 cf3e 145a f6bd
000001c0: 3a0d 5fbd bd31 0dbe ce99 173e de35 2a3d
000001d0: aa7d e53d 16a0 14bd 85a6 02bd c417 863e
000001e0: cfc1 a13d 0b86 61be 2152 d03d 6f51 aebd
000001f0: 3ee3 97bd 0db5 07be 9885 c03c a016 c33d
00000200: eaeb dcbd 2bd3 76be 7af7 523e cb67 e53d
00000210: 0b0d f13d 9218 6a3d 5aef d7bd f46d 07be
00000220: 830d 763e 9437 023e ec37 7abd 262b ae3e
00000230: 6eba a93e cc7d 8bbd 60e9 bc3e cd21 123e
00000240: 7482 8e3e e8e7 4c3e cb85 f9bd f17c c6bb
00000250: 8053 49bc 2da7 0ebe caaa 5ebb 4ed5 243e
00000260: d6b8 13be a0cf b9bd aed6 9d3c 7bac ebbb
00000270: f880 babd b43d 0e3d cedd 2d3c 4c3d 03bd
00000280: d7c3 26be 90c1 b9bd fdd7 03be fc9d 95bd
00000290: ef95 2dbe 9c8a 063e 482d 433e 086d 483e
000002a0: 0cbd 8e3d 0829 b2bd beb2 9dbd 1947 40bd
000002b0: 1b2d ee3d 45bb 0a3c 2df7 09be e26b d33d
000002c0: 1d35 8e3e c9c5 cdbd d1c8 563c ad02 9f3d
000002d0: 168c a83d 0a50 51be 8302 63be cc76 883e
000002e0: 1bb1 f13d bdc5 853e bdc7 8dbd d0d7 c73d
000002f0: f0db cb3d babc e13d d6b7 a83d 7c8e 70be
00000300: ed6c 06be 6dd6 1c3b 3c34 7ebd 55ba 80bd
00000310: 303a cebd 7ac4 e73b 9953 c0be ca4f d0bd
00000320: 6d59 83be c587 043f 3760 b43d 0038 bfbd
00000330: e50c 19be 666b 9cbe fbb7 67be fa86 523d
00000340: 2567 0b3e 7dbf 9ebe 57f4 39bc 016b 43bd
00000350: 1f78 003e 7243 5a3e 35c1 0f3e fe4a 273e
00000360: dc56 7fbc bbbd febc 4ac7 ec3c 9ae3 dabb
00000370: 13c8 6cbd 3ac6 eebb c1e3 cbbc e4f5 87bd
00000380: 1d31 173e 2c21 833d 1a26 6b3e 8660 af3d
00000390: be68 a13c 9ab3 e23b f131 5f3d ed53 1f3e
000003a0: 24b8 713d d5f2 01be 696d 56be 3f86 33bd
000003b0: 8bc3 f6bc 4178 df3d 3db8 81bd db5b fa3d
000003c0: 1134 c23e b082 c43d 458f 89bc eef1 a6bd
000003d0: 9ead ae3d 8e28 2d3e ca26 5b3d 0d0a 97bc
000003e0: 8d63 86bd be83 a93d 18bb 4e3e 8448 813d
000003f0: 72a7 5abd 4c20 73bd 76af ac3d e6a2 99bc
0.11271026 0.15621647 0.08652145 -0.19611885 -0.014657263 -0.10805513 0.20564964 -0.05368111
0.1108804 0.22282174 0.10894621 -0.30688375 -0.11037376 0.0758507 -0.119099885 0.08765691
-0.26652542 0.15984938 -0.13058648 0.1610206 0.24811797 0.05712775 -0.11467274 0.0815072
-0.045857996 0.20261276 -0.0030048455 -0.02214743 0.024063721 0.16617939 -0.28592077 -0.026185278
-0.04938883 -0.1470314 0.06160183 -0.032233853 -0.10326441 0.00056678604 0.10805214 -0.118457645
-0.07922434 0.08063846 0.11890318 0.20003784 0.3559086 -0.104249366 0.32128423 -0.13122125
0.020645764 0.07768951 0.045326766 -0.34539437 0.19406249 0.0455026 0.23707919 -0.11377718
0.10883594 -0.054637022 0.20628741 -0.11925634 0.049805313 -0.0336435 0.2309101 -0.0013297087
-0.055662226 -0.084126815 0.00965177 -0.12454477 -0.03327768 -0.44429645 0.059803262 -0.07661812
0.09629065 -0.036923997 -0.29934973 0.07022551 0.03602471 0.0044101425 -0.04330021 0.36686394
-0.06302527 -0.08120917 -0.01575669 0.10378893 0.04462641 -0.020673333 -0.012023107 0.030599749
-0.20676127 -0.10422254 0.08680754 0.058757942 0.27867877 0.0006812108 -0.030371763 0.16035303
0.20710398 0.20224321 0.010808288 -0.33752057 -0.02746678 -0.63882536 0.13781053 -0.018966775
0.06551078 0.2594265 -0.059027657 -0.14686151 0.1671301 0.028689045 0.4045937 -0.120289
-0.054455973 -0.13788505 0.14804766 0.041555278 0.11205609 -0.036285482 -0.031897087 0.26190007
0.07898294 -0.2202379 0.10171915 -0.08511626 -0.0741639 -0.13252659 0.023501202 0.095258
-0.107871845 -0.24103992 0.20602217 0.112014376 0.11770066 0.05715234 -0.105436996 -0.13225538
0.24028592 0.12716514 -0.061088488 0.34017295 0.33150047 -0.06811103 0.368968 0.14270706
0.27833903 0.2001034 -0.12183722 -0.0060573746 -0.012287974 -0.1393096 -0.003397631 0.16096994
-0.14425978 -0.090728045 0.019267406 -0.007192192 -0.0910663 0.034726813 0.010611964 -0.03204088
-0.16285644 -0.09070122 -0.12875362 -0.07305524 -0.16951726 0.13138813 0.19060242 0.19572842
0.069696516 -0.08699232 -0.07700108 -0.046942804 0.11629697 0.0084675 -0.13473196 0.103233114
0.27774897 -0.1004749 0.013109402 0.07764182 0.08229844 -0.20440689 -0.22168927 0.26653135
0.11801358 0.26127425 -0.06922863 0.0975796 0.09954059 0.11022325 0.08238189 -0.23491853
-0.1312749 0.0023931519 -0.062061533 -0.0628554 -0.10069692 0.0070729824 -0.3756378 -0.101714686
-0.25654164 0.5176967 0.08807414 -0.09336853 -0.14946325 -0.30550689 -0.22628777 0.051398255
0.13613565 -0.3100547 -0.011349759 -0.04770947 0.12545823 0.21314791 0.14038546 0.16337201
-0.015584674 -0.03109633 0.028903622 -0.0066799643 -0.057807993 -0.007286814 -0.024888875 -0.06638697
0.14764829 0.064028114 0.22963753 0.08563332 0.019703265 0.006918383 0.054490987 0.15559359
0.0590135 -0.1269029 -0.20940174 -0.0438292 -0.030122539 0.109116085 -0.06333969 0.12224551
0.3793035 0.09595239 -0.016791949 -0.08151613 0.085292086 0.16910002 0.05350379 -0.01843741
-0.065619566 0.08277081 0.20188558 0.063126594 -0.053382345 -0.059356973 0.08431904 -0.018754434

net.2.bias f4 [256]
00000000: 91e6 503d 0627 11bc cdb3 82be fb93 893e
00000010: cfd4 563e 08f7 31bd 2632 5d3e 9bba dd3d
00000020: d2b8 e13b 9290 dfbd 69ad dcbc 7e7a 77bd
00000030: bf32 aabd 5f28 263e d382 6abe 6852 b5bd
00000040: c8ac 34be bbfe ba3d dabc 55be 9bfe 62be
00000050: 75ef 00bd e580 0e3e 3cd3 eebd bff2 23be
00000060: 5fc6 7b3e dc8d fabd 061b 93bd 56c8 1fbd
00000070: 90bb 3a3e 343e f7bc a97c 483c f319 d4bd
00000080: c26c e3bc 20aa 393e 2ad2 59be eb2c e7bc
00000090: 7f0c 27be 8aa7 513e 8cc4 7abe 3f0e 2ebd
000000a0: 8406 73be 8271 5dbe 5a33 553e 4a44 e4bd
000000b0: 88c8 3f3e 81d8 503c da96 d3bd 3268 d7bd
000000c0: 27c0 2abe 0874 b23c ab59 6bbe 458f 89bc
000000d0: 9c8a 863c fa9c 5f3e a25f d4bd 016e cfbd
000000e0: 826d e63c ee9d 1bbd 56b5 1ebe ea4d 553e
000000f0: 493f ff3c 2260 563e 9cc6 fcbb 044c 76bd
00000100: 377c a73b ab65 69be 4dd8 973c bad1 6a3b
00000110: b6e9 1b3e 93db 6fbc 1f0b 2ebd 0c87 febd
00000120: e35f 6e3e 5ab5 50bd 754f 0abe 4795 21bb
00000130: e2fd 5cbe 60b5 343e 05eb 81be fc06 783e
00000140: 3c7c 8b3d 8851 3ebe 81f7 adbd f32d 683e
00000150: 530a 633e c17f 5f3e dc14 71bc b74b adbb
00000160: 3db3 06bd 6162 463e e356 633e 6f99 3bbc
00000170: 4ce5 00bd 19e4 c3bc 66f8 aa3c 49c6 cf3a
00000180: 1935 43be d6f9 85bd 0252 a6bd 54b5 853c
00000190: 3d2f 83bd 1429 7abe c39c 743c ca77 5a3e
000001a0: 56d9 183e df97 22bd d515 11bc 5044 b8bc
000001b0: 223c 5c3d d53e 06bd 8b34 603e 9a1a 563e
000001c0: 651b 083c 50b9 cabc a1b0 a4bd 5f46 21bd
000001d0: e8b5 5b3e 139a fc3b 5871 6e3e 2096 b4bc
000001e0: 499f 493c 790d 473e 291f 49bd 9538 06bd
000001f0: 3e6e 1ebe 30b6 6ebd 0b35 fbbb 3de0 a3bd
00000200: 17b2 763e d7bd a7bd 67eb 28be 0ddc 0dbd
00000210: 93ae eabb da83 523e 38a0 3a3e a1d1 41bc
00000220: 27f0 22be 2eae 11be c5a6 83be fefc 1a3e
00000230: eba1 e0bd 7c08 353c 664f 103e 8282 6f3a
00000240: fc0c 77be 4464 f3bd 9b57 04be 5869 33be
00000250: d01d 6e3e b0b1 b8bd d84b 3a3e 1554 10bd
00000260: 049e 793e 31f1 5f3e acd1 093b fbfd 6cbe
00000270: 513c 4a3d a005 31bd 502c 3cbd da35 653e
00000280: d5db 09bd 486c 503e 3978 49be 4d44 863e
00000290: fbfa 60be 1368 63be 1dab 0bbe b235 55bc
000002a0: 00df 38be 1a98 583e 862d ab3c a0f9 b23a
000002b0: ca1c 683e c37b edbd b732 ad3d 0381 693e
000002c0: cead 1c3e 4342 e83d d5f9 583e d032 3d3e
000002d0: c48c ffbc 06e6 5d3e 42c4 0ebe 0b2d f43c
000002e0: bf97 2ebe 6383 66bd 2a75 5c3e 5708 263e
000002f0: b2d7 533e 18ce 363e dd3f 87bd b3a9 633e
00000300: 9ac4 5b3e 1e1d 92bc de3c ad3c 1a07 d3bc
00000310: 06f8 1cbe feb7 19be 3764 2bbe e500 82bc
00000320: 05f1 803e b780 20be 6964 4b3e 7adb 1bbb
00000330: a2e1 6fbd 765c a53b 4e30 1a3e e272 6fbd
00000340: 78a6 3abd 2f7a 22be ed7b 6b3e 6b56 77bd
00000350: 0783 a33d 67de 6dbe 7462 443e 9a40 5c3e
00000360: 46ac 19be 19a8 4d3e 644a 7c3e ebde 73bc
00000370: 5316 61be 5a10 5fbe 100a b0bd 4519 0cbc
00000380: 2984 4d3e 20c6 c5ba 807f 31be 83ab 64be
00000390: 530a 633e c2fb 4c3c 7a38 5d3e b511 0dbd
000003a0: 5bf2 63bd 9c4b 843a 128c 5d3e da20 333e
000003b0: 1722 29bd c43f 773e e46e f8bc 0cc2 5e3e
000003c0: 10ae 363e 8b82 6cbe 1006 39bc 8343 6d3e
000003d0: 5c92 8c3c a614 1fbe 9b3c 613c c879 b0bd
000003e0: 8711 83bd 21c6 453e b6db 15be f932 473e
000003f0: 1850 323c 1089 b8bb d141 473e eab1 6ebc
0.051001135 -0.008859402 -0.25527802 0.26870713 0.20979618 -0.043448478 0.21601161 0.10826608
0.0068884874 -0.109162465 -0.026938157 -0.060419552 -0.0831046 0.16226338 -0.22901468 -0.08853608
-0.17644036 0.09130617 -0.20872822 -0.22167437 -0.031478364 0.13916357 -0.116613835 -0.16010569
0.24587391 -0.12234089 -0.07182889 -0.039009415 0.18235612 -0.030181028 0.012236753 -0.10356512
-0.02776182 0.18131304 -0.21271577 -0.02821966 -0.1631336 0.20474067 -0.24489039 -0.042494055
-0.23732954 -0.21625331 0.2082037 -0.111458376 0.1872884 0.012746931 -0.10331507 -0.105179206
-0.16674863 0.021783844 -0.22983424 -0.016791949 0.016423516 0.21837226 -0.10369803 -0.101284035
0.02812839 -0.03799241 -0.15498862 0.20830503 0.031158106 0.2093511 -0.007714106 -0.060131088
0.005111243 -0.2279269 0.018535757 0.0035830573 0.15225872 -0.014639753 -0.042491075 -0.12428102
0.23278765 -0.0509542 -0.13506873 -0.0024655627 -0.21581224 0.17647314 -0.25374618 0.24221414
0.06810805 -0.18585789 -0.08494473 0.22673778 0.22171907 0.21826078 -0.014714446 -0.005288567
-0.03288578 0.19373466 0.22201113 -0.011450156 -0.031468675 -0.023912476 0.020870399 0.001585194
-0.19063224 -0.06541793 -0.081211105 0.016321816 -0.06405494 -0.24429733 0.014929953 0.21334758
0.14926657 -0.039695617 -0.008855303 -0.022493511 0.053768285 -0.032774765 0.21895044 0.20908585
0.008307313 -0.024746567 -0.08041502 -0.03937375 0.2145611 0.0077087968 0.23285425 -0.022044241
0.012306043 0.19438733 -0.049101982 -0.032768805 -0.15471742 -0.058279216 -0.0076662353 -0.080017544
0.24091373 -0.08190506 -0.16496049 -0.034633685 -0.007161924 0.2055811 0.18225181 -0.011829765
-0.15911923 -0.142266 -0.25713173 0.15135571 -0.109683834 0.011049386 0.14092788 0.00091365736
-0.24126047 -0.118843585 -0.12924044 -0.17520654 0.2325356 -0.09018266 0.18192995 -0.035236437
0.24376684 0.21869351 0.0021029515 -0.23143761 0.04937393 -0.043218255 -0.045940697 0.22383824
-0.033656914 0.20353806 -0.19674768 0.26223984 -0.21970741 -0.2220767 -0.13639493 -0.01301329
-0.18053818 0.21151772 0.02089573 0.0013654716 0.22667232 -0.11595871 0.08456939 0.2280312
0.15300676 0.113407634 0.21189053 0.18476415 -0.031195052 0.21669778 -0.13942054 0.029806634
-0.17050074 -0.056277644 0.2152907 0.16214119 0.2068775 0.17852056 -0.06603978 0.22232704
0.21461716 -0.01783615 0.021147188 -0.025760222 -0.15328988 -0.15011594 -0.16737448 -0.015869567
0.25183883 -0.15674101 0.19862522 -0.0023781941 -0.05856479 0.0050464226 0.1505749 -0.05845917
-0.045568913 -0.15866922 0.22996493 -0.06038515 0.07983976 -0.23229371 0.19178182 0.21509019
-0.15007123 0.20083655 0.24637753 -0.014884691 -0.21981172 -0.21783581 -0.08595669 -0.008550947
0.20069946 -0.0015088953 -0.17333794 -0.22331052 0.22171907 0.012511196 0.21603575 -0.034440715
-0.05565105 0.0010093334 0.21635464 0.17493 -0.041292276 0.24145418 -0.030326314 0.2175371
0.17839837 -0.23096673 -0.011292949 0.23170285 0.017159633 -0.1553522 0.01374736 -0.08616978
-0.063998275 0.19313861 -0.14634594 0.19453038 0.010883354 -0.0056315735 0.194587 -0.014568785

net.4.weight f4 [1, 256]
00000000: d7e7 39bf e1a6 5e3f d4ba 823f 52c4 67bf
00000010: 48c0 32bf ae6e 263e c52b 98bf f3f6 60bf
00000020: 3f0f 323f cb07 453f d5f2 81bf 45c4 153d
00000030: 9d19 9d3f d8e1 babf e380 753f 8f61 303f
00000040: 8c5e 8b3f 0cb5 debe 4456 863f 8572 933f
00000050: 7b6f f13e 0bb9 65bf 246a f83e 8f51 3b3f
00000060: aef3 7abf de4c 223f 35b0 163f 7eb0 2d3d
00000070: b7cc a4bf 95da 9dbd 428a 5c3a e181 c73e
00000080: 75d7 043d ae4b 97bf cc39 8e3f acb3 0ebc
00000090: 9c20 073f 266f 92bf cc83 8a3f 3651 2a3f
000000a0: 6090 4f3f e43a 893f e559 88bf e099 c73e
000000b0: d0ad b5bf 3d2e 183f 0d31 1d3f e7aa 393f
000000c0: ee34 a03f 3330 f1bd fc0b 8c3f 8957 56bd
000000d0: d490 f0bd 3934 ccbf 16bf 2c3f 17e2 3b3f
000000e0: e177 d1bc ae42 a53d 2415 083f 3aa3 5fbf
000000f0: f078 99be 02ae 55bf a0b9 c53d 521f 6c3d
00000100: d928 c43e 6cf0 873f 0d41 92bd 57c7 b4bd
00000110: b683 93bf 3ae4 e9bd a395 fd3e a5b3 113f
00000120: 6325 65bf 40a6 cf3e 7d97 143f 442a 05be
00000130: 75da 903f 7a67 51bf 228f 633f febe 9cbf
00000140: 9730 b1be 7d40 963f 72b7 ea3e 2f05 a9bf
00000150: 981a 3dbf a494 4fbf 1109 de3d 923b e03e
00000160: 26e0 2d3f cb69 6dbf a6b4 95bf 4edf 1abc
00000170: 8f5a 2dbf 0e3c 973c a41b 89bd b982 41bf
00000180: 14ed 833f a69e d43e ebd4 d93e b8c1 c3bc
00000190: 5121 5b3d 0957 543f 15ae 1abd d7a3 a3bf
000001a0: aab3 5cbf cbde 7f3d dd5f 8a3e ebe4 723d
000001b0: 556a 85be ef4d 393f 9f20 a0bf 9153 c3bf
000001c0: 41f4 c2bc a929 413b b6fd b13e 91d4 533b
000001d0: 181e 41bf 2d2b 92bc fa7f 54bf c189 5a3d
000001e0: bfc2 2bbf b2a7 5bbf 367b a33d 025c eb3d
000001f0: 552a 983f b492 d13e 168d b63d f104 3f3f
00000200: d4d0 4ebf 4d09 943f c658 293f 2688 2b3e
00000210: 2c02 84bb 777b a4bf 0cb1 77bf 9be3 733f
00000220: 2556 123f 765b 213f 7cd3 8a3f f267 56bf
00000230: 5219 ed3e cfaa 00bf d4b6 72bf 9d31 19be
00000240: b0f2 423f 9cef 8a3f 0d84 dd3e dc32 853f
00000250: 3640 7bbf b4b4 8f3f dee6 99bf c0aa c83d
00000260: c5db 8fbf 73ad a9bf 130f f6bc acf5 833f
00000270: 9894 31be fe05 a6bb 01a9 da3e d7aa 2abf
00000280: bbb4 f33c 1c51 3ebf fc3c 883f f6fc 9dbf
00000290: 648c 8a3f 841f 8c3f 05a7 9d3f 4373 7d3d
000002a0: 8de9 913f 40f8 39bf b683 2c3f 9d3a 8b3d
000002b0: 4cb6 57bf 0a9c 6e3f 2c0c fabe 06d2 9abf
000002c0: 6da0 8cbf 765e 94bf 0ab1 46bf b561 88bf
000002d0: f73f 303d 64ad 36bf ada1 583f 6c87 0c3f
000002e0: 2e04 253f 186a cfbc c63a 95bf c343 6ebf
000002f0: f768 a5bf cd95 87bf 124b ec3e ed93 8cbf
00000300: 4454 7ebf 6479 09bd 745c 0cbd b17a d6ba
00000310: b559 1a3f 6fa9 303f 9e09 283f e11a d43c
00000320: 309f b9bf fc73 833f bda8 8ebf 3ef5 adbc
00000330: 150c ee3e 0b13 f03e bce1 78bf bbb6 62bf
00000340: 06f1 993b b084 4c3f 08f9 5ebf dc6a 843e
00000350: c3ca e4be 3479 5b3f ee02 a5bf e94d 59bf
00000360: eecd 2c3f dcfd 78bf 85e5 84bf 62cc 5ebf
00000370: e518 973f 4c2b 863f a82b 493f 0abb 6dbd
00000380: fdd0 80bf 2530 10bb 7cf0 813f d4c2 893f
00000390: ffa7 a4bf 0fc7 d1be 9df5 89bf 97eb 2f3d
000003a0: a6f0 2439 a233 6c3f ae05 92bf 19a0 8abf
000003b0: 9714 a53d b64b 94bf 20a1 473f 1478 3fbf
000003c0: 9e51 9cbf a4bd 873f 045e 8cba b1f2 c2bf
000003d0: 4e6c a93e 16c4 273f f773 38bd aea5 213f
000003e0: 3e9c f43e 2ba2 61bf 4cc8 093f cd89 89bf
000003f0: 2809 3cbd 7dd6 96bb 3755 a1bf 8b2f 65bf
-0.72619385 0.86973387 1.0213265 -0.90533936 -0.6982465 0.16253158 -1.1888357 -0.87876815
0.69554514 0.76965016 -1.0152231 0.03656413 1.2273442 -1.4600172 0.9589979 0.6889886
1.0888228 -0.43497503 1.0495076 1.1519324 0.47155365 -0.8973548 0.4851848 0.73171324
-0.98028076 0.6339854 0.5886262 0.042404644 -1.2874974 -0.07707707 0.0008412936 0.38966277
0.03243204 -1.1819971 1.1111388 -0.008709829 0.5278413 -1.144017 1.0821471 0.6653017
0.81079674 1.0721097 -1.0652434 0.38984585 -1.4193668 0.59445554 0.6140297 0.725264
1.2516153 -0.117767714 1.0941157 -0.052329574 -0.11746374 -1.5953437 0.67479074 0.7339186
-0.025569858 0.08069359 0.5315726 -0.8735844 -0.2997508 -0.8346864 0.09654546 0.057647057
0.38312414 1.0620246 -0.07141314 -0.088270836 -1.152457 -0.11420484 0.49528226 0.5691474
-0.8951017 0.40556526 0.5804365 -0.13004404 1.1316668 -0.8179852 0.8889028 -1.2245786
-0.34607384 1.173843 0.45843083 -1.3204707 -0.73868704 -0.8108618 0.10841573 0.4379545
0.6792015 -0.9273955 -1.1695755 -0.009452654 -0.67716306 0.018461253 -0.06694725 -0.7559009
1.0306726 0.4152729 0.42545256 -0.023896083 0.05349857 0.82945305 -0.037763674 -1.2784375
-0.86211646 0.06246833 0.27026263 0.059300344 -0.26057687 0.7238454 -1.2509955 -1.5259877
-0.02379811 0.0029474294 0.3476388 0.0032322744 -0.75436544 -0.017842853 -0.83007777 0.05335403
-0.67094034 -0.8580276 0.07982485 0.114921585 1.1887919 0.40932238 0.08913629 0.74616915
-0.80787396 1.1565338 0.6615108 0.16751155 -0.004028579 -1.2850178 -0.9675453 0.95269173
0.57162696 0.63030183 1.084579 -0.8375236 0.4630838 -0.50260633 -0.94810224 -0.14960332
0.7615156 1.0854373 0.4326481 1.0406146 -0.98144853 1.1227021 -1.202358 0.09798193
-1.1238943 -1.3256058 -0.030036485 1.0309348 -0.1734184 -0.0050666323 0.42707065 -0.6666693
0.029749265 -0.74342513 1.0643611 -1.2342823 1.0824094 1.0947118 1.2316595 0.0618775
1.1399399 -0.72644424 0.67388475 0.06798289 -0.8426254 0.93206847 -0.4883741 -1.2095344
-1.0986458 -1.1591327 -0.7761389 -1.0654818 0.04302975 -0.71358323 0.846217 0.5489414
0.644595 -0.025319144 -1.1658561 -0.93072146 -1.2922658 -1.059259 0.46151024 -1.0982643
-0.9934733 -0.033563033 -0.034267858 -0.0016363469 0.6029313 0.69008535 0.65639675 0.025891723
-1.4501705 1.0269771 -1.1145245 -0.021235105 0.46493593 0.4688953 -0.97219443 -0.88560075
0.0046979217 0.79889965 -0.8709874 0.25862777 -0.44685945 0.85731816 -1.2891519 -0.84884506
0.67501724 -0.9726236 -1.0382544 -0.87030613 1.1804472 1.0481963 0.7858224 -0.058039702
-1.0063778 -0.0022001353 1.0151515 1.0762582 -1.2863768 -0.40972182 -1.077808 0.042949285
0.00015729907 0.92266285 -1.1407983 -1.0830108 0.08060568 -1.1585605 0.7798023 -0.747926
-1.2212408 1.0604749 -0.0010709171 -1.5230314 0.33090442 0.6553358 -0.045032468 0.6314343
0.47775453 -0.88138074 0.53821254 -1.0745178 -0.04590717 -0.0046032057 -1.260413 -0.8952567
