output/CarlaNavigation-v0/gin/5/tp.pt (torch, 154595 bytes, 10 tensors)

decoder.lstm.weight_ih_l0 f4 [192, 2]
0	0x3e7f3d5a	0.24925748
1	0xbe1fc3b2	-0.15601996
2	0xbf18061d	-0.5938433
3	0x40b74502	5.727174
4	0xbcd2b5d3	-0.025721466
5	0x3e85192a	0.2599576
6	0x3e34beb1	0.17650868
7	0xbcefdbd0	-0.02927962
8	0x3fa21f75	1.266585
9	0x3d4b2fa6	0.049605988
10	0xbedf54a7	-0.43619272
11	0x3f85fab6	1.0467136
12	0x3ec06e4d	0.37584153
13	0x3ece8e29	0.40342835
14	0xbdb8b6fe	-0.09019278
15	0x3eabd207	0.33558676
16	0xbeb72f2a	-0.3577817
17	0x3eb065e0	0.34452724
18	0x3f2eb4b3	0.68244475
19	0x3f86af87	1.0522317
20	0xbea504b6	-0.32230157
21	0x3ec24786	0.37945193
22	0x3f22c631	0.63583666
23	0xbec75b38	-0.38936782
24	0xbf787686	-0.9705585
25	0xbf6426c6	-0.89121664
26	0xbe9bd837	-0.30438396
27	0x3f53f6d9	0.82798535
28	0x3fcd9d1b	1.606357
29	0x3ec05734	0.3756653
30	0x3f1899d1	0.59609705
31	0x3f103e9e	0.56345546
32	0x3ead639c	0.33865058
33	0xbe5c111c	-0.21490902
34	0xbf4d136f	-0.8010778
35	0xbf63fbda	-0.8905617
36	0xbece7319	-0.40322188
37	0xbde9a2f5	-0.11408035
38	0xbf375f97	-0.71630234
39	0x3e06f818	0.13180578
40	0x3eaaaf61	0.33336928
41	0xbf338348	-0.70122194
42	0xbe94bba2	-0.29049402
43	0xbe17d6a0	-0.14827967
44	0x3eafe5b1	0.34354928
45	0xbecc6910	-0.39923906
46	0xbf2a9323	-0.6663076
47	0xbfea77d0	-1.8317814
48	0xbf62c90b	-0.8858802
49	0x3f5e4dfe	0.86837757
50	0xbe19db5e	-0.15025088
51	0x3f1e6d48	0.618855
52	0x3f705644	0.9388163
53	0xbe1061df	-0.14099835
54	0x3f6c2969	0.92250687
55	0xbe8c9efd	-0.27465048
56	0x3f8921e8	1.0713472
57	0x3ff4f818	1.9138212
58	0xbf9b2f48	-1.2123804
59	0xbf3db6ff	-0.74107355
60	0xbc1eba85	-0.009688024
61	0x3fad3d3e	1.3534315
62	0xbe90d8e7	-0.28290483
63	0x3f12c10f	0.57325834
64	0x3e1e35e7	0.1545025
65	0x3d822208	0.06354147
66	0x3fce3fa8	1.6113176
67	0xbefcf224	-0.4940349
68	0xbe9e55e7	-0.30924913
69	0x3e4b252a	0.19838396
70	0x3f4d3a89	0.8016744
71	0xbb8f5788	-0.004374448
72	0xbea1125a	-0.31459314
73	0x3f2da3ac	0.6782787
74	0xbb8a35f4	-0.0042178575
75	0xbf25c7b5	-0.64757854
76	0x3d912c6a	0.070885494
77	0x3e7bfdd5	0.24608548
78	0xbf05a7d0	-0.52209187
79	0xbf8dbd77	-1.1073445
80	0x3ec8e23a	0.39235097
81	0xbdae4409	-0.085090704
82	0xbed4813f	-0.41504857
83	0x3f155f4f	0.58348554
84	0xbe8d9ce8	-0.27658772
85	0xbf74dde8	-0.956511
86	0xbed6c970	-0.4195056
87	0xbf436a09	-0.7633367
88	0x3e58fccc	0.21190184
89	0xbf170755	-0.5899556
90	0x3a9a3999	0.0011766433
91	0x3f4771fe	0.77908313
92	0xbd90483f	-0.0704503
93	0x3eb36a85	0.35042205
94	0xbdf77575	-0.1208295
95	0x3e3cc2aa	0.18433633
96	0x3c83bd6a	0.01608153
97	0x3e4101cf	0.18848346
98	0x3ee53d9a	0.4477356
99	0xbf466046	-0.7749065
100	0x3e43acf2	0.19108942
101	0xbeefaeec	-0.46813142
102	0x3de7ac37	0.11312144
103	0xbea38538	-0.31937575
104	0x3e93b20d	0.2884678
105	0x3f200fa7	0.62523884
106	0xbe54206b	-0.20715491
107	0x3f628097	0.8847746
108	0x3f6681f8	0.90042067
109	0x3f1ea3e5	0.61968833
110	0x3e3192a5	0.17341097
111	0x3e8e99a7	0.27851602
112	0xbf812665	-1.0089842
113	0x3f11255d	0.56697637
114	0xbf28ef99	-0.65990597
115	0xbfb199da	-1.3875077
116	0x3e9ef6b5	0.31047598
117	0x3e408c8a	0.18803611
118	0x3e2c5a2d	0.16831274
119	0xbf6b9051	-0.92017084
120	0xbe5d5f71	-0.2161844
121	0x3f48e4cc	0.78474116
122	0x3deafd56	0.11474101
123	0x3dfd0d90	0.123561025
124	0x3b2d47c8	0.002644049
125	0xbf1cbe76	-0.6122812
126	0xbfb20830	-1.3908749
127	0x3fe6dbf0	1.803587
128	0x3f1f531b	0.62236184
129	0xbf8ba403	-1.0909427
130	0x4019e4e2	2.404595
131	0xbff9e56e	-1.9523141
132	0x3f653890	0.8953943
133	0xbfdd1ee3	-1.7275051
134	0x3f08ba01	0.5340882
135	0x3e1cc600	0.15309906
136	0xc065b8f1	-3.589413
137	0x3fc1e8eb	1.5149206
138	0x3d5c6346	0.053805612
139	0xbe24a83e	-0.16079804
140	0xbf83f919	-1.0310394
141	0xbff17db0	-1.8866482
142	0x3f0ff5e4	0.56234574
143	0xbfb4bc7a	-1.4120018
144	0x3f55bcc0	0.83491135
145	0x3e860ce9	0.26181725
146	0xbff00fb8	-1.8754797
147	0xbf55649b	-0.83356637
148	0x3d4b8810	0.049690306
149	0xbf080fe5	-0.53149253
150	0x3db2f76a	0.08738597
151	0x4023f475	2.5617955
152	0xbffe1e1a	-1.9852936
153	0xbe7f60e7	-0.24939309
154	0x3f41c0bb	0.7568471
155	0xbf8c3b26	-1.0955551
156	0xbf56b333	-0.83867186
157	0xbf20d8f2	-0.6283103
158	0x3f5c37c4	0.8602259
159	0xbf52ac00	-0.822937
160	0xbf82daeb	-1.0223058
161	0xbfa07e8c	-1.2538619
162	0x3f03f744	0.5154917
163	0xc0383c27	-2.8786714
164	0xbf177a27	-0.59170765
165	0x3fadf574	1.3590531
166	0xbecbc9cc	-0.39802396
167	0xbfd44f8f	-1.6586779
168	0xbf3c5098	-0.73560476
169	0x3fd78133	1.6836303
170	0x3fa7eeb6	1.3119724
171	0xbf9f84c1	-1.2462388
172	0x40bfd5fe	5.994872
173	0x403b9894	2.9311876
174	0x3da248a0	0.07924008
175	0x403cb1ef	2.9483602
176	0xbc0668a8	-0.008203663
177	0xbf435766	-0.76305234
178	0xbf76411b	-0.96193093
179	0xbfb85974	-1.4402299
180	0x3f3fb4df	0.7488536
181	0xbe98a4b4	-0.2981316
182	0x3eb2c347	0.3491461
183	0x3fe63a61	1.7986566
184	0xbf172e12	-0.5905467
185	0x40cb7481	6.3579717
186	0xbf9ba977	-1.2161092
187	0xbfa0a6eb	-1.2550939
188	0xbe1327d1	-0.14370658
189	0x3c2aee75	0.010432829
190	0x3fa6ca3c	1.3030467
191	0xbfff9b82	-1.9969332
192	0xc09f61d7	-4.9806933
193	0xc068864b	-3.6331966
194	0xc0fe27e4	-7.9423695
195	0x402cc2f9	2.6994002
196	0x3f8b8b7a	1.090194
197	0xbfe585a6	-1.7931411
198	0xbe78dafc	-0.24302286
199	0x3faf7a93	1.3709282
200	0x403f9852	2.993672
201	0x410755a9	8.458413
202	0x3f3bbde7	0.73336643
203	0x3f820172	1.0156691
204	0xbf784c59	-0.969915
205	0x3f00c1b2	0.50295556
206	0x3f32ddbf	0.6986961
207	0x3f213a3b	0.6297948
208	0xbf9a4231	-1.205145
209	0x3e4d4d8e	0.20049116
210	0xc10e9109	-8.910409
211	0x4108a1ba	8.539484
212	0x3e9061a7	0.28199503
213	0x401fb30a	2.4953027
214	0x407d3456	3.9563193
215	0xbfa19399	-1.2623168
216	0xbf184ace	-0.5948914
217	0x4038f7c2	2.890122
218	0x3f86d26f	1.0532969
219	0x40b05f87	5.511661
220	0x3f59e045	0.85107833
221	0xbf90b648	-1.1305628
222	0xbedab12b	-0.42713293
223	0xbf1eea2a	-0.62076056
224	0xbe7dfd24	-0.24803597
225	0x3b4a5828	0.00308753
226	0xbfa2ec1a	-1.2728302
227	0x3f4adc6f	0.79242605
228	0xbfdb0174	-1.7109818
229	0x3f6df776	0.9295572
230	0xbef22ea7	-0.47301218
231	0xbf1409a7	-0.5782723
232	0x3ec2dab1	0.38057473
233	0xbf62513b	-0.884052
234	0xbdf35cac	-0.1188291
235	0x3f65d2ab	0.8977458
236	0xbfd3cba4	-1.6546521
237	0x3f0c0a8e	0.54703605
238	0xbf6dfeaa	-0.9296671
239	0xbf4303a2	-0.7617742
240	0x4085c1ed	4.1799226
241	0xc079fd62	-3.9060903
242	0xbf3dbafe	-0.7411345
243	0xbecb2f43	-0.39684495
244	0xbef96e51	-0.48716977
245	0x3faa4621	1.3302652
246	0xbee03c86	-0.43796176
247	0x4053633b	3.3029315
248	0xbe396b39	-0.18107308
249	0x3d850b82	0.064963356
250	0xbfc1a92a	-1.512975
251	0x40779e44	3.8690348
252	0xbdd33141	-0.10312129
253	0x3f083ece	0.5322083
254	0x3fc7cb79	1.560897
255	0xbf62f41c	-0.8865373

decoder.lstm.weight_hh_l0 f4 [192, 64]
0	0xbd26c09c	-0.04071103
1	0xbd9ac64d	-0.07557354
2	0x3db9cc24	0.0907214
3	0xbcbd613b	-0.023117652
4	0xbe23f4e6	-0.1601139
5	0x3cbd50f4	0.02310989
6	0x3e54b55a	0.20772305
7	0xbe74fa45	-0.23923595
8	0x3d8c882d	0.06861911
9	0x3e6b858c	0.23000163
10	0x3da38ae7	0.07985478
11	0x3e8dcbd3	0.27694568
12	0x3d146a99	0.036234472
13	0xbd8c6d33	-0.068567656
14	0xbd5d17a8	-0.05397764
15	0x3d1de977	0.038552728
16	0x3ddc7908	0.107652724
17	0xbe4856b0	-0.19564319
18	0xbe34d491	-0.17659213
19	0x3e5768e3	0.21036105
20	0x3dd8fc8f	0.10595047
21	0xbe0a3035	-0.13494952
22	0xbe7fbf22	-0.24975255
23	0x3dde5612	0.1085626
24	0xbe6f4d04	-0.23369223
25	0x3e132e19	0.14373054
26	0x3e21a005	0.15783699
27	0xbdf758ad	-0.120774604
28	0xbe3b622a	-0.18299165
29	0xbde0f6a7	-0.10984545
30	0xbe160d8d	-0.14653607
31	0xbe043d01	-0.12913896
32	0xbea41e3a	-0.3205431
33	0x3dd1e45c	0.10248634
34	0xbe198b8a	-0.14994636
35	0xbed56d14	-0.41684783
36	0x3d8b7b2f	0.06810605
37	0x3e6b229a	0.22962418
38	0xbdf75bf1	-0.12078083
39	0xbe71d22f	-0.23615335
40	0xbdd796bc	-0.10526797
41	0xbe64a84f	-0.2232983
42	0xbe247360	-0.16059637
43	0x3ca0bc37	0.019620998
44	0xbe7cb6d2	-0.24679115
45	0xbe7a8c23	-0.2446752
46	0xbe234be5	-0.1594692
47	0x3e577c81	0.21043588
48	0x3e669cd5	0.22520764
49	0xbe2623fd	-0.16224666
50	0x3e87fd6b	0.2656053
51	0x3d1fbb67	0.03899708
52	0xbc43847e	-0.011933444
53	0xbe40c7f5	-0.18826278
54	0x3e42a7dc	0.19009346
55	0x3e0c62e9	0.13709606
56	0x3d086483	0.03329898
57	0x3d1b9c1f	0.037990686
58	0x3e70a845	0.2350169
59	0xbc45a0a2	-0.012062224
60	0xbe0da0b7	-0.13830839
61	0x3c47f304	0.0122039355
62	0xbe00203d	-0.12512298
63	0xbe4a4670	-0.19753432
64	0x3d859161	0.065218695
65	0xbd43ab65	-0.047770876
66	0x3d438882	0.047737606
67	0x3dc868d2	0.09785618
68	0x3e203c46	0.15647992
69	0xbd944b14	-0.072408825
70	0x3daf80f6	0.08569519
71	0xbe0e275b	-0.138822
72	0x3db55de2	0.08855797
73	0x3e2fcc08	0.17167675
74	0xbc558c1c	-0.013033893
75	0x3dbe2c3f	0.09285783
76	0x3de1299b	0.10994264
77	0xbd21ee51	-0.039533917
78	0xbd426de8	-0.047468096
79	0xbd549c3a	-0.0519068
80	0x3dc40364	0.09570959
81	0xbe86ff75	-0.26366773
82	0x3d58ea00	0.052957535
83	0x3db8c99b	0.09022828
84	0x3cad5f14	0.0211635
85	0xbc99bd6f	-0.018767087
86	0xbd45ce20	-0.04829228
87	0x3de407ce	0.11134301
88	0xbe2efa8f	-0.17087768
89	0xbe1fd9f6	-0.15610489
90	0x3d8f4e37	0.0699734
91	0x3b067512	0.0020516557
92	0x3d02e40e	0.03195577
93	0xbe16ab45	-0.14713772
94	0xbd8b641c	-0.06806204
95	0xbd8d82c9	-0.06909711
96	0x3cd5230e	0.026017692
97	0x3e57ff2a	0.21093431
98	0x3cccb8ec	0.024990521
99	0xbcaf251f	-0.021380005
100	0x3ed43ad3	0.4145113
101	0x3b9b8b75	0.004746849
102	0x3cf58540	0.029970765
103	0xbdeb1db6	-0.11480276
104	0xbd8ae764	-0.067824155
105	0xbc19f19c	-0.009395983
106	0x3d76533e	0.06013798
107	0x3e2a90d8	0.16656816
108	0xbd4b9cb9	-0.04971001
109	0xbd62fbfa	-0.055416085
110	0xbe03960a	-0.12850204
111	0x3d432055	0.047638256
112	0x3d6aee29	0.057356033
113	0xbde74564	-0.11292532
114	0x3de81ada	0.113332465
115	0xbb96aebf	-0.004598468
116	0xbe2cd15a	-0.16876736
117	0x3d599231	0.053117935
118	0x3e07503a	0.13214198
119	0xbbbefc0e	-0.005828387
120	0xbc21f661	-0.009885401
121	0x3d92c0e2	0.07165696
122	0x3da3f8a5	0.080064096
123	0xbd4f4e9b	-0.050612073
124	0x3d9584a9	0.073006935
125	0x3d89a4d4	0.067208916
126	0x3f7dda04	0.9916079
127	0xbd628860	-0.05530584
128	0x3db228b8	0.08699173
129	0xbdb16fa2	-0.086638704
130	0xbcd799e4	-0.026318498
131	0x3dc4a8f1	0.096025355
132	0xbd6b4f72	-0.05744881
133	0x3ea4fd2f	0.32224414
134	0x3e1807cf	0.14846729
135	0x3eb8d604	0.3610078
136	0x3ac0b506	0.0014702387
137	0x3e0ecfbc	0.13946432
138	0x3eaf1e77	0.3420293
139	0x3d0be4e5	0.034153838
140	0x3dcd5f09	0.10027892
141	0x3ee8bd02	0.45456702
142	0xbdab1a6c	-0.08354649
143	0xbe085ec0	-0.13317394
144	0xbdbcae8c	-0.0921298
145	0xbdeee294	-0.1166431
146	0xbeb06363	-0.34450826
147	0xbc03ac4c	-0.008036684
148	0xbdd83bc3	-0.10558274
149	0xbe17e8ab	-0.1483485
150	0xbb16e1ee	-0.0023022848
151	0x3e08b584	0.13350493
152	0x3e210fbf	0.15728663
153	0x3dbc836e	0.09204756
154	0x3c932323	0.01796109
155	0xbda6fed7	-0.081540756
156	0x3d02ffa8	0.031982094
157	0xbe1b84f7	-0.15187441
158	0x3e8c3216	0.27381963
159	0xbe4f5cb9	-0.20250215
160	0xbc1eae49	-0.0096851075
161	0xbc8159d9	-0.015789913
162	0xbd3a7be2	-0.0455283
163	0x3d32de1a	0.043668844
164	0xbe9cf120	-0.30652714
165	0x3e4ac910	0.19803262
166	0xbe299c47	-0.16563521
167	0xbdc67a90	-0.09691346
168	0xbe1f659f	-0.15566109
169	0x3da31edd	0.07964871
170	0xbe8e1bb2	-0.27755505
171	0x3dae8920	0.08522248
172	0xbd325372	-0.04353661
173	0xbdb2b6b0	-0.08726251
174	0xbdb26cab	-0.08712133
175	0xbd9e2726	-0.07722311
176	0x3cc54111	0.024078878
177	0xbe151e89	-0.1456243
178	0x3e19a374	0.15003759
179	0x3daf59a9	0.08562023
180	0x3e5d91d0	0.21637654
181	0xbaf24e46	-0.0018486462
182	0x3dd81046	0.10549979
183	0x3ebfc11e	0.37452024
184	0x3d889338	0.06668705
185	0x3e4548e1	0.19266082
186	0x3f19b439	0.6004062
187	0x3e09c751	0.1345494
188	0xbcfb498a	-0.030674715
189	0xba8eb738	-0.0010888344
190	0x3f16b28a	0.5886618
191	0x3d141ce0	0.03616035
192	0x3d738f89	0.059463058
193	0xbd9c575e	-0.076338515
194	0x3f08889b	0.53333443
195	0xbd0d8301	-0.034548763
196	0xbd8a747d	-0.067604996
197	0xbe465c29	-0.19371094
198	0x3dadaa4b	0.084797464
199	0xbe2d8787	-0.16946231
200	0x3df7ea59	0.12105245
201	0xbdb31f22	-0.087461725
202	0xbc92dc2b	-0.01792725
203	0x3d71addc	0.059003696
204	0x3ef10174	0.4707142
205	0xbe369925	-0.17831858
206	0xbd981a27	-0.07426863
207	0x3e49babe	0.19700143
208	0x3e31527c	0.17316622
209	0x3b9b0fd1	0.00473211
210	0xbdad7cdb	-0.0847108
211	0x3e68b77f	0.22726248
212	0x3df7f173	0.121066
213	0xbe23cde7	-0.15996514
214	0x3d24ac01	0.0402031
215	0x3cd9a1b6	0.026566368
216	0xbe1cfd22	-0.15330938
217	0x3d977353	0.07395043
218	0xbc809f31	-0.015700908
219	0xbe0600cd	-0.13086243
220	0xbe828235	-0.25489965
221	0x3c75b2bf	0.01499623
222	0xbe5c8d1b	-0.21538202
223	0xbda7bbdb	-0.081901275
224	0xbf03f20f	-0.5154123
225	0xbdd7a062	-0.105286375
226	0xbe0cf2a1	-0.1376443
227	0x3d0fe651	0.035131756
228	0xbd8b4bf9	-0.068016
229	0x3b1c8129	0.0023880696
230	0xbd85cd04	-0.06533244
231	0xbcc6a172	-0.024246905
232	0x3da9c49e	0.08289455
233	0x3c90e471	0.017687054
234	0xbe4ab479	-0.19795407
235	0x3e204628	0.15651762
236	0xbe311979	-0.17294873
237	0x3e01fd57	0.12694298
238	0xbd7f90eb	-0.062394064
239	0x3dea900c	0.11453256
240	0x3e04d069	0.12970127
241	0xbd5f72e0	-0.054552913
242	0xbd42ee43	-0.047590505
243	0xbe10adc5	-0.14128788
244	0xbd860ca8	-0.06545383
245	0x3d789054	0.060684517
246	0x3e11525d	0.14191575
247	0xbc5c3177	-0.013439528
248	0xbdaca553	-0.084299706
249	0xbe42acbe	-0.19011208
250	0x3e40c98c	0.18826884
251	0x3e60761a	0.21920052
252	0xbc863ce0	-0.01638645
253	0xbe00a909	-0.12564482
254	0xbdbdb5ba	-0.09263177
255	0xbe4ec6d2	-0.20193031

decoder.lstm.bias_ih_l0 f4 [192]
0	0xbda1e927	-0.079057984
1	0xbc95c2d1	-0.018281372
2	0xbe0b9bab	-0.13633601
3	0xbd3720da	-0.044709064
4	0x3e64b3c3	0.22334199
5	0xbcf42ed9	-0.029807495
6	0xbd3d77c5	-0.0462568
7	0xbe5fe4e2	-0.21864656
8	0xbdadeb4a	-0.084921435
9	0xbe699716	-0.22811541
10	0xbe736f03	-0.23772816
11	0xbde986fb	-0.114026986
12	0xbd36a57b	-0.04459141
13	0x3d058630	0.032598674
14	0x3c12851c	0.008942869
15	0xbdeb589d	-0.11491511
16	0x3bdb0ab6	0.0066846265
17	0xbef6fd30	-0.48240042
18	0xbdfcaaa7	-0.12337237
19	0x3de4a7d3	0.111648224
20	0x3d6fc6b5	0.05853911
21	0x3e28f9db	0.16501562
22	0xbe63d71c	-0.22250026
23	0x3e5945a0	0.21217966
24	0x3c1cb54a	0.009564707
25	0x3e1a5999	0.15073241
26	0xbea85937	-0.32880566
27	0xbdd6889f	-0.10475277
28	0xbe1c9495	-0.15291055
29	0x3dbf7ea8	0.0935033
30	0xbe1c8592	-0.15285328
31	0xbe04262d	-0.12905188
32	0xbca18fe9	-0.019721942
33	0xbc496c3c	-0.0122938715
34	0x3dec4507	0.115366034
35	0xbe039ec3	-0.12853532
36	0xbd19ce3e	-0.037550204
37	0xbc88dbd2	-0.016706381
38	0xbe4b3d9a	-0.19847718
39	0xbd36b3c5	-0.044605035
40	0xbe000102	-0.12500384
41	0x3dabb1bc	0.083835095
42	0x3c2025c8	0.009774633
43	0x3b3eab79	0.0029093905
44	0xbe301ca4	-0.17198426
45	0x3d85e573	0.065379046
46	0x3c5a1118	0.0133097395
47	0x3cf9faa4	0.030515023
48	0xbdc56ca1	-0.0963986
49	0xbd4da7ba	-0.050208785
50	0x3d07b2bc	0.03312944
51	0xbda328ad	-0.07966743
52	0x3d62b264	0.055345908
53	0x3da3bea1	0.07995344
54	0xbe18534e	-0.14875528
55	0x3d1c4773	0.038154077
56	0x3e2498cc	0.16073912
57	0x3dfb67f1	0.122756846
58	0xbdfc8126	-0.123293206
59	0xbe391b92	-0.18076923
60	0x3e4a233d	0.19740005
61	0x3d1de222	0.038545735
62	0xbeba53e6	-0.36392134
63	0x3b61f114	0.003447597
64	0x3e6cd390	0.2312758
65	0xbf40ddaf	-0.7533826
66	0xbe8b1bd6	-0.27169675
67	0xbe20281b	-0.15640299
68	0xbe3f6a74	-0.18692952
69	0xbef98ba4	-0.4873935
70	0xbdadbe1a	-0.084835246
71	0x3bb168d8	0.0054141097
72	0xbdab663c	-0.08369109
73	0x3e114d2d	0.14189596
74	0xbe2dec5b	-0.16984694
75	0xbebf0f6a	-0.37316447
76	0xbfc99c13	-1.5750755
77	0xbe4f70bc	-0.20257849
78	0xbf382315	-0.7192853
79	0xbf593f91	-0.8486262
80	0xbd10b1a1	-0.03532565
81	0xbf2b7142	-0.6696969
82	0xbd3e2173	-0.04641862
83	0xbf80727e	-1.003494
84	0xbddb9a33	-0.107227705
85	0xbe8ad86f	-0.2711825
86	0xbe599bee	-0.21250889
87	0xbe8b6537	-0.27225658
88	0xbf4471c5	-0.767361
89	0xbe5f294b	-0.21793096
90	0xbeff1452	-0.4982019
91	0xbf08683a	-0.5328404
92	0xbe0c92d6	-0.13727888
93	0xbde323f6	-0.110908434
94	0x3e88dfd0	0.26733255
95	0xbe5eace9	-0.21745647
96	0xbf42bb2e	-0.76066864
97	0xbe2f65a9	-0.17128624
98	0xbd49cba4	-0.049266472
99	0xbe371e6b	-0.17882697
100	0x3aea527e	0.0017877368
101	0xbc1873f9	-0.009304994
102	0x3e0c69f2	0.1371229
103	0xbe0b02bf	-0.13575266
104	0xbeb598f2	-0.3546825
105	0xbf0249d9	-0.5089393
106	0x3c4cb334	0.012493897
107	0xbeb0067d	-0.3437995
108	0x3d80ae62	0.06283261
109	0xbdbf92e7	-0.09354191
110	0xbe819128	-0.25306058
111	0x3ca163c6	0.019700896
112	0x3dd21b86	0.10259156
113	0xbe278954	-0.1636098
114	0xbe2e69b7	-0.17032515
115	0x3eaa311f	0.332406
116	0xbeffb6c8	-0.4994414
117	0xbee6473c	-0.44976223
118	0xbd285955	-0.04110082
119	0xbf25d88d	-0.64783555
120	0xbeba55a2	-0.36393458
121	0xbe96e181	-0.2946892
122	0xbceeb361	-0.029138269
123	0x3d861e95	0.06548802
124	0xbed64745	-0.4185125
125	0xbdf9d566	-0.12198906
126	0x3e23b764	0.15987927
127	0xbf1af191	-0.6052485
128	0x3dddc80a	0.1082917
129	0x3e1a2731	0.15054013
130	0x3c4f6eff	0.012660741
131	0x3d74011d	0.059571374
132	0x3e3c606c	0.18396157
133	0xbdcc56ed	-0.09977517
134	0xbdbd26bc	-0.092359036
135	0x3d189927	0.037255432
136	0x3c9c6dfb	0.019095412
137	0x3c932ed1	0.01796666
138	0xbd83dd88	-0.06438738
139	0xbc27ea28	-0.010248698
140	0x3d471073	0.04859967
141	0xbd272364	-0.040805236
142	0xbbdbaa8e	-0.0067036813
143	0x3d5b69f8	0.053567857
144	0x3d8b7b9a	0.068106845
145	0x3d848788	0.06471163
146	0x3ca8cbe7	0.02060504
147	0xbce003d5	-0.027345577
148	0x3c78e432	0.015191125
149	0x3d1d92c6	0.038470052
150	0x3d459782	0.048240192
151	0x3d33367b	0.04375313
152	0xba9ec842	-0.0012114125
153	0x3ded0606	0.115734145
154	0xbd18922b	-0.03724877
155	0xbd80db40	-0.062918186
156	0x3d98f4d1	0.0746857
157	0xbd925188	-0.07144457
158	0xbd8e460c	-0.06946954
159	0x3d5cd1a0	0.05391085
160	0xbce287b7	-0.027652605
161	0xbd53c1af	-0.051698383
162	0xbcb0efca	-0.021598715
163	0xbdad72e5	-0.0846918
164	0x3abb0683	0.0014268908
165	0xbd8a4863	-0.06752088
166	0xbcef90c3	-0.029243832
167	0x3af59b6a	0.0018738334
168	0xbd91094e	-0.07081853
169	0xbd44ed24	-0.048077717
170	0x3d8bd9da	0.06828661
171	0x3c081a25	0.008307015
172	0x3a3f0322	0.00072865386
173	0x3cd67be4	0.026182123
174	0x3d05f279	0.032701943
175	0x3d0f9726	0.035056256
176	0x3d3b0b66	0.045665167
177	0x3d9903ca	0.07471426
178	0x3afbf4d1	0.0019222741
179	0x3dc95c98	0.09832114
180	0xbc7021b6	-0.014656475
181	0xbdfbc79f	-0.12293934
182	0x3d437bd5	0.047725517
183	0x3c00248c	0.007821213
184	0x3cb6d006	0.02231599
185	0x3be869f6	0.0070927097
186	0xbc1ccbae	-0.009570045
187	0x3d184993	0.03717954
188	0x3da27a9b	0.079335414
189	0x3d8a1933	0.067430876
190	0xbbb74e6c	-0.0055940654
191	0xbb44a1a8	-0.0030003581

decoder.lstm.bias_hh_l0 f4 [192]
0	0xbdd9097a	-0.10597511
1	0xbb4f3fff	-0.0031623838
2	0xbcfb80d7	-0.030701084
3	0x3dd1d8d6	0.10246436
4	0x3e52ce7a	0.20586577
5	0x3d0891a2	0.03334201
6	0xbe4d4653	-0.20046358
7	0xbd628182	-0.05529929
8	0xbdef9a83	-0.11699393
9	0xbe145024	-0.14483696
10	0xbe365f3c	-0.17809767
11	0xbc26fcb8	-0.010192089
12	0x3ddc5670	0.10758674
13	0xbdfc1e05	-0.12310413
14	0xbd9dde22	-0.07708384
15	0xbd76d2d1	-0.060259644
16	0xbe28a744	-0.16470057
17	0xbf051312	-0.51982224
18	0x3abcf10f	0.0014415103
19	0x3e3f0626	0.18654689
20	0x3e2085d5	0.15676053
21	0x3e0b3db4	0.13597757
22	0xbd2a4d56	-0.04157766
23	0xbcecc1dc	-0.028901033
24	0x3bd9b64b	0.0066440455
25	0xbcd64fab	-0.026161036
26	0xbeb7825b	-0.3584164
27	0xbe2b870c	-0.16750735
28	0xbdb4c73d	-0.08827064
29	0x3df1f0fa	0.11813541
30	0xbdf5849d	-0.119881846
31	0xbd7fed86	-0.06248238
32	0x3c199c13	0.00937559
33	0xbe25740d	-0.16157551
34	0xbd784f17	-0.0606223
35	0x3d17d8a9	0.037071858
36	0xbd227397	-0.039661016
37	0x3ddeaf48	0.10873276
38	0xbe27c01f	-0.16381882
39	0xbdb5ae17	-0.08871096
40	0xbd9beb98	-0.07613295
41	0xbdb28c6f	-0.08718192
42	0xbe0496c4	-0.12948138
43	0xbd43dde6	-0.04781904
44	0xbe7be60b	-0.24599473
45	0x3ddcf2db	0.107885085
46	0xbe52224d	-0.20520897
47	0xbe1b987b	-0.15194885
48	0xbe0d253f	-0.1378374
49	0xbcf65acb	-0.03007259
50	0x3cb7b409	0.022424715
51	0xbe7e5ac2	-0.24839309
52	0x3dad97f6	0.0847625
53	0x3da35a79	0.07976241
54	0x3ba6446f	0.005074076
55	0xbb683514	-0.0035432028
56	0x3d5d2266	0.053987883
57	0x3a21c88c	0.00061715464
58	0xbe2cb8f2	-0.16867426
59	0xbd927551	-0.071512826
60	0x3e4be2ca	0.19910732
61	0xbdad82df	-0.08472227
62	0xbebae50e	-0.3650288
63	0x3e20c476	0.15699944
64	0x3d736b07	0.05942824
65	0xbf36ddaa	-0.7143198
66	0xbe46d877	-0.19418512
67	0xbe469021	-0.19390918
68	0xbde98c9f	-0.114037745
69	0xbedb867a	-0.42876035
70	0xbd74ce8c	-0.05976729
71	0xbc7b9bd9	-0.015356981
72	0xbe2129ab	-0.15738551
73	0x3dc6b1cc	0.09701881
74	0xbd2c1507	-0.04201224
75	0xbe39e9b4	-0.18155557
76	0xbfc23d56	-1.5174968
77	0xbe96dfd7	-0.2946765
78	0xbf0ee5f8	-0.55819654
79	0xbf47c0b9	-0.78028446
80	0xbd125e32	-0.035734363
81	0xbf2be9d5	-0.67153674
82	0xbd5b7d9e	-0.053586595
83	0xbf7f1396	-0.9963926
84	0xbb172afe	-0.0023066397
85	0xbdddad9a	-0.108241275
86	0xbe8d3c91	-0.2758527
87	0xbe7a8410	-0.2446444
88	0xbf3edb99	-0.7455383
89	0xbe70d56f	-0.23518918
90	0xbf090949	-0.53529793
91	0xbf055815	-0.5208753
92	0xbe0d39d2	-0.13791588
93	0xbd77ac98	-0.060467333
94	0x3e68e31d	0.22742887
95	0xbe33c428	-0.17555296
96	0xbf31ec07	-0.69500774
97	0xbd7b8242	-0.06140352
98	0xbcd11d0d	-0.025526548
99	0xbe95b952	-0.2924295
100	0x3d9ef605	0.07761768
101	0xbd0582b8	-0.032595366
102	0x3df7b450	0.12094939
103	0x3d1419ca	0.036157407
104	0xbe24d59c	-0.1609711
105	0xbf05e826	-0.52307355
106	0xbbcd5710	-0.006266482
107	0xbe5b58aa	-0.21420541
108	0x3d3fc1f7	0.04681584
109	0xbd9a205c	-0.07525703
110	0xbe7bad49	-0.24577822
111	0x3d800c7f	0.062523834
112	0x3da686ec	0.08131203
113	0xbe691447	-0.22761641
114	0xbe4468c2	-0.19180587
115	0x3ebf3af5	0.37349668
116	0xbf179192	-0.592065
117	0xbee5fc83	-0.44919214
118	0x3b08a9df	0.0020853204
119	0xbf11ed58	-0.5700278
120	0xbed2c9e4	-0.41169655
121	0xbf025cde	-0.50922954
122	0x3e42262c	0.18959874
123	0x3dd57ccf	0.10424196
124	0xbe9547d6	-0.2915637
125	0x3d07a76a	0.033118643
126	0x3e932be7	0.28744432
127	0xbf20e887	-0.6285481
128	0xbd87165b	-0.06596061
129	0xbe45a7a9	-0.19302239
130	0xbcadb4e0	-0.021204412
131	0x3e2cb605	0.1686631
132	0xbbae7cb2	-0.0053249234
133	0xbcbc3d59	-0.022978472
134	0x3d474319	0.048647974
135	0x3dc8a434	0.09796944
136	0x3e2d52cd	0.16926117
137	0x3d9ab467	0.0755394
138	0xbd2099ea	-0.039209284
139	0xbba01f44	-0.0048865397
140	0x3e04e9e0	0.12979841
141	0xbc766932	-0.015039729
142	0x3d4c3e01	0.04986382
143	0xbdb00767	-0.08595162
144	0x3d1aa0c6	0.03775098
145	0xbd0c8fa6	-0.03431668
146	0x3da59c2c	0.08086428
147	0xbbf5d5e4	-0.0075023044
148	0x3d077f1a	0.033080198
149	0xbd9b1843	-0.07572987
150	0xbd873ca9	-0.06603367
151	0xbe641895	-0.22275002
152	0xbd9d4b25	-0.07680348
153	0x3d79e096	0.061005197
154	0xbc64eaba	-0.013971979
155	0x3e40a2df	0.1881213
156	0xbde864ba	-0.11347337
157	0x3e3671eb	0.17816894
158	0x3d3b58eb	0.045739096
159	0x3e0e8417	0.13917576
160	0x3db9dd0c	0.090753645
161	0x3dcbc97f	0.09950542
162	0x3e10be14	0.14135009
163	0x3e00fadb	0.12595694
164	0x3cbcc003	0.023040777
165	0xbc13c734	-0.009019662
166	0xbc4488ee	-0.011995537
167	0x3e137015	0.14398225
168	0x3b75cfeb	0.0037507962
169	0x3df56d6d	0.11983762
170	0x3c4e229e	0.012581496
171	0xbd3851b6	-0.0449998
172	0x3d732ee5	0.059370894
173	0x3e17c9b9	0.14823045
174	0xbd691c20	-0.056911588
175	0xbe16e698	-0.14736402
176	0x3daa3392	0.083106175
177	0x3ca67ac0	0.020322204
178	0xbdfaebbb	-0.12251993
179	0x3da8a129	0.08233864
180	0x3da77647	0.081768565
181	0x3d78dd91	0.060758177
182	0xbd3dc937	-0.04633447
183	0x3d2debfd	0.042461384
184	0xbd05c882	-0.032661922
185	0x3d81629f	0.063176386
186	0xbdc4c252	-0.09607376
187	0xbda213bd	-0.07913921
188	0x3dc86e07	0.09786611
189	0xbdd2dc81	-0.10295964
190	0xb9d3ca63	-0.00040395846
191	0xbe583c00	-0.21116638

decoder.lstm.weight_ih_l1 f4 [192, 64]
0	0x3b9d3c10	0.00479842
1	0xbf1afbd9	-0.6054054
2	0x3e19b2ce	0.15009615
3	0xbde88e32	-0.113552466
4	0xbe71c8b6	-0.23611721
5	0xbdc658bf	-0.09684896
6	0x3e388ee8	0.18023264
7	0xbecbd2aa	-0.3980916
8	0x3c1fa1d5	0.009743174
9	0xbe4ae8e2	-0.198154
10	0x3ea3d5ed	0.3199915
11	0xbd75b42e	-0.059986286
12	0xbf0279e2	-0.5096723
13	0x3eb86629	0.36015442
14	0xbefa052e	-0.48832077
15	0x3d8fc3d2	0.07019772
16	0x3e30e17b	0.17273514
17	0xbdfaac5e	-0.12239908
18	0x3e16f6c7	0.14742576
19	0xbe9f8651	-0.31157163
20	0x3e0c0a27	0.13675748
21	0x3f0ced0e	0.55049217
22	0xbdd32741	-0.103102215
23	0x3e85ac05	0.26107803
24	0xbed1c502	-0.40970618
25	0xbd7b06f2	-0.06128592
26	0x3ab25591	0.0013605823
27	0xbe4b743f	-0.19868563
28	0xbea11af1	-0.31465867
29	0xbea03946	-0.31293696
30	0x3ee526d2	0.4475618
31	0xbe9647e2	-0.29351717
32	0xbed1fb61	-0.410121
33	0xbe44e470	-0.19227767
34	0xbdea915a	-0.11453505
35	0xbd0d3358	-0.034472793
36	0x3f23f06d	0.64038736
37	0x3ea0bf63	0.31396016
38	0xbd6811a7	-0.05665746
39	0xbf111273	-0.56668776
40	0xbdb64d28	-0.08901435
41	0x3d771efc	0.060332283
42	0xbdc331c6	-0.09530978
43	0x3e1290bd	0.14313026
44	0xbe00d129	-0.12579788
45	0xbdded9bb	-0.108813725
46	0x3e854d4f	0.26035544
47	0x3e4cd33b	0.20002453
48	0x3b6398ec	0.00347286
49	0xbed39cde	-0.41330618
50	0x3e81a281	0.25319293
51	0xbd6ebda3	-0.05828632
52	0xbdbff996	-0.093737766
53	0x3edb2dec	0.42808473
54	0xbebda443	-0.37039384
55	0x3e5f126d	0.21784373
56	0xbe33bea9	-0.175532
57	0x3e07342b	0.13203494
58	0x3eec4958	0.46149707
59	0x3e858eaa	0.26085407
60	0x3f45c2e1	0.77250487
61	0xbf18c047	-0.5966839
62	0x3e322755	0.17397816
63	0xbf13620a	-0.5757147
64	0x3ed4579b	0.41473088
65	0x3e940d7d	0.2891654
66	0x3f05bd7b	0.5224225
67	0xbf244aee	-0.64176834
68	0x3eed6171	0.46363404
69	0x3f21d859	0.63220745
70	0xbe966971	-0.2937732
71	0x3db2d62b	0.087322555
72	0x3eae2778	0.34014487
73	0xbe30eb22	-0.17277196
74	0x3c6c1d5f	0.0144112995
75	0x3d02fd76	0.03198
76	0x3f99af6f	1.2006663
77	0xbd34c661	-0.0441345
78	0xbe766133	-0.24060516
79	0xbc2154ec	-0.009846907
80	0x3e210783	0.15725522
81	0xbe13f0e6	-0.14447364
82	0xbdfc541b	-0.12320729
83	0x3f3abf1d	0.72947866
84	0xbf1254f4	-0.5716088
85	0xbe0753d4	-0.13215572
86	0xbeedbbed	-0.46432438
87	0x3e89ae4a	0.26890785
88	0xbeacb73b	-0.33733544
89	0x3d6fcaa3	0.05854286
90	0x3dd023b0	0.10163057
91	0x3e6f40be	0.23364541
92	0xbf4b7b64	-0.79485154
93	0x3f37a249	0.71732
94	0x3ec98c5b	0.39364895
95	0xbf20ae8b	-0.6276633
96	0xbf7b4092	-0.981454
97	0x3d4aa795	0.049476225
98	0xbf313000	-0.6921387
99	0x3ed52405	0.41629043
100	0x3ef6f830	0.48236227
101	0x3e9aa163	0.30201253
102	0xbe63e98f	-0.22257064
103	0x3d369fca	0.04458598
104	0x3e22796a	0.15866628
105	0x3ec01f4e	0.37523884
106	0xbdf94086	-0.1217051
107	0x3e732282	0.23743632
108	0xbda6f731	-0.08152617
109	0xbef16d68	-0.47153783
110	0x3e16170b	0.14657228
111	0x3dbea0cc	0.09308013
112	0xbec3036d	-0.3808855
113	0xbe07a8ed	-0.13248034
114	0xbe37b946	-0.1794177
115	0xbe953658	-0.29143023
116	0xbeeba1cb	-0.46021876
117	0xbf856c13	-1.0423607
118	0x3de708e4	0.112809926
119	0x3ec7245d	0.3889493
120	0xbe48e3e1	-0.19618179
121	0xbdd10abd	-0.10207126
122	0x3f3d52a2	0.7395421
123	0xbecbdf78	-0.3981893
124	0x3e1721ed	0.14759035
125	0x3f6c9407	0.9241337
126	0xbd86a698	-0.06574744
127	0xbf633555	-0.88753253
128	0xbeabd32f	-0.33559558
129	0xbe39d1b7	-0.18146406
130	0xbdcfbd13	-0.10143485
131	0x3da09a6e	0.07841955
132	0xbdcd14bb	-0.1001372
133	0x3d561b7d	0.05227231
134	0x3e59f206	0.21283731
135	0xbe80ad00	-0.2513199
136	0x3cca61a2	0.024704758
137	0xbe22a110	-0.15881753
138	0x3d4b919c	0.04969941
139	0x3ea519d3	0.32246265
140	0x3ebc0298	0.3672073
141	0xbdfe8021	-0.124267824
142	0x3c8c194c	0.017101906
143	0x3d1c96cc	0.03822975
144	0x3e1e6d17	0.15471302
145	0xbe2bcc18	-0.16777074
146	0x3dc5d02a	0.09658845
147	0xbf080bc9	-0.5314298
148	0x3e9d92e8	0.30776143
149	0x3eab1297	0.3341262
150	0xbdf47c5b	-0.119377814
151	0x3e9ec735	0.31011358
152	0xbdf5982e	-0.119919166
153	0xbe83c45d	-0.2573575
154	0x3db82d1f	0.08992981
155	0xbe25dd5d	-0.16197725
156	0xbe9270c3	-0.28601655
157	0xbec3116f	-0.38099238
158	0xbea0c564	-0.31400597
159	0xbd1eb326	-0.038745068
160	0x3d2b990f	0.041894015
161	0xbdfd0e22	-0.12356211
162	0x3e17f08f	0.1483786
163	0xbe1cc433	-0.15309219
164	0x3ee1a99a	0.44074708
165	0x3e98608d	0.29761162
166	0xbc26b235	-0.010174324
167	0xbe39b2fd	-0.18134685
168	0xbdfc16ad	-0.123090126
169	0x3f22a15a	0.6352745
170	0xbddbe3dd	-0.10736821
171	0x3f01f07d	0.5075758
172	0xbddf0c75	-0.10891048
173	0x3dd4d37e	0.103919014
174	0x3e9c9189	0.30579785
175	0x3de8b99c	0.11363527
176	0x3e275c79	0.1634387
177	0xbd78caa1	-0.060740117
178	0xbcf7afc5	-0.03023518
179	0x3d5f36b3	0.054495525
180	0xbe3b479f	-0.1828904
181	0x3e4cd2b5	0.20002253
182	0x3e82944a	0.2550376
183	0x3e966df1	0.29380754
184	0xbe21b21c	-0.157906
185	0x3e1f58b0	0.15561175
186	0xbe5b53a7	-0.2141863
187	0xbe1dca00	-0.15409088
188	0x3f37987b	0.7171704
189	0xbe4619e8	-0.1934582
190	0xbbc9bbb2	-0.006156408
191	0xbfcbd56a	-1.5924504
192	0x3f18824f	0.59573835
193	0xc06b23dd	-3.674064
194	0xbebbca64	-0.3667785
195	0xbdd7cf23	-0.10537555
196	0x3eeaa855	0.45831552
197	0xbd4f6d9c	-0.05064164
198	0x3e1e6d49	0.15471376
199	0xbfc08775	-1.5041338
200	0x3ee873f4	0.45400965
201	0xbd85618a	-0.06512745
202	0x3f04dc75	0.5189889
203	0x3fce2a4b	1.6106657
204	0xbfd1a7f1	-1.6379377
205	0x3ea62235	0.32447973
206	0x3e6292bf	0.22126292
207	0x3e964dfc	0.29356372
208	0xbf53bc12	-0.8270885
209	0xc095acca	-4.6773424
210	0x3f8c2529	1.094884
211	0xbfb80ebe	-1.4379499
212	0x3ef6da26	0.4821331
213	0x3f95b533	1.1695923
214	0xbdcc02eb	-0.09961494
215	0x3fd9b733	1.7009033
216	0x3ea2d863	0.31805715
217	0xc027c3d1	-2.6213267
218	0x3ebc3073	0.36755714
219	0xbeaa4131	-0.33252862
220	0xbfd57873	-1.6677383
221	0xbf538556	-0.8262533
222	0xbde21a36	-0.110401556
223	0xbf01bcd2	-0.5067874
224	0x3ecf1707	0.40447256
225	0x3ddbfbbc	0.10741374
226	0xbe519ddf	-0.2047038
227	0x3b59ea25	0.0033251133
228	0x403bae8c	2.9325285
229	0x3ee180ed	0.44043675
230	0x3e7ce458	0.24696481
231	0xbefafcb6	-0.49020928
232	0x3ee9f270	0.45692778
233	0x3feeab52	1.8646033
234	0x3d4a50d4	0.04939349
235	0x3ead6468	0.33865666
236	0xbfc7bfd2	-1.5605414
237	0x3f5667b6	0.83752
238	0xbe0db3ea	-0.13838163
239	0x3eefbc69	0.46823433
240	0x3d9c56df	0.07633757
241	0xbda02a75	-0.07820598
242	0xbdacf577	-0.08445256
243	0xbe718208	-0.23584759
244	0x3f8b166d	1.0866219
245	0x404d8cf9	3.2117293
246	0x3ee05557	0.4381511
247	0x402158ff	2.521057
248	0xbd94ca99	-0.07265205
249	0xbdab9396	-0.08377759
250	0xbea375ae	-0.3192572
251	0xbfadfdcf	-1.3593081
252	0x3ff5e589	1.9210674
253	0xbeda24a5	-0.42606083
254	0x3f8d23d1	1.1026555
255	0xc001baae	-2.027019

decoder.lstm.weight_hh_l1 f4 [192, 64]
0	0xbf406d12	-0.7516643
1	0xbcf51ac6	-0.029919993
2	0x3fb02fa2	1.3764536
3	0xbf62c5cb	-0.8858306
4	0x3e800d4a	0.2501014
5	0x3e7ecb1c	0.24882168
6	0x3fa2e72f	1.2726802
7	0xbe3a075c	-0.1816687
8	0xbf451582	-0.76985943
9	0xbf1334be	-0.57502353
10	0xbf5f176d	-0.8714512
11	0x3eac2baf	0.33627078
12	0x3ef6a900	0.48175812
13	0x3f39ec51	0.72626215
14	0xbe8800e3	-0.26563177
15	0xbfa3107e	-1.2739408
16	0xbec39768	-0.3820145
17	0x3f985b7a	1.1902916
18	0xbf520322	-0.8203603
19	0x3eb0d7ed	0.34539738
20	0x3e597540	0.21236134
21	0xbe5227f2	-0.2052305
22	0x3f9b8f2a	1.2153065
23	0xbe80431a	-0.25051194
24	0x3f2e0463	0.67975444
25	0x3f104d29	0.5636774
26	0x4015a4b9	2.3381789
27	0xbeeaaefc	-0.45836627
28	0x3f2ea801	0.68225104
29	0xbf7e5ecb	-0.9936339
30	0xbe499260	-0.19684744
31	0x3ee35f00	0.44408417
32	0xbdfbf620	-0.12302804
33	0xbf0c2de5	-0.5475753
34	0x3d1d3a2c	0.038385555
35	0xbf7dbe87	-0.99118847
36	0xbf294ac8	-0.6612973
37	0xbf923666	-1.1422851
38	0x3fa09137	1.2544316
39	0x3fa799ef	1.3093852
40	0xbeee8ba9	-0.46590927
41	0x3e5d514e	0.21613047
42	0xbe60edca	-0.2196571
43	0x3e4c186a	0.19931188
44	0xbf9b063c	-1.2111278
45	0xbeb3fffc	-0.35156238
46	0xbf1bc7d3	-0.6085178
47	0xbfeec072	-1.865248
48	0x3e837191	0.25672582
49	0xbf44a529	-0.76814514
50	0x3e428ba3	0.1899858
51	0xbfc147d5	-1.5100046
52	0xbd98a39b	-0.0745308
53	0x3e594b83	0.21220212
54	0x3eb2eaee	0.34944862
55	0x40086593	2.1311996
56	0xbebbdc59	-0.3669155
57	0xbfdf1f4f	-1.743143
58	0x3dd6c888	0.10487467
59	0xbd810f86	-0.06301789
60	0xbcb96644	-0.022631772
61	0x3ebe393f	0.3715305
62	0xbeabc49c	-0.3354844
63	0x3f91b969	1.1384708
64	0xbdadcf45	-0.08486799
65	0xbf57ad09	-0.84248406
66	0xbde370ca	-0.11105497
67	0xbed25271	-0.41078523
68	0x3e5f8d38	0.21831214
69	0x3e7de572	0.24794558
70	0xbda077a9	-0.07835323
71	0xbd51cae9	-0.0512189
72	0x3ee71685	0.4513437
73	0xbf2611bf	-0.6487083
74	0xbdad81cf	-0.08472025
75	0xbefea1a2	-0.4973269
76	0x3ee68b94	0.45028365
77	0x3ea0da2d	0.31416455
78	0xbc948394	-0.018129148
79	0x3d3d78e9	0.046257887
80	0xbda559dc	-0.0807378
81	0x3f14f590	0.581872
82	0x3f470dda	0.7775551
83	0x3d0ec7a2	0.034858353
84	0x3ea9449a	0.3306015
85	0xbde62084	-0.112366706
86	0x3ec85820	0.39129734
87	0xbd780e13	-0.060560297
88	0x3f34360d	0.70394975
89	0xbf60c833	-0.8780548
90	0xbea5264d	-0.32255784
91	0xbf88e10d	-1.069368
92	0x3f478f2d	0.77952844
93	0xbe79a2d6	-0.24378523
94	0x3ed07758	0.40716052
95	0xbf87ba02	-1.060364
96	0x3dd709a1	0.104998834
97	0x3d819267	0.06326752
98	0xbe280d18	-0.16411245
99	0x3d82d2a7	0.06387835
100	0x3cef52c3	0.029214269
101	0xbeb7f8e5	-0.3593208
102	0xbeaf55e1	-0.34245208
103	0xbe741b44	-0.23838526
104	0xbf7f7acb	-0.9979674
105	0xbf7a9e5d	-0.97897893
106	0x3ee3f192	0.4452024
107	0xbe129f20	-0.14318514
108	0xbc77ce24	-0.015124831
109	0x3f951735	1.1647707
110	0xbe5ff291	-0.21869875
111	0xbf676c6d	-0.9039982
112	0x3f18339b	0.59453744
113	0x3e7e970d	0.24862309
114	0x3ee0a6e0	0.43877316
115	0xbe9c0357	-0.30471298
116	0xbecc077a	-0.39849454
117	0x3e4d4a80	0.2004795
118	0xbe8d651d	-0.27616206
119	0x3f3c0be5	0.7345565
120	0xbf1631f5	-0.5866998
121	0xbf18ec5c	-0.59735656
122	0xbe3ccffd	-0.18438716
123	0xbedb1038	-0.4278581
124	0x3eeca351	0.4621835
125	0x3e37d116	0.17950854
126	0x3ec44fb1	0.3834205
127	0xbdda368c	-0.10654935
128	0xbed35fdd	-0.41284075
129	0xbcfbd111	-0.030739339
130	0x40082d3c	2.127761
131	0xbf2be502	-0.67146313
132	0x3eea05b2	0.4570747
133	0x3eedb666	0.4642822
134	0x3f2a58b6	0.6654161
135	0xbe6cc310	-0.23121285
136	0xbecef3ac	-0.40420282
137	0xbe704d94	-0.23467094
138	0xbf1345b7	-0.5752825
139	0x3f2db259	0.6785026
140	0x3e6ecd87	0.2332059
141	0xbdd0f61a	-0.1020319
142	0xbd372013	-0.044708323
143	0xbfce7fd5	-1.6132761
144	0xbe8202df	-0.25392815
145	0x3f4b8e89	0.79514366
146	0xbf1c00b6	-0.60938585
147	0xbf20756b	-0.62679166
148	0x3da88fe2	0.082305685
149	0x3e088c74	0.13334829
150	0x3e98d1f6	0.29847687
151	0xbf868707	-1.0509957
152	0x3de23734	0.110456854
153	0xbd8d5dcc	-0.06902656
154	0x3f658ff1	0.8967276
155	0x3eb2634a	0.34841377
156	0x3fc4503b	1.5336984
157	0xbfa4859c	-1.2853274
158	0x3ea158fa	0.31513196
159	0x3fb72990	1.4309559
160	0xbe208b1a	-0.15678063
161	0xbea9b134	-0.33143008
162	0xbe166528	-0.14687026
163	0x3e01c284	0.12671858
164	0xbe051e60	-0.12999868
165	0xbf8be326	-1.0928695
166	0x3f38b611	0.7215281
167	0xbe9f5743	-0.31121263
168	0xbf621459	-0.883123
169	0x3f36bfe5	0.7138656
170	0x3eb0e388	0.34548593
171	0x3f398c82	0.7248002
172	0xbf2c0a69	-0.67203385
173	0x3ebaf582	0.36515433
174	0x3e5d448c	0.2160818
175	0xbf3904ce	-0.72272956
176	0x3ea5be04	0.32371533
177	0xbf448137	-0.76759666
178	0xbdb02f68	-0.08602792
179	0xbe8dfcc4	-0.27731907
180	0x3da7127e	0.08157824
181	0x3ec2a13f	0.38013646
182	0x3bfb9c76	0.0076785637
183	0x3f88400a	1.0644543
184	0xbefde75f	-0.49590585
185	0xbe22df32	-0.15905455
186	0xbec42461	-0.38309005
187	0xbecbfbda	-0.39840585
188	0x3cf627da	0.0300483
189	0x3f1807c0	0.59386826
190	0xbe6c0477	-0.23048578
191	0xbf9eb442	-1.239876
192	0xbf2e8ad1	-0.6818057
193	0x3f3a80aa	0.72852576
194	0x3f9e3bd8	1.2362013
195	0x3fa9bcbc	1.3260722
196	0xbeaff52f	-0.34366748
197	0x3ea6692f	0.32502124
198	0xbe138fcc	-0.14410323
199	0x3ec24674	0.37944376
200	0x3f006596	0.5015501
201	0xbf7c8eec	-0.9865558
202	0x3e6a61e3	0.22888903
203	0x3f4ef340	0.8083992
204	0xbe9fac9e	-0.31186384
205	0x3d6d7279	0.057970498
206	0xbf4d6dde	-0.8024577
207	0x3ed58b39	0.4170778
208	0x3dc4f821	0.09617639
209	0xbec1915f	-0.37806222
210	0x3fc81b15	1.5633265
211	0x3f02ade3	0.5104658
212	0xbea55ed5	-0.32298914
213	0xbd1306f5	-0.035895307
214	0xbd315b09	-0.04329971
215	0xc0047385	-2.0695508
216	0x40010195	2.0157216
217	0x3eb8d55b	0.36100277
218	0xbf0193d9	-0.5061622
219	0x3f584749	0.8448377
220	0x3f682ccc	0.90693355
221	0xbf6f8a67	-0.9357056
222	0x40255565	2.583337
223	0x3e86bb0b	0.26314577
224	0xbfa9599e	-1.3230474
225	0xbf149616	-0.5804151
226	0xbf93d5e1	-1.1549646
227	0x3e2906a9	0.16506447
228	0x3ee483bf	0.44631764
229	0x3ed3c695	0.41362444
230	0x3db4ce4d	0.08828411
231	0xbe0a4f04	-0.13506705
232	0xbfa94369	-1.3223697
233	0xbe500960	-0.20316076
234	0xbf202ce3	-0.6256849
235	0x3f92471c	1.1427951
236	0xbd96bc40	-0.073601246
237	0xbf3fb1be	-0.7488059
238	0xbe1bd387	-0.1521741
239	0x3f3e5dd8	0.74361944
240	0x3e92362b	0.28556952
241	0x3d6511bb	0.055925112
242	0x3f46f7ab	0.7772166
243	0xbfba690a	-1.4563305
244	0xbddcde85	-0.1078463
245	0x3fa804ed	1.3126503
246	0x3f4cb4ac	0.79963183
247	0xbf1cd223	-0.61258143
248	0x3f854a5a	1.0413315
249	0x3f3021ca	0.6880156
250	0xbe6524a6	-0.22377262
251	0x3f78c394	0.9717343
252	0xbf58f449	-0.8474775
253	0x3ea7cc2d	0.3277296
254	0x3e0bf36c	0.13667077
255	0xbf946d4d	-1.1595856

decoder.lstm.bias_ih_l1 f4 [192]
0	0x3cd1d9c0	0.025616527
1	0xbea630ce	-0.3245911
2	0x3e272903	0.16324238
3	0xbea04384	-0.3130151
4	0xbe884be1	-0.2662039
5	0x3e265868	0.16244662
6	0xbe1c6c30	-0.15275645
7	0xbdccb5c6	-0.09995608
8	0xbdd55cfa	-0.104181245
9	0xbe25a70f	-0.16177009
10	0xbeb0efea	-0.3455804
11	0xbe7b7b66	-0.24558792
12	0xbe979a71	-0.29610017
13	0x3d389148	0.045060426
14	0xbd49a433	-0.04922886
15	0x3e8a76ed	0.27043858
16	0xbe066177	-0.13123117
17	0xbe950be7	-0.29110643
18	0xbe8c27b2	-0.27374035
19	0xbe99c081	-0.3002968
20	0xbeb9eced	-0.36313573
21	0x3e05a45f	0.13050984
22	0xbe088186	-0.1333066
23	0xbe56f470	-0.20991683
24	0x3ce1108a	0.027473707
25	0xbe72b382	-0.2370129
26	0xbe581172	-0.21100405
27	0xbea2df61	-0.3181105
28	0xbdfba731	-0.122877486
29	0x3df7b26f	0.120945804
30	0xbec98866	-0.39361876
31	0xbee6eda9	-0.45103195
32	0xbef00859	-0.4688137
33	0x3cae1d9e	0.021254357
34	0xbdccd6ea	-0.10001929
35	0x3d07482c	0.033027813
36	0x3e29e21e	0.16590163
37	0xbc380040	-0.011230528
38	0xbd7d0601	-0.061773304
39	0x3ddd9379	0.10819144
40	0xbe757188	-0.2396909
41	0x3cea6b47	0.028615607
42	0xbcbb1183	-0.022835499
43	0x3ed7e8b0	0.42169714
44	0xbe31bb9f	-0.17356728
45	0xbeb1fd75	-0.34763685
46	0xbdbd0e05	-0.0923119
47	0xbf135bf2	-0.5756217
48	0xbe02a0db	-0.12756674
49	0x3ed5f126	0.41785544
50	0xbe3c1f40	-0.18371296
51	0xbe91b041	-0.28454784
52	0xbe69cb26	-0.22831401
53	0xbe74e43f	-0.23915194
54	0xbea7423c	-0.3266772
55	0xbf0cb7c4	-0.54967904
56	0xbe3764d7	-0.17909561
57	0xbf1648c3	-0.58704776
58	0xbd49e0cc	-0.04928665
59	0xbf3a0af5	-0.7267297
60	0xbd97042b	-0.07373842
61	0xbd5642ba	-0.05230973
62	0xbaa77b9b	-0.0012777926
63	0xbf551fb7	-0.8325152
64	0x3ecdf409	0.40225247
65	0xbf4cf98c	-0.8006828
66	0xbe1108a0	-0.14163446
67	0xbde219bd	-0.110400654
68	0xbebebbaa	-0.3725255
69	0xbe846169	-0.25855568
70	0x3ebdbca6	0.3705799
71	0xbf174308	-0.59086657
72	0xbe888342	-0.26662642
73	0x3e81febe	0.25389665
74	0xbeaebaa9	-0.34126785
75	0x3d0b1738	0.03395769
76	0xbe6ef350	-0.23335004
77	0xbe7b499b	-0.24539797
78	0xbe0cc0f7	-0.13745485
79	0xbe100156	-0.1406301
80	0xbf730a0c	-0.94937205
81	0xbea85536	-0.3287751
82	0x3f09e129	0.5385919
83	0xbe662088	-0.22473347
84	0xbf077468	-0.52911997
85	0xbf399319	-0.7249008
86	0xbf7bd655	-0.9837392
87	0xbdc279d2	-0.09495892
88	0x3f1c3036	0.61011064
89	0x3ec94818	0.39312816
90	0xbe8dc19d	-0.27686778
91	0xbf0bfadc	-0.54679656
92	0xbf76f18c	-0.9646232
93	0xbf36bd84	-0.7138293
94	0xbe3eed8e	-0.18645307
95	0x3d724f92	0.059157915
96	0xbf53ad32	-0.8268615
97	0xbf22a9ba	-0.6354023
98	0xbe8bad1a	-0.27280504
99	0x3d075081	0.03303576
100	0xbdc62a85	-0.09676079
101	0x3ed1485b	0.40875515
102	0xbe4d9888	-0.20077717
103	0xbe9dc36c	-0.30813158
104	0xbe95f511	-0.29288533
105	0xbf04f885	-0.5194171
106	0x3dcfda72	0.10149087
107	0xbf2390ae	-0.6389264
108	0xbf172d1c	-0.59053206
109	0xbe480421	-0.19532825
110	0x3dacd758	0.08439511
111	0xbf161ad9	-0.58634716
112	0xbe7dd65c	-0.24788803
113	0xbe566a29	-0.20938934
114	0x3d9705e9	0.07374174
115	0xbeca3dab	-0.39500174
116	0x3e86198f	0.26191375
117	0xbd331a07	-0.043725993
118	0x3ea17b66	0.31539458
119	0x3e40906f	0.18805097
120	0x3f218cf8	0.63105726
121	0x3e247357	0.16059624
122	0xbf1e3d38	-0.6181216
123	0xbe0645b1	-0.13112523
124	0x3e23f1da	0.16010228
125	0xbf38bd30	-0.7216368
126	0xbeb998b2	-0.3624931
127	0xbea8d820	-0.3297739
128	0xbd89bc7b	-0.06725403
129	0xbcb3abe8	-0.021932557
130	0x3be574fd	0.0070024715
131	0x3d0f8b08	0.0350447
132	0xbd168245	-0.03674533
133	0x3d2f460e	0.04279142
134	0x3d30ed6e	0.04319518
135	0xbdb9178e	-0.09037696
136	0x3d406518	0.04697141
137	0x3d755de1	0.059903983
138	0xbd8d90c2	-0.06912376
139	0x3d3be006	0.045867942
140	0xbc4e41cf	-0.012588932
141	0xbe337d00	-0.17528152
142	0xbd913d22	-0.07091738
143	0xbcb1e956	-0.021717709
144	0xbd68ed29	-0.0568668
145	0xbd04a95b	-0.032388072
146	0x3c5b9f2d	0.01340465
147	0xbdbff678	-0.09373182
148	0xbd9ba1a7	-0.07599192
149	0x3db34d40	0.08754969
150	0x3d6d3dfc	0.05792044
151	0xbd8e5f81	-0.0695181
152	0xbd84ca52	-0.06483902
153	0xbd0171fa	-0.031602837
154	0xba282913	-0.0006414812
155	0x3ce3349b	0.027735045
156	0x3d6c2e98	0.057661623
157	0xbd45d975	-0.048303086
158	0x3c809979	0.015698181
159	0xbda11600	-0.07865524
160	0x3d30280b	0.043006938
161	0x3d63377b	0.055472832
162	0xbd929d1f	-0.07158875
163	0x3d53dec0	0.051726103
164	0x3d86dadd	0.065847136
165	0xbd3f7a72	-0.046747632
166	0x3e10a341	0.14124776
167	0xbd761c6b	-0.060085695
168	0xbd2e8811	-0.04261023
169	0xbc5333fc	-0.012890812
170	0xbca182f6	-0.019715767
171	0xbe4a15cb	-0.19734876
172	0xbd4e7775	-0.05040689
173	0xbb2dafe6	-0.0026502549
174	0xbc7763f9	-0.015099519
175	0xbd5e6a17	-0.054300394
176	0x3d7dccba	0.06196282
177	0xbcf30a81	-0.029668095
178	0xbcfda4c1	-0.03096235
179	0x3cab4dd3	0.020911133
180	0x3d1db350	0.038501084
181	0xbd03e97d	-0.032205094
182	0xbd4ba265	-0.04971542
183	0x3c99c43e	0.018770333
184	0xbcb36436	-0.02189837
185	0xbd82343c	-0.06357619
186	0x3b5b0a55	0.0033422906
187	0x3ce88f18	0.028388545
188	0xbd063ab3	-0.032770824
189	0xbd0712b4	-0.03297682
190	0x3c95ea18	0.018300101
191	0x3d913968	0.070910275

decoder.lstm.bias_hh_l1 f4 [192]
0	0xbd2ae31f	-0.041720506
1	0xbee7bf32	-0.45263058
2	0x3d8c8c9c	0.068627566
3	0xbeb7c82c	-0.35894907
4	0xbe62505d	-0.22100969
5	0x3e06723f	0.13129519
6	0xbcfc65fa	-0.030810345
7	0xbdd26798	-0.10273665
8	0x3c66a250	0.014076784
9	0xbda76de9	-0.081752606
10	0xbe480841	-0.19534399
11	0xbe80e196	-0.25172108
12	0xbe8a5571	-0.27018312
13	0xbd3890b0	-0.04505986
14	0xbccd554a	-0.025065083
15	0x3e097bb0	0.1342609
16	0xbcc54f8f	-0.024085788
17	0xbec803a8	-0.3906529
18	0xbd899162	-0.06717183
19	0xbe83e03b	-0.25757012
20	0xbead2a00	-0.33821106
21	0x3e440a53	0.19144563
22	0xbe0c0a9a	-0.13675919
23	0xbdffbc96	-0.12487142
24	0x3cd5489b	0.026035598
25	0xbe73764f	-0.237756
26	0xbe03b9cb	-0.12863843
27	0xbeafa19c	-0.34302986
28	0x3c1b0fd8	0.009464227
29	0x3c19da2a	0.009390393
30	0xbeced2ae	-0.4039511
31	0xbeda9880	-0.42694473
32	0xbef2822b	-0.47364935
33	0xbd09dfac	-0.033660576
34	0xbd91e3fe	-0.07123564
35	0x3dbc26e4	0.09187105
36	0x3d6f5349	0.058429036
37	0x3cf99128	0.030464724
38	0xbdf44454	-0.11927095
39	0x3d66f3c3	0.056384813
40	0xbea021fb	-0.31275925
41	0xbe0ec19c	-0.13941044
42	0xbe0abaa6	-0.13547763
43	0x3eef704c	0.46765363
44	0xbd8f32af	-0.06992089
45	0xbea948d4	-0.33063376
46	0xbd5e7ba8	-0.054317147
47	0xbf0ded62	-0.5544034
48	0xbd345e63	-0.044035327
49	0x3edd1175	0.4317738
50	0xbe81cbf3	-0.25350913
51	0xbe3fdca2	-0.18736508
52	0xbd5b2677	-0.05350348
53	0xbe3cbfed	-0.18432589
54	0xbeadd42b	-0.33950934
55	0xbef05b28	-0.46944547
56	0xbe59e4a0	-0.2127862
57	0xbf3b84ae	-0.7324933
58	0xbe1d82ce	-0.1538193
59	0xbf23e487	-0.6402058
60	0xbe4903c1	-0.19630338
61	0xbdced958	-0.10100049
62	0x3e2a8ad7	0.16654526
63	0xbf1f8a03	-0.62319964
64	0x3f076040	0.5288124
65	0xbf41fc5f	-0.7577571
66	0xbc9e3593	-0.019312656
67	0xbe3e806e	-0.1860368
68	0xbeb93c24	-0.36178696
69	0xbe9d5380	-0.30727768
70	0x3ed114d4	0.40836203
71	0xbf02750d	-0.50959855
72	0xbeabbde6	-0.3354332
73	0x3d9ebde9	0.07751066
74	0xbe94a6a2	-0.2903338
75	0xbd6175f2	-0.055044122
76	0xbdd71232	-0.10501517
77	0xbe9729f7	-0.29524204
78	0xbdf073a6	-0.11740808
79	0xbe3e80e6	-0.18603858
80	0xbf8878a3	-1.0661815
81	0xbe9ceb72	-0.3064838
82	0x3eb54dba	0.35410863
83	0xbeb064cf	-0.3445191
84	0xbf3694b5	-0.7132066
85	0xbf255e2c	-0.6459682
86	0xbf433aec	-0.7626178
87	0xbe80d5f3	-0.2516323
88	0x3f1d0ca3	0.6134741
89	0x3e86fad3	0.2636324
90	0xbde4de84	-0.11175254
91	0xbf1c02fb	-0.6094205
92	0xbf4875dc	-0.7830484
93	0xbf42a5b7	-0.7603411
94	0xbe2df56a	-0.1698815
95	0x3df97f54	0.12182489
96	0xbf4552a1	-0.77079207
97	0xbf0d9402	-0.55303967
98	0xbe149868	-0.14511263
99	0xbe05f86e	-0.1308305
100	0xbe1fedce	-0.15618059
101	0x3ec9da80	0.39424515
102	0xbe78e26c	-0.24305123
103	0xbe3a497c	-0.18192095
104	0xbebd4e82	-0.3697396
105	0xbf0fe704	-0.56211877
106	0x3e3df285	0.18549545
107	0xbef41d67	-0.47678682
108	0xbf0a304b	-0.5397994
109	0xbe21f939	-0.15817727
110	0x3dc807a7	0.097670846
111	0xbf01c623	-0.5069296
112	0xbe47629e	-0.19471213
113	0xbe49ede2	-0.19719651
114	0x3e8beb14	0.27327788
115	0xbe6f7aaf	-0.23386644
116	0x3ed1be96	0.40965718
117	0xbd71c856	-0.059028946
118	0x3e6a8f7a	0.22906294
119	0x3e8e1949	0.27753666
120	0x3f280bd3	0.6564304
121	0x3e178dbd	0.14800163
122	0xbf102dda	-0.56319964
123	0xbe0ced12	-0.1376231
124	0xbc7be5d3	-0.015374619
125	0xbf2a3d77	-0.6650004
126	0xbf0c9bac	-0.54925036
127	0xbe9577fa	-0.29193097
128	0x3d4442fb	0.04791544
129	0xbc8dd405	-0.017313013
130	0xbe89394d	-0.2680153
131	0xbd842842	-0.06452991
132	0x3df5fbdd	0.1201093
133	0xbd3bc3fb	-0.0458412
134	0x3e084e3f	0.13311099
135	0x3e88eab4	0.26741564
136	0xbe2a419b	-0.16626589
137	0x3dff362a	0.12461503
138	0x3e0f3954	0.13986713
139	0xbe6dfdbc	-0.23241323
140	0x3e19c404	0.1501618
141	0x3ee2dd70	0.44309568
142	0x3de28fd4	0.11062589
143	0xbd07ba29	-0.03313652
144	0x3e1b1a2e	0.15146706
145	0x3ded4523	0.115854524
146	0x3e053a41	0.13010503
147	0x3c1cb49d	0.009564546
148	0x3ddc55c0	0.10758543
149	0xbd8a24f3	-0.06745329
150	0x3e891e09	0.26780728
151	0xbb75a265	-0.0037480828
152	0x3e0a254b	0.13490789
153	0xbd80293e	-0.06257866
154	0xbe3290da	-0.17438069
155	0x3d28f156	0.04124578
156	0xbdb75d0e	-0.08953296
157	0x3dd9cfe6	0.106353566
158	0x3dac34d7	0.08408516
159	0x3dadb343	0.08481457
160	0x3cf16c55	0.029470602
161	0x3e06fe61	0.13182975
162	0x3d8d83f1	0.069099315
163	0xbdeba9b0	-0.11506975
164	0xbd9ddecc	-0.07708511
165	0x3e72c290	0.23707032
166	0xbe611359	-0.21980037
167	0xbe9d86a3	-0.30766782
168	0xbe974bee	-0.29550117
169	0x3e289c0f	0.16465782
170	0xbdcd3280	-0.10019398
171	0x3eb6fa3e	0.35737795
172	0xbe116060	-0.1419692
173	0x3eaceb76	0.33773392
174	0xbd58b474	-0.05290647
175	0xbd974c7b	-0.07387634
176	0xbded3930	-0.11583173
177	0x3deb554b	0.11490878
178	0xbdb31a42	-0.08745243
179	0xbe138008	-0.14404309
180	0xbe00bedf	-0.12572812
181	0xbdf0f886	-0.11766152
182	0xbd4c9084	-0.04994251
183	0x3e6eb593	0.23311453
184	0x3deee897	0.11665457
185	0x3d5dfe18	0.0541974
186	0x3d78085a	0.06055484
187	0x3d3f674e	0.04672938
188	0x3c8b1fe6	0.016982984
189	0x3db227da	0.08699007
190	0xbbf2cb1c	-0.0074094664
191	0xbda26cbd	-0.079308964
