output/CarlaNavigation-v0/wcsac/5/actor.pt (torch, 535763 bytes, 7 tensors)

action_log_std f4 [1, 2]
-1.3246362 -1.9499336
00000000: ae8d a9bf 6d97 f9bf

linear1.weight f4 [256, 261]
0.055083912 0.62522715 -1.2329684 0.36391124 -1.1231658 0.13262464 -0.0118911415 -0.053501446
-0.06040551 -0.059126038 0.097475514 0.05816055 -0.09380926 -0.1175379 0.24029328 -0.098690204
-0.11781853 -0.055840615 0.2181534 -0.007223647 -0.06854701 -0.0061003547 -0.010768913 -0.011030753
-0.0018963161 -0.008000079 -0.04308999 0.055010498 0.0059680818 -0.18831271 0.15572222 0.029390274
0.059617985 -0.039768457 -0.043731794 -0.11911189 -0.08557336 0.053913724 0.1423321 -0.058356024
-0.14350961 0.059996843 0.012155176 0.046861496 -0.061802354 0.13140658 0.119070485 0.06338746
0.0018278845 0.056077383 0.009153093 0.009524993 -0.059762113 0.057167076 0.090379976 -0.004298291
-0.111414835 -0.02668605 0.023896256 0.15324835 0.030234123 -0.038400028 0.013125534 0.071500815
0.051634297 -0.059265036 -0.06778714 -0.04952314 -0.029822918 0.07565118 -0.09228479 0.05483226
-0.02501393 0.05111387 0.031428684 -0.09306631 -0.020009248 0.1335829 0.0073306165 0.020975899
-0.051833544 -0.07777337 -0.00535438 -0.064538084 0.026294352 -0.052013103 0.14726397 -0.14342406
0.091081664 -0.11589976 0.02062713 -0.11115908 -0.12704387 -0.058250442 -0.11083724 -0.009945239
0.036449354 0.08073009 -0.016158815 -0.13849053 0.05028025 -0.013277126 -0.04261916 -0.025961837
-0.07785408 -0.05493956 0.13600405 0.012009063 -0.1058934 0.09617354 -0.12965354 0.044927645
0.0103149135 0.14108011 0.011908373 0.0847744 -0.09644951 -0.047724336 0.043666307 -0.10214435
-0.06429373 -0.0047283936 -0.056925103 0.07781062 0.14138669 -0.17181842 -0.0668401 -0.06435023
0.1382246 0.061130427 -0.014439542 0.18687004 -0.14209525 0.10283021 -0.058455065 0.09528518
0.15648326 0.09001222 -0.108538345 0.109866716 -0.06781908 -0.008045519 0.08038117 -0.087978005
-0.02769936 -0.18230146 0.091128744 0.08564706 -0.019558122 -0.14514613 0.037447963 0.03389079
0.09663442 0.034752734 0.02844768 -0.074388996 -0.02019023 -0.06424539 -0.0746918 0.048864838
0.030368928 -0.0674213 0.0748788 0.055597477 0.1119227 0.14093485 -0.02316814 -0.026671214
-0.011060943 -0.08676678 0.12201422 -0.016200839 0.07515091 -0.07147597 0.11339037 -0.08256638
-0.006312926 -0.044118192 0.054177992 0.10344787 -0.16192783 -0.03582347 -0.1024655 0.0774973
-0.07458106 0.042120926 -0.04338932 -0.13701206 0.09572346 -0.033577036 -0.09152591 0.025275256
-0.10561967 0.20243756 0.03458402 -0.037695028 -0.009559938 -0.009299638 -0.028604802 -0.13318779
-0.0246016 0.037782963 0.09383398 0.055886444 0.033159114 -0.043602183 0.28718156 0.1289469
-0.0836204 0.08231342 -0.1088579 0.09082009 0.009990515 -0.12044494 -0.005225739 0.061114732
0.05362388 0.038394526 0.00625334 0.073999785 -0.054815568 -0.06607448 -0.09691059 0.07647359
0.0643342 -0.08238422 -0.12473707 0.04239749 -0.11606122 -0.12232835 0.10743522 -0.023685625
-0.052356634 -0.015477429 0.10397017 -0.123151615 0.034004632 0.010891583 -0.10855382 -0.12489509
0.11351468 -0.04309151 -0.049335577 -0.111508414 0.011749225 -0.074705966 -0.19218531 0.16055416
-0.10033836 -0.04806069 -0.016705513 -0.04542062 0.044298757 0.10214426 0.048282437 0.15857613
00000000: ab9f 613d e30e 203f e9d1 9dbf 9352 ba3e
00000010: e6c3 8fbf c1ce 073e 10d3 42bc 5524 5bbd
00000020: c56b 77bd 252e 72bd 3ea1 c73d c239 6e3d
00000030: 121f c0bd b6b7 f0bd 710f 763e 171e cabd
00000040: d74a f1bd 21b9 64bd 9b63 5f3e 58b4 ecbb
00000050: 6062 8cbd 7ce5 c7bb 1870 30bc 55ba 34bc
00000060: cf8d f8ba c312 03bc 217f 30bd b052 613d
00000070: e68f c33b 0cd5 40be a575 1f3e dfc3 f03c
00000080: fd31 743d 40e4 22bd 1c20 33bd eff0 f3bd
00000090: 1641 afbd a3d4 5c3d 82bf 113e ba06 6fbd
000000a0: 2ff4 12be 40bf 753d 8126 473c d7f1 3f3d
000000b0: 7724 7dbd 728f 063e 3adb f33d 49d1 813d
000000c0: a095 ef3a 66b1 653d dbf6 153c b70e 1c3c
000000d0: 1ec9 74bd 0628 6a3d 2319 b93d aed8 8cbb
000000e0: 762d e4bd b49c dabc 15c2 c33c 23ed 1c3e
000000f0: 8dad f73c 5949 1dbd 7b0c 573c 056f 923d
00000100: 7c7e 533d e5bf 72bd fcd3 8abd c7d8 4abd
00000110: 314f f4bc 02ef 9a3d cfff bcbd cb97 603d
00000120: 03ea ccbc c75c 513d 5dbb 003d 8d99 bebd
00000130: 6fea a3bc f5c9 083e ab35 f03b a6d5 ab3c
00000140: 694f 54bd a547 9fbd cb73 afbb 8b2c 84bd
00000150: 4167 d73c b10b 55bd 5ecc 163e c2dd 12be
00000160: 0689 ba3d da5c edbd 3afa a83c 5fa7 e3bd
00000170: ca17 02be 0498 6ebd a3fe e2bd 5bf1 22bc
00000180: eb4b 153d d155 a53d 7e5f 84bc 76d0 0dbe
00000190: aaf2 4d3d 4d88 59bc 6e91 2ebd ebad d4bc
000001a0: f671 9fbd 4e08 61bd a544 0b3e a9c1 443c
000001b0: a4de d8bd a2f6 c43d e6c3 04be 0d06 383d
000001c0: e2ff 283c 4e77 103e 561b 433c 339e ad3d
000001d0: 5287 c5bd 987a 43bd 71db 323d 0f31 d1bd
000001e0: 6eac 83bd a4f0 9abb 4c2a 69bd 2d5b 9f3d
000001f0: acc7 103e 2bf1 2fbe 76e3 88bd 0eca 83bd
00000200: c08a 0d3e e663 7a3d d493 6cbc dc5a 3f3e
00000210: 6b81 11be a598 d23d 946e 6fbd e024 c33d
00000220: 263d 203e 5458 b83d 5a49 debd cd01 e13d
00000230: bbe4 8abd 5ad1 03bc e29e a43d d02d b4bd
00000240: c5e9 e2bc 3cad 3abe b5a1 ba3d ba67 af3d
00000250: 5b38 a0bc 30a1 14be 0963 193d 12d1 0a3d
00000260: 44e8 c53d e258 0e3d 1c0b e93c 4259 98bd
00000270: fb65 a5bc 1693 83bd 04f8 98bd 7f26 483d
00000280: 42c8 f83c 2e14 8abd 0e5a 993d 2eba 633d
00000290: bb37 e53d 3a51 103e 1ccb bdbc 977d dabc
000002a0: f538 35bc c8b2 b1bd 97e2 f93d 9fb7 84bc
000002b0: b8e8 993d fe61 92bd 3639 e83d 9018 a9bd
000002c0: a9dc cebb 47b5 34bd bee9 5d3d 7adc d33d
000002d0: 69d0 25be a2bb 12bd 6fd9 d1bd e8b6 9e3d
000002e0: f4bd 98bd fe86 2c3d 00b9 31bd e44c 0cbe
000002f0: a90a c43d 1388 09bd f071 bbbd 0e0e cf3c
00000300: 204f d8bd cb4b 4f3e f9a7 0d3d 1a66 1abd
00000310: 49a1 1cbc 825d 18bc 9e54 eabc 6162 08be
00000320: 4b89 c9bc 4fc2 1a3d 082c c03d 2fe9 643d
00000330: dad1 073d 3498 32bd 7609 933e a80a 043e
00000340: 2c41 abbd f093 a83d e4f0 debd e2ff b93d
00000350: 42af 233c d6ab f6bd ad3c abbb 7153 7a3d
00000360: b7a4 5b3d 9443 1d3d d1e8 cc3b 338d 973d
00000370: 4a86 60bd 0f52 87bd 0f79 c6bd 309e 9c3d
00000380: a6c1 833d 0fb9 a8bd 2676 ffbd fea8 2d3d
00000390: 81b1 edbd 4987 fabd ff06 dc3d 5b08 c2bc
000003a0: e973 56bd 0b95 7dbc 50ee d43d ea36 fcbd
000003b0: 7148 0b3d 9c72 323c 7751 debd ffc8 ffbd
000003c0: 627a e83d b980 30bd 1a14 4abd 865e e4bd
000003d0: d27f 403c 71ff 98bd 3acc 44be 4f68 243e
000003e0: 337e cdbd 49db 44bd 00da 88bc f90a 3abd
000003f0: 9d72 353d 0331 d13d cec3 453d c861 223e

linear1.bias f4 [256]
-0.025190383 -0.017034497 0.03409126 0.02883624 -0.041520096 -0.12710012 0.12332396 -0.14934617
-0.04963178 0.120993644 -0.11275378 0.012395703 0.11980922 0.06297574 -0.037788108 -0.0023873537
0.051700506 0.0063805566 -0.13872777 0.041993562 0.0024977527 -0.07881755 -0.029043125 -0.03737499
0.076761074 0.09991716 -0.10763122 -0.082471594 0.00080597284 -0.0066452767 0.113853715 -0.022729145
-0.041292083 0.014961393 0.0009495677 -0.07154063 0.008886059 0.018397303 0.03409527 -0.10480607
0.013664394 0.03173902 0.045798525 -0.0053384425 -0.062887885 0.06131092 0.10711125 -0.0635039
-0.07870408 0.06784468 0.07664425 -0.07351052 0.0882626 -0.066141374 -0.035125535 0.013698613
-0.054986265 0.017233923 -0.06003738 0.15768644 0.019202828 0.028216839 0.11230991 0.039332192
0.042119328 0.0074342773 -0.08782054 -0.053425256 0.00017545007 -0.06877854 -0.11296382 0.01102144
-0.067210026 -0.08802846 0.09537084 -0.09165598 -0.029562028 -0.057579845 -0.015222609 0.01877851
-0.13136241 -0.033288356 0.11829246 -0.06767165 0.062163178 0.080558 0.13070554 0.016795052
0.17504978 0.056248415 0.024435122 -0.014292295 0.0035870478 -0.016763233 0.035365038 -0.026200725
0.030519346 0.0357018 -0.06500519 0.14224608 0.10498298 0.03182735 -0.0094616655 0.026794242
-0.027584765 -0.02448034 -0.017163567 0.008476423 0.06593884 -0.055888776 0.04329078 -0.121007465
0.0066719353 0.026790345 0.03736975 0.0061623426 -0.008341213 0.08408592 0.021774715 -0.046921067
-0.061622478 0.015132783 0.121845 -0.01645147 0.09681015 -0.16109376 0.11960021 0.003065659
-0.03140899 0.017194413 0.010415074 0.03814195 0.012803327 -0.020054312 0.058809973 -0.007397825
0.030427724 -0.074944004 0.10790622 0.08081787 -0.0049729515 -0.05506522 -0.00775024 -0.026591696
-0.034814887 -0.08682077 0.0031192123 -0.14968434 -0.06914948 0.033211686 -0.04604673 -0.030213146
0.062038273 0.09955622 0.013479828 -0.005438609 0.06876082 -0.03713846 0.07638484 0.14320917
0.18857972 -0.21122628 -0.02646584 -0.1587256 0.00012313588 0.046650082 0.021072857 -0.11554011
-0.05486156 -0.09483311 -0.0018383232 -0.025824407 -0.036612447 0.07686751 -0.083575055 0.036309376
0.13815486 0.02984848 0.14013924 -0.021535983 -0.019813 0.080391936 0.1499142 -0.14283323
0.00073651725 -0.055869438 -0.044203654 0.060916997 0.022342116 0.022203226 0.2245632 -0.09976442
0.030565713 0.034481093 -0.056349885 -0.009965865 0.07019475 0.017892258 -0.036354873 0.029413091
-0.1078904 -0.1321337 -0.04876112 -0.0058577936 -0.03185827 0.04954109 0.10157963 -0.020258507
0.09039715 0.12840879 0.06768678 0.012058331 -0.036113665 0.10053725 0.025313372 -0.09716174
0.053302072 0.037079584 0.09224373 -0.13756791 0.041634962 -0.10693129 -0.16384347 -0.0463829
0.044007465 0.04053609 0.08289278 0.06766738 -0.054785118 -0.08716046 0.027878487 -0.0069328193
0.02242234 0.1270819 0.20125002 -0.061521675 0.039571814 0.1589272 0.03278486 -0.013026502
-0.04649403 -0.11765523 0.064736836 0.06930533 0.057346318 0.06941374 -0.0049108616 0.04194092
0.059374463 0.03113882 -0.051650442 -0.119882986 -0.1652988 0.015565221 0.09938184 -0.004281874
00000000: 105c cebc ee8b 8bbc 47a3 0b3d fa39 ec3c
00000010: fa10 2abd 8926 02be 4691 fc3d 34ee 18be
00000020: b14a 4bbd 84cb f73d 74eb e6bd 5917 4b3c
00000030: 895e f53d 6df9 803d b4c7 1abd 2675 1cbb
00000040: e9c3 533d fd13 d13b a70e 0ebe 7101 2c3d
00000050: 56b1 233b 186b a1bd d9eb edbc 8416 19bd
00000060: e934 9d3d 5ea1 cc3d c26d dcbd dee6 a8bd
00000070: ec47 533a 9fc0 d9bb 232c e93d 7932 babc
00000080: e321 29bd a120 753c 69ec 783a e583 92bd
00000090: d596 113c f1b5 963c 7ba7 0b3d 91a4 d6bd
000000a0: 9fe0 5f3c c600 023d 3c97 3b3d 1aee aebb
000000b0: 5dcb 80bd 2921 7b3d 255d db3d 550e 82bd
000000c0: 9b2f a1bd 27f2 8a3d a9f7 9c3d af8c 96bd
000000d0: 06c3 b43d 2175 87bd cbdf 0fbd 2670 603c
000000e0: 4739 61bd 282e 8d3c c1e9 75bd 8e78 213e
000000f0: 404f 9d3c 0027 e73c bd02 e63d cb1a 213d
00000100: 5185 2c3d 3d9b f33b 41db b3bd 71d4 5abd
00000110: 05f9 3739 c3db 8cbd 9359 e7bd 4593 343c
00000120: 69a5 89bd 4448 b4bd c951 c33d 21b6 bbbd
00000130: 112c f2bc d8d8 6bbd 4068 79bc 64d5 993c
00000140: de83 06be 5f59 08bd 5143 f23d 6f97 8abd
00000150: d19e 7e3d 98fb a43d acd7 053e c795 893c
00000160: 4040 333e bd64 663d 2a2c c83c 3b2a 6abc
00000170: ad14 6b3b 0c53 89bc eeda 103d e7a2 d6bc
00000180: b503 fa3c 0d3c 123d 7121 85bd f5a8 113e
00000190: 5101 d73d 655d 023d 1a05 1bbc 997f db3c
000001a0: 72f9 e1bc fe8a c8bc 9c9a 8cbc b2e0 0a3c
000001b0: f10a 873d a1eb 64bd ac51 313d c3d2 f7bd
000001c0: 40a0 da3b 6d77 db3c 0611 193d 7aed c93b
000001d0: 95a9 08bc 3d35 ac3d e360 b23c 4e30 40bd
000001e0: da67 7cbd 7eef 773c df89 f93d 3cc5 86bc
000001f0: 6644 c63d c3f5 24be f4f0 f43d 39e9 483b
00000200: b7a6 00bd 4cdb 8c3c fda3 2a3c bc3a 1c3d
00000210: 0cc5 513c f148 a4bc bae2 703d 7469 f2bb
00000220: 9043 f93c 3e7c 99bd f0fd dc3d d783 a53d
00000230: 24f4 a2bb 118c 61bd baf5 fdbb d4d6 d9bc
00000240: 0e9a 0ebd 16cf b1bd b36b 4c3b da46 19be
00000250: 3e9e 8dbd fa08 083d 7f9b 3cbd 8f81 f7bc
00000260: d81b 7e3d 22e4 cb3d 7fda 5c3c 5c36 b2bb
00000270: 79d2 8c3d 7f1e 18bd a86f 9c3d 6da5 123e
00000280: 0b1b 413e b44b 58be e4ce d8bc f788 22be
00000290: 091e 0139 2814 3f3d fca0 ac3c 4ba0 ecbd
000002a0: 84b6 60bd dd37 c2bd e4f3 f0ba b58d d3bc
000002b0: eff6 15bd b76c 9d3d 6629 abbd 24b9 143d
000002c0: 7878 0d3e cd84 f43c a980 0f3e 3b6c b0bc
000002d0: df4e a2bc 87a4 a43d 1c83 193e e042 12be
000002e0: d612 413a 5ad7 64bd e40e 35bd 1a84 793d
000002f0: d006 b73c 8ae3 b53c e5f3 653e 4a51 ccbd
00000300: f264 fa3c 0c3c 0d3d 23cf 66bd de47 23bc
00000310: 44c2 8f3d c992 923c d9e8 14bd b9f3 f03c
00000320: a4f5 dcbd 0f4e 07be bdb9 47bd bcf2 bfbb
00000330: d17d 02bd 99eb 4a3d fb08 d03d 2bf5 a5bc
00000340: 2422 b93d 987d 033e 5e9f 8a3d 4e90 453c
00000350: eceb 13bd 79e6 cd3d fd5d cf3c bcfc c6bd
00000360: 4653 5a3d c3e0 173d 48ea bc3d 9ade 0cbe
00000370: 6c89 2a3d cbfe dabd 95c6 27be fffb 3dbd
00000380: 2c41 343d 2c09 263d b1c3 a93d 3295 8a3d
00000390: 5c66 60bd 2f81 b2bd 6d61 e43c b42c e3bb
000003a0: 0eaf b73c c221 023e 7c14 4e3e 27fe 7bbd
000003b0: 0e16 223d d0bd 223e 6b49 063d 1c6d 55bc
000003c0: 8670 3ebd 3af5 f0bd bf94 843d f4ef 8d3d
000003d0: f9e3 6a3d ca28 8e3d 4beb a0bb 3eca 2b3d
000003e0: a332 733d d716 ff3c 6a8f 53bd 3685 f5bd
000003f0: 1744 29be 4505 7f3c b588 cb3d f64e 8cbb

linear2.weight f4 [256, 256]
0.08348314 -0.029437503 0.10582963 0.1168455 0.037822504 -0.2955571 0.07355127 0.080523245
-0.14375418 -0.09177487 0.03846947 -0.16703139 0.11629317 0.08752514 -0.08684725 0.05928181
-0.19702429 0.12251355 0.02026788 -0.027795838 0.111376144 -0.037351202 -0.0013761888 -0.049300224
-0.007929265 0.084888764 -0.22445114 -0.23497573 0.11085157 -0.21883653 0.042480513 0.04931808
-0.046876937 -0.02604361 0.038029898 0.01505309 0.116931394 -0.014277413 -0.1214797 0.28771633
-0.026498863 0.038419265 0.0914041 0.022099257 0.16998957 -0.10799849 -0.014610807 -0.014749293
0.037522074 -0.04591815 0.09895965 -0.038407724 0.062183563 -0.038439497 -0.1418465 -0.03272052
0.13668364 -0.07647795 0.04596488 0.052032236 0.07391413 -0.03937716 0.05799803 -0.11184988
-0.17936088 0.15934764 0.02139158 -0.095741965 0.09212494 -0.080680124 -0.007505179 -0.054218933
0.14385776 0.009295796 -0.04498596 -0.20369782 0.023475692 -0.018970951 0.2089381 -0.13401179
-0.09861459 -0.059599653 -0.11944258 -0.16699983 -0.020041125 -0.017304081 0.2647057 0.14340387
-0.092768684 -0.09278567 0.1296042 0.021479912 0.029442161 -0.12849408 0.061439462 0.106137864
0.2028849 -0.121630974 -0.36145255 -0.0057791946 -0.054903343 0.086862095 0.08394917 -0.020456802
-0.116485834 -0.11530639 0.08653413 -0.036714036 -0.10659522 0.28398946 -0.1685173 -0.057468593
0.2150977 0.09371907 -0.098440535 0.04180942 -0.06697637 0.08866133 -0.20828697 0.058810048
-0.063825704 0.1076522 -0.062870204 0.07441947 0.018316496 -0.1286723 -0.06047716 -0.032390255
-0.05778734 -0.013690421 -0.24416351 0.17303048 -0.078213274 0.10673366 -0.17167383 -0.064993635
-0.05714916 0.096888945 0.026230084 0.18276046 -0.03153714 0.055248667 -0.10831863 -0.10796921
0.0247434 -0.17111856 -0.040383678 -0.07660504 -0.049647238 -0.06623909 0.03019051 0.15025744
-0.17658053 0.045183163 0.1388085 -0.32551458 0.16227426 0.14395514 0.07501771 0.050026007
-0.20064391 0.05399269 -0.1075143 -0.06268108 -0.22514978 0.010735658 0.052697122 0.13589235
0.18330888 0.0021819398 -0.03584948 0.17835216 -0.24663717 0.08730175 -0.046379037 0.21434881
0.14940932 0.21081689 -0.021910574 -0.045209 -0.10607579 -0.21384093 -0.023838988 -0.15340094
0.10871795 -0.23052263 -0.11248192 0.11319526 -0.11836946 -0.078994855 -0.077247374 0.14877461
-0.081139766 0.13973011 -0.08393371 -0.15518558 0.14574918 -0.28304648 -0.015674971 -0.16870971
-0.10594746 -0.103830926 -0.052908752 0.14573134 -0.055170767 0.11615255 0.10862332 -0.23177592
0.036538683 0.09503097 0.14971144 0.14264466 0.15213738 -0.033504408 0.13392329 0.003856266
0.030540526 -0.10171303 -0.058866713 -0.2401535 0.008629238 -0.0009592007 0.15524241 -0.107266136
-0.14034139 0.1318228 -0.09036593 0.17830275 0.0947432 -0.11235284 -0.25966194 0.04435399
-0.1288132 0.11376799 0.1087797 0.22552536 -0.14904696 0.12210492 0.06671454 -0.093619384
-0.12778969 0.1513322 0.12892538 -0.0576341 0.032294326 -0.17715447 -0.14386739 0.11057191
0.07662941 0.09544359 -0.06656596 0.025643481 0.0828781 -0.010878367 0.013325294 0.18333063
00000000: 35f9 aa3d eb26 f1bc 34bd d83d b24c ef3d
00000010: c5eb 1a3d 4353 97be 0ca2 963d 5fe9 a43d
00000020: 4c34 13be 77f4 bbbd 2a92 1d3d 470a 2bbe
00000030: 1d2b ee3d 6140 b33d f9dc b1bd 7cd1 723d
00000040: bcc0 49be 62e8 fa3d d308 a63c 19b4 e3bc
00000050: 2d19 e43d 93fd 18bd 3c61 b4ba 08ef 49bd
00000060: bfe9 01bc 29da ad3d 85d6 65be 7a9d 70be
00000070: 2606 e33d af16 60be 0c00 2e3d c101 4a3d
00000080: 0802 40bd 6959 d5bc 3dc5 1b3d 3ca1 763c
00000090: ba79 ef3d cfeb 69bc 59ca f8bd 8e4f 933e
000000a0: 2514 d9bc 855d 1d3d 1332 bb3d 8009 b53c
000000b0: bf11 2e3e 502e ddbd 2b62 6fbc 05a7 71bc
000000c0: bfb0 193d ac14 3cbd 5bab ca3d 6b51 1dbd
000000d0: 31b4 7e3d bc72 1dbd 3540 11be f405 06bd
000000e0: ccf6 0b3e 79a0 9cbd ac45 3c3d c11f 553d
000000f0: 4b60 973d f249 21bd 588f 6d3d 8d11 e5bd
00000100: 61aa 37be 072c 233e 653d af3c 5d14 c4bd
00000110: 00ac bc3d 9f3b a5bd 01ee f5bb ac14 5ebd
00000120: 734f 133e 654d 183c 3343 38bd 2996 50be
00000130: 1850 c03c f868 9bbc dff3 553e 633a 09be
00000140: 72f6 c9bd c41e 74bd 509e f4bd 0102 2bbe
00000150: 492d a4bc 4ac1 8dbc 8187 873e 77d8 123e
00000160: 82fd bdbd 6a06 bebd f7b6 043e a4f6 af3c
00000170: b030 f13c f493 03be f2a7 7b3d cf5e d93d
00000180: 0fc1 4f3e a919 f9bd 4f10 b9be 665f bdbb
00000190: 54e2 60bd c1e4 b13d 8bed ab3d 0695 a7bc
000001a0: 2090 eebd c225 ecbd ce38 b13d 7561 16bd
000001b0: 984e dabd 1167 913e cd8f 2cbe 3064 6bbd
000001c0: 9242 5c3e c9ef bf3d 319b c9bd 5b40 2b3d
000001d0: e82a 89bd 1294 b53d 2e49 55be cee2 703d
000001e0: 0db7 82bd c278 dc3d 18c2 80bd 3c69 983d
000001f0: 7a0c 963c acc2 03be e6b6 77bd a5ab 04bd
00000200: 6bb2 6cbd ca4d 60bc 0006 7abe e72e 313e
00000210: 482e a0bd 2d97 da3d 44cb 2fbe 621b 85bd
00000220: 3d15 6abd b66d c63d 79e0 d63c 8f25 3b3e
00000230: 172d 01bd 6d4c 623d 28d6 ddbd f61e ddbd
00000240: acb2 ca3c b439 2fbe 5b69 25bd 1ae3 9cbd
00000250: e75a 4bbd 5ca8 87bd 1752 f73c 16dd 193e
00000260: 87d1 34be fb11 393d d123 0e3e d9a9 a6be
00000270: 392b 263e fa68 133e e3a2 993d 12e8 4c3d
00000280: 9975 4dbe 7027 5d3d 7530 dcbd f05e 80bd
00000290: aa8d 66be 9de4 2f3c f0d8 573d 5d27 0b3e
000002a0: 53b5 3b3e e0fe 0e3b e8d6 12bd f3a1 363e
000002b0: 748e 7cbe 43cb b23d f2f7 3dbd 417e 5b3e
000002c0: c2fe 183e 62e0 573e ce7d b3bc 132d 39bd
000002d0: 443e d9bd 1ef9 5abe fb49 c3bc 2315 1dbe
000002e0: 84a7 de3d 200e 6cbe ec5c e6bd ebd2 e73d
000002f0: b06b f2bd 0ec8 a1bd df33 9ebd 5f58 183e
00000300: 9b2c a6bd 6915 0f3e 70e5 abbd f8e8 1ebe
00000310: 463f 153e 78eb 90be cc68 80bc 3dc2 2cbe
00000320: fbfa d8bd 4fa5 d4bd d9b6 58bd 993a 153e
00000330: befa 61bd 63e1 ed3d e775 de3d ab56 6dbe
00000340: 96a9 153d 999f c23d f54d 193e 7111 123e
00000350: e7c9 1b3e eb3b 09bd 3023 093e 68b9 7c3b
00000360: 2030 fa3c ec4e d0bd 391e 71bd cdea 75be
00000370: a661 0d3c df72 7bba def7 1e3e 59ae dbbd
00000380: a7b5 0fbe 8efc 063e c611 b9bd ff94 363e
00000390: b908 c23d 3f19 e6bd 69f2 84be 88ac 353d
000003a0: 9ce7 03be 31ff e83d e4c7 de3d 1ff0 663e
000003b0: c49f 18be 2512 fa3d a2a1 883d 85bb bfbd
000003c0: 4ddb 02be d4f6 1a3e 0405 043e bc11 6cbd
000003d0: 0e47 043d fb67 35be f951 13be 8773 e23d
000003e0: e1ef 9c3d ee77 c33d bc53 88bd 4712 d23c
000003f0: febb a93d 2e3b 32bc 5552 5a3c 06bb 3b3e

linear2.bias f4 [256]
0.07874946 0.017408356 0.0024577936 -0.028524453 0.02800906 0.060048588 -0.03270386 0.018796694
0.04219273 0.026845993 -0.097176105 -0.080096304 -0.0956434 0.011614278 -0.03736164 0.06779008
0.039464243 0.02400133 -0.009833828 -0.03073427 -0.07823751 -0.024066882 -0.018696826 -0.14425077
0.08799673 0.04629067 -0.04956076 -0.024680667 0.023599172 -0.13113788 -0.0066704503 -0.034287855
-0.06599952 0.008522802 0.027321603 -0.031851094 0.0034063975 -0.11624934 -0.03391918 -0.025656546
-0.085709944 0.03976705 0.15254466 -0.028964743 -0.12326891 -0.05212084 0.043711387 -0.04355021
0.012774249 0.023158027 -0.061009374 0.04116532 0.01946263 -0.050664708 -0.04424775 0.024247881
0.021623956 0.037227552 -0.018400852 -0.037560448 0.112678126 0.013163409 -0.013982737 0.03444601
-0.053060733 -0.07265288 -0.050911773 -0.05163405 -0.080530256 0.0037049544 0.006473213 -0.015649522
-0.019755062 -0.035797175 0.0947031 0.010609114 -0.048757136 -0.052651633 -0.0028987764 -0.023618955
0.09216187 -0.1054307 -0.047766317 0.004658799 0.004540307 0.021425292 0.003068171 -0.08551301
0.0016589828 0.054981254 0.14526047 0.022505036 0.0057756617 -0.09243945 -0.0036229286 0.0089241
-0.038386412 -0.0984938 0.018119387 0.04595978 0.0031432365 -0.04622197 0.016899426 -0.09720021
-0.053423166 -0.043512013 -0.022713158 0.0027934604 0.023651475 -0.008617689 -0.09344497 -0.055319652
0.18058638 -0.08728983 0.03877458 0.074730076 0.010322447 0.016516093 0.0744751 0.08621872
-0.053897887 -0.016452154 0.10596019 0.009133091 -0.04403775 -0.021091094 0.0027428947 -0.024991276
0.018190524 -0.07118143 0.12567917 0.031519394 -0.03517627 0.032423325 -0.10521688 -0.086407855
5.8341077e-05 -0.041565973 0.009386794 0.015625963 -0.079994574 0.031931322 -0.059851393 0.058765147
0.059092402 0.013389689 0.05208101 0.005150988 0.034423295 -0.07832714 0.087909475 -0.022371305
0.02080603 -0.019499544 0.010969749 0.10890567 -0.06021468 0.008883664 0.09493657 0.0074461345
0.02074361 0.025701486 0.042942703 -0.030666059 0.03580807 0.036664806 0.009536804 -0.01858457
0.012140356 -0.1328512 0.005557128 0.015201608 0.020366628 -0.034435287 -0.00066132 0.122339204
0.035999924 -0.021532115 -0.12294877 -0.02776121 -0.038071293 0.010329502 0.01213094 0.010198004
-0.00047205726 -0.14136882 -0.06493939 -0.02319652 -0.063197844 -0.03196854 0.0025327483 0.10983821
0.004945033 0.03335079 -0.13620396 -0.070816 -0.013057933 0.008239829 0.12041011 -0.032369457
-0.027902115 0.0096980985 -0.047356293 -0.01177851 -0.01398902 0.06500663 0.14277928 -0.05440895
-0.019616721 0.050977018 0.16586126 -0.08025618 0.026112016 -0.037548978 0.018094355 -0.020658065
0.025165198 -0.07773293 0.041633185 0.025202643 0.0026333674 0.007380538 0.07376933 -0.07258382
0.008775744 0.0008953051 0.031150911 0.11594821 -0.0159376 -0.0028779882 -0.05284095 -0.0011303653
-0.060574513 -0.0059338794 -0.0021471814 0.05136471 0.0051703984 0.16387801 -0.03685149 0.027464362
0.045556694 -0.112088546 0.005344567 0.06791282 -0.010695974 0.09966398 0.026945645 -0.037598778
-0.010685102 -0.019734347 0.038992863 -0.098595336 -0.055159073 0.0042720614 0.06085612 -0.11301996
00000000: 6647 a13d f89b 8e3c ef12 213b 1dac e9bc
00000010: 4273 e53c 82f5 753d 7cf4 05bd 86fb 993c
00000020: 49d2 2c3d 21ec db3c 4404 c7bd 8809 a4bd
00000030: b0e0 c3bd d049 3e3c 8508 19bd 87d5 8a3d
00000040: 42a5 213d 709e c43c 101e 21bc 70c6 fbbc
00000050: fd3a a0bd e927 c5bc 162a 99bc 79b6 13be
00000060: a137 b43d 499b 3d3d 3900 4bbd 1c2f cabc
00000070: 0d53 c13c 0249 06be cb93 dabb 6c71 0cbd
00000080: c22a 87bd 39a3 0b3c 8ed1 df3c 4b76 02bd
00000090: de3d 5f3b 2214 eebd d7ee 0abd ad2d d2bc
000000a0: b288 afbd c6e2 223d ab34 1c3e 7847 edbc
000000b0: 6974 fcbd a97c 55bd b60a 333d b461 32bd
000000c0: 154b 513c e7b5 bd3c f7e4 79bd f79c 283d
000000d0: 1870 9f3c cc85 4fbd 213d 35bd 7ea3 c63c
000000e0: b924 b13c eb7b 183d 62bd 96bc fcd8 19bd
000000f0: cac3 e63d 57ab 573c da17 65bc 4217 0d3d
00000100: 3656 59bd 08cb 94bd dd88 50bd 3a7e 53bd
00000110: 0ced a4bd d2ce 723b 3f1d d43b 6d33 80bc
00000120: 5ed5 a1bc 0fa0 12bd b3f3 c13d d9d1 2d3c
00000130: 90b5 47bd 3da9 57bd 66f9 3dbb 8a7c c1bc
00000140: 5dbf bc3d 0dec d7bd 9da6 43bd d7a8 983b
00000150: dbc6 943b 1884 af3c 5e13 493b 7221 afbd
00000160: 3a72 d93a 0634 613d 29bf 143e 7b5c b83c
00000170: c341 bd3b e550 bdbd a86e 6dbb 6336 123c
00000180: 123b 1dbd 1eb7 c9bd 1c6f 943c 5340 3c3d
00000190: c2fe 4d3b 4053 3dbd aa70 8a3c e710 c7bd
000001a0: 40d2 5abd a739 32bd f210 babc 7d12 373b
000001b0: bdc0 c13c 3531 0dbc 1460 bfbd dc96 62bd
000001c0: a3eb 383e 03c5 b2bd 18d2 1e3d 150c 993d
000001d0: 7b1f 293c c24c 873c 6786 983d 7193 b03d
000001e0: 08c4 5cbd abc6 86bc a801 d93d f6a2 153c
000001f0: ee60 34bd 3bc7 acbc 23c2 333b 81ba ccbc
00000200: 4b04 953c 92c7 91bd 0ab2 003e 7b1a 013d
00000210: fe14 10bd 52ce 043d f37b d7bd 9af6 b0bd
00000220: 41b3 7438 1541 2abd 11cb 193c 0502 803c
00000230: 32d4 a3bd 6bca 023d bc26 75bd b9b3 703d
00000240: e00a 723d 6d60 5b3c e652 553d 9fc9 a83b
00000250: 71ff 0c3d fb69 a0bd e209 b43d 0744 b7bc
00000260: 6871 aa3c 82bd 9fbc 76ba 333c f009 df3d
00000270: aba3 76bd ca8c 113c 1b6e c23d b4fe f33b
00000280: 81ee a93c ec8b d23c b0e4 2f3d 6337 fbbc
00000290: 7cab 123d d62d 163d 4140 1c3c ab3e 98bc
000002a0: 58e8 463c 250a 08be 9218 b63b 2a10 793c
000002b0: ead7 a63c 040c 0dbd 6f5c 2dba fa8c fa3d
000002c0: a874 133d 1e64 b0bc 91cc fbbd 7a6b e3bc
000002d0: a5f0 1bbd 123d 293c dac0 463c 8715 273c
000002e0: 747e f7b9 fdc2 10be f1fe 84bd a106 bebc
000002f0: df6d 81bd 72f1 02bd 77fc 253b dbf2 e03d
00000300: f209 a23b d79a 083d 0d79 0bbe fb07 91bd
00000310: f1f0 55bc 5900 073c 9399 f63d d695 04bd
00000320: fa92 e4bc c6e4 1e3c acf8 41bd a7fa 40bc
00000330: 3432 65bc 3222 853d bb34 123e ebdb 5ebd
00000340: 3fb3 a0bc 47cd 503d 89d7 293e 5a5d a4bd
00000350: dee8 d53c f5cc 19bd 9d3a 943c 1a3b a9bc
00000360: 3f27 ce3c 7132 9fbd 8f87 2a3d c675 ce3c
00000370: 9394 2c3b 71d8 f13b 6014 973d d3a6 94bd
00000380: 23c8 0f3c e8b2 6a3a 3230 ff3c 4176 ed3d
00000390: 928f 82bc a19c 3cbb c16f 58bd c428 94ba
000003a0: fb1c 78bd fd70 c2bb bab7 0cbb cd63 523d
000003b0: 726c a93b a3cf 273e 97f1 16bd f1fc e03c
000003c0: a899 3a3d ae8e e5bd 7a21 af3b e015 8b3d
000003d0: 2b3e 2fbc a11c cc3d 1dbd dc3c 2d01 1abd
000003e0: 9110 2fbc eda9 a1bc fbb6 1f3d 5aec c9bd
000003f0: 7bee 61bd a6fc 8b3b 4444 793d 0277 e7bd

mean_linear.weight f4 [2, 256]
0.2508559 0.17967175 -0.14902894 0.12660229 0.108161 -0.25730395 -0.16037676 0.03139973
0.22618507 -0.13014957 0.028321797 -0.16463545 0.36049864 -0.03603287 0.2617261 -0.19728658
0.05550377 -0.058225986 -0.00063494506 0.111409195 0.1431286 -0.1673021 0.18818335 0.101886235
0.27400634 -0.14589037 0.24259299 0.13939637 -0.26561248 -0.2592407 -0.11382036 0.14063078
0.13836083 -0.1575776 -0.05017652 0.15174916 -0.031114262 0.060380284 0.05143585 0.03583454
0.1766884 0.0077574104 0.052147046 -0.21363778 0.33356082 0.027541427 -0.15493828 -0.013280783
0.1470729 0.14403138 0.23214804 0.1350366 0.11286086 -0.18120302 -0.20121211 -0.07384569
0.024651315 -0.23495284 0.22040477 0.2632174 -0.12981854 0.15090589 0.17741828 0.07800458
0.18231851 -0.17381796 0.14847282 -0.12658012 0.19384363 0.020499295 -0.21388145 0.00022964316
-0.110969156 -0.26562577 -0.048743658 0.093245976 0.17133234 0.16859426 0.23904999 8.3241765e-05
-0.17412627 -0.2712243 0.1360288 0.20116973 -0.20209575 0.086141475 0.13290836 0.22710446
0.042026997 0.21387646 -0.17228751 -0.144202 -0.17791238 -0.24524896 -0.0014724025 0.14448482
-0.11063152 0.12039405 -0.12627451 -0.061186705 0.097040996 0.18381462 0.16169591 -0.18986169
0.101538874 0.21416314 -0.12436278 -0.13937406 -0.2699582 0.17911354 0.09278299 0.19389868
-0.19248393 0.118129715 -0.1973231 -0.12713891 -0.03945256 -0.0074534835 -0.12005838 -0.15968141
0.11031839 -0.0005897177 -0.13012503 -0.0045044594 0.21529604 0.028538479 -0.14083512 0.22761977
0.06672124 0.16517924 -0.14604023 -0.1777045 -0.072579525 0.023682207 0.19905156 0.17475627
-0.11265043 -0.0011187623 0.0034834512 0.00027551595 0.2412406 0.1341433 -0.22664075 -0.09155758
-0.14099641 0.095354855 -0.18401486 -0.15965854 0.18764193 0.13620001 -0.015633507 0.1536334
0.14246365 0.040196184 0.116212055 0.10370073 0.11075246 -0.17178832 -0.022948949 0.09377866
-0.29089198 0.15439875 0.31075665 -0.28914562 -0.20551415 0.046597015 0.08980006 -0.16558996
-0.107336104 0.06194121 -0.18494083 -0.0007964632 -0.21684292 -0.12109401 -0.24463297 0.27873856
0.0189292 -0.00013854529 0.14416942 -0.13684861 -0.24072316 -0.21626885 -0.112978704 -0.13172583
-0.23103034 0.19096494 0.19694267 0.02330722 0.09442101 0.2048151 -0.11855408 -0.026887037
-0.13063039 0.00059066375 -0.12845942 0.072621465 0.01934518 0.15026455 -0.15288381 -0.071502626
0.15275094 0.062494062 -0.086365335 -0.13941213 -0.22561674 -0.13889603 0.08682472 0.17522816
-0.05090593 0.129584 0.18426138 0.22300754 -0.22781247 0.21929006 -0.16564074 0.10895145
0.27186763 0.12881844 -0.17491916 -0.0274817 0.14493546 0.095771834 -0.14384851 0.1773046
-0.14046843 -0.00040481967 -0.10677952 0.03382695 0.0633943 0.17236826 -0.05617589 0.10186445
0.19783996 -0.00052998017 0.17299107 -0.18822438 0.1754304 -0.28162122 0.19861917 0.1813224
0.001228001 0.18022366 0.1851246 -0.1471783 -0.09854978 -0.0017579732 -0.1964347 -0.0042764037
0.15827782 0.019755377 0.237237 -0.20046388 -0.11223478 -0.14287782 -0.222407 0.1007996
00000000: 2f70 803e dffb 373e 0b9b 18be 08a4 013e
00000010: 8483 dd3d 58bd 83be ce39 24be 019d 003d
00000020: 0f9d 673e ee45 05be 1d03 e83c 3296 28be
00000030: 4793 b83e 3497 13bd f700 863e 7e05 4abe
00000040: ec57 633d 5f7e 6ebd 7172 26ba 812a e43d
00000050: 4e90 123e 3e51 2bbe 23b3 403e bba9 d03d
00000060: 8f4a 8c3e 4964 15be 4c6a 783e ecbd 0e3e
00000070: 5cfe 87be 32bb 84be a61a e9bd 8401 103e
00000080: 76ae 0d3e 065c 21be e585 4dbd 2264 1b3e
00000090: 56e3 febc 5151 773d 66ae 523d 3dc7 123d
000000a0: ceed 343e e031 fe3b 2498 553d ddc3 5abe
000000b0: 7cc8 aa3e 8f9e e13c 24a8 1ebe a497 59bc
000000c0: 479a 163e f67c 133e 37b8 6d3e 0947 0a3e
000000d0: 9823 e73d 498d 39be 8c0a 4ebe 693c 97bd
000000e0: 8ef1 c93c 7a97 70be cab1 613e 6ec4 863e
000000f0: 27ef 04be 1387 1a3e 23ad 353e dec0 9f3d
00000100: b4b1 3a3e 56fd 31be 4209 183e 389e 01be
00000110: f27e 463e 23ee a73c bd03 5bbe 5ecc 7039
00000120: cc43 e3bd 1a00 88be 6ea7 47bd bff7 be3d
00000130: bf71 2f3e f9a3 2c3e 85c9 743e 1592 ae38
00000140: 284e 32be e9dd 8abe 224b 0b3e 70ff 4d3e
00000150: 30f2 4ebe f16a b03d 2119 083e 128e 683e
00000160: 8024 2c3d 6e02 5b3e 236c 30be b0a9 13be
00000170: aa2e 36be 8b22 7bbe a1fd c0ba d4f3 133e
00000180: c792 e2bd 2891 f63d 1b4e 01be e99e 7abd
00000190: 6ebd c63d e639 3c3e 9d93 253e 1a6b 42be
000001a0: 9df3 cf3d 954d 5b3e eab1 febd 13b8 0ebe
000001b0: f637 8abe 8a69 373e 0205 be3d 608d 463e
000001c0: 821a 45be feed f13d 110f 4abe b430 02be
000001d0: 0299 21bd 5a3c f4bb 2be1 f5bd 8683 23be
000001e0: 9cee e13d 4997 1aba 7f3f 05be 259a 93bb
000001f0: 9176 5c3e 87c9 e93c 1537 10be 2815 693e
00000200: 25a5 883d bf24 293e 928b 15be 2bf8 35be
00000210: 93a4 94bd 3001 c23c 2cd4 4b3e 4ff3 323e
00000220: 45b5 e6bd 6fa3 92ba 9d4a 643b 2073 9039
00000230: c707 773e dc5c 093e 8314 68be 8a82 bbbd
00000240: 5d61 10be 6849 c33d 646e 3cbe 877d 23be
00000250: 3525 403e 0478 0b3e d711 80bc 1352 1d3e
00000260: fee1 113e c1a4 243d 9600 ee3d 0c61 d43d
00000270: 30d2 e23d 47e9 2fbe 6fff bbbc 070f c03d
00000280: cbef 94be b51a 1e3e 7f1b 9f3e e50a 94be
00000290: 4d72 52be 83dc 3e3d 18e9 b73d 6a90 29be
000002a0: 08d3 dbbd 11b6 7d3d 2161 3dbe bec9 50ba
000002b0: 120c 5ebe 2300 f8bd 1181 7abe d2b6 8e3e
000002c0: 6911 9b3c 7846 11b9 26a1 133e 0b22 0cbe
000002d0: 2280 76be 9575 5dbe 6161 e7bd 23e3 06be
000002e0: 3893 6cbe 508c 433e 57ab 493e c8ee be3c
000002f0: cd5f c13d 0dbb 513e 7bcc f2bd 3442 dcbc
00000300: f9c3 05be c6d6 1a3a de8a 03be 90ba 943d
00000310: c879 9e3c f3de 193e 938d 1cbe f86f 92bd
00000320: be6a 1c3e c6f9 7f3d 4fe0 b0bd 0ec2 0ebe
00000330: 1308 67be c33a 0ebe 29d1 b13d 036f 333e
00000340: bd82 50bd abb1 043e 04af 3c3e 175c 643e
00000350: ac47 69be 938d 603e ba9d 29be f021 df3d
00000360: 3c32 8b3e fbe8 033e 021e 33be 4d21 e1bc
00000370: f669 143e 0624 c43d 064d 13be 568f 353e
00000380: f5d6 0fbe fa3d d4b9 39af dabd 218e 0a3d
00000390: dfd4 813d 4e81 303e b118 66bd 4f9e d03d
000003a0: 8f96 4a3e 5eee 0aba 9224 313e e4bd 40be
000003b0: 07a4 333e a830 90be d362 4b3e 94ac 393e
000003c0: e0f4 a03a 8d8c 383e 4e91 3d3e e9b5 16be
000003d0: 78d4 c9bd cb6b e6ba 2e26 49be 1321 8cbb
000003e0: 9513 223e 07d6 a13c 42ee 723e 6746 4dbe
000003f0: 59db e5bd 904e 12be a9be 63be 0570 ce3d

mean_linear.bias f4 [2]
-0.058709376 -0.00078256073
00000000: 3e79 70bd c324 4dba
