output/CarlaNavigation-v0/wcsac/5/cost.pt (torch, 536535 bytes, 5 tensors)

net.0.weight f4 [256, 263]
000000 ef 8b ad 3c 4e d7 22 bc d7 c3 ed 3d c6 d1 e5 3c
       0.02118489 -0.009939028 0.11609619 0.02805413
000010 fb 6d ab 3d fa 8e 86 3d 54 84 e8 bd b4 57 75 3d
       0.083705865 0.06570239 -0.113533646 0.059898093
000020 54 29 74 bd 35 55 fa bd 88 55 f1 bc 47 a3 0a bd
       -0.059609726 -0.12223283 -0.02945973 -0.03384712
000030 55 4a 99 bd 41 52 7c bd 14 08 15 3e ca 75 06 3e
       -0.07484881 -0.06160188 0.14553863 0.1313087
000040 e9 f1 aa 3d ae 79 0c bd af 96 34 3e 8e 72 13 3d
       0.08346922 -0.03429573 0.17635606 0.03599792
000050 f1 da eb 3d 12 86 b7 bc a5 ca c2 bc 98 f4 11 3e
       0.11516369 -0.022402797 -0.023778269 0.14253461
000060 98 e1 76 bd 22 69 bf bd d3 70 bf 3d 46 92 e5 bd
       -0.060273737 -0.09346224 0.093476914 -0.1120954
000070 ee e1 06 3e 68 23 7a 3d b1 8d e5 bd 00 c4 19 3e
       0.13172123 0.061068922 -0.11208666 0.15016174
000080 b6 f3 ef bd 92 de b3 3d b4 4f 9b bc d2 9b ac bd
       -0.11716406 0.08782686 -0.018958904 -0.08428158
000090 4f eb 85 3d 82 71 c3 3d 21 3d cb bd e3 d5 8d bc
       0.06539022 0.09543134 -0.09923769 -0.017313903
0000a0 cc 4a 34 bd 0d 4c b9 3c 22 e8 14 3e 5e 81 e8 3d
       -0.044016644 0.022619272 0.14541677 0.113528
0000b0 41 03 be bd 5c 3e 16 3d a8 4a 31 3d cd 56 a0 bd
       -0.092779644 0.036680564 0.04328409 -0.07829056
0000c0 81 08 14 3d 7e 48 56 3c 13 cc a3 bd 94 e2 a0 3b
       0.036140922 0.013078807 -0.079979084 0.0049098227
0000d0 97 9d 97 3d 20 1b 9c bd 07 e5 05 3e 78 3d 56 3d
       0.07403105 -0.07622361 0.13075648 0.052304715
0000e0 57 b4 dc bd 36 10 81 bd 01 82 5a bd e8 d3 f7 3c
       -0.107765846 -0.0630192 -0.053346638 0.030252412
0000f0 57 52 6b bd 21 fa a2 3d 31 bd 81 3c db d2 0f bc
       -0.057451572 0.079578646 0.015837284 -0.008778299
000100 d6 ad e1 bd 9d b7 11 3e 58 dc 17 3d 78 4c 1f be
       -0.11019485 0.14230199 0.03707537 -0.15556514
000110 9e 9e 63 bd 95 e2 19 be 0e c7 63 bd 19 43 b2 bc
       -0.05557119 -0.1502784 -0.055609755 -0.02176051
000120 71 a6 e6 3c 5b 2a 3a bc 71 c9 68 3c f5 8f 87 bd
       0.028155537 -0.011362637 0.014208184 -0.066192545
000130 de 9c 41 3c 48 68 8d 3c 0f b5 8e bd 4c b4 d9 ba
       0.011817185 0.01726164 -0.06968128 -0.0016609519
000140 dd bc 23 bc 8a 49 c5 bd 70 1e f1 3d 0f 02 af bd
       -0.009993759 -0.09633167 0.117733836 -0.085453145
000150 66 c3 03 3e ce 01 ad bc 77 a0 f4 bd 8c 2a 75 bd
       0.12867507 -0.021119025 -0.11944669 -0.05985503
000160 71 02 d3 3d d6 de 27 3c e3 9d 8f bc 9c ed 33 3d
       0.103032 0.010245999 -0.017531341 0.043927774
000170 31 4e 3e bc 5b 2e 43 3b a4 c8 9b 3d fa c5 7a bd
       -0.011615322 0.0029782269 0.076066285 -0.06122396
000180 5c 85 43 bd cb 80 09 be bb 55 c8 bd a8 36 d7 bd
       -0.047734603 -0.13428037 -0.09781977 -0.10508472
000190 06 96 f0 3c 30 f9 cc bd 83 92 0f 3e a2 77 05 3e
       0.029368412 -0.10008466 0.14020734 0.13033918
0001a0 be 29 d4 bd c1 5c 8d bd a4 da e1 bd 34 5f 1a be
       -0.10359524 -0.06902457 -0.110280305 -0.1507538
0001b0 96 3a f1 3d 48 88 21 3d bb 98 cb bd 07 0c 6d bd
       0.117787525 0.03943661 -0.099412404 -0.0578728
0001c0 b9 29 1b bd 45 8a f3 bc 69 5e 9f bd fe a8 b8 3b
       -0.037881587 -0.029729018 -0.07781679 0.00563538
0001d0 94 20 90 bd 3e 75 92 bd 17 4e 9d 3d 87 f4 9e bd
       -0.07037464 -0.071512684 0.0768091 -0.07761484
0001e0 5c 82 01 3e 19 8b 53 3c 1c ea 01 be 3c 1c 23 be
       0.12647384 0.012911581 -0.12686962 -0.1592874
0001f0 66 60 94 bd b5 6f 0e 3d b0 91 7e 3d d7 60 aa bd
       -0.07244949 0.0347745 0.062150657 -0.08319252
000200 7d 45 eb bc 34 1e 01 3e 3f ca 81 3d 33 cf 78 3d
       -0.028719658 0.12609178 0.063374035 0.060744476
000210 02 7a 8c bd 68 d7 b3 3c 09 05 8e bd 42 cd 14 3e
       -0.06859209 0.0219533 -0.06934554 0.14531425
000220 5b cf ff 3c a6 a0 09 3e af e1 ef 3d f5 af fb 3d
       0.031226804 0.13440189 0.117129676 0.122894205
000230 ff ba 04 3e 27 eb b0 bd 18 e5 92 bd ef 8b 32 3d
       0.12961958 -0.08638602 -0.071726024 0.043590482
000240 34 02 28 be 33 b4 15 3d 4f ec 05 3e dc de 08 3e
       -0.1640709 0.036548804 0.13078426 0.13366264
000250 1c 55 2f be 5a 19 34 bd 54 15 8e bd 4d 17 f5 3d
       -0.1712231 -0.04396949 -0.06937662 0.11967335
000260 9c 5b a9 3b fc e2 69 bd d9 1c 1f bd 3e 6f 04 be
       0.0051683914 -0.057101235 -0.03884587 -0.1293306
000270 52 95 51 3c 6c 66 33 3e b6 ef 30 be 82 84 94 3c
       0.012791948 0.1751954 -0.17278942 0.01812959
000280 81 50 cb ba 3d 44 36 3d e9 50 e6 bd 96 a1 45 bd
       -0.0015511663 0.04449867 -0.11245901 -0.048249803
000290 82 54 e9 bc b3 d9 e2 bd e6 90 b3 3b 80 04 7a 3d
       -0.02848268 -0.11076679 0.0054799197 0.061039448
0002a0 47 85 af bc 4b c8 34 3c bc cd f4 3c 1d ce 5e bd
       -0.021425856 0.011034082 0.029883258 -0.054395784
0002b0 49 ee 3c bd 8a e4 03 be ee 1b c6 bd 2e 04 f3 3c
       -0.046125684 -0.1288015 -0.09673296 0.029665079
0002c0 c9 6c f4 bd aa 73 1c be 61 dd 6e bc 1b ef 1e 3e
       -0.119348116 -0.15278497 -0.014579148 0.15520899
0002d0 53 7b 02 3d 33 af 4c bd fe 86 e3 bd 76 7f bc 3d
       0.031855892 -0.04997177 -0.11109732 0.09203999
0002e0 29 1a 63 3c f1 57 b8 3d af ac c5 bd d5 3e d8 bd
       0.013861218 0.090011485 -0.096520774 -0.10558859
0002f0 07 7f 02 3e 1c 8b 2c 3e 72 7b ab 3d 58 e7 94 3d
       0.1274377 0.16849941 0.08373155 0.07270688
000300 46 31 dc bd c4 a2 af bd 48 98 f0 3d 7f ef 65 bd
       -0.10751586 -0.08575967 0.11747795 -0.056136604
000310 e1 8c a0 3d ec 16 28 3d 87 8c 77 bd bb 8f 1d bd
       0.078393705 0.041037485 -0.06043675 -0.03846715
000320 a7 55 64 3c 13 66 6a 3b ef 4e 54 bd 8d 19 04 be
       0.013936437 0.0035766407 -0.05183309 -0.12900372
000330 45 83 0f 3d 56 9b 75 3d 0a 1f 1f bd 6b 29 bd b8
       0.035037298 0.059962593 -0.03884796 -9.019937e-05
000340 25 fd e1 3d 67 c8 97 3d e0 a9 e3 3d ad 65 1b 3e
       0.110346116 0.074112706 0.111163855 0.15175505
000350 86 32 de 3d 12 ca 71 bd 90 9e a8 3c a7 e9 b0 bd
       0.1084948 -0.0590306 0.020583421 -0.08638316
000360 76 57 9a bd b1 fc 8e 3d 8e 5b 2a bd 67 7a 1a 3d
       -0.07536213 0.06981791 -0.04159122 0.03771439
000370 02 6e c9 bd 84 1e 26 3c e3 1d 9a bd 82 3a cc 3d
       -0.098354355 0.010139111 -0.07525232 0.09972097
000380 ff f3 e7 3d 75 6e 3a bd 89 7a bb 3d 3b 7c d0 bd
       0.113258354 -0.045515496 0.09154231 -0.10179945
000390 04 e0 9b bd 10 4d 61 3d 2a 38 b6 3d f4 06 ab 3c
       -0.07611087 0.055005133 0.08897431 0.020877339
0003a0 cb 5c 07 3e 88 ba 06 bd 5b 76 28 3e c7 14 56 ba
       0.13218991 -0.032892734 0.16451399 -0.0008166548
0003b0 b9 14 15 bd d3 e2 c4 bd f4 a6 52 bc 07 99 82 bd
       -0.036396716 -0.09613576 -0.012857188 -0.06376844
0003c0 7a ea 9e 3d 47 e9 1f 3d 56 05 76 3c 49 72 ad 3d
       0.077595666 0.03904083 0.015015921 0.08469064
0003d0 0c a3 be bd 0d 80 3a 3e 2e 13 71 3d 9e 42 3c bd
       -0.093084425 0.1821291 0.05885618 -0.04596197
0003e0 0a 8c 25 3e 19 19 e4 3d 45 e0 68 3c a6 c6 24 bc
       0.16166702 0.111375995 0.014213626 -0.010057127
0003f0 23 c0 6e bd a7 b3 2c bd d7 42 f5 bd 8c 9d e8 3d
       -0.058288705 -0.042163517 -0.11975639 0.11358175

net.0.bias f4 [256]
000000 e0 ca 20 bd e3 1c 13 bb 1d d6 6a ba b5 a4 21 bc
       -0.039255977 -0.0022447638 -0.0008958297 -0.009865929
000010 7b 59 59 bc bd 15 92 bc eb e6 71 bc 50 2f 8f bc
       -0.013265963 -0.017832631 -0.014764528 -0.017478615
000020 0a 79 11 bd 5e 2d fd bb 1f 40 f4 bc b5 fa e6 bc
       -0.035515822 -0.0077263555 -0.029815732 -0.028195718
000030 ae 89 1e bd 3d b5 f2 3a 3d 67 d0 bc e4 34 1d bc
       -0.03870552 0.0018517148 -0.025439853 -0.00959513
000040 fb 7b 8b bc 68 b1 24 bb 0b a8 28 bb 1c 36 3d 3a
       -0.017026892 -0.0025130156 -0.0025734927 0.0007217841
000050 d0 b2 ce ba 81 07 05 bd 30 a2 0f bd 2b f9 af ba
       -0.0015769843 -0.03247786 -0.035066783 -0.0013425698
000060 05 88 af bc 63 b5 31 bd fb e6 32 ba af 54 4a bd
       -0.021427164 -0.043385874 -0.000682458 -0.049397167
000070 db 02 0a bd 7c 2a 81 ba 08 5b 28 bd 5e 03 34 bb
       -0.03369413 -0.000985458 -0.04110244 -0.0027467827
000080 03 fb 39 bc 6e 17 d3 bc 69 20 7a bb 1e 32 06 bd
       -0.01135135 -0.025768008 -0.003816629 -0.03276264
000090 66 81 81 bc 2c 05 b3 3a 05 be 79 3c 74 20 65 bc
       -0.015808772 0.0013658158 0.015243058 -0.013984788
0000a0 80 01 13 bd 7d 9e 0e bb 41 7c e7 bc c9 f4 40 bc
       -0.035890102 -0.0021761947 -0.028257491 -0.011777111
0000b0 6e a8 94 bc 2b 91 b5 3c 36 6e e8 bc f6 f8 14 bd
       -0.01814672 0.022163948 -0.028372865 -0.03637024
0000c0 86 13 14 3b 73 28 17 bd 06 2a b3 bc df 81 5e bc
       0.0022594645 -0.03690381 -0.021870624 -0.013580768
0000d0 51 68 97 bc 3b a6 30 bd 9d 60 d1 bc c3 a7 66 bc
       -0.01848236 -0.04312728 -0.025558764 -0.014078083
0000e0 6e 3a 00 bd a8 ab 91 bb d1 6e 32 bd be 64 c1 bc
       -0.031305723 -0.004445512 -0.043562714 -0.023607608
0000f0 25 5d 21 3b 21 e1 55 bc 66 df 52 bc 1c 2e be bc
       0.002462217 -0.013054163 -0.012870645 -0.023215346
000100 75 c4 94 bc 1b 60 99 bc 1a be a9 3c 4d 17 9a bb
       -0.018160084 -0.018722584 0.02072053 -0.0047024847
000110 97 42 8b 3c 95 9c 9c bc 23 ec ad bc f4 2c cf 3a
       0.016999526 -0.019117633 -0.021230763 0.0015806244
000120 9c 7b 92 ba 00 0b 1c 3b 45 1b 0c bd e8 71 41 bc
       -0.0011175754 0.0023810267 -0.034205694 -0.0118069425
000130 75 40 8d bc 64 99 20 bd 7c 6b 4f bc a5 1a 50 bb
       -0.01724265 -0.039208785 -0.012659904 -0.0031754163
000140 4f 0e 00 3c 90 f1 42 bc 50 f0 0a 3c a0 e9 92 bb
       0.007815911 -0.011898413 0.0084801465 -0.0044834167
000150 da a9 00 bd e2 54 2b bd 6f 79 29 bd 4e c0 07 bd
       -0.031411983 -0.041828997 -0.041375574 -0.03314238
000160 24 15 b2 3a 20 82 2b bb fb ee 01 bd b2 7f 08 bc
       0.0013586623 -0.002617009 -0.03172205 -0.008331226
000170 e5 3e 37 3b 62 30 01 bd be 5e d6 3a 70 a9 03 bb
       0.0027961072 -0.031540282 0.001635514 -0.0020090006
000180 76 a5 0e bd 03 a8 fe ba 12 c4 fb ba f8 91 82 bb
       -0.034825765 -0.0019428734 -0.0019208214 -0.003984686
000190 e6 29 18 bd a8 17 22 3b 5c 0e 63 bb 76 cf 0b bc
       -0.037149332 0.0024733339 -0.003464601 -0.008533349
0001a0 01 74 1a bc 14 7d f4 bc c6 4e a3 bc 14 5f 09 bc
       -0.009427072 -0.029844798 -0.019935023 -0.008384485
0001b0 49 f1 33 bc 12 2a 16 bd 6a 3f 52 bc 2a 5e b8 bb
       -0.01098282 -0.036661215 -0.012832502 -0.0056264596
0001c0 1e 45 dc bc 5c b5 b0 ba e2 7f ab bc c3 1e ac ba
       -0.026888426 -0.0013481784 -0.020935003 -0.0013131726
0001d0 0f 1c 3e bd c0 fc 08 bd ee 46 a6 bc b5 5e 7c bc
       -0.046413478 -0.033444166 -0.020297494 -0.015403439
0001e0 d2 76 cb bc 4f 10 ba 3b b2 12 fc 39 4a ac d1 bc
       -0.024836931 0.0056782137 0.00048079115 -0.02559485
0001f0 cc 5d 0a bd 36 4e d5 bc bd 2d df bc f0 88 0b 3c
       -0.033780858 -0.02603827 -0.02724349 0.008516535
000200 98 d6 94 bc d0 5f 3a bc 2f 20 53 bc 4a 2f d4 bc
       -0.018168733 -0.011375383 -0.012886091 -0.025901455
000210 7c c1 e0 bc e3 62 e8 bc c2 bb 9c bc 14 e3 f1 bb
       -0.02743601 -0.028367465 -0.019132499 -0.007381806
000220 24 95 a9 bb be ef c2 ba a4 0f da bc 83 21 41 3b
       -0.0051752497 -0.0014872474 -0.026618786 0.0029469437
000230 35 e6 11 3c b2 6a 8d bc 1a 7e 45 bc a6 b3 df bb
       0.008904983 -0.01726279 -0.012053991 -0.0068268357
000240 ce 6d 20 bd ce 21 ab bc 44 9e 63 bb 8e 0b 17 bc
       -0.039167218 -0.020890143 -0.0034731785 -0.009219063
000250 7e 2b bf 39 8b da 96 ba a1 71 18 bd b9 5b b6 bc
       0.00036462763 -0.0011509223 -0.03721774 -0.022260534
000260 0d d0 0c bc 4e f7 4e bc af d0 88 bc d8 04 be bc
       -0.008594525 -0.012632204 -0.01670107 -0.023195669
000270 9b 33 45 bc 9f 91 17 bb c9 9b 7f bc d6 fd a2 bb
       -0.0120362295 -0.0023127568 -0.015601107 -0.0049741073
000280 fb a6 e0 ba 3a c4 20 bb 6a 22 2a bd 66 af 37 bb
       -0.0017139608 -0.0024531023 -0.041536726 -0.002802813
000290 d9 ae b7 bc 90 05 24 3b bb 37 d5 bc a9 de 19 bd
       -0.022422241 0.002502773 -0.02602755 -0.03756586
0002a0 bd 56 78 3a bb bf 47 bd 7c 17 1f bc 70 24 18 bd
       0.0009473374 -0.048766833 -0.009710189 -0.037144125
0002b0 5b 93 d8 bc 68 ce e5 bb 9f 18 0b bd 6f 10 c6 3b
       -0.026437452 -0.007013131 -0.033959027 0.0060444395
0002c0 6b ab cd ba 4c 7a e9 bc 0e 65 8f bc 53 6b 0d bd
       -0.0015691345 -0.028500699 -0.017504241 -0.03452618
0002d0 ec 0a d2 3a 28 86 1f 3a dc 3b 92 bc c4 f6 2b bd
       0.0016024983 0.00060853595 -0.017850809 -0.04198338
0002e0 a8 49 0c bd 95 6c 37 bb 52 d9 a1 bc 70 88 31 bd
       -0.03424993 -0.0027988304 -0.019756947 -0.043343008
0002f0 a9 75 ba 3a 5d 55 0f bd a5 59 0d 3b 11 7d d1 ba
       0.0014225739 -0.03499352 0.0021568325 -0.0015982707
000300 9c b8 50 bd d4 fe 0b bc 7a ab 07 bd ab 63 f7 bc
       -0.050957307 -0.0085446425 -0.033122517 -0.030198893
000310 3d 73 4d bd 6c 53 32 bc b0 d1 85 bb 61 18 f2 bc
       -0.050158728 -0.010884147 -0.0040838346 -0.02955264
000320 db 62 ce ba 86 42 f5 bc 00 5b e6 bc 52 27 03 bd
       -0.0015746014 -0.029938947 -0.028119564 -0.03201992
000330 db 89 01 39 e0 57 63 bb cf 9e 85 bb a1 db 28 bd
       0.00012353754 -0.0034689829 -0.0040777694 -0.04122508
000340 10 62 45 bb da 17 cb bc f7 c3 1f bb 8c 8d 11 bd
       -0.0030118264 -0.024791647 -0.0024378279 -0.03553538
000350 08 49 81 bc 4f 73 2a bd f8 b4 81 bb b0 23 e0 ba
       -0.015781894 -0.041613873 -0.0039583407 -0.001710048
000360 39 91 24 bd 6f 99 6d bc 09 01 0e bd 3f 04 05 3b
       -0.040177558 -0.014501913 -0.034668956 0.002029672
000370 3a a8 95 bc f4 a2 09 bc 2c 74 9d bc 77 78 db bc
       -0.018268693 -0.008400667 -0.019220434 -0.02679084
000380 dd 44 ae bc a0 9e 07 bd 04 0d bb bc 38 d1 90 bc
       -0.021273071 -0.03311026 -0.022833355 -0.017677888
000390 06 c4 78 bd c7 1b 29 bd 83 a1 0c bd 34 bc 83 bc
       -0.060733818 -0.041286256 -0.034333717 -0.016080953
0003a0 f8 2d f4 bc d4 9e d9 ba 55 e3 17 bd b9 b4 2a bc
       -0.029807076 -0.0016603121 -0.037082035 -0.010419064
0003b0 14 6d 84 bc 79 5c 9e b9 93 a9 35 bd 2c 17 47 bc
       -0.016165294 -0.00030205006 -0.04435117 -0.012151521
0003c0 f4 e7 b2 bc 1f 81 a1 bc 34 eb 3c bd 9d 89 a2 bc
       -0.02183912 -0.01971489 -0.046122745 -0.01984101
0003d0 33 9d f6 bc 1c a3 d7 3a cf bd 30 bd 22 32 ff bb
       -0.030104255 0.0016451809 -0.043149766 -0.0077879587
0003e0 15 4b 14 bd a0 19 c5 bc 9a fb 27 bd dd 60 12 bd
       -0.036204416 -0.02406007 -0.04101143 -0.035736907
0003f0 3f 6f 08 bc 73 45 17 bc 0c 50 d2 bb 42 80 98 bb
       -0.008327304 -0.009232867 -0.0064182337 -0.0046539614

net.2.weight f4 [256, 256]
000000 55 05 33 3d 82 11 a9 3d 18 05 80 3d 30 9e a2 bc
       0.043706257 0.082552925 0.062509716 -0.01985082
000010 4b a8 8c 3d 09 0e f5 3c 6b 89 36 bd 43 7b 9c bd
       0.06868037 0.029913919 -0.044564646 -0.07640698
000020 ee c6 05 be 6b e3 cf 3d 6c 60 11 be 1b cb 6b 3d
       -0.13064167 0.101507984 -0.14196938 0.057566743
000030 7f df 87 3d f9 9b 1d 3e 2f 0e 88 3d 87 2a b0 3d
       0.06634425 0.1539153 0.0664333 0.086018614
000040 41 f7 1d 3d dc da bf bd 67 53 92 3d c9 9c e1 3d
       0.038565878 -0.09367916 0.07144814 0.110162325
000050 9a c1 d2 bd 42 98 e3 3d a8 5a 0b 3e 06 f6 0a be
       -0.10290833 0.11113025 0.13608801 -0.13570413
000060 1e 74 79 3d 56 83 69 bb e8 af c1 bc 9f 7f 78 3d
       0.060901754 -0.003563126 -0.023643449 0.060668584
000070 e3 b4 9a 3b f0 5d 16 be 5d 1e 55 3d 98 50 7b bd
       0.0047212704 -0.14684272 0.05203091 -0.061356157
000080 58 78 df 3d db fe 39 3b 66 a4 1e 3e 20 33 05 3e
       0.109116256 0.0028380665 0.154924 0.13007784
000090 7a 9b 12 bd d9 28 b1 3c 90 c9 ab bd 74 0f c9 bc
       -0.035792805 0.021625923 -0.08388054 -0.024543501
0000a0 bb ce fb 3d 8d 7a fb 3d 1d ae 1c be 3c 0b bd 3c
       0.1229529 0.12279234 -0.15300794 0.023076646
0000b0 6c cf 13 be 44 0f 8b 3d ad eb 2a be fd 34 2a 3b
       -0.14434594 0.06790021 -0.16691466 0.0025971525
0000c0 11 aa a8 bd 47 c1 0a be 89 23 1e bc 80 ad 7f bd
       -0.082355626 -0.13550292 -0.009652027 -0.062421322
0000d0 75 c2 0d be 17 3b 8b 3d f3 80 af bd f3 e4 bf bd
       -0.1384371 0.0679838 -0.08569517 -0.093698405
0000e0 00 d7 83 3c 17 0c 39 3b ee 8c f5 3d 6e 69 b2 bd
       0.01609373 0.0028235966 0.11989771 -0.08711515
0000f0 1a f5 e7 ba 2f c9 ba 3d da c8 9f 3d a4 8d d2 bd
       -0.0017696947 0.09120404 0.07801981 -0.10280922
000100 68 5a 6d bc 3e 85 0b bd a5 80 ca bd 25 45 41 3d
       -0.014486887 -0.034062617 -0.09887818 0.047185082
000110 e6 a8 7d 3d ca 72 ef bc a0 30 f0 bd da f7 0f 3e
       0.061928652 -0.02922954 -0.117280245 0.14059392
000120 ae 50 d1 bd 05 2f b9 3d e2 58 05 be 87 a5 12 3e
       -0.102204666 0.090421714 -0.13022187 0.14320956
000130 42 7f 91 bc c0 a1 b8 3d 49 92 07 be 1f bb 87 3d
       -0.017760877 0.09015226 -0.13239397 0.066274874
000140 e9 9c d5 3d 62 35 89 bd 9a 0c f5 3c ce 26 98 bc
       0.10430319 -0.06699635 0.029913235 -0.018573191
000150 45 1a ca bd 80 70 02 be a7 eb 93 bd 65 f3 09 be
       -0.09868292 -0.12738228 -0.072226815 -0.13471754
000160 87 4b 7b 3d 6c cf 09 3e 6b 4e 31 bd fb cd a9 3d
       0.061351325 0.13458031 -0.043287676 0.08291241
000170 24 ea a2 3d 26 fd c3 bb 70 9d 15 3d dd 11 55 3d
       0.07954815 -0.0059811054 0.036527097 0.05201899
000180 ef 93 87 3d 20 73 0d 3e 8c 3f e5 3c 34 37 1e 3e
       0.06620013 0.13813448 0.027984403 0.15450746
000190 b5 b0 55 3d ff b1 c2 3c d6 bc 98 3d 31 eb f9 3d
       0.052170474 0.023766516 0.074578926 0.12203062
0001a0 4a 22 53 bc 43 d0 99 3c d4 50 1c 3e b0 70 dd 3d
       -0.012886593 0.018776065 0.15265208 0.10812509
0001b0 d4 3d 0f bc 8f 3e 0a 3d c1 78 1a bc a0 b3 4c bd
       -0.008742768 0.033751067 -0.009428204 -0.04997599
0001c0 aa 2b 7f bd 75 3f a3 bd 85 34 84 bd 4f 0e ca bd
       -0.0622975 -0.07971088 -0.0645533 -0.098660104
0001d0 eb 8e ca bd 20 c0 dc bd 93 17 8f bd 5e 7c f4 3c
       -0.09890541 -0.107788324 -0.06986918 0.02984446
0001e0 a2 37 94 3c 9a f3 fd bc 35 68 2e bb ba 00 a8 bd
       0.018092934 -0.030999947 -0.0026612405 -0.082032636
0001f0 00 83 24 bd ad ee 19 be 4a b9 c8 3c 61 b4 88 bc
       -0.040163994 -0.15032454 0.024502415 -0.016687574
000200 d7 6f 90 3d a4 30 1f 3d 50 96 b2 3d ef 43 d3 bd
       0.07052582 0.038864747 0.08720076 -0.10315692
000210 ce c4 1a be a9 81 5b bc 47 aa 10 3e 7f 83 e7 3d
       -0.15114138 -0.013397613 0.14127456 0.11304378
000220 31 5e a1 3d 18 b7 bc 3d 5a 29 08 be 8c ae b2 bd
       0.07879294 0.0921461 -0.13297024 -0.087246984
000230 e6 b9 47 3d 03 9c 7c 3c 60 8c 2f bc c6 93 ca b9
       0.04876127 0.0154180555 -0.01071462 -0.00038638542
000240 61 cf b7 3d e4 75 35 bd d1 bf f6 3d 05 e0 09 3d
       0.08975101 -0.044301882 0.12048305 0.033660907
000250 f7 90 d1 bd 75 33 bf bd a5 c4 b8 3c 40 28 ad bd
       -0.10232728 -0.093359865 0.022554705 -0.08454943
000260 ee 43 5d bc b1 ad 26 3b 28 a4 c2 bc 03 44 d5 bd
       -0.013504965 0.0025433118 -0.023759916 -0.10413363
000270 66 31 f5 bc 6e 66 b4 3b 91 8c 08 3e 14 0a 9e bd
       -0.029930782 0.0055053746 0.13334872 -0.07716766
000280 c5 54 b6 bd ae 3f 4e bd c7 52 c9 bd 7f 8d ef bd
       -0.08902887 -0.0503537 -0.09830242 -0.1169691
000290 0e cd 67 bd 07 a1 d7 3d 3e 82 99 bd ea 34 95 3d
       -0.05659204 0.105287604 -0.07495545 0.07285483
0002a0 d7 b3 85 bd 76 34 9b 3c 3b 64 a1 3d c7 71 7c 3d
       -0.06528442 0.018945914 0.078804456 0.061631944
0002b0 15 55 92 bd 62 3c ec bd 23 25 a5 bd 6a f5 c6 3d
       -0.07145134 -0.115349546 -0.08063724 0.09714778
0002c0 12 f7 08 3e 5c 2f 27 be 07 7d e7 3d 40 08 a9 bd
       0.133755 -0.1632666 0.11303144 -0.08253527
0002d0 a2 c8 e0 3c 15 aa 8b 3d 7b 82 42 ba 9e a7 11 be
       0.02743942 0.0681955 -0.0007419956 -0.14224097
0002e0 ab a4 ed bd bf 04 f2 3d 75 95 54 3d 86 13 58 3d
       -0.116036735 0.118173115 0.051900346 0.052752994
0002f0 75 7b 73 bd fb 35 3f 3d ba ff 2f bd ca 77 95 3c
       -0.05944391 0.04668234 -0.04296849 0.018245596
000300 17 af ee bd 9c 57 dd 3d 9f af e6 3d 0c f4 36 3d
       -0.116544895 0.10807726 0.11263966 0.044666335
000310 00 d7 81 bd 07 6c e3 bd 71 19 3a 3c 31 9e eb bd
       -0.06339836 -0.11104589 0.011358605 -0.11504782
000320 21 f9 15 3e 97 d7 ba bc ef b2 bc bc d6 fd 06 3e
       0.14645816 -0.02280788 -0.023034541 0.13182768
000330 a8 83 49 3a 35 de ed bd 8d 1c 94 3b 74 ea 95 3d
       0.000768716 -0.11614648 0.004520005 0.07320109
000340 35 91 ed 3d 5d 1d 75 3c d3 40 e9 bb 2a e1 e9 bd
       0.11599962 0.014960614 -0.0071183234 -0.114199
000350 6f 22 f0 bd 25 82 0c be fe 3d b4 bd db f6 39 bd
       -0.11725318 -0.13721521 -0.088008866 -0.045401435
000360 2f 79 ca bd 39 4f 9e bd 10 ec 94 3a 0c 46 48 bd
       -0.09886395 -0.07729954 0.0011361856 -0.048894927
000370 2a a8 b7 bd db c0 bb 3d d8 44 cc 3b 90 45 d6 3d
       -0.089676216 0.09167644 0.0062337928 0.10462487
000380 45 d6 25 3d c6 89 08 be 12 01 a4 3d 50 fa 86 3d
       0.040487546 -0.13333806 0.08008017 0.06590712
000390 a3 4b 0e be ef 33 23 bc bd 60 5d 3d d6 f8 83 bd
       -0.1389604 -0.009961112 0.054047335 -0.06443946
0003a0 26 1f fd bd cb cb 76 bd ee a0 0f bd 92 ad 94 bd
       -0.12359457 -0.060252946 -0.035065584 -0.072596684
0003b0 7c 26 fc bd f4 6c c3 3d 58 af b3 3d 36 60 94 bb
       -0.12312028 0.095422655 0.087736785 -0.004528071
0003c0 cc cf f3 bd 0e 1c 0a 3e 6a 98 13 3e ba e7 9a bd
       -0.119048685 0.13487265 0.1441361 -0.075637296
0003d0 21 90 e7 bd 95 d4 d9 bd 26 12 2c 3d ee 9d c3 bd
       -0.11306787 -0.1063625 0.042009495 -0.09551607
0003e0 0f 50 75 3d 97 b5 9b 3d be c1 0a 3e b5 a4 8b 3d
       0.059890803 0.07602995 0.1355047 0.06818525
0003f0 30 e5 50 3d 5d 01 9f bd 8a 2c 03 bd 8e 36 69 3d
       0.05099982 -0.07763932 -0.032024898 0.056936793

net.2.bias f4 [256]
000000 ca 30 84 bc 9d eb f1 bc a5 40 63 bd 58 30 80 3c
       -0.016136546 -0.029531294 -0.05548157 0.015648052
000010 9a 11 84 bc 09 3a 51 3b a9 7a 86 bd 5f 6c a3 bd
       -0.016121674 0.003192546 -0.06566364 -0.079796545
000020 1b 0c 0f 3c 07 ca d5 bc 7d 7b 35 bd b7 0e a4 bc
       0.0087309135 -0.02609731 -0.04430722 -0.020026548
000030 c6 d3 5f bd d2 ba 1c bc 9d b9 3b bd 9f 33 9f bc
       -0.054645322 -0.009566026 -0.04583131 -0.019433795
000040 a0 2c 41 bc 64 e3 26 bd 46 2d 2d bd 3b 56 42 bd
       -0.011790425 -0.0407442 -0.042279504 -0.047445517
000050 2f f3 32 bd e3 23 e0 bc dc 16 1c bd 7b 0f 0b bd
       -0.04368895 -0.027360862 -0.038107738 -0.03395031
000060 2e 35 03 3c f4 5b 03 bd 3f a3 d3 bc f4 d9 65 bc
       0.0080082845 -0.032070115 -0.025834678 -0.014029015
000070 c5 c1 f1 3b 93 f2 2f bd 69 07 38 bd fa b5 42 3c
       0.0073778355 -0.042955946 -0.044928942 0.011884207
000080 90 f0 88 3c 57 94 92 bc 9a d5 66 bc ea f1 4f 3c
       0.016716272 -0.017893 -0.0140890125 0.012691954
000090 78 86 e5 bc 1c 8f b5 bc ac ef 10 bd 33 46 4b 3c
       -0.028018221 -0.022162966 -0.03538482 0.0124068735
0000a0 3d 07 e4 bc ff ff 30 bd 9c 0c da bc 71 9d 3f bd
       -0.027835483 -0.043212887 -0.02661734 -0.046781007
0000b0 c3 d4 13 bd dd bb 70 bc ae b0 b5 bc dc 31 f6 bc
       -0.036091577 -0.014693228 -0.022178974 -0.030053072
0000c0 b0 43 ae bc 81 66 6a 3b 89 90 2e bc 72 e7 68 bb
       -0.02127251 0.0035766663 -0.010654577 -0.0035538343
0000d0 a0 57 b4 3c 1d c2 b2 bc bc 44 02 bd 6f 2a ce bc
       0.02201444 -0.021821076 -0.03180383 -0.025166718
0000e0 1c c0 bf bc 69 7d 1a bd c8 f9 24 bd 5a 0c 13 bc
       -0.023407035 -0.037717257 -0.040277272 -0.008975113
0000f0 3d 21 79 b9 fd 72 66 3a 4e 64 0f bd 02 62 87 bd
       -0.00023758873 0.00087909383 -0.035007767 -0.066104904
000100 67 05 3f bc 2d df 5a bd f3 68 d7 bc c2 79 0a bc
       -0.011659003 -0.053435493 -0.02629516 -0.008451881
000110 aa 8c e5 3a 21 d6 69 3c 5c 47 d5 bc 6a c0 f4 bc
       0.0017513235 0.014272244 -0.026035003 -0.029876906
000120 ec 70 f2 bb 5b aa 05 bc 91 c2 19 bd 64 c1 85 bc
       -0.0073987152 -0.008158292 -0.03753907 -0.016327567
000130 db 42 48 bd 9e 7e 13 bd 31 61 9b bc ec 8e de bc
       -0.048891883 -0.036009423 -0.018967243 -0.02716776
000140 5e 33 98 bc 48 e8 73 bb 67 48 ca bc fe fd a8 bc
       -0.018579181 -0.0037217308 -0.024692727 -0.020628925
000150 bd a9 21 bd 79 eb eb bc a5 2e 8f bc 19 24 8b bc
       -0.039468516 -0.028798806 -0.017478297 -0.016984986
000160 17 48 2d bd e2 df 78 bb cd 87 f8 bc f0 41 3e bd
       -0.04230508 -0.0037975241 -0.030338192 -0.0464496
000170 32 19 97 bc 8d 09 00 bd 1e 6c 1a bd c1 46 78 bd
       -0.018444631 -0.03125911 -0.037700765 -0.06061435
000180 a7 fc 6e bd 43 8e a4 bc 10 c9 30 bd 6c 5a 7b 3c
       -0.058346417 -0.020087367 -0.0431605 0.0153413825
000190 2a 7b eb bc f4 fc 05 bd 74 6d 90 bc a7 74 bb bc
       -0.028745253 -0.032711938 -0.017630316 -0.022882773
0001a0 97 c9 aa bc 19 30 8e bc 59 18 e9 bc 44 8c b3 bc
       -0.020848079 -0.01735692 -0.028453993 -0.02191747
0001b0 2f 8e d2 bb a4 1b 1f bd 14 52 1c bd dc 27 96 bc
       -0.006425641 -0.03884472 -0.038164213 -0.018329553
0001c0 cc ae 77 ba 6d 7a 05 bd 34 64 b0 bb 05 5b 0f bd
       -0.0009448349 -0.032587457 -0.005383039 -0.034998912
0001d0 3f c9 e0 bc b7 95 a2 ba fd ed 90 bc 30 14 2b bc
       -0.027439712 -0.0012404238 -0.017691607 -0.010441825
0001e0 92 b2 10 bd 1c d2 30 bd b1 ec 03 bd 02 ec f8 bc
       -0.035326548 -0.043169126 -0.03220815 -0.030385975
0001f0 13 c9 a9 bb 39 7c 19 bd e9 8d 2b bc 65 fc 15 bd
       -0.0051814406 -0.037471984 -0.010470846 -0.036617655
000200 49 e8 bb bc 27 a1 08 bd 09 50 a4 bc b4 1f a7 bc
       -0.02293791 -0.03335681 -0.020057695 -0.02040086
000210 65 94 8a bc 6e 25 fb bc b2 fb f1 bc 11 5d 96 bc
       -0.016916463 -0.030657496 -0.029538963 -0.018354924
000220 0a 57 b9 bb e9 9b 0a bd 28 51 60 bc 5c 1b 20 bd
       -0.005656128 -0.033840094 -0.013691224 -0.039088592
000230 ad 75 03 bd 0a 95 dd bc 93 80 b1 bc 61 8d ac bc
       -0.032094646 -0.027048606 -0.021667754 -0.021063508
000240 e8 6a 0c bd 5b 46 18 bd b3 bd 86 bb 39 74 38 bd
       -0.03428164 -0.03717647 -0.0041119694 -0.045032714
000250 11 f6 0f bd 52 3c b6 3b 9e ec 8f bb 50 03 1f bd
       -0.035146777 0.00556139 -0.0043922206 -0.03882152
000260 cd b6 02 bd 04 88 f8 bc 8c 70 70 3b 17 72 01 3c
       -0.031912614 -0.030338295 0.0036688177 0.007900736
000270 53 7d 80 bc 7c b5 53 bd 30 2c 17 bd b5 eb 84 3c
       -0.01568476 -0.05168675 -0.036907375 0.016225675
000280 03 b5 f8 bb 88 31 9e bc d4 da 54 bc 1c e4 a7 bc
       -0.0075899377 -0.019310728 -0.012991626 -0.020494513
000290 f0 23 c5 bc ef 0f 37 3b 94 6b 56 bc 67 64 e0 3b
       -0.024064988 0.002793308 -0.013087172 0.0068479064
0002a0 e9 f1 46 bd 81 c8 9a bc 11 9e 31 bd b5 d8 27 bd
       -0.048570547 -0.018894436 -0.043363634 -0.040978152
0002b0 d7 9c 3c bb a1 28 f5 bc 7b 85 a5 bc 2b bb d5 bc
       -0.0028780007 -0.0299266 -0.02020525 -0.026090225
0002c0 ff 05 23 3c 9f ff 2a bd fa 2c 14 bb ea 0e 49 bb
       0.00995016 -0.041747686 -0.0022609816 -0.0030679055
0002d0 10 92 17 bd 75 2f 83 bc 76 bc ce ba de 9f dd bc
       -0.03700453 -0.01601384 -0.0015772718 -0.02705377
0002e0 14 9d 8c bb 31 74 37 3c a9 40 05 bc d6 31 f4 bc
       -0.004291186 0.011197136 -0.008133092 -0.02980892
0002f0 78 d5 c1 3c 4e 6a 71 3b 58 f6 14 bd f4 4d e6 bc
       0.02366136 0.0036837044 -0.036367744 -0.028113343
000300 c6 83 2a bd b9 30 94 bc 70 6e 96 bd c8 85 fc bc
       -0.041629575 -0.018089639 -0.07345283 -0.03082551
000310 5c d5 06 bd 61 03 8b bc 8b 75 7c bc 04 64 8d bb
       -0.03291832 -0.016969385 -0.015408884 -0.0043149013
000320 cd 28 73 3c 1d dd 08 bd f6 93 c7 bc 0e e0 1a bd
       0.014841271 -0.033413995 -0.024362545 -0.03781133
000330 3c 43 5a bd 11 58 16 bc 58 88 0a 3b 92 ed c0 3c
       -0.053286776 -0.00917627 0.0021138396 0.023550782
000340 ec 8a cb bc e7 2c 59 bc 1e 9c ae bc 81 ff 55 bc
       -0.024846517 -0.013255334 -0.021314677 -0.013061405
000350 8b 58 19 bd 1f 7c 06 3c 80 5e f1 bb 76 4c 94 bc
       -0.037437957 0.008208304 -0.0073660016 -0.018102866
000360 aa c0 75 bb 3b c3 9e bc 14 fb 6f bc b4 5e 98 3c
       -0.003749887 -0.019380203 -0.014647264 0.018599845
000370 8e 6c 3d bd 70 e6 32 bd 48 dd 8e bc 68 29 05 bd
       -0.046246104 -0.043676794 -0.0174395 -0.03251019
000380 02 bd 5d bd 9b 49 3c bd 07 04 37 bc c0 8a 5f bd
       -0.05413533 -0.045968633 -0.011170394 -0.05457568
000390 3e f4 71 bd 04 69 b8 bc 3b 52 dc bc 08 87 50 bd
       -0.059070818 -0.022511013 -0.02689468 -0.050910026
0003a0 bf 58 19 bd 3f 90 f4 bc f0 ee dc bc b4 a2 be bc
       -0.03743815 -0.029853938 -0.026969403 -0.023270942
0003b0 1b 46 a5 bc ec 34 43 bd 3b 9d 59 bd 39 00 4f bb
       -0.02017503 -0.047657892 -0.053128462 -0.0031585826
0003c0 5b f0 59 bc 35 b3 1f bd 2a 83 eb ba 47 9d 22 bd
       -0.013301934 -0.038989265 -0.0017968167 -0.039700773
0003d0 f1 b0 1e bd 8e e2 07 bd 1f e5 d8 bc 71 c4 4d 3c
       -0.038742963 -0.033175044 -0.026476441 0.012559042
0003e0 fb ce d5 bb 30 74 7a 3b 7a 0e 0b b8 34 51 4d bd
       -0.006524918 0.0038216226 -3.3153665e-05 -0.05012627
0003f0 c0 da 1a bd a2 b6 a0 3a e9 fc fa bc 84 fd 20 bd
       -0.037806273 0.001226146 -0.030638175 -0.03930427

net.4.weight f4 [1, 256]
000000 8f d6 0e be 14 2d 9c bb a7 3a fd bd 3d f6 59 3d
       -0.13949035 -0.004766116 -0.12364703 0.053213347
000010 21 5e 74 bd 78 1c 86 3c 53 30 03 39 a6 43 2d 3d
       -0.05966008 0.016370997 0.00012511136 0.042300843
000020 e8 93 39 3d 08 7b 66 3d 21 3a 57 ba e4 9d 87 bd
       0.04530707 0.056269675 -0.0008210261 -0.06621912
000030 91 55 da 3a ce 1a 38 bd de db 82 bd 35 45 de 3d
       0.0016657581 -0.044947438 -0.063895926 0.10853044
000040 ed b6 27 bd 94 c5 86 3c bf e8 d0 3b 88 78 a8 bd
       -0.040945936 0.016451634 0.0063754017 -0.082261145
000050 71 3a 55 3d 18 89 4b bc cb cf fc 3b bd 93 2e bd
       0.052057687 -0.012422822 0.0077152005 -0.042621363
000060 ec 43 99 3c 1a be 20 3d ff ac 0c bd a5 61 29 bd
       0.018709145 0.039243795 -0.03434467 -0.041352887
000070 d9 9c 55 be 48 0a 98 3c 91 98 ad bd be d8 6b 3d
       -0.20860614 0.01855959 -0.08476365 0.05757975
000080 cf 59 8f 3d 78 b7 db bc 8c d1 02 be b0 c4 41 be
       0.069995515 -0.026820883 -0.12775248 -0.18922687
000090 47 ad bc 3d c4 fb 1e 3d 58 43 a0 bc 01 a0 09 3d
       0.092127375 0.03881432 -0.019563362 0.033599857
0000a0 a0 8b 3c bd cf 51 98 bd d5 6c 85 3b 4e d1 b9 bd
       -0.046031594 -0.07437479 0.0040718117 -0.09073125
0000b0 e6 7e 5c 3c ed 29 89 bd 25 a0 c8 3d 10 bb 07 3e
       0.013457989 -0.0669745 0.0979617 0.13254952
0000c0 23 0a 3d bd e5 ed 0f 3d 1d b8 aa bd bc 02 4c 3d
       -0.046152245 0.035138983 -0.08335898 0.049807295
0000d0 cc 8e 6b 3d 8c b5 04 bc 48 49 ce bd c0 74 e6 3c
       0.05750923 -0.008099925 -0.10072571 0.028131843
0000e0 95 c7 fc bc 56 5b 13 3d bf e2 07 3e 10 21 d8 bd
       -0.030856887 0.035975777 0.1327009 -0.10553181
0000f0 dd ee 5f bd 53 fe ba bd 60 44 74 3d 56 77 b3 bd
       -0.054671157 -0.0913054 0.05963552 -0.08762996
000100 9f f6 7d bd cb b4 03 bb 50 c6 b1 3b 09 5e 96 bd
       -0.062002774 -0.0020096775 0.005425252 -0.073421545
000110 42 91 68 3c 57 ea 66 3d 31 03 8e bc 24 6e 96 3d
       0.014194788 0.056375828 -0.017335506 0.073452264
000120 5e 6c 28 3c 30 0a 95 bd 74 f5 f1 bb 8d 46 03 3b
       0.010279743 -0.07277334 -0.0073839966 0.0020031065
000130 b2 45 4e bd 44 f2 d2 3d ed b7 09 3b 53 88 f3 bd
       -0.050359435 0.10300115 0.002101417 -0.11891236
000140 5a 9b 9c bd 02 b5 71 bd 47 d2 de 3d e7 a3 39 bd
       -0.076468185 -0.059010513 0.10879951 -0.045322325
000150 0a 6a c9 b8 c7 41 e0 3a df fa 9e bc 4d eb ec bd
       -9.604178e-05 0.0017109447 -0.019406734 -0.115683176
000160 7d e7 a7 3a 05 6e 8b bd 13 af 52 bd 3b 98 e8 3d
       0.0012810078 -0.06808094 -0.051436495 0.11357161
000170 3f ef bd bd 46 ee 35 3c 27 0b b5 bb 9b 27 38 bb
       -0.09274148 0.011104172 -0.005525011 -0.0028099779
000180 9d be 0d be 3e cc 78 bd d5 da a9 bd 4f 49 e5 3d
       -0.13842244 -0.060741656 -0.08293692 0.11195623
000190 f7 81 84 bd d7 68 94 3d 45 21 74 3d b9 a4 74 bd
       -0.06470101 0.07246559 0.05960204 -0.059727404
0001a0 bd 1f e0 3a c3 71 a5 bd 6b bb 89 3d c6 72 a8 bd
       0.0017099302 -0.08078339 0.067252 -0.08225016
0001b0 07 e4 7a bc ef c3 90 bd f4 82 a1 bd e2 81 93 3d
       -0.015313155 -0.07068621 -0.078863055 0.072025076
0001c0 af 5e b0 3c d2 64 07 3d fd cb ef bd 54 69 aa bb
       0.021529524 0.033055134 -0.117088296 -0.0052005444
0001d0 4e 68 9f bc 98 54 d1 3c a2 8f 73 3d 47 13 04 3d
       -0.019458916 0.025553033 0.05946315 0.032244947
0001e0 64 64 6f bd 96 b9 a1 3c b4 d4 99 3d ad 09 a4 3c
       -0.05844535 0.019741815 0.07511273 0.020024145
0001f0 27 92 87 3d ca bb 2a bd 8a 2a 89 bb 7d b0 7e bd
       0.06619673 -0.041682996 -0.0041859793 -0.06218003
000200 73 71 37 bd c9 a0 5c bc 57 ca 84 be 6a ac 8f 3d
       -0.044785928 -0.013466069 -0.25935623 0.07015307
000210 dc 0c 52 bd a5 cc 83 3b 43 97 4f 3d 9f 53 75 bd
       -0.051281795 0.0040221983 0.050681364 -0.0598942
000220 90 0f 27 bd 16 de 10 bd 73 5d 10 3e cb b4 c1 3d
       -0.040786326 -0.035368048 0.14098148 0.09458312
000230 31 1e ca 3d c1 63 8f 3d dd 20 60 bd 74 c8 07 be
       0.0986904 0.070014484 -0.05471884 -0.1326006
000240 3a b2 56 3d ac 41 28 bc e5 83 b2 3d 93 a5 c8 3d
       0.052416064 -0.010269564 0.08716563 0.09797206
000250 e9 73 22 3c f0 32 43 3d 40 1d c3 3c 15 6c 8e bd
       0.00991533 0.047656 0.023817658 -0.06954209
000260 be d7 a5 bd df fa 8a 3d fb e3 a7 3d f8 50 43 3d
       -0.0809779 0.06786131 0.08197781 0.04768464
000270 1c 4e dc bd 56 f0 b6 bd b6 84 21 3d 21 3f fd bb
       -0.10757086 -0.08932559 0.039433204 -0.007728473
000280 98 7f 3f 3d 12 9b 87 3d ad c0 1a 3d fb b3 15 be
       0.046752542 0.06621374 0.037781406 -0.14619438
000290 ce 5b dc 3a 89 0d 74 3c 02 7f 28 bd 86 a8 0d 3d
       0.0016812028 0.014895805 -0.04113675 0.034584545
0002a0 9e da 75 3d 41 7e 7b bd aa 00 47 3c 46 d0 a7 bb
       0.060022943 -0.061399702 0.012146154 -0.0051212637
0002b0 2b 1e 77 3d df b6 bd 3b 8e 3d 29 3c a0 a7 a5 bd
       0.060331505 0.005789622 0.010329617 -0.080886126
0002c0 85 c3 06 3c 53 8a 29 be 64 a0 a7 bd 55 1b fa 3d
       0.008225326 -0.16556673 -0.08184889 0.122122444
0002d0 d1 bf fb 3c 54 52 c7 3d 5a 7f 9e bd b7 55 76 bd
       0.030731114 0.097325 -0.07739134 -0.060140338
0002e0 a6 62 05 3d 70 99 9e 3d d2 30 9d ba 3f 4d 8b bb
       0.03256478 0.0774411 -0.0011992699 -0.004251152
0002f0 6f bd 94 3d 7c 95 d5 bd 24 0b 38 bd 55 92 72 bd
       0.07262694 -0.104289025 -0.0449325 -0.059221584
000300 ff c4 93 3c e9 67 f4 bd ef a9 64 bc 61 3a b2 3b
       0.018038271 -0.11933882 -0.013956531 0.005439088
000310 4b 8c b3 3d e5 df 6f bd 33 76 37 bd ec 65 37 bb
       0.08766993 -0.05856313 -0.044790458 -0.0027984334
000320 9b da d9 3d fa e4 8a 3c bc f6 89 3d b8 c5 80 3d
       0.10637399 0.016954888 0.06736514 0.06287712
000330 bf 81 0b 3e ee c5 c7 bd 47 bf 59 3d c9 9e 80 3d
       0.13623713 -0.09754549 0.053160932 0.06280286
000340 77 30 a6 bd 7d 11 a0 3d b9 50 e2 bd f4 b1 86 bb
       -0.08114713 0.078158356 -0.11050553 -0.004110569
000350 5e 93 aa 3d 52 84 85 3d 12 82 a3 bd da 30 f2 3c
       0.08328889 0.06519379 -0.07983793 0.02956431
000360 d9 80 9a bd cb 39 d4 3d b4 c7 bb bd 18 8d c9 3d
       -0.07544107 0.10362586 -0.0916895 0.098413646
000370 e7 cd 8b bb 3b eb cc bc 4a 56 d0 bd 42 9f e9 bd
       -0.004266489 -0.02501451 -0.10172708 -0.11407329
000380 05 f5 b7 3d 2e d5 8c bb 92 cf 4e 3d 2b f6 93 bd
       0.08982281 -0.004297874 0.050490923 -0.07224687
000390 7e 75 d2 bd 1f d1 d3 bd 49 a6 df bd e5 72 e5 bd
       -0.10276316 -0.10342621 -0.10920388 -0.11203555
0003a0 da ba 2c bd 51 a8 0d 3e 4a c3 69 bc a7 38 26 be
       -0.042170383 0.13833739 -0.014267752 -0.16232549
0003b0 a2 e8 10 3e a5 87 a9 3d 89 99 52 bd 89 9f 25 3d
       0.14151242 0.08277825 -0.051415954 0.040435348
0003c0 03 f4 30 be 3e ab 9f ba 08 23 98 3c 21 16 0c bd
       -0.17280583 -0.0012181771 0.018571392 -0.03420079
0003d0 e1 91 0d 3d a9 70 88 bc c2 a8 f5 bd 9f 86 c7 3c
       0.03456295 -0.016655283 -0.119950786 0.024356185
0003e0 4d b3 29 3d 67 3a fd bc 29 65 3e 3d c2 2d a8 3d
       0.04143076 -0.030911637 0.046483193 0.082118526
0003f0 00 6d ae 3d da 85 d8 3c 7f 75 f0 bc ff 4d 09 bd
       0.08516884 0.026431013 -0.029352902 -0.03352165
