output/CarlaNavigation-v0/wcsac/5/cost_var.pt (torch, 536535 bytes, 5 tensors)

net.0.weight f4 [256, 263]
000000 f4 63 c7 3d 61 94 12 3f 87 5a f0 be 4e e6 04 3f
       0.097358614 0.5725766 -0.46944067 0.5191392
000010 e9 a7 c8 be 79 ba 56 3c 44 78 01 bd 91 91 2a 3d
       -0.39190605 0.013105982 -0.031608835 0.04164273
000020 a8 a5 5b bd bb 26 f2 bc 14 a4 46 3e 57 cb 1a 3d
       -0.05362478 -0.029559484 0.19398528 0.037791576
000030 50 5f 1f 3d 9b 14 f2 3c 0f 42 da bc e9 05 3d bc
       0.038909256 0.029550841 -0.026642827 -0.011537054
000040 7a 8b eb 3c 3d a5 14 be 64 b1 f5 be 61 e3 72 bc
       0.028753031 -0.14516158 -0.479869 -0.014824719
000050 90 d9 02 be 4a f9 15 bd 89 2c 98 be ff 66 9e be
       -0.12778306 -0.036614694 -0.29721478 -0.30937955
000060 1f 10 08 3e c1 b2 76 3e ef b9 90 ba 64 5a 8c 3e
       0.132874 0.24091627 -0.0011041741 0.27412713
000070 12 21 40 bd 62 52 21 be 44 e8 4a be 41 51 7a 3d
       -0.04690654 -0.15754083 -0.19815165 0.061112646
000080 3e e0 6a bd d5 40 fe be c5 b0 27 3e 01 51 41 3e
       -0.05734276 -0.49658838 0.16376026 0.18878557
000090 26 53 91 3d a6 8b 6a bd e2 76 9e 3d 7a 33 e9 bd
       0.070959374 -0.057262085 0.07737519 -0.113867715
0000a0 8f 9a 2e be 3b 39 9c 3d b1 3a 8b bb 77 66 f2 bb
       -0.17051147 0.07628103 -0.00424894 -0.0073974687
0000b0 48 56 2d be 9a 04 78 be 3f 72 83 3e eb 27 29 bc
       -0.16927445 -0.24220505 0.256731 -0.010324459
0000c0 f3 00 0f be e9 5f 68 be 05 7b bc be d8 98 f4 bc
       -0.13965206 -0.22692837 -0.36812606 -0.029858038
0000d0 5c 50 5f 3d fa ea 02 3e cc 56 87 3d 59 dc ba be
       0.054519996 0.12784949 0.06608352 -0.36496237
0000e0 ce 29 9d be 4c f2 e7 bc 8b 4b 4d bd ad 44 eb be
       -0.30695957 -0.028313778 -0.05012087 -0.45950833
0000f0 3f 73 f5 bd cd 9c b7 3c e6 69 01 3c 94 fe c0 3c
       -0.11984872 0.022413636 0.007898783 0.023558892
000100 05 69 e5 be 9a e8 1e be 95 00 57 bd a8 47 a2 bd
       -0.44806686 -0.15518418 -0.05249079 -0.079238236
000110 c7 d0 a9 3d 89 6b 4c be 54 74 33 3e 22 ee 9d be
       0.08291774 -0.19962896 0.17524844 -0.30845743
000120 35 6e be bd 50 d2 2d 3e 8b a2 43 be 82 e1 3f bd
       -0.09298364 0.16974759 -0.19104974 -0.04684592
000130 9c 69 fe 3d 54 4f 01 bd 1b b4 49 3e 90 ea ef bd
       0.12422487 -0.031569794 0.19697611 -0.11714661
000140 46 a9 81 3d e1 0d 2e bd 7f 7e 8d 3d 58 1e 3b 3d
       0.063311145 -0.042493705 0.06908893 0.045683235
000150 74 3f 39 3d 24 58 ff bc 99 17 65 bd 61 c5 58 3e
       0.04522653 -0.031169958 -0.055930708 0.21169044
000160 08 c5 65 bd 3f 04 0b be 84 1b f9 bd 61 88 9c bd
       -0.056096107 -0.13575839 -0.12163451 -0.076432
000170 c9 7d 7d 3e b8 09 09 be 05 71 c0 be 86 d6 b1 3d
       0.24755014 -0.13382614 -0.37586227 0.08683495
000180 2d be 74 3d 6c de f4 3d d5 a9 f7 3d bd 41 91 38
       0.05975168 0.11956486 0.1209294 6.9263835e-05
000190 8b 51 11 bf 32 f2 55 3e 4a 5b 4f be 73 d9 d5 3d
       -0.5676505 0.20893171 -0.20249668 0.10441866
0001a0 da 5a a8 bc 9d 4a 9f bc ca 51 f3 3d 0a 22 45 bd
       -0.020551134 -0.019444758 0.118808344 -0.048128165
0001b0 82 6e 8b be 16 74 61 3e d0 75 69 be 42 04 8c be
       -0.27232748 0.2201694 -0.22798848 -0.27346998
0001c0 fb ff 07 3e 51 5c 90 bd d8 9a d4 be a8 e6 b6 3d
       0.13281243 -0.07048858 -0.41524386 0.08930713
0001d0 88 c6 01 3e 2e 58 ca be 28 2d a0 bc 3b 66 24 3c
       0.1267339 -0.395204 -0.019552782 0.010034139
0001e0 a5 3d 5b 3e 40 64 77 be aa d1 b2 bd ba 8c 8d be
       0.21410234 -0.24159336 -0.087313965 -0.27646428
0001f0 7a 4c f5 be 0e 01 35 bd a8 8f 90 bd 98 76 ff 3d
       -0.4790991 -0.04419046 -0.0705865 0.12473792
000200 26 e6 fc 3c 72 65 31 be e6 6f e4 3c f8 ad 98 be
       0.030871462 -0.17323855 0.027885389 -0.29820228
000210 e4 d4 8f be 3c b3 e2 3d ca c1 49 bd 1a 9e 0d be
       -0.2809211 0.110693425 -0.049257077 -0.13829842
000220 43 7d 1b be 05 29 df 3d 86 da a2 3d f0 13 96 3e
       -0.15184502 0.10896496 0.07951836 0.29312086
000230 be 77 9c bd 5c 67 fa bd a9 8c b7 3d f9 9b 01 3d
       -0.076400265 -0.122267455 0.08962376 0.031642888
000240 43 c5 d0 3c 7e 2f 26 3d 48 d0 b2 bd bf a9 e2 be
       0.025484687 0.040572636 -0.08731133 -0.4427013
000250 bb 44 88 bd 20 d6 bc 3d 3c b7 d0 3d 66 a0 2a 3e
       -0.06653734 0.092205286 0.10191199 0.1666275
000260 5a a0 d0 3b fe 59 13 3e 6d 62 13 3e 3d 57 8a bd
       0.0063667716 0.14389798 0.14393015 -0.06754921
000270 ec 65 e6 3c 90 9d cf bb 89 38 2b bc 3e 78 91 3d
       0.028124772 -0.0063359216 -0.010450491 0.071030125
000280 b0 dc c1 3d 6b 02 ac 3c 6e b3 96 bd 83 30 44 3d
       0.09465921 0.020997247 -0.07358442 0.047897827
000290 aa 77 3c 3e 22 d4 04 bd f8 aa 54 3d 64 7d 87 3e
       0.18405023 -0.032428868 0.05192086 0.26462853
0002a0 14 4e b5 3c 35 7b 44 bd cd 42 80 3e f8 a2 39 3e
       0.022131957 -0.047969062 0.25050965 0.18128574
0002b0 01 93 ac bd dd 57 d0 be 8b 40 82 bd 77 e2 21 be
       -0.08426476 -0.40692034 -0.06359967 -0.15809046
0002c0 ab d0 2f bd f7 de c1 be 54 4f 33 3e ef d4 7b be
       -0.04292361 -0.3786542 0.1751073 -0.24592946
0002d0 f3 1d 9b be 33 bb 02 bd 1d d8 c9 be 96 f3 be be
       -0.30296287 -0.03191681 -0.39422694 -0.37295216
0002e0 df 47 35 bd 1d 34 1b ba 7e 2b e8 3d 3a 9a 9f 3d
       -0.044257995 -0.0005920546 0.113364205 0.07793088
0002f0 9c bd 46 3e 9c 39 ea be d4 39 aa be 68 2b 3b 3e
       0.19408268 -0.45747077 -0.33247244 0.18278277
000300 69 9f 94 3d 8d 53 8b 3d c3 ce bf be 49 2d bd bc
       0.072569676 0.068030454 -0.37462434 -0.023092883
000310 d8 1b 9c 3d d4 33 22 3d 49 b2 a5 be b8 56 25 be
       0.07622498 0.03960021 -0.32362583 -0.16146362
000320 c7 35 1d bd 13 db 29 3e 22 f7 53 3d 40 40 aa 3d
       -0.038381364 0.16587476 0.051749356 0.08313036
000330 6b bc c5 3d 20 27 94 be c2 fc 44 3e 06 3e 57 be
       0.096550785 -0.289361 0.19237044 -0.21019754
000340 8a 63 41 be f3 51 ef bb b8 8b c5 3d 31 91 37 bc
       -0.18885627 -0.0073034703 0.0964579 -0.01120405
000350 c1 4e 06 3e 70 97 33 3e d5 45 0c 3e 32 63 95 3d
       0.1311598 0.17538238 0.13698514 0.07294311
000360 a7 34 13 3c a3 c6 87 be 24 22 21 bd d2 b2 ed 3c
       0.008984721 -0.26518735 -0.0393392 0.029015932
000370 d7 db d4 be a2 ca 21 bd d2 4a 9f 3d 14 94 97 3c
       -0.41573974 -0.039499886 0.07777943 0.018503226
000380 f7 d8 e7 3d 38 0b bb 3d 34 26 b5 be a1 f5 18 bf
       0.1132068 0.09132999 -0.3538071 -0.597498
000390 d3 b8 1a be f0 79 16 3e b1 84 62 3e f3 da 4d 3e
       -0.15109567 0.14694953 0.2212093 0.20103054
0003a0 0c 47 97 3c d0 92 55 3e a8 88 c9 3d c7 23 c8 bd
       0.018466495 0.20856786 0.09840518 -0.09772449
0003b0 5d cb 57 3e 30 b4 1b 3d 63 a2 5e be a3 d6 28 be
       0.2107367 0.038013637 -0.21741633 -0.16488127
0003c0 af cc a3 bc 56 ab 35 bf 58 91 6b 3d 23 48 12 bd
       -0.019995062 -0.7096456 0.057511657 -0.035713326
0003d0 0f 3a 70 be 55 63 cd bd e9 2c 84 be 70 ba 13 3e
       -0.23459648 -0.10028712 -0.25815514 0.14426589
0003e0 1b e9 d6 bc ee a7 ec bc bc 32 20 3d de cb 30 bc
       -0.0262342 -0.028888669 0.039110884 -0.010790793
0003f0 64 c6 24 3e bb 27 29 bd 7e 59 67 be e2 15 d3 3d
       0.16091305 -0.041297656 -0.22592732 0.10306908

net.0.bias f4 [256]
000000 d1 4f 5b bd 14 55 a5 bd be d3 94 bd 3b da 08 3d
       -0.053542916 -0.08072868 -0.07266949 0.033411246
000010 37 ce 99 3c 5f 91 b3 3d 3c f4 e5 3d 9f 91 72 bd
       0.018775089 0.08767962 0.11228225 -0.059220906
000020 7f da 26 3b ba 2b cb 3c c7 b4 1f 3e f3 2f 39 bd
       0.0025459824 0.024801124 0.15596305 -0.045211744
000030 5c 16 76 3d 44 aa 80 3c db 44 02 3d 60 cb 58 3d
       0.060079917 0.015706189 0.031803947 0.05292833
000040 83 43 89 3d 6a 39 99 bd be 1f 1c 3d 5b 54 73 3c
       0.0670233 -0.07481654 0.03811621 0.014851655
000050 7c ea a0 bc a9 31 52 3d 43 89 87 3d 2a 8d 85 3d
       -0.01964306 0.05131689 0.066179775 0.065210655
000060 62 48 55 3d 0e 56 06 3c 49 5f 8f 3d bb 44 6d bc
       0.052070983 0.008199228 0.07000596 -0.014481719
000070 a0 4d a5 3d 13 e7 1d bd 2e aa a3 bb 73 2d 51 3b
       0.080714464 -0.038550448 -0.0049946522 0.003191796
000080 36 7d 9a 3b 87 8a 82 3d 13 1a ce 3c 2e e9 3d 3d
       0.0047146333 0.06374078 0.025158918 0.046364956
000090 27 8b 2f 3b c6 98 a4 3d c7 ce 49 3c 2b 5f 67 3d
       0.0026785822 0.08036952 0.012317366 0.056487244
0000a0 3a 9d 67 3d be 2e ac bd 53 27 f6 3d fa 98 1c bd
       0.056546427 -0.08407353 0.12019219 -0.038231827
0000b0 9f db c2 3b 60 ba f8 3b 6c 79 96 bd 13 89 53 bd
       0.005946591 0.007590577 -0.07347378 -0.051644396
0000c0 c9 1b c7 bd 8a 45 55 bd 7d 54 0f 3d db 60 25 3d
       -0.097220965 -0.05206827 0.034992684 0.04037557
0000d0 5f 05 3a 3d 58 c4 56 3d 06 14 b2 bc 50 1c f2 3c
       0.04541528 0.05243334 -0.021738064 0.029554516
0000e0 41 35 01 bc 37 51 84 bd dc 07 81 3d 1e f6 74 3d
       -0.007886232 -0.06460803 0.06300327 0.05980503
0000f0 ca 0c 03 3e 8a 15 b4 bd 8d c8 6d bd 56 f3 cd 3d
       0.12797847 -0.08793171 -0.05805259 0.10056178
000100 07 b7 97 bd f1 40 1f bd d8 8c 4e 3c e1 30 73 bc
       -0.074079566 -0.038880292 0.012606822 -0.014843197
000110 af 0f 8e 3d 7a c9 0b 3d 1e 1e ab 3c fc 23 71 bd
       0.06936585 0.03412769 0.020888384 -0.058872208
000120 ed 6a 01 3e 9f 2b 5a 3d 10 bb 1d 3d 36 f7 5e bd
       0.12638445 0.053264257 0.038508475 -0.054434977
000130 66 2c 50 3d 57 7a c0 3d e2 3c 2d 3d c5 46 66 3d
       0.05082359 0.093983345 0.04229439 0.056219835
000140 d0 4c da 3c 53 08 60 3d 72 56 a6 3c a0 b5 ff 3b
       0.026647955 0.05469544 0.020304892 0.007803634
000150 61 42 58 3d a8 ac fd bc 70 74 c7 3d 55 47 a4 3d
       0.05279768 -0.030966118 0.097390056 0.08021418
000160 d5 b0 05 3d c7 4d 35 3d 76 af 08 3d ff e8 0a bd
       0.032639343 0.044263627 0.033370458 -0.03391361
000170 62 23 54 39 78 6d 06 bd d7 25 c7 3a 98 08 de 3c
       0.00020231077 -0.03281924 0.0015193772 0.027103707
000180 99 52 8d bd 94 84 4a 3d 14 79 1a 3d b2 da 01 3d
       -0.0690052 0.049442843 0.037713125 0.031702705
000190 2d 39 27 3d e1 a5 06 3e 4a ad 63 bc c3 3b 5f 3d
       0.04082601 0.13149215 -0.013896296 0.054500353
0001a0 d7 b3 b7 3c 3f 5c 9b 3c ec f8 67 bd 11 3f 3e 3d
       0.022424622 0.018964885 -0.056633875 0.046446864
0001b0 ea 79 e5 3c a8 7a f8 bc cc ab 0b 3d c6 7c da 3d
       0.028012235 -0.030331925 0.034099385 0.1066833
0001c0 54 3e 87 3d f8 fa 5f 3d 3f 5e 9e bd 64 0b 5b 3d
       0.06603685 0.0546827 -0.0773282 0.05347766
0001d0 82 50 e5 3d 8d 56 aa 3d bf e4 d7 3d 56 2d 7a bd
       0.11196996 0.083172895 0.10541677 -0.061078392
0001e0 f6 4a 56 bd 65 aa 1c 3d a3 a7 14 bd cf 32 b6 bd
       -0.052317582 0.03824844 -0.036292683 -0.0889641
0001f0 30 a8 0f 3d 6b 3f 24 bb 3e 52 43 bd 91 1a ce 3d
       0.035072505 -0.0025062214 -0.047685854 0.10063661
000200 67 46 4f 3d 34 ac 85 3d 39 d3 15 bd 12 1e 0f 3d
       0.05060425 0.06526986 -0.03657839 0.034940787
000210 31 3b 73 bd 2d 36 b7 3d 2d 52 eb bb a0 4d 6a bc
       -0.05938262 0.0894588 -0.007181427 -0.014300734
000220 d2 80 04 3c 6f 13 92 bd 3c 87 f2 3c 9c ee 4a 3d
       0.008087354 -0.07132613 0.0296055 0.049543962
000230 a9 f4 99 bc cf ac 3c 3d 74 80 c0 bd b2 1b 05 3d
       -0.01879342 0.04606324 -0.093995005 0.032497115
000240 2a f9 73 bd 5f bf df 3d 3c d1 4b 3d b1 cc 4c 3d
       -0.059563793 0.10925173 0.04976009 0.049999896
000250 1a 6e 0d 3e 7c 24 9c 3c 6d 75 9f bd b9 dc 34 3d
       0.13811532 0.019060366 -0.07786069 0.04415581
000260 6f 4e 92 3d 4b 93 38 bc 93 cd 86 bd b8 1a ae bd
       0.07143866 -0.011265586 -0.06582179 -0.0850119
000270 56 11 e6 3a d5 9a 7d 3d 99 61 73 3d 6d 20 0c bd
       0.0017552774 0.061915237 0.05941925 -0.03421061
000280 46 ca 9b 3c e1 c7 c3 bd 38 47 9b 3d 47 f7 88 3d
       0.01901735 -0.09559608 0.07581943 0.066877894
000290 92 e5 9c 3d b3 e2 23 3d 17 30 91 3d 73 6d c3 3c
       0.076609746 0.04001112 0.070892505 0.0238559
0002a0 b2 45 7e 3c 3e fe c3 bd c0 5b f1 bb de 67 93 3d
       0.015519546 -0.09569977 -0.007365674 0.071975455
0002b0 8d 46 5b bc a1 fd 48 bd 38 36 9a bd dd 6d 86 3d
       -0.01338352 -0.049070004 -0.07529873 0.065639235
0002c0 6d fb 04 3d 63 92 94 3c 32 5b a3 3d b4 5f 50 3c
       0.03246634 0.018136209 0.079763785 0.01271813
0002d0 1d 0f 8e 3d 4d 16 ec 3c 7c b5 94 3d 44 22 28 bd
       0.069364764 0.028819228 0.07261178 -0.041048303
0002e0 77 b9 5d bd 83 e8 71 bd 7c 80 ba 3d 6a ea 85 3d
       -0.05413195 -0.05905963 0.09106538 0.065388516
0002f0 7d 1c a5 bd 9c b5 92 3d 78 c7 7d bb 8f db 18 3d
       -0.08062074 0.071635455 -0.003872363 0.037318762
000300 03 69 9f 3c 8b 5b 8e bd 5c 2c 98 3d 2e c3 79 3d
       0.019459253 -0.06951054 0.07430336 0.060977153
000310 50 74 c2 3d 4c 6e 5b bd 88 70 85 3d 04 c2 75 bc
       0.09494841 -0.053571984 0.06515604 -0.01499987
000320 03 3c 7e 3c 91 16 22 3e 2b 26 8d 3d 49 59 da 3c
       0.015517238 0.15828921 0.068920456 0.026653903
000330 21 2f 90 bd a2 ea 89 3d 69 7a 74 3d 71 1f fc bc
       -0.07040239 0.06734206 0.059687052 -0.030776711
000340 f3 0d f5 3c 19 2e 06 3d 47 3c a9 bd d4 95 91 3d
       0.029913878 0.032758806 -0.0826345 0.071086556
000350 d1 f2 72 3c 91 1e 41 3d 9e 6d aa bd 3a e8 93 3d
       0.0148284 0.04714829 -0.08321689 0.07222028
000360 c8 59 c0 3d fb e0 c4 3d 81 55 56 bd c6 a3 c4 bd
       0.093921244 0.09613224 -0.052327637 -0.0960155
000370 eb 98 6a 3d 3e 65 a4 bd 13 8f 17 3d 16 a9 8c 3d
       0.05727474 -0.08027123 0.03700168 0.06868188
000380 f6 c6 af 3d 79 0b b8 3d 14 ae 27 3d d8 57 19 bd
       0.08582871 0.08986563 0.0409375 -0.03743729
000390 de 7d 50 bd c3 f8 b2 bd 8c 0b e1 3d 05 0d ca 3c
       -0.050901286 -0.08738854 0.109885305 0.024664411
0003a0 ba e1 38 3d 5e 66 80 3d cf 0d 91 3d 6b 6e 62 bb
       0.045137145 0.06269525 0.07082712 -0.0034550678
0003b0 9f 09 30 bd 7c 65 d8 bd fd 13 97 3d 56 93 09 3c
       -0.042977925 -0.105662316 0.07376859 0.008396944
0003c0 fc 24 8b bd 6b 21 34 bd 03 eb 87 bd 8c 6f d7 bc
       -0.067941636 -0.043977182 -0.06636622 -0.026298307
0003d0 f0 06 ae 3d d7 f4 ae 3d c8 21 98 bd 02 2a 89 3d
       0.08497417 0.08542793 -0.07428318 0.066974655
0003e0 e4 21 75 bd d7 c2 a9 bb 00 28 c0 bd 0d be 90 3b
       -0.059846774 -0.0051806974 -0.093826294 0.004417187
0003f0 a7 18 4c 3d 17 a5 91 bd b6 c1 0f 3d d8 8b 43 3d
       0.049828198 -0.071115665 0.035096847 0.047740787

net.2.weight f4 [256, 256]
000000 13 af ac 3c fe 7b e4 3d b8 de 9a be bd b5 15 bd
       0.021079576 0.11156462 -0.30248046 -0.036550272
000010 14 bf b2 bd 83 0b 75 3d 87 d7 a9 3d 58 5f 41 3d
       -0.087278515 0.05982543 0.08293062 0.047210068
000020 84 fe 85 3d 12 6f 45 be 38 2b fe be 09 ae be be
       0.06542686 -0.19280651 -0.49642348 -0.37242153
000030 28 25 c7 3d 5c 44 9f 3e 13 85 94 bd f6 13 ad 3e
       0.09723884 0.31106842 -0.072519444 0.3380429
000040 43 67 95 3d 75 1b cb be 2c d0 1c be 37 dd 71 3e
       0.07295086 -0.39669386 -0.15313786 0.23619543
000050 93 4e 56 3e 8c 42 3c 3e ca 68 03 be ac d0 ec 3d
       0.20928411 0.1838476 -0.12832943 0.115632385
000060 1c a6 46 3e a7 6e 56 3e 5f 83 8b 3e 37 ae 35 3e
       0.19399303 0.20940648 0.27248666 0.17742239
000070 8e 11 23 3e 68 d5 51 3e cc b9 31 be dd b9 36 bd
       0.15924665 0.20491564 -0.17356032 -0.044610847
000080 24 7e 89 3d 9f 26 ff 3c db ff 8f 3e b7 f3 09 3d
       0.067135125 0.031146346 0.2812489 0.03367969
000090 de 75 ef 3d 87 f3 ec 3e c5 99 c1 3e 9e 4c 70 bd
       0.11692403 0.46279547 0.3781263 -0.058666818
0000a0 bd 34 a3 bd 22 ac 76 be 0a b8 8c 3e f1 5a 43 3e
       -0.079690434 -0.24089101 0.2748416 0.1907766
0000b0 b7 d1 9b be ab 91 52 3e 96 58 6c bd 3a d7 db bd
       -0.30433437 0.2056338 -0.05770167 -0.107344106
0000c0 0b 26 d2 bd 53 17 aa 3d c2 16 ab bd 3d 7c 0c 3f
       -0.10261162 0.0830523 -0.0835395 0.5487707
0000d0 f7 e3 8c bc 0b 67 41 3d d8 d9 86 3d ea 82 8a 3e
       -0.017198546 0.04721741 0.06584519 0.27053005
0000e0 6a 3f 6a 3e 46 cd 0e 3d ba ab 73 3e 2d e6 36 be
       0.22875753 0.034863733 0.23795977 -0.17861243
0000f0 8c 75 8a 3e 14 b4 39 3e b5 a5 82 be d3 3a 79 3e
       0.27042806 0.181351 -0.2551705 0.24338846
000100 20 82 dc bc e3 e6 03 bd ea 4a c0 be 0a bb a0 3d
       -0.026917517 -0.032202613 -0.37557155 0.07848175
000110 d3 9b 72 bd 09 95 1d 3d 7c 59 16 3e b8 35 97 3d
       -0.059230637 0.03847221 0.14682573 0.07383293
000120 19 a2 6d 3e e9 54 aa be b3 2e 82 3d f6 72 0e be
       0.23206367 -0.33267906 0.063565634 -0.13911042
000130 8c 64 a1 bb d8 99 ac 3e 6c c9 cf 3d eb 43 96 3e
       -0.004925316 0.33711123 0.1014584 0.29348692
000140 6c e5 c6 bb 6e f1 5d 3e f5 25 0d 3e 69 8a 06 3d
       -0.0060698297 0.2167413 0.1378401 0.032846842
000150 cc 9c 2b 3e de 15 66 3e 4e cc e7 3d 37 cc ce 3c
       0.16759032 0.22469279 0.11318265 0.025243862
000160 24 0c 40 3e 41 9c 9a be 75 c0 45 3e 62 32 ef bd
       0.18754631 -0.30197337 0.19311698 -0.11679532
000170 4f 1b 98 bd ea 40 8f bd fa 8d 15 be 71 69 1d 3e
       -0.07427084 -0.06994803 -0.14604941 0.15372254
000180 0d 6c dc 3d cf 1f a1 bd 91 cd fd bd d9 c0 a3 3e
       0.107627966 -0.07867395 -0.12392724 0.3198307
000190 0a 9f 74 bd 6a cf c1 bc 98 94 7b 3e db 50 88 3d
       -0.059721984 -0.023658473 0.24568403 0.06656047
0001a0 a8 f4 07 be 70 ce ed bd 2f f9 7b 3d 9d 2d 67 3e
       -0.13276923 -0.116116405 0.061516937 0.22575994
0001b0 df 3b ed 3d 4d a2 95 be e3 ba e0 bc 0d 5b 89 3e
       0.11583685 -0.29225388 -0.027432865 0.2682728
0001c0 8b d1 48 be 49 84 0a 3e 48 e3 7b bd 7b 8e 0d 3e
       -0.19611184 0.13527025 -0.06149605 0.13823883
0001d0 7c 0c 0c 3e 21 61 55 3d 5b a2 82 3e b2 60 0a bd
       0.13676637 0.052094582 0.25514492 -0.033783622
0001e0 6a ca 4c 3e 95 6e 56 bd 84 18 25 3e 01 19 1f 3e
       0.1999909 -0.052351553 0.16122633 0.15536882
0001f0 12 8e 8d 3d 9b 74 8a 3d 5b b4 61 bc e9 8f 5e 3e
       0.069118634 0.06760522 -0.01377591 0.21734585
000200 c8 04 c0 bd e1 61 dc 3d c7 a9 79 be ea 72 24 be
       -0.09375912 0.107608564 -0.24381171 -0.16059461
000210 31 21 10 bd 69 d1 a5 3d 0d 99 cf 3e 71 c3 86 3d
       -0.035187904 0.080965824 0.40546456 0.06580246
000220 4b da ce 3d d8 db be 3d 2a 60 09 3f 46 64 8e 3d
       0.1010023 0.093192756 0.5366236 0.069527194
000230 08 0c b6 3d 44 2e 20 3b 26 62 2b bd 77 d7 36 be
       0.088890135 0.002444164 -0.04184165 -0.17855631
000240 3e 39 fe bd 39 4d 01 3e 21 21 2b 3b 3f b2 51 3c
       -0.12413262 0.12627114 0.0026112276 0.012798845
000250 fc d9 3c 3e 56 57 a6 3e 44 39 41 3b ee 66 2d 3d
       0.1844253 0.32488507 0.0029483596 0.04233449
000260 2e e3 06 be 1f c8 d6 bd c6 25 10 bc 74 aa 15 bf
       -0.131726 -0.10487389 -0.008798068 -0.58463216
000270 b2 fb 88 be 79 3d 28 bd 33 b1 30 be c7 eb d9 bd
       -0.26754528 -0.04107425 -0.17255096 -0.10640674
000280 ce b9 8b 3e 0f 3d 70 be 72 0d 08 bd b3 fb 29 bd
       0.27290195 -0.23460792 -0.033215947 -0.041499805
000290 53 25 a1 3e 2f d5 88 be a3 06 43 3d 52 04 d2 bd
       0.3147379 -0.26725146 0.04761375 -0.1025473
0002a0 51 65 63 bd dd 62 9e 3d d8 b4 c6 3d 29 0e 1f 3d
       -0.055516545 0.077337004 0.09702462 0.038831864
0002b0 80 ec 10 3e 33 41 1b 3c 1b c9 63 3e 89 93 81 3e
       0.14152718 0.009475994 0.22244684 0.25307873
0002c0 d9 c9 ee bd 00 08 a3 bc b2 c6 bc 3e 34 12 81 be
       -0.11659593 -0.019901276 0.36870342 -0.252092
0002d0 9c 16 3d be 10 48 68 bd 95 ec 3d 3e e4 2a 8c 3e
       -0.18465656 -0.05670935 0.1854728 0.27376473
0002e0 8a 8e 13 3e b2 73 f1 bc 55 e8 81 3d 64 4b 8d 3d
       0.14409843 -0.029474113 0.06343142 0.06899145
0002f0 cc 51 91 3c 09 b0 1a 3e 23 ab 99 bd 12 ae 44 3d
       0.0177392 0.15106215 -0.07503345 0.04801757
000300 80 0a c3 3d e4 de a8 be 04 3b 00 3e 67 bf b7 3d
       0.09523487 -0.32982552 0.12522513 0.08972054
000310 10 b1 cd bd f7 bb 18 3e ac a7 e4 bd fc cb 61 3e
       -0.100435376 0.14915453 -0.11164793 0.2205047
000320 35 02 22 3d ce f8 df bd f6 60 22 3e 2b b4 b4 3d
       0.039552886 -0.109361276 0.158573 0.08823427
000330 e8 3d 28 be f8 eb ac bd 68 b2 d2 3c 34 91 6e 3e
       -0.16429865 -0.08443445 0.025719836 0.23297578
000340 68 55 98 bd 73 82 09 3e 37 5c 5e 3d 87 fc 97 3c
       -0.07438165 0.13428669 0.05428716 0.018553032
000350 9a d8 4e be 14 91 a6 bd 81 ac 51 3d cc be 43 bd
       -0.20199814 -0.0813314 0.051189903 -0.04778938
000360 21 17 3f 3e a6 8b ac 3d dd bd 34 3d b6 3d f5 3d
       0.18661167 0.08425073 0.04412638 0.11974661
000370 ba 5e 53 3e 19 5c 68 bd b2 82 4f 3e 59 66 3b 3e
       0.20641604 -0.056728456 0.202647 0.18300761
000380 4c b3 5f be b0 0a 21 bc 7d f4 36 be ba e4 4c 3e
       -0.2184574 -0.009829208 -0.17866702 0.20009127
000390 3e e9 28 be a9 b9 8d bd d5 82 98 be 69 7e ad 3d
       -0.16495225 -0.069201775 -0.29787317 0.084713764
0003a0 9d c6 4c 3e f0 9a 3b 3e 86 bd 9f 3e 03 3f 91 bd
       0.1999764 0.18320823 0.31199282 -0.07092097
0003b0 0a ce 8c bd ab b8 02 bd a0 56 24 be 29 6c 2d be
       -0.06875236 -0.031914394 -0.1604867 -0.16935791
0003c0 aa 87 20 be 35 58 d6 3d ac c3 a7 bd b7 2d 8a 3a
       -0.15676752 0.10466043 -0.08191618 0.0010542189
0003d0 62 0d 2b be ed 45 20 be f7 62 76 3c 26 4d eb 3d
       -0.16704324 -0.15651675 0.0150382435 0.11489324
0003e0 8a 73 eb bd 91 45 84 bd 83 96 16 be 31 33 34 3e
       -0.11496647 -0.06458581 -0.14705853 0.17597653
0003f0 2d 47 8e 3e 92 92 ce bb 63 43 4c 3e f9 cb 37 be
       0.27788678 -0.0063040936 0.19947581 -0.17948903

net.2.bias f4 [256]
000000 b6 25 5d 3d 5e 9a 96 bd eb 3a 2b bd 60 69 18 3d
       0.053991042 -0.07353662 -0.041804235 0.03720987
000010 e8 90 26 3d e5 01 03 3c 6b 6a 51 3c bf e7 54 bc
       0.040665537 0.007996057 0.01278172 -0.012994706
000020 f6 07 9c 3a 4e 8e 18 3d 53 2f 8d 3d 68 67 4f 3d
       0.0011904228 0.037245087 0.06893792 0.050635725
000030 70 5e 6d bd 68 f5 08 ba 3f e7 1c 3b bc fb 13 bd
       -0.05795139 -0.00052245567 0.0023941544 -0.036128744
000040 05 9c 28 bd 70 ce 60 3d 29 c8 51 bd 7a c4 9c bb
       -0.041164417 0.054884374 -0.05121628 -0.004784164
000050 9a 64 9e bc fb e8 5d bc 85 d2 3b bc e9 3b 43 3d
       -0.01933508 -0.013544316 -0.011463766 0.047664557
000060 6c 98 e0 3b 1b 2f 88 bc 5d 61 f5 ba eb eb 9b bc
       0.0068541076 -0.016624024 -0.0018721033 -0.019033393
000070 34 49 76 3d 8f 64 1f bc ea 4d 43 3b 55 a5 5e 3c
       0.060128406 -0.009728565 0.002980108 0.013589223
000080 91 98 72 bc 91 37 37 39 40 22 57 bd e3 89 be bc
       -0.0148068825 0.0001747294 -0.052522898 -0.023259109
000090 62 95 d5 3c 22 41 5a 3d dc 7f 7a bb 81 87 26 bb
       0.026072208 0.05328477 -0.0038223183 -0.0025410356
0000a0 bb 76 6d 3d 4f f0 0b 3d 7d 67 8b 3c c5 c4 66 3d
       0.05797456 0.034164723 0.01701712 0.056339998
0000b0 85 be 32 bd 12 20 89 bd cd 97 25 bc 30 21 7d bd
       -0.043638725 -0.0669557 -0.010106993 -0.06179923
0000c0 6a 3e e6 ba 4c d1 f4 bc 42 cf 9a bc 9b 88 35 3d
       -0.0017566208 -0.029884957 -0.018897656 0.04431973
0000d0 57 74 2a 3d 48 ab 4c bc 97 3d 51 bb 0a a2 fd bc
       0.041614857 -0.0124920085 -0.003192758 -0.030961055
0000e0 bd bd 51 bd a9 73 cf bb 4f 39 9f 3b 46 e5 2f 3d
       -0.05120634 -0.0063309264 0.0048591266 0.04294326
0000f0 47 4d 03 3e 67 3c 90 bc 85 f9 62 bd ae c4 f4 3b
       0.12822448 -0.017606927 -0.05541374 0.007469735
000100 e8 f1 5c bd 05 9b 35 bd e6 81 03 bc 0c 38 d6 bc
       -0.053941637 -0.04433729 -0.008026576 -0.026149772
000110 e7 2c cc bc f1 d6 1d bc 18 c6 01 3d e6 26 25 3d
       -0.024923755 -0.009633766 0.031683058 0.0403203
000120 bb 32 28 3c 3a 53 17 bd b6 39 4a bd 6d 45 f4 bb
       0.010266001 -0.036944605 -0.049371444 -0.0074545653
000130 4d 6d 46 3d 3c 5d fd ba 30 2e 6b 38 90 5d 81 3d
       0.04844408 -0.0019330154 5.607138e-05 0.06316674
000140 d1 27 18 bc c3 25 8d 3d ea b9 9d bc 3b 28 59 bd
       -0.009286837 0.06891968 -0.01925369 -0.053016882
000150 a0 fd 1a 3d c7 3d b9 bc 27 18 04 bd 32 e8 e3 bb
       0.037839532 -0.022612466 -0.032249596 -0.00695517
000160 56 75 fc bb 35 ea da bc ac c2 c4 bb 42 54 f6 3c
       -0.007704417 -0.026723007 -0.006004652 0.030069474
000170 bd 72 80 bb bb f4 4c 3d 44 94 68 bd de d1 df 3c
       -0.003919928 0.05003808 -0.056782022 0.027321752
000180 84 ef 0f bd de 34 2d 3d ed 98 5a 3d e5 20 1e 3c
       -0.03514053 0.042286746 0.053368498 0.009651397
000190 3c 63 55 3d fc 11 32 bd 5d bc d8 bb df dd fc ba
       0.05209659 -0.043474182 -0.0066142515 -0.0019292197
0001a0 a6 00 2f bd e1 8d 60 3d 3c 6a 30 bd 0d fa 4e bc
       -0.042725228 0.054822806 -0.043070063 -0.012632859
0001b0 98 fa 38 3d d3 c7 0c bd f8 b9 1f 3c bb 5c 10 3d
       0.04516086 -0.034370255 0.009748928 0.035244685
0001c0 18 d7 28 3d b2 51 98 bd 75 ae 25 bd 03 33 3e 3c
       0.041220754 -0.07437457 -0.04044958 0.011608842
0001d0 a8 ce 3b bd 6f 17 22 bd 01 b8 54 bd a4 e6 21 bd
       -0.04585138 -0.03957313 -0.051933292 -0.039526597
0001e0 04 4c 7f bc a9 9b 05 bc 33 01 d5 bc 1d f7 e3 3c
       -0.015582088 -0.008154788 -0.026001548 0.027827794
0001f0 de 8a 9e bc 31 b8 58 bd fe 7b 2a bd 30 2b 60 bd
       -0.019353326 -0.052910034 -0.041622154 -0.054728687
000200 d1 fc 5e 3d c4 54 63 3c 6b 3d 65 3d 29 f2 05 bd
       0.054440323 0.01387519 0.055966776 -0.032701645
000210 76 38 c8 bc c8 a8 f0 3a cd 1f 11 bd b3 51 a4 bc
       -0.024440985 0.0018360848 -0.03543072 -0.020058488
000220 53 e5 35 3d 5a 27 6c bd 82 70 81 3d 1e dc 2c 3c
       0.044408154 -0.057654716 0.06320287 0.010550527
000230 a9 86 d3 3c 92 b4 28 bc 38 f2 55 bd aa c3 ca bc
       0.025821047 -0.010296958 -0.05223295 -0.024751503
000240 98 a0 75 bc 2e 2a b7 bc 5a cb 82 3c 46 cb fb bc
       -0.014991902 -0.02235898 0.015966106 -0.030736577
000250 9c 18 f6 3c 4c 17 32 bc 3c d4 6f 3d 62 27 48 bd
       0.030041032 -0.010869812 0.05855201 -0.048865683
000260 de 98 d1 3d 74 89 60 3c 80 d8 30 bd 5f e2 42 3d
       0.10234235 0.013704646 -0.04317522 0.047579166
000270 95 92 41 3d d7 04 df bc 8b c1 f0 38 0d e9 22 3d
       0.047258932 -0.027223988 0.00011480142 0.039773036
000280 36 f3 53 3b 1f 76 39 3d c9 0b c4 bc 5c 8b 22 3c
       0.003234101 0.045278665 -0.0239314 0.009920921
000290 ed 86 d8 bc 60 b4 5c 3b 9a 14 1f 3d 69 11 6e 3d
       -0.026431525 0.0033676848 0.038838007 0.058122072
0002a0 76 20 e8 3a 9f a4 f1 bc af 1b 32 3b b0 1d cd 3c
       0.001770987 -0.029497443 0.0027177145 0.02503857
0002b0 7b f1 97 b9 bc f2 99 bd 91 28 84 bb 5b f4 21 3b
       -0.0002898088 -0.07517001 -0.004033156 0.0024712298
0002c0 de 92 38 3d 35 1c 94 bc 0d 35 c1 3a 2a 71 cb bc
       0.04506194 -0.018079856 0.0014740542 -0.024834234
0002d0 d5 6b 7f bc 92 16 48 3d fb c4 45 3d 17 8e 07 3d
       -0.015589674 0.04884965 0.04828356 0.03309449
0002e0 e7 72 cf bc 13 de 2f bc ec 4f 41 3c 1c e7 8d 3d
       -0.025323344 -0.010734099 0.01179884 0.06928846
0002f0 30 87 7b bd 43 91 94 bc 3f 59 79 bb a3 9f 4f 3b
       -0.06140822 -0.018135672 -0.003804758 0.0031680844
000300 a7 64 fc bc 75 8f eb bc 28 6d 1d bd d5 9e 4b 3d
       -0.030809714 -0.02875493 -0.038434178 0.04971202
000310 5f 32 5d bd d4 4b af bb 2d 33 46 3d f6 1e 2b 3d
       -0.054003116 -0.0053496156 0.04838865 0.041777574
000320 35 75 26 3d aa 79 83 3d d6 77 41 bd 1a 6d 41 3d
       0.04063912 0.0641969 -0.047233425 0.047223188
000330 b9 29 24 3c e7 c6 db 3c 78 58 68 3c d6 d2 30 bd
       0.010019713 0.026828242 0.014181249 -0.04316982
000340 8e 4b c7 3d 3d 38 09 3d a2 93 ab 3b 98 62 37 bc
       0.09731208 0.0335009 0.005236105 -0.01119294
000350 14 33 bc bc 8c c8 e3 bc 1f ce 39 39 6e fd 22 3d
       -0.022973575 -0.02780559 0.00017719761 0.03979247
000360 ef b2 38 3d d2 7f 22 3d 40 d7 6b bd 04 25 97 b9
       0.04509252 0.03967268 -0.057578325 -0.00028828543
000370 99 eb 0c 3b 16 60 60 bc 09 48 15 3d 99 af dc ba
       0.0021502732 -0.013694784 0.03644565 -0.0016837
000380 05 0b 3d 3d 4e 4f 09 3d 64 1b 12 bd 2c de 9b bc
       0.046153087 0.033522896 -0.035670653 -0.019026838
000390 10 76 b0 bc 22 d0 6c 3d 82 26 93 bd 64 08 54 bc
       -0.021540672 0.05781568 -0.07185079 -0.012941454
0003a0 a2 58 6d 3d c6 13 3a 3c 7c f6 2d 3d 65 bf 31 bd
       0.057945855 0.011357253 0.042471394 -0.04339542
0003b0 ca a7 06 3d aa 78 c7 3c 44 00 12 3c 71 7d 46 3d
       0.03287486 0.02434953 0.008911196 0.048459474
0003c0 4d 1d 36 3d 31 2c ee bb ed 36 11 3d fb 59 bd 3c
       0.044461537 -0.0072684516 0.035452772 0.023114195
0003d0 d2 0b 66 3d b0 ce cc bc 17 57 09 bc 68 d9 53 bd
       0.056163616 -0.0250009 -0.00838258 -0.051721007
0003e0 65 6e 1c 3d 48 c7 02 bd a6 a6 1e 3d a9 60 00 bd
       0.038191218 -0.03192833 0.038733147 -0.031342182
0003f0 58 a5 79 3d 31 75 89 3c 89 68 80 bc 3b d1 81 bc
       0.0609487 0.016779514 -0.015674846 -0.01584684

net.4.weight f4 [1, 256]
000000 37 25 07 bf 29 2c a6 3e 55 d8 c7 3e ad c2 99 be
       -0.5279116 0.32455567 0.39032236 -0.30031338
000010 ee 63 6a be 49 74 ae 3e c8 a4 b8 be 05 cd 91 3e
       -0.22889683 0.34073094 -0.36063218 0.2847673
000020 62 70 a0 3e b9 c9 54 be 73 3a 69 be 17 63 88 be
       0.3133574 -0.20780076 -0.22776203 -0.266381
000030 16 06 09 3f f8 3e a0 3e 07 93 72 be 25 38 2a 3f
       0.5352491 0.3129804 -0.23688899 0.6649192
000040 a2 10 86 3e e5 b5 b6 be 2a 17 2f 3f de a6 bf 3e
       0.26184565 -0.3568565 0.6839472 0.37431997
000050 4a 1c e8 3d 48 69 a6 3d 67 c3 02 3f dd b3 78 be
       0.11333521 0.081255496 0.5107941 -0.24287362
000060 49 7c 13 3d 43 4e 77 3e 8d 52 0d 3f 98 fe 01 3f
       0.0360072 0.24150948 0.5520409 0.50779104
000070 d4 7c a8 be 58 d3 61 3d 19 92 c0 be 14 b0 e0 be
       -0.32907736 0.055133194 -0.37611464 -0.43884337
000080 90 a6 ac 3e 3b 08 54 be 39 74 20 3f 23 92 1a 3d
       0.33720827 -0.20706265 0.6267734 0.037737023
000090 37 2a 89 3e 35 fc 91 be 01 e9 40 3e d3 49 a4 3e
       0.2679002 -0.2851273 0.18838884 0.32087573
0000a0 02 10 a3 be 29 ce 8b be 77 2b 34 3f d3 8f f4 be
       -0.3184815 -0.27305725 0.7037882 -0.4776598
0000b0 11 15 1f 3f d4 2f 1c 3f f8 19 7f 3e 68 04 19 3f
       0.6214152 0.6101048 0.2491225 0.5977235
0000c0 7f e5 c1 be cd e7 39 3f e8 77 c3 be 49 ce 41 be
       -0.37870404 0.72619325 -0.3817742 -0.18926348
0000d0 0e 4e 4d be 06 a0 90 be 9d 7f 86 3e 79 62 18 3f
       -0.20049307 -0.28247088 0.26269236 0.5952526
0000e0 c3 75 20 3f 93 34 dc 3e b3 f9 ae 3e 02 e7 b0 be
       0.6267969 0.4300886 0.3417488 -0.34551245
0000f0 fd 92 15 3f a5 e4 31 3e c0 0e 85 be 4a 0d 64 3e
       0.5842741 0.17372377 -0.25987816 0.22270694
000100 8c 52 1f 3f 23 b8 f2 3e ed 75 bd 3e 9d 1a 2f 3f
       0.6223533 0.4740611 0.37004033 0.68399984
000110 69 bc e3 3e e4 33 09 bf 06 76 85 be 7d 80 11 bf
       0.44479683 -0.53594804 -0.26066607 -0.5683668
000120 3f d2 fa 3e cb c0 b3 3e c3 8c a4 3e fe 34 1f 3f
       0.4898853 0.35108027 0.32138643 0.62190235
000130 e1 5a 76 be bb e0 a5 3e 41 8f c6 3e ed 9c a6 be
       -0.24058105 0.32398018 0.3878117 -0.325416
000140 27 4b 53 be aa 51 b9 be ee be 02 3e 24 19 17 3f
       -0.20634137 -0.36195117 0.12768146 0.59022737
000150 ac 21 86 be ea a2 fb 3d 12 59 0d 3f 28 f4 f0 be
       -0.26197565 0.12286933 0.55214036 -0.47061276
000160 a9 d2 8e be c1 79 fc 3d 99 62 38 3e cf fe b0 be
       -0.27895096 0.1232791 0.18006362 -0.34569404
000170 88 28 30 3f a8 39 1c bf 6e fe 1e 3f 23 36 96 be
       0.68811846 -0.61025476 0.6210698 -0.29338178
000180 74 48 45 3f 99 9c 33 be 41 81 82 be 8e a6 6e 3e
       0.7706368 -0.17540206 -0.25489238 0.23305723
000190 83 23 8e be a4 6d c9 3e 6d af c7 3e 2a 9f 0b 3e
       -0.27761468 0.39341462 0.39001027 0.13634935
0001a0 b5 c4 26 3e 24 12 c1 be ec c3 2a 3f c7 c6 b7 be
       0.16285975 -0.37709153 0.66705203 -0.35893843
0001b0 18 09 20 be 0a 0d 25 3f 94 04 93 be 64 33 31 be
       -0.15628469 0.6447302 -0.2871443 -0.1730476
0001c0 48 97 a1 be 98 5b dd 3e a4 8a 03 3f 86 d7 d2 be
       -0.3156073 0.43233943 0.51383424 -0.41180056
0001d0 e7 f5 61 3f 8b da 97 be 54 e9 09 3f c9 84 3e 3f
       0.8826584 -0.29658923 0.53871655 0.74421364
0001e0 04 f7 f4 3e be 86 08 3d ad 21 76 3e 14 ed bb be
       0.47844708 0.033331625 0.24036284 -0.36704314
0001f0 bf 36 57 be 8b c8 44 3f 91 50 1d 3f f1 8a 37 3f
       -0.21016978 0.76868504 0.6145106 0.7169638
000200 0d c9 b8 be e8 20 a5 3e 74 6e 81 be 5e 9c 2b 3f
       -0.3609089 0.32251668 -0.25279582 0.6703547
000210 91 3b f4 3d 9f d3 66 be 09 0e 1b 3e f8 68 01 3e
       0.11925424 -0.22541665 0.15142073 0.12637699
000220 da 00 81 be 4f a7 29 3f 32 9f 51 be b2 77 c2 be
       -0.25195962 0.6627092 -0.20470884 -0.37981945
000230 7c 90 b1 be 17 bf 8a 3d ef 20 13 3f 00 38 bd 3e
       -0.34680545 0.06774729 0.5747213 0.36956787
000240 e5 ed 99 3d b8 95 25 3f c2 63 ec 3e b3 c4 2a 3f
       0.07516078 0.6468158 0.4616986 0.6670639
000250 b8 19 77 be 15 20 c7 3e 65 f6 90 be 26 06 b6 be
       -0.24130905 0.38891664 -0.28312984 -0.35551566
000260 9a 80 1c bf 95 99 08 3f 03 eb 10 3f c0 6c 68 be
       -0.6113373 0.5335935 0.566086 -0.22697735
000270 f8 32 79 be 23 00 85 3e d2 d0 03 3e 76 81 81 be
       -0.2433585 0.25976667 0.12872627 -0.25294083
000280 93 9c cb be ba 1b 94 be c8 5f 0d 3f ac ea d8 be
       -0.39767894 -0.28927404 0.55224276 -0.4236654
000290 8e b4 ae 3d 59 7b bb be 60 0b 77 be 49 20 9b be
       0.08530532 -0.36617544 -0.24125433 -0.3029807
0002a0 c7 cf ae be 6a 3d b0 3e cf 03 e2 3e 47 12 9e 3e
       -0.34142897 0.34421855 0.4414353 0.3087332
0002b0 1c 7c 6f 3f 34 31 19 3f 23 31 60 3e d7 49 75 be
       0.9354875 0.59840703 0.21893744 -0.23953949
0002c0 82 f6 60 be e1 34 9a 3e bc 18 b4 3e ad 21 e5 3d
       -0.21969035 0.30118468 0.3517512 0.11188064
0002d0 46 e0 ae be 2d 99 93 be dd 94 49 bf e4 b8 71 be
       -0.34155482 -0.288278 -0.7874277 -0.23605686
0002e0 3e 7e 09 3f 86 7b 70 3e 5f 23 73 3e f9 7f 0b 3f
       0.53708255 0.2348462 0.23743962 0.54492146
0002f0 d4 21 82 3e cd e9 8c 3e 1a a8 4d be 62 5d d9 3e
       0.25416434 0.27522126 -0.20083657 0.42454058
000300 5e fd 39 3f 3a 8b d8 3e 1c ac c1 3e fc b5 9a be
       0.7265223 0.4229372 0.37826622 -0.30216968
000310 24 53 07 3f 45 30 8d 3e 18 71 da be c5 f2 9f be
       0.5286124 0.2757589 -0.4266441 -0.31239906
000320 ab fa 6c be e4 02 b7 be a1 71 a2 3e 9e e4 9b be
       -0.23142497 -0.35744393 0.31727317 -0.3044786
000330 ea 9e dc 3e 48 ef ff be c3 75 2d 3f ad a0 d9 3e
       0.43089992 -0.49987245 0.67757815 0.42505398
000340 c6 e4 04 bf 56 6a 6a be 4b a6 a0 be f1 1d 1c bd
       -0.5191158 -0.22892126 -0.3137687 -0.03811449
000350 12 01 29 3f ae 30 56 3f e3 e2 1b 3e 7d 76 9c be
       0.6601726 0.8366803 0.15223269 -0.3055915
000360 3a e6 5b be 05 a2 59 be 02 2f 31 3f 9a fd 15 3f
       -0.21474543 -0.21253212 0.69212353 0.5859009
000370 3a d9 c4 3e fb 0b 11 3f a2 69 1f bf d7 48 bf 3e
       0.3844698 0.56658906 -0.6227056 0.3736026
000380 a5 3e 9d be cf c5 d4 be a4 2e 12 3f fe 63 b4 3e
       -0.30711856 -0.41557166 0.5710242 0.35232538
000390 dc 7d a1 3e c7 1c 0f bf 58 e7 0d 3f 01 b7 55 3e
       0.31541336 -0.55903286 0.5543113 0.20870592
0003a0 c3 51 80 be c8 2e 18 3f f4 b1 80 be 2d 52 2b 3f
       -0.2506238 0.5944638 -0.25135767 0.66922265
0003b0 6b 2e 47 bf d8 78 81 3e f8 3d db be 07 81 96 be
       -0.77805203 0.2528751 -0.42820716 -0.29395315
0003c0 95 d9 89 be 16 08 07 3f 5b cb ac be 40 68 1e 3f
       -0.26923814 0.52746713 -0.33748898 0.6187782
0003d0 69 3f c9 be c1 0f 03 bf ad c2 ae 3e 9f 84 2d 3f
       -0.3930619 -0.51195914 0.341329 0.6778049
0003e0 1a f5 7d be 0d d7 17 3f 0e ce 59 be ea d0 e2 be
       -0.2480053 0.59312516 -0.2127001 -0.44300014
0003f0 e7 56 a5 be 51 e2 97 be e8 32 93 be df a0 a6 3d
       -0.32292864 -0.29664853 -0.28749776 0.081361525
