output/CarlaNavigation-v0/sac/4/actor.pt (torch, 535763 bytes, 7 tensors)

action_log_std f4 [1, 2]
00000000: a038 89bf 121b 12c0
-1.0720406 -2.2829022

linear1.weight f4 [256, 261]
00000000: 938e 023d 9dba 043e 4d6a 90be 7a61 1bbe
00000010: 3db5 18be 8670 ebbd 525b 09bd d51a 2a3d
00000020: fabc d13c 90b2 ae3d 591b 913e 05be e53b
00000030: dae0 48be c038 31be be23 2cbe 4b87 523e
00000040: 1f99 af3c 9319 7dbd 3fa7 47bd 1576 05bd
00000050: ac69 e83d f44f 2d3e 580b d8bc 97b9 44bd
00000060: a2d5 8fbc bcbd a4bd 0035 30be 1b5f 7d3d
00000070: 19a8 503e dd7d 35be 7a16 123d 5867 93bd
00000080: fd69 813c 73ea 90bd 867e df3d 51aa b0bd
00000090: 3875 6abe 604f 263e 6f52 99bd d196 3cbe
000000a0: 3f39 b8be 3bbb a1bd ede2 0cbd 844e a53e
000000b0: 3b6f 80bd 77f6 b23d a6db 303e 68f4 8d3e
000000c0: af53 5d3e 1b3f d0bd cf26 283d 05a0 39be
000000d0: 6f96 fcbd 2d8a af3d 76b3 323e 8ee2 a83d
000000e0: ac1f b03e 0a7b 5e3c 1f6f 0c3b ced3 2dbd
000000f0: 2fc1 0cbe 7cb4 9abc eaea e33b 18bd adbd
00000100: 8300 febd b8cc c9bc 19b6 b63c 33fe 033e
00000110: cc73 b53d 2298 223d 487f 52be a6d1 40bd
00000120: e71d 8abe 7905 5a3e 1b78 5abb e1f6 b9bd
00000130: e7b1 833e 17d5 d3bc a015 d5bc 6c27 ff3d
00000140: eb11 393e 8776 78bd c7fc f93d 3628 07bd
00000150: 6099 5f3d 7b35 333e 88bf a13b 50f5 153e
00000160: f9c1 ab3e e66b 6abd d433 7bbd 65cf b93d
00000170: 61c6 5dbc 3c39 ee3b 3691 c23d 6323 85bc
00000180: 8aa6 7c3e dc6a 91be 2a66 cdbd bb1e c13d
00000190: 3848 8ebd d7a2 d33d 1134 8fbd d235 a33e
000001a0: 584a 15bd 6eb4 e8bd 4ea3 8a3e 7e6d a3bc
000001b0: d22e 953d c014 d3bd dbff f13d 9d4a 40bd
000001c0: 6f17 023e 3872 abbc bce8 d2bd 25ad 49bd
000001d0: 4029 03be 765a 793e 19f6 2fbc be02 263e
000001e0: 54b7 0b3d 211c 74bd c494 6ebe 1363 943d
000001f0: 9b8b 473e 4d64 26bd fd6b 993c 986d 083c
00000200: 7217 453d 96ed a73e f73c afbd 2703 3e3e
00000210: a47b febd 1190 2d3e d3c0 81be c2f9 f23c
00000220: b872 47bd e875 43be 2cd2 09be 702c 913e
00000230: 8845 91bd 49fd 873d dff4 9cba f23a 81bc
00000240: 0776 39be 9aea b23e 9e8d 343d 858f fbbd
00000250: be92 573e 71cf 76bd 694e 873d b5f4 843d
00000260: b6eb a33d 4b8d 583d 35b0 51bd d623 16be
00000270: a1fa 56be 7274 28bd ad3f 5fbe 6900 993d
00000280: 71c4 b2bd 45c6 f8bd 486c ecbd def5 593c
00000290: 134c dd3c 2b13 453e 73ba 9f3d 8d95 3a3b
000002a0: 4343 1b3d 0fbd f2bd 4f9e 43bc c521 863c
000002b0: 6073 7ebd 7d68 8ebe 816a 68bd 95f3 403e
000002c0: d49a 5a3d 7c30 2e3e ee5c b93e 4683 b03d
000002d0: ca81 9f3b 865f 41be a4e6 f33d 7183 c7bd
000002e0: 6034 4ebe 6406 c63e 7ac6 f9bc 1ee9 5c3e
000002f0: f6a8 a53d fb40 9aba 8c2e 68bd a247 fd3a
00000300: 272c 33be f523 023e 66b8 003e ec4c a0bd
00000310: 93eb 99bd f90e 573d a683 a63d 1c56 96bc
00000320: cafe 91bd 68af bfbd 2fec e0bd 15e5 ffbd
00000330: 1821 febd 2cd7 263e f656 a9bd 4607 153d
00000340: 3514 0a3e 1c0b 5fbe 7bbc ff3e 1fb2 923d
00000350: a527 823d 58f8 273e 344e e8bd 0d34 a6bd
00000360: 0641 8e3d c0e8 8bbd 4451 433b 8210 08bd
00000370: f158 5f3d 3930 96bd 338a 5e3d 1b33 b93d
00000380: 0aaa 553d b50a c53d e4ba 503e 7617 ccbd
00000390: 3425 023e 26bd 2cbe b099 10be c844 aa37
000003a0: 18f6 fd3d 5900 a93e 0444 093f 35d0 bf3d
000003b0: 9f40 e8bd d442 aa3c b425 613d cad9 9fbc
000003c0: 0601 183b 918b 3c3d 83fc 013e 9043 0fbe
000003d0: 0a8f 55be e686 25bd 670b 9e3e c31a 6a3d
000003e0: e36d 4cbd 7fc0 de3d b5ed 4abe b056 62be
000003f0: 50bc 303b f6b9 0dbd 98a9 86bd 5ef6 67bd
0.03187425 0.12961812 -0.282061 -0.15173903 -0.14912887 -0.114960715 -0.033534355 0.041529495
0.025602806 0.08530152 0.28341177 0.0070111775 -0.19617024 -0.17306805 -0.1681051 0.20559423
0.021435319 -0.061791968 -0.048743483 -0.032583315 0.1134828 0.16925031 -0.026372597 -0.048028555
-0.017557923 -0.080440015 -0.17207718 0.061858278 0.20376624 -0.17723794 0.035665967 -0.07197446
0.01579761 -0.07075968 0.10912804 -0.08626235 -0.22896278 0.16241217 -0.07486426 -0.18416907
-0.35981175 -0.078970395 -0.0343961 0.32286465 -0.062712155 0.08738416 0.17271289 0.2772553
0.21613954 -0.101682864 0.041052636 -0.18127449 -0.123333804 0.08571277 0.17451271 0.08246337
0.34399164 0.0135791395 0.0021428538 -0.04243832 -0.13745569 -0.01888489 0.006955494 -0.084833324
-0.12402441 -0.02463375 0.022303628 0.12889938 0.08859977 0.039695866 -0.20556366 -0.047074936
-0.2697594 0.2129115 -0.0033335749 -0.090802915 0.25721666 -0.025858445 -0.026011288 0.12458691
0.18073241 -0.06065991 0.122064166 -0.032997333 0.05458963 0.1750087 0.0049361624 0.1464436
0.33546427 -0.057231806 -0.061328724 0.090727605 -0.013536067 0.0072700065 0.09500353 -0.016252225
0.24672905 -0.2840184 -0.10029252 0.094296895 -0.069473684 0.103337936 -0.06992353 0.31877
-0.036447853 -0.11362539 0.27077717 -0.01994967 0.07284321 -0.10306692 0.11816379 -0.046946157
0.12704252 -0.020928487 -0.10298297 -0.04923739 -0.12808704 0.24350914 -0.010739827 0.16211984
0.034110382 -0.05959714 -0.23298937 0.072454594 0.19486849 -0.040622998 0.01872825 0.00832691
0.048118062 0.3279845 -0.0855655 0.1855589 -0.12425926 0.16949488 -0.25342426 0.02966011
-0.04869339 -0.19087946 -0.1345908 0.28354216 -0.0709334 0.06640107 -0.0011974833 -0.015775178
-0.1811143 0.34944612 0.04408037 -0.122832336 0.21052071 -0.060256425 0.066067524 0.06491987
0.08003943 0.052869122 -0.051193435 -0.14662108 -0.20994045 -0.041126676 -0.21801634 0.07470781
-0.087288745 -0.12147192 -0.115440905 0.013303248 0.027013814 0.19245593 0.07799234 0.0028470487
0.037905943 -0.11852466 -0.011939599 0.016373524 -0.06212175 -0.27814093 -0.056742195 0.18842919
0.05337031 0.17010683 0.36203712 0.086187884 0.004867767 -0.18884096 0.119092256 -0.09741867
-0.20137167 0.3867675 -0.030490149 0.21573302 0.08088867 -0.0011768633 -0.056685016 0.0019323716
-0.17497312 0.12709029 0.12570342 -0.07827172 -0.07515635 0.052504513 0.08130579 -0.018351607
-0.07128675 -0.09359628 -0.109825484 -0.12494866 -0.12408656 0.16293019 -0.082685396 0.03638389
0.13484271 -0.21781582 0.49948487 0.0716288 0.06355218 0.1640333 -0.11343041 -0.08115397
0.06945996 -0.06831503 0.0029803077 -0.033218868 0.05452818 -0.073334165 0.054331016 0.09042951
0.052164115 0.09621183 0.20383793 -0.09965412 0.12709504 -0.1686903 -0.14121127 2.0297608e-05
0.12400454 0.33008078 0.5361941 0.09365884 -0.113404505 0.02078382 0.054967597 -0.01951303
0.002319397 0.04603154 0.12693982 -0.13990617 -0.20855346 -0.040411852 0.30868074 0.05715443
-0.049909484 0.108765595 -0.1981724 -0.22103381 0.0026967712 -0.034601174 -0.06575316 -0.05663144

linear1.bias f4 [256]
00000000: 29fe 013e 6524 f63b 53d1 c0bd 3d23 2ebd
00000010: 2440 50be 1954 eabc 06fb 1bbe ed34 003e
00000020: e4a1 933d 6526 8b3d 9f42 9d3c 402c 073d
00000030: 53f9 06be 99ab 773e 3807 3ebd 5187 5dbc
00000040: 6544 92bd 56fb 4a3a 0abb 57bc 69b9 fcbd
00000050: 154b 5b3d 8372 44bd 7238 a1bd 7581 fabd
00000060: 6be7 06bc 9939 2abc a029 933c c86c 57bd
00000070: 2999 62ba dbdb ccbd 19f9 0f3d 2507 70bc
00000080: 0b74 00be a739 0dbe 8fb8 9f3b 6286 903d
00000090: c5ab 22bd 48f7 143d 911c b43d c09c 323e
000000a0: 0443 513e 6120 77bd c8f1 d13c 9d34 043d
000000b0: 9581 023e e6b1 d1bd 9588 15bd bf4d 173e
000000c0: 869f 91be 6066 fe3c 66a2 40bd 2206 e13d
000000d0: d21a 4f3e 5649 3ebe 2e86 81bd 1fa3 943e
000000e0: 98c5 853d cad1 91bc 05c8 d8bd c368 64be
000000f0: 2465 aebd 4568 1bbe 420f 2f3e ab9f 0e3e
00000100: 4edb f33c da5d 1a3e 5998 ec3d 3ae1 fcbc
00000110: f1d3 9f3d 407e 963d 9aa7 d3bd d178 073e
00000120: 8334 a439 bf34 903d a18f cdbd ea8b e43d
00000130: 221c 0b3c 958c 863e d737 6a3d db64 a03d
00000140: 5de7 f3bd a396 283e 3ac3 683d bca0 2dbe
00000150: b5b4 edbb 75cd d33d f102 303e e214 b63c
00000160: a47a 0bbe 916d cebd 1189 85bd 0860 c43d
00000170: b76c 333d 791b f83d 9977 18bd ef35 e43c
00000180: f0d6 e93c edbf 1fbe de3f 47bd e526 77bd
00000190: fb49 49bd b20d b0bd c4b0 1f3d 35c4 073e
000001a0: f1f7 af3a 7d38 413d 13f5 e53a 0194 4ebd
000001b0: 70c6 08be 74a7 8f3d 1a95 17bd e329 e8bd
000001c0: 39a4 fbbc 69a1 b3bd e76a 8bbd b191 9dbd
000001d0: 43f9 17be 9f4f ee3d 0928 7abd d0f4 4a3e
000001e0: 1139 83bd 0ab1 3cbc dc6a 723e 2d14 833d
000001f0: 3057 7b3a ce8f 053e 7f51 3a3d 5399 7c3d
00000200: e9b3 943c 1f39 cfbd ca37 243e 406e 51bd
00000210: c472 94ba 9b38 dcbd 1260 aabd e6d0 c73d
00000220: e737 88be e89f 2dbd 51a3 913c 70aa ed3c
00000230: 1941 373d b39a 68bd 5cb7 55bc 4ab9 50bd
00000240: 39d9 3dbe 9cb7 f4bc b4cc 2b3c 91e1 243d
00000250: 4f7b 13bd fd22 c53d c8b6 303d 0c75 183d
00000260: 40eb 043c f0ae 993d 2645 e1bc 72b8 2bbe
00000270: 4181 613e 6d46 753d a898 0dbd 0720 e33d
00000280: 0275 2abd 4b7b a43d 0eb7 ae3d 8c26 5abd
00000290: a827 063d e8a5 06be 7559 0bbc 699f 313e
000002a0: 6d7e aabc 75d4 00bc aff6 1abe 3c92 9a3e
000002b0: 8f0b bf3d dbb2 01bd 56bd 083d c265 1d3d
000002c0: 585c 003e 3967 04bc f888 4a3d c2cc 613b
000002d0: 0aff edbd 6bbd ee3c eed0 903d eef4 8e3e
000002e0: babc d83c 23c4 84bd a9da 203d 3c1a 723d
000002f0: 269a 59be f9d6 74bd c57d 483e 4d26 54bd
00000300: c103 f93d 67dc c33d 73c7 153e f920 223e
00000310: 658a cbbd b544 0ebe 0861 3fbc 171f b33d
00000320: 514b c3bd c60d d4bd 8c24 f83d 4d6a d8bd
00000330: b07b b9bd dc6c a5bd 1cf4 a3bc ea58 a93d
00000340: e86b 2c3e 296a c1bd f6ed 58bd 2cdd b6bd
00000350: 7c55 dabd f7d3 20bd 5a27 19bd 5d36 9abd
00000360: ed15 e93c 86a7 bfbc 7fd5 303d c302 c5bd
00000370: 8cc0 d03c 0b4e 81bd 51da e63c 9c12 87bd
00000380: c0c5 e0bc 0042 2dbe 24fb fdbc 047c 5abd
00000390: e6a7 8dbd e607 36bd 8f63 94bd b3a6 05bd
000003a0: 5fab 1c3e abe2 dcbd b85f 823d 3970 333d
000003b0: e9ff 3d3e 6486 003e 628a f3bd 207b 3e3d
000003c0: 7ac7 afbd 7bb4 a43d 5972 53bd 8f34 4a3e
000003d0: 79cb 1fbe 4a59 c63d 04a0 c7bd 6444 24bd
000003e0: b956 8a3e 542b 5dbd e9a1 38be 2644 dcbc
000003f0: c86e 11be 1f90 1d3e a6d7 a8bc 9f6b 383d
0.1269461 0.007511663 -0.094149254 -0.042514075 -0.20336968 -0.028604554 -0.15232477 0.1252019
0.072086126 0.067944326 0.019196806 0.033001184 -0.13181047 0.24186553 -0.046393603 -0.0135210315
-0.071419515 0.00077431404 -0.013167152 -0.12340052 0.0535384 -0.04796077 -0.07872094 -0.12231723
-0.008233885 -0.010389709 0.017964184 -0.052593976 -0.00086440385 -0.100028716 0.035149667 -0.014650141
-0.12544267 -0.13791524 0.004874296 0.070568815 -0.039714593 0.03636864 0.08794511 0.17442608
0.2043572 -0.060333613 0.025627986 0.03227674 0.12744744 -0.102390096 -0.036507208 0.14775752
-0.2844202 0.031054676 -0.047029875 0.10987498 0.20225075 -0.18582663 -0.06324421 0.29030702
0.06531829 -0.01780023 -0.10585026 -0.22305588 -0.08515385 -0.15176494 0.17095664 0.13928096
0.029767659 0.15074864 0.115524955 -0.030869115 0.078040965 0.07348299 -0.10334702 0.13229682
0.00031319642 0.070413105 -0.10037161 0.11159499 0.008490594 0.2627913 0.05718216 0.07831737
-0.119093634 0.16463713 0.056826808 -0.16955847 -0.007254208 0.10341922 0.17188622 0.022226755
-0.13621002 -0.10079492 -0.06520284 0.09588629 0.04380485 0.12114615 -0.037223432 0.027857749
0.028544873 -0.15600558 -0.048644893 -0.060339827 -0.04914282 -0.08596362 0.038986936 0.13258441
0.0013425333 0.047173012 0.0017544351 -0.050434116 -0.13356948 0.07014361 -0.03700743 -0.11336114
-0.030717956 -0.08771021 -0.068074994 -0.07693804 -0.1484118 0.1163628 -0.061073337 0.19819951
-0.06407369 -0.011516819 0.23673576 0.064003326 0.0009587882 0.13043138 0.045487877 0.06166966
0.018152194 -0.10118317 0.16036907 -0.051130533 -0.0011325707 -0.10752984 -0.08319105 0.09756641
-0.2660515 -0.042388827 0.01777807 0.029011935 0.044739816 -0.056788158 -0.013044205 -0.050957955
-0.18539895 -0.029872708 0.010485817 0.04025418 -0.036006268 0.09625814 0.043143064 0.037221
0.008112729 0.0750407 -0.027498793 -0.16769579 0.22021963 0.059881616 -0.034569412 0.11090093
-0.041615494 0.08031329 0.08531009 -0.053259417 0.032752663 -0.13149226 -0.008505215 0.17345966
-0.020812238 -0.007863154 -0.15133165 0.30189693 0.093283765 -0.03166471 0.03338369 0.038427122
0.12535226 -0.008081251 0.04944703 0.003445432 -0.116209105 0.029143056 0.070711 0.27921242
0.02645718 -0.064827226 0.03927103 0.05910705 -0.21250209 -0.059775326 0.19579227 -0.05179434
0.12158919 0.09563523 0.14626865 0.1583289 -0.09938506 -0.13893397 -0.011680849 0.08746164
-0.0953585 -0.103541896 0.12116346 -0.1056715 -0.09056795 -0.08077404 -0.020013861 0.08268912
0.16838038 -0.094440766 -0.052961312 -0.08928904 -0.10660836 -0.039264645 -0.037391044 -0.075299
0.028452838 -0.023395311 0.043172356 -0.096196674 0.025482439 -0.06313714 0.028180273 -0.06595346
-0.027438045 -0.16919708 -0.031003542 -0.053340927 -0.0691679 -0.044441126 -0.07245552 -0.03262968
0.15299748 -0.10785421 0.06365913 0.043808196 0.18554653 0.12551266 -0.11891629 0.04650414
-0.08582969 0.080422364 -0.051622722 0.19746612 -0.15604962 0.09684999 -0.097473174 -0.040104285
0.2701929 -0.0539964 -0.18030514 -0.026887964 -0.14202416 0.15387009 -0.020610642 0.04502451

linear2.weight f4 [256, 256]
00000000: 5501 0f3e 1b48 663c fefe a6bc 5708 d8bd
00000010: 2a9f 823d 6832 c2bc 0cfb f93d c1af 9a3c
00000020: e92a c93b 387b d63d 5158 80bd 8928 2e3d
00000030: 0a86 e0bd 416b 5bbe ad19 cb3d 431d a83c
00000040: b95a ea3d ef19 0b3e 4053 bfbd 84d8 153e
00000050: b534 3bbe 5ec3 28be b4b4 a3be 59ea 483e
00000060: 8f7e 863c 099b 113e 2b1d c73d 2c22 a83e
00000070: 65da b43c 7f29 073e 4636 033d ca78 083d
00000080: b291 bc3e fbf8 913d ec97 083e ccc6 d33c
00000090: a961 0ebe f3c6 5b3d c666 96bd de2b 2e3e
000000a0: 19da 9f3e dd39 ecbd 29b9 12bd 16ea 06bd
000000b0: b74c 3bbe d5d5 a9be f9d5 783c 53c2 3a3e
000000c0: 118b 533d b533 6cbe 934e 9bbd 417e 383d
000000d0: 4fd9 603e b0e7 90be 9c16 29bd 0ce3 eb3c
000000e0: be54 6b3e f2b8 93bd 1e92 45bd 24c1 8c3c
000000f0: 026d 09be 197c 813e b353 2a3c 24b6 debd
00000100: 4c51 62be 85ab 85bd dc6b bd3d f6a4 57bd
00000110: 5ad1 a43e 1a01 f63d 6217 06bd feee 50be
00000120: c481 313d 2658 4bbe 6abd 01bc c009 edbd
00000130: 28bf 2cbd 36fd d3bd 9221 0f3e 617a 76bd
00000140: bebd 873e 7971 d03d 5aeb d7bc 49bb 3dbb
00000150: ca3b d2bd 2c32 1e3d 98f6 89bd d1dc bf3b
00000160: dcb6 8f3e 1719 3e3e 73c2 1cbc 832e acbd
00000170: 12a5 b63b eaba 0abd 7ea0 033e 264c 0d3e
00000180: c80b f83d 844f c0b9 7480 023e 7bd2 04be
00000190: 5262 5cbc 6b08 523d 29ba 1c3d 1a0d aebb
000001a0: c65d 273e 313e 09bd 77cf e63d e0e3 a83d
000001b0: 3fe5 393e a5ba 1cbe 4f4a 20be daf5 103d
000001c0: 74d0 cd3d b0c8 b3bd cafa 2fbe 7c2f 813b
000001d0: aae8 0abd cdd9 493e cb99 16be 9cfc d93d
000001e0: 9828 4fbd 97f6 9f3d dced 01be cf7f 243d
000001f0: 54cd f8bd 6df9 4c3d 5935 0cbe abf8 143e
00000200: 1087 1bbe 392e 863d 3903 d3bd 81af 0cbe
00000210: 268d 7dbe 8447 f23b b04d 29bc 9e36 8ebd
00000220: eedd 8cbd ca7f 643e c06c 6c3d 38e6 00be
00000230: 06aa cb3c b0ac 88bd 3d92 3c3e 1ee4 6fbe
00000240: 7bf9 2e3d 9ef4 16be 4d7b d1bd c6e9 29bd
00000250: ab5c 853d 9247 f43d 44c5 473e 78f5 6e3d
00000260: acdc 83be e2fd 14be 3df0 943d 62bd 15be
00000270: d719 bf3d 36b5 c03d 6cea 69be bb77 56bc
00000280: 932f c0bd c25e 0ebe 1d38 5fbd 6b01 653d
00000290: 758d 883d a8cc 39be 36ac 763e 18e0 d43d
000002a0: cb0d e2bd 64d9 c8bd 93ae 973d b9fd 8d3e
000002b0: 7748 423d 777f 2d3d 19fa 32be a363 943e
000002c0: 1b5d 80be 68f1 fbbd 99ea 043e 421b 0c3e
000002d0: a115 2a3e d209 8dbe c0bd 2bbd ced2 ecba
000002e0: d480 503e a79e 28bd 97f2 0dbe ba24 1a3e
000002f0: 08d2 323c 429a 28be ca59 813d 1310 71bd
00000300: c728 e7bd e5cf 94bc 2e93 65be 1616 ce3d
00000310: 0e84 0b3e fafc 7cbd c42a 1cbd afe2 513d
00000320: 8a5b 9f3d a34e 73bc c55f 233d 7c84 0b3e
00000330: 8daf 70bd 60fc 57bd c39c d4bd 43df 85bd
00000340: ef98 96be d724 bc3c 1256 9e3d 2253 263d
00000350: cad1 3e3d 439a 87bd 6c7e 9c3c bb77 f03d
00000360: ea7f 133e f8b8 c2be 8eba 03be 9da9 d1bc
00000370: c87b cdbc f6ca 163e 97e4 fdbd cd32 673d
00000380: 0e48 eebc fffd cd3d baae b03d b604 ca3c
00000390: 775f ff3d 915a 97be 4b3d 1a3e c0ea 293e
000003a0: 3b22 183e 03e8 26be 2ad8 6cbe bdc7 adbd
000003b0: 42cc 1a3e 351c b3bd 2d06 4e3e 586d c5bd
000003c0: 88c9 bc3c 7a02 04be ea91 dabc 7253 57be
000003d0: 1d78 4b3e d803 09bc f306 a8bd 3377 64bd
000003e0: b707 fb3b e647 acbd c29f e4bd e10e 043e
000003f0: d946 60bd 7a90 0cbe d333 323d e138 03be
0.13965352 0.014055277 -0.020385262 -0.10548466 0.063780144 -0.023705676 0.122060865 0.018882634
0.0061391485 0.10472721 -0.06266845 0.042519126 -0.10963066 -0.21427633 0.09917007 0.020521766
0.11443085 0.13584112 -0.093420506 0.14633375 -0.18281825 -0.16480777 -0.31973803 0.19620647
0.01641777 0.14219297 0.0972236 0.3283857 0.022076795 0.13199423 0.03203418 0.03331832
0.36829907 0.071275674 0.13339204 0.02585163 -0.13904442 0.05365653 -0.07343821 0.17008922
0.31221083 -0.11534474 -0.035821114 -0.032938085 -0.18290983 -0.33170953 0.015187734 0.18238191
0.051646296 -0.230666 -0.07583346 0.04504228 0.21957897 -0.28301764 -0.041281328 0.028794788
0.22981545 -0.0721301 -0.04823505 0.01718194 -0.1342049 0.25289991 0.010395932 -0.10874584
-0.22101325 -0.065268554 0.09249088 -0.052647553 0.32190973 0.12011929 -0.032737143 -0.20403668
0.043336645 -0.19857845 -0.007918695 -0.11574125 -0.04217449 -0.103510305 0.1397765 -0.060175303
0.2651195 0.10177893 -0.026357342 -0.0028950742 -0.1026531 0.038622066 -0.06736487 0.005855181
0.28069198 0.18564259 -0.009567845 -0.08407309 0.005573877 -0.03386966 0.12854192 0.1379858
0.12111622 -0.00036680338 0.12744313 -0.12970917 -0.013451176 0.05127756 0.038263474 -0.0053116204
0.16344365 -0.033506576 0.112700395 0.08246589 0.18153857 -0.15305574 -0.15653346 0.035390712
0.10049525 -0.087785125 -0.17185512 0.003942428 -0.033913292 0.1971199 -0.14707105 0.106438845
-0.050575823 0.07810705 -0.12688392 0.04016095 -0.12148538 0.05004256 -0.13692226 0.14547984
-0.15188241 0.06551785 -0.10303349 -0.13738824 -0.24760875 0.0073937792 -0.010333464 -0.06944011
-0.06878267 0.22314373 0.0577209 -0.12587821 0.024861347 -0.066735625 0.1841516 -0.23426864
0.042718392 -0.14741752 -0.10228596 -0.04148271 0.06511816 0.119277135 0.19508845 0.058339566
-0.25754297 -0.14549974 0.07272384 -0.14623025 0.093311004 0.09409563 -0.22843331 -0.013090069
-0.09384074 -0.13903335 -0.054496873 0.055909555 0.06667606 -0.18144476 0.24089131 0.10394305
-0.11037787 -0.09807089 0.07406344 0.27732638 0.04743239 0.042357888 -0.17478217 0.28982267
-0.25071034 -0.12301904 0.12980117 0.13682273 0.16609813 -0.27546555 -0.041929007 -0.0018068196
0.20361644 -0.041166928 -0.13862072 0.15053073 0.010914333 -0.16465095 0.06315954 -0.05885322
-0.112870745 -0.018165538 -0.22419426 0.10062806 0.13624594 -0.061764695 -0.038126722 0.051241573
0.077811316 -0.014850291 0.039886255 0.13624758 -0.05876117 -0.052730918 -0.103814624 -0.065367244
-0.29413554 0.022966785 0.0773126 0.040606625 0.04658679 -0.0662122 0.019103251 0.11741587
0.14404264 -0.38031745 -0.12864134 -0.025593573 -0.025083438 0.14725861 -0.12397116 0.05644493
-0.029087093 0.100582115 0.086270764 0.02466045 0.1246938 -0.29561284 0.15062444 0.16593456
0.14856808 -0.16299443 -0.23129335 -0.08485363 0.1511698 -0.087456144 0.20119543 -0.09639996
0.023045316 -0.1289157 -0.026680905 -0.21027926 0.19870038 -0.008362733 -0.082044505 -0.05577774
0.007660832 -0.08412151 -0.11163284 0.12896301 -0.054755066 -0.13726988 0.043506455 -0.12814666

linear2.bias f4 [256]
00000000: 0785 4fbd f895 983d d69c 50bd 917a 9fbd
00000010: a745 edbb 6666 a5bd 449b 893d 4051 27bb
00000020: 15e0 a1bd f28a 073d dd6b 0abd cb3b b13c
00000030: ad1c 17bd 44be 383c 7cbc f23d dcbe d33d
00000040: 202c b13d ebc6 3f3c 5f37 1fbd 2c67 b3bd
00000050: 2819 6f3d 10a2 933d e890 823e 7caa e2bc
00000060: 5742 003b 00ae 73bd 839e 693c 1689 e63d
00000070: bc47 92bb cf41 63bc 4976 eabb 2105 5bbb
00000080: f660 c93c f5f4 82bd c1c3 1ebd 53de 82bd
00000090: 16f3 6ebb dbc3 973c 1b3b aa3b 5a5a 4b3c
000000a0: 48dd 84bd e779 08bd 8ac7 0fbe 3eaa c83a
000000b0: ef77 8ebc 156a d5bd f6bd 803d 9939 a9bd
000000c0: 3a91 4b3e 8b0f 853d 849c 293d 977b cc3d
000000d0: 2fd8 443b d7b8 30bd 256e 7c3e d953 313e
000000e0: 4bd0 583c 0476 a4bd 3e77 c6bd 2fb6 163c
000000f0: 59e2 20be d5c8 7b3d c224 14be 33aa 2a3d
00000100: c167 8cbb 9607 64bb 924f 113d 4a1b 09be
00000110: cad8 cebd 1cd2 733d 7459 7c3c 56c5 d9bc
00000120: 9158 a3bb 707e 143e 79a8 b6bd b4b9 95bd
00000130: 1b29 6d3d 7219 9fbd d204 853c 17c9 883c
00000140: e66a 403c 8126 2c3e d2f9 a4bd 31c8 04bd
00000150: c0af 30bd f7a7 4bbd dede 3b3d e2a7 4d3d
00000160: 56e3 953d bd65 d8bd f229 943d 6c49 54bb
00000170: cbf5 6cbd 78c9 fc3d bbe4 d83c 0f21 6bbd
00000180: 830f 0abd b564 3bbc b86f d8bd 0dbd 933d
00000190: 0edd 03be f970 2fbe 81a8 dc3d 4840 423d
000001a0: 43e5 ccbc e820 ffbd db3c e7bd 2d50 bc3c
000001b0: 03e0 9b3d 0bb7 193d c184 c4bd c56b 61be
000001c0: cbcc b43d d9f0 1e3d e087 fa3c faf7 f4bc
000001d0: 155e e73d dee3 08be e4fa a1bc 94f6 2b3d
000001e0: a392 d5bc 564f f03d 95c8 abbc 4e4a 03bd
000001f0: 9017 053e 44a7 66be cdee a0bd eabf 153d
00000200: 1cd5 06bd 8f59 af3d 5974 06bc 99b1 9ebd
00000210: 43db b83d 28e9 e63d ef48 013e f1c1 27bd
00000220: 4efa 84bb a613 e23c d413 01bd 6de9 07bd
00000230: 7222 233c 8bb4 8fbd 99cc 90bc 199c 4c3d
00000240: 8cbd aebd 5eea 233c 145b 0a3e 7fba 41bc
00000250: 5dfa 93bd bbb4 e93a 552d dd3d a668 40bb
00000260: 93c6 e4bd c463 1c3c 35fc 9cbc eaa0 063d
00000270: 2f8a 2b3d 2968 033d c2f4 e73c 369d 7c3d
00000280: 315d 5d3c 3153 c23d 4bfb 7f3d fc8b be3d
00000290: c141 53bd ebea 523d 260a b7bc e697 323d
000002a0: 8a20 5e3d d05f e9bc 4178 95bd 7f22 91bc
000002b0: 83c0 ef3c 4717 fd3b ec27 47bd b431 3a3d
000002c0: aec8 24bc 6333 a9bd d428 7abd 6bee 9dbc
000002d0: cfad 663d 23bb 3b3d d0c7 043d 72f3 ae3c
000002e0: ecc0 3e3d 8071 87bc cc27 013e 7032 823d
000002f0: 54be 593b 8067 11bd 5462 58bd a827 913d
00000300: 8e6d 603d c236 66bd 6703 a5bd 75d8 2e3d
00000310: 86d2 75bc 9c79 0b3c 0c3d c239 9698 983b
00000320: 1c75 2e3d d66b ca3c 4e2a 913c 2f0b 8bbc
00000330: baad 36bd db87 7d3d 82b8 01be 40cf 6c3d
00000340: 6457 74bc 5701 e5bc afe0 82bc 9635 e43c
00000350: b1ca f13c f96e bf3d 0958 3f3e e587 193d
00000360: 7209 9a3c 4b8e c13c 06e8 81bc e58f d73c
00000370: 4e96 d33d a93f 8fbd 85af 3a3d fd97 a13d
00000380: 1d09 abbb 38d3 8bbd e0fa 6dbd 5896 123d
00000390: fa68 a6bc 7c11 f2bc 4414 d33d 300a 7abd
000003a0: 3c28 c13c c847 8b3d 9396 5c3c c6e6 d3bd
000003b0: f2d0 74bc 5791 ce3d 10c1 f5bc b636 c73c
000003c0: 3d15 b3bd 6c9f 90bc 8120 183d a2a3 b13c
000003d0: 80bd b13d f1cd 043d 1cc4 a63c a119 10bd
000003e0: 9523 4ebb 198b 523d 2dae d4bd 84d2 a63d
000003f0: 770f 13be 3423 08bd 2693 59bc 7999 d6b9
-0.050663974 0.07450479 -0.05093082 -0.077870496 -0.007240969 -0.080761716 0.06719068 -0.0025530607
-0.079040684 0.033091493 -0.033794273 0.021634957 -0.03689258 0.011275832 0.11852357 0.10339138
0.08650994 0.011705141 -0.038871165 -0.08759913 0.0583736 0.07208645 0.2550118 -0.027669184
0.0019570792 -0.05949211 0.014258984 0.11256616 -0.004464118 -0.01387067 -0.007155214 -0.0033419805
0.024582367 -0.06394378 -0.038760904 -0.06390061 -0.0036460808 0.018526008 0.005195034 0.012411678
-0.064875185 -0.03331938 -0.14040962 0.0015309525 -0.017391173 -0.10420624 0.06286232 -0.08262939
0.19879618 0.06497105 0.04140903 0.099845104 0.0030036082 -0.043145027 0.24651392 0.17317142
0.013233255 -0.08030322 -0.096907124 0.009198709 -0.15711345 0.061470825 -0.14467147 0.04166622
-0.0042848294 -0.003479456 0.035476275 -0.13389316 -0.10099943 0.059526548 0.015402187 -0.026583355
-0.004984923 0.14501357 -0.08918852 -0.07310811 0.05790053 -0.07768525 0.01623765 0.01669745
0.011744237 0.16811563 -0.08055462 -0.03241748 -0.04313636 -0.04972073 0.04586684 0.050208934
0.073187515 -0.1056628 0.07234563 -0.0032392396 -0.057851594 0.123431146 0.026476255 -0.057404574
-0.0337062 -0.011437585 -0.10568184 0.07213793 -0.12877294 -0.1713294 0.10774327 0.047424585
-0.025011664 -0.12457448 -0.11290904 0.02298745 0.07611086 0.03752808 -0.09595633 -0.22013767
0.08828124 0.03880391 0.030582368 -0.0299034 0.112972416 -0.13368174 -0.019772954 0.041983202
-0.026070898 0.11733882 -0.020969668 -0.032053284 0.1299727 -0.22524744 -0.07858048 0.036559977
-0.03291808 0.08562004 -0.00820645 -0.07748718 0.09026196 0.1127494 0.12625478 -0.04095644
-0.004058159 0.02759726 -0.03151305 -0.033181597 0.009956943 -0.07016858 -0.017675685 0.049953554
-0.08532247 0.010004608 0.13511306 -0.011824249 -0.072254874 0.0017830351 0.10799662 -0.002935925
-0.111706875 0.00954527 -0.01916323 0.032868303 0.04187983 0.032081757 0.028314952 0.061673366
0.013510988 0.09488524 0.06249551 0.09304044 -0.05157638 0.051493566 -0.022343706 0.043601893
0.05423025 -0.02848807 -0.07298327 -0.017716644 0.029266601 0.007723722 -0.048622057 0.045457557
-0.010057611 -0.08261754 -0.061074093 -0.019278726 0.0563181 0.045832764 0.03241712 0.021356318
0.046570703 -0.016533613 0.12612838 0.063572764 0.0033225017 -0.035499096 -0.052828148 0.07087642
0.05479198 -0.056204565 -0.080572896 0.0426869 -0.015003806 0.008512881 0.00037048047 0.0046568615
0.042592153 0.024709623 0.017720368 -0.016973106 -0.044599272 0.06189714 -0.1266804 0.057814837
-0.014913414 -0.02795474 -0.015976278 0.027857583 0.029515596 0.09347338 0.18685926 0.037483115
0.018803332 0.02362742 -0.015857708 0.026313731 0.10331403 -0.06994564 0.045577545 0.078903176
-0.0052195922 -0.06827396 -0.05810058 0.03578791 -0.020313729 -0.029549353 0.103066 -0.06104487
0.023578756 0.068008006 0.013463634 -0.10346751 -0.014942395 0.10086315 -0.029999286 0.02431808
-0.08744285 -0.017654143 0.037140373 0.021684472 0.086787224 0.032422964 0.020357184 -0.03518069
-0.0031454314 0.051402185 -0.10384784 0.081456214 -0.14361368 -0.033236697 -0.013279712 -0.00040931607

mean_linear.weight f4 [2, 256]
00000000: ab7d e83b 2aaa ffbc 8a62 ec3d 4196 603e
00000010: f302 4f3e ab67 073d d2f0 cf3c 7e51 80be
00000020: f4d0 503e 123d 803d 3135 693e c09c 813e
00000030: 5e57 1e3e be76 e0bd 40aa 7b3e f22d b6bd
00000040: e411 10be 6803 64be ecf0 2c3e 658e 88ba
00000050: 8422 c9bd 07aa 8b3e d92b 9abd de85 95be
00000060: 68f2 503e 8faa 7b3e e85a 523e 044e 80be
00000070: 08e5 a0bc 5d52 41be 5bca 8b3e 2ffd 3c3e
00000080: e8cf 723e b273 523e b24b 313e 07f0 863e
00000090: 731f 9f3d 74cf 5fbe 9dcb 5e3e 77d2 4f3e
000000a0: b363 5c3e dd66 463e 6961 a93e b8f1 9639
000000b0: b30e 193e b055 983e 10a8 f03d 3e9b 17be
000000c0: 6488 4c3e 6395 10be 44de 923e f588 903e
000000d0: 94bb bdbd 919e 49be 23f3 513e 710f 173e
000000e0: 509c 86b8 248f ff3c 18d5 64bc 4c37 afbd
000000f0: 1bc4 d8bb 2a81 9fbe 3074 d3bd badf 8cbe
00000100: 8fc0 6bbe 7598 8cbe 5a72 693e 73aa 4b3e
00000110: 5138 593e f244 763e 3959 00bd f45f 263a
00000120: b8cc 0c3e 4fd3 b0bd 92e0 763e 34ae 5e3e
00000130: ebbd 85be fe92 483e 8c92 41be ea75 89be
00000140: f33c 663e 0986 fdbc 37c9 4abe e579 3cba
00000150: 700e 0e3e 8b8a 743e d5aa 80be 64fa 26bd
00000160: 39a6 b3bd 5942 b1bc 221c d5bd c9b3 7bba
00000170: 8784 d93d 5461 903e 0f22 a0be dfa2 4f3e
00000180: c103 983e 5a12 953e 9a01 4f3e 0457 2cbe
00000190: 8218 a23e 65b2 683e 07ea 74be 8379 df3a
000001a0: 2dc7 b03d b4ec 6dbe 8763 3a3e e3c7 5dbe
000001b0: 4b3e 71be 616b 5f3e 99e0 50be c85e 613d
000001c0: 7773 0abe 8503 2ebe 0522 76be cc43 87be
000001d0: 0a59 6d3d 9fa1 c7bd 0939 bf3d 9cf4 733e
000001e0: febe 083e 9ea7 2dbd c4bf 883d c0f1 79be
000001f0: 019c 70be 3398 a4be 2e53 0bbe 559a fb3d
00000200: f916 4d3e 2f50 04be b136 843e 040d 9b3e
00000210: 5ba8 10bd fd5e 7d3e e334 f3bd 5c0f 233e
00000220: c714 183e 76a0 81be f3d8 7d3d e429 2abd
00000230: 9467 03bd cb6f 1f3e 554f 72be 628f 54be
00000240: a301 5b3c 7c10 1bbe c549 68be 6785 e8bd
00000250: d908 143d 3358 b53d be25 733e c5de 26bd
00000260: c460 9d3e f1c4 7fba f0b2 1dbb c63d afbe
00000270: bee4 6b3e caa0 7b3b 0068 10be f9f2 51be
00000280: 7d38 afbd 9e4c 8cbe 5706 81be 2ee7 1b3e
00000290: 5584 75be 7ab5 ddbd 99fd 8f3e 9ffb b1bd
000002a0: 6397 56be 319b 423e d3c9 973e 2276 1b3b
000002b0: f6ec abbe 9816 83be 134b 28be b509 6f3e
000002c0: 7df7 d7bd 8549 abbe ba87 9ebd 958c 25be
000002d0: d378 92be c83d f13d 31d1 963d b505 18bd
000002e0: 7809 19bc d876 10bd d160 663e cc09 87be
000002f0: 7bd0 3b3e b5b5 363e 3875 be3d 690c 7bbe
00000300: 299b 46be 53b3 25bd 5031 35be 8adf 6dbe
00000310: 4e9f bdbe a1e7 4bbe b053 4e3e 7b49 47be
00000320: df1e 3dbe 9424 01be dcd8 31be ad5a 573e
00000330: 1ac4 0fbe 1a0b 4bbe 8a4f 2b3e 4f94 40be
00000340: ae0c 683e 9e58 083e 4633 6cba 8132 3c3d
00000350: a239 a8bd 8015 8ebd 217f d4bd 8c80 4fbe
00000360: 789b 3e3e bac4 33be 8353 013e afd7 6c3e
00000370: d9cf 02be 493c 61bd 57ee 68bd e12d a63e
00000380: 6f20 19be 8b36 70bc 61e8 313e 6b48 8bbe
00000390: b43a 563e c0c8 b43d 157b e83d 9965 013e
000003a0: 0558 12bd 0cab 35be bb72 8bbe 18ed 53be
000003b0: 9ea0 ae3d a4d4 85be cb5c 6fbe c8e7 223e
000003c0: 2b5c a73c 5660 453e 1303 44be 792b c4bd
000003d0: 5c98 85be f3cf 7b3e 584f aa3d 44db 39be
000003e0: 64a1 493e 9d99 183e ec57 313e 20ef 9a3e
000003f0: 23ed d3bd 7ff1 50be 5dc1 3f3e 07ba 43be
0.007095059 -0.03120907 0.11542232 0.21932317 0.20215969 0.03305785 0.025383387 -0.25062174
0.2039221 0.06261648 0.22774197 0.25314903 0.15463015 -0.10960148 0.24576664 -0.08895482
-0.14069325 -0.22266924 0.1688878 -0.0010418413 -0.098210365 0.27278158 -0.075278945 -0.29203695
0.2040497 0.24576782 0.2054249 -0.2505952 -0.01964046 -0.18879075 0.27302822 0.18455957
0.23712122 0.20551947 0.17314032 0.26355 0.0776967 -0.21856481 0.2175736 0.2029513
0.21522407 0.19375177 0.3308213 0.00028790324 0.14947014 0.29752874 0.117508054 -0.14805314
0.19973904 -0.14119487 0.286852 0.2822949 -0.09264293 -0.19689395 0.20502906 0.14751984
-6.4187334e-05 0.031196184 -0.013966821 -0.08555469 -0.0066151745 -0.31153232 -0.103248954 -0.2751444
-0.23022674 -0.27460065 0.22797528 0.1988924 0.21212889 0.24049738 -0.03133509 0.00063466956
0.13749969 -0.08634054 0.24109104 0.2174614 -0.26121458 0.19587323 -0.1890356 -0.26847774
0.22484188 -0.030947702 -0.1980332 -0.00071897946 0.13872695 0.23880975 -0.25130334 -0.040766135
-0.08771939 -0.021638082 -0.104057565 -0.000960168 0.10620981 0.28199255 -0.31275985 0.20276974
0.29690364 0.29115564 0.20215455 -0.16830069 0.31659323 0.22724302 -0.239174 0.0017049763
0.0863174 -0.23234826 0.18202029 -0.21658282 -0.23558919 0.21818306 -0.20398177 0.05502203
-0.13520609 -0.1699353 -0.24036415 -0.26418912 0.057946242 -0.09747624 0.093370505 0.2382378
0.13354108 -0.04239618 0.066772014 -0.24408627 -0.23497011 -0.3214737 -0.1360595 0.12285296
0.20028295 -0.12921213 0.25822976 0.30283368 -0.035316806 0.24743266 -0.11875322 0.15923828
0.14851676 -0.25317734 0.061974477 -0.041543856 -0.0320812 0.1556999 -0.23663075 -0.20757821
0.013367089 -0.15143007 -0.22684391 -0.113535695 0.03614125 0.08854713 0.23744866 -0.040739793
0.3073789 -0.00097568246 -0.0024062954 -0.34226817 0.23036477 0.0038395398 -0.14102173 -0.20502843
-0.08555696 -0.27402204 -0.2520015 0.15224907 -0.23976262 -0.108256295 0.28123167 -0.08690571
-0.20956187 0.19004513 0.29646167 0.0023721536 -0.33579224 -0.25603175 -0.16434889 0.23343547
-0.105452515 -0.33454528 -0.077407315 -0.16166909 -0.28607807 0.11779362 0.07364119 -0.037114818
-0.009340636 -0.03526959 0.2249787 -0.26374662 0.18341248 0.17842753 0.092997015 -0.24516453
-0.19395126 -0.04045422 -0.17694592 -0.23229805 -0.37035602 -0.19912578 0.20149112 -0.19461624
-0.18468808 -0.1261161 -0.17367882 0.21030684 -0.1403965 -0.19828454 0.1672956 -0.18806575
0.22661087 0.13315055 -0.0009010326 0.0459466 -0.082141176 -0.069376945 -0.103758104 -0.2026388
0.18613994 -0.17555514 0.12629513 0.23129152 -0.127746 -0.054989133 -0.056867924 0.32456878
-0.14953779 -0.014661442 0.17373802 -0.27203688 0.20920831 0.088273525 0.11351601 0.12636413
-0.035728473 -0.1774103 -0.2723597 -0.20695913 0.08526729 -0.26138794 -0.23375241 0.1590873
0.020429691 0.1927503 -0.19141798 -0.09578604 -0.26092803 0.24591045 0.08315915 -0.1815005
0.19690472 0.14902349 0.17318696 0.30260563 -0.103479646 -0.20404623 0.18726106 -0.19113933

mean_linear.bias f4 [2]
00000000: 1e78 90bd efea 9c3a
-0.070541605 0.0011971871
