output/CarlaNavigation-v0/sac/4/base.pt (torch, 11367 bytes, 2 tensors)

dynamic_emb.0.weight f4 [256, 9]
0.043884445 -0.12788993 -0.026680265 0.13003017 0.25793752 0.019668665 -0.016423997 -0.18602973
-0.3041359 0.1894494 -0.109958716 -0.39366522 -0.28215167 -0.2018031 -0.022929136 -0.0030424413
-0.049092032 0.8972865 -0.011754295 0.25892684 -0.6844121 0.09229503 -0.005295186 -0.00928123
-0.010767596 -0.1727922 -0.39280516 0.0006593915 -0.20143901 -0.7471221 0.22192039 0.0013792807
0.06571321 -0.019116066 0.5635387 1.4108461 0.009071552 -0.0743368 0.018090926 0.1294333
-0.17367475 0.030024301 0.03404306 -0.3103344 1.6928788 -0.06453913 -0.108742215 1.097373
0.22867838 0.01676646 0.0019969873 -0.005384072 1.1021127 0.12872988 0.01409478 -0.085440256
0.30759937 0.26406494 -0.08027754 -0.016125916 0.03126647 0.23863284 0.37097126 -0.21080458
0.22840202 0.4105909 -0.47283816 0.056586392 0.029099755 0.025762439 -1.8666952 -0.12950456
-0.18343863 -0.03931312 -0.28655416 -0.37290236 -0.15320882 -0.019131513 -0.035554763 -0.07738652
-1.1305376 -0.015595859 -0.014082224 -0.1294273 -0.0403618 0.02981079 0.097174935 0.15015091
0.09445026 1.7653043 -0.32402268 -0.20416658 0.07038258 0.28902417 0.22949134 0.03818005
-0.026071718 1.7815868 0.60321957 -0.00903306 0.1840796 -0.12261527 0.05360523 -0.10381233
-0.0024033627 -0.019308649 1.4095619 0.28139454 0.03345483 0.13062531 -0.11591845 0.32106662
-0.08911843 -0.008732106 -0.0029409227 0.34453148 -0.5574016 -0.088041894 -0.08765921 -0.52798873
0.52089554 0.04390249 0.041248836 -0.032143924 0.54541177 -0.4566574 0.043063186 -0.08730875
-0.40921792 0.2125577 0.21541493 -0.020016074 0.0026817967 0.66569364 -0.3345571 0.06428437
-0.04920118 0.35818294 -0.23868145 0.20567675 -0.07781421 0.013513136 -0.3065905 0.30773768
-0.2672268 0.10185537 -0.2587947 -0.35267723 0.039265264 -0.04115696 -0.051268917 1.0397784
0.006390436 -0.27599114 0.03126257 0.058314305 0.3232739 0.30522126 -0.013536387 0.042606607
-1.5445945 0.22035916 -0.22524069 0.08969633 -0.045820672 -0.09691413 -0.03360138 -0.037077
-0.021055201 1.1186479 0.885196 0.05536466 0.116069466 0.05823042 -0.087092154 0.16948587
-0.00013974567 0.02318147 0.19990303 -0.63020974 -0.12426226 -0.028291725 -0.47191948 -0.118030764
0.3433664 0.01291577 -0.010793259 0.22980753 -0.5303006 0.0053720535 -0.0009373339 0.1283534
-0.06095402 0.008428049 0.025589546 -0.13241939 -0.2793119 -1.1217092 0.023120139 -0.34401503
-0.28755513 0.061778493 0.27527034 -0.02135378 0.030597985 -0.5276436 -0.18582001 -0.41610214
0.232523 0.4523138 -0.15001868 -0.2590206 -0.052082844 0.026764177 0.20037307 0.5584912
0.11040357 -0.12359148 -0.09360922 0.01309532 0.22458541 0.0036017918 0.0061299414 -0.018095866
-0.62532735 0.018509643 0.11677093 0.060502436 0.09467027 0.18089677 -0.027446067 0.017441163
-0.1967625 -0.07784494 0.09837355 -0.13250095 0.43255994 0.20997198 0.1871523 0.010766034
-0.01928983 0.528741 -0.3074416 0.0057951603 0.010723882 0.11051937 0.14732552 -0.09414654
-0.010267144 -0.033028148 0.7951011 0.15912847 -0.20155138 -0.08880346 0.14218718 0.30972892
00000000: 2dc0 333d 94f5 02be 9290 dabc a126 053e
00000010: 6310 843e 2e20 a13c 9e8b 86bc 947e 3ebe
00000020: b3b7 9bbe 06ff 413e 0932 e1bd 7d8e c9be
00000030: 2f76 90be 79a5 4ebe e2d5 bbbc b263 47bb
00000040: ba14 49bd 91b4 653f 1695 40bc 0f92 843e
00000050: a235 2fbf 2d05 bd3d 3d83 adbb 4d10 18bc
00000060: 926a 30bc 70f0 30be c21d c9be 04db 2c3a
00000070: 0746 4ebe 6543 3fbf 193f 633e fbc8 b43a
00000080: a694 863d 4c99 9cbc 1244 103f 9b96 b43f
00000090: d9a0 143c e43d 98bd 6c33 943c 2a8a 043e
000000a0: cbd7 31be 86f5 f53c bc70 0b3d 27e4 9ebe
000000b0: 41b0 d83f 172d 84bd 3db4 debd b876 8c3f
000000c0: aa2a 6a3e d159 893c e3df 023b df6c b0bb
000000d0: 0712 8d3f c4d1 033e cbed 663c 4dfb aebd
000000e0: aa7d 9d3e 8533 873e 8d68 a4bd 7f1a 84bc
000000f0: 4511 003d 2b5c 743e f2ef bd3e 28dd 57be
00000100: 38e2 693e f838 d23e d817 f2be 22c7 673d
00000110: 9c62 ee3c c00b d33c deef eebf d89c 04be
00000120: 56d7 3bbe cb06 21bd 3ab7 92be 0fed bebe
00000130: c6e2 1cbe b1b9 9cbc dfa1 11bd d37c 9ebd
00000140: 75b5 90bf c685 7fbc 21b9 66bc 9788 04be
00000150: 6a52 25bd c235 f43c a703 c73d 29c1 193e
00000160: 236f c13d 7ef5 e13f 4de6 a5be 0b11 51be
00000170: be24 903d fafa 933e c7ff 6a3e af62 1c3d
00000180: 5b94 d5bc 090b e43f 996c 1a3f 66ff 13bc
00000190: 5d7f 3c3e b71d fbbd 2891 5b3d 8f9b d4bd
000001a0: bc81 1dbb 2c2d 9ebc 866c b43f f212 903e
000001b0: ef07 093d a4c2 053e a766 edbd d862 a43e
000001c0: b983 b6bd 1b11 0fbc 7fbc 40bb 6e66 b03e
000001d0: dfb1 0ebf 4f4f b4bd ac86 b3bd 452a 07bf
000001e0: 6959 053f 19d3 333d 8af4 283d 59a9 03bd
000001f0: 1ba0 0b3f 00cf e9be 0663 303d eece b2bd
00000200: 0385 d1be baa8 593e bb95 5c3e c0f8 a3bc
00000210: 15c1 2f3b e66a 2a3f 114b abbe 86a7 833d
00000220: 2d87 49bd c163 b73e e968 74be ed9c 523e
00000230: 0e5d 9fbd 3366 5d3c 6ef9 9cbe cb8f 9d3e
00000240: f3d1 88be 8c99 d03d bd80 84be 1c92 b4be
00000250: 9dd4 203d 3394 28bd 5bff 51bd 7517 853f
00000260: dd66 d13b b64e 8dbe 2e0d 003d fbda 6e3d
00000270: 2884 a53e f645 9c3e b9c7 5dbc 4484 2e3d
00000280: 46b5 c5bf d5a5 613e 7fa5 66be b6b2 b73d
00000290: 75ae 3bbd ea7a c6bd 9aa1 09bd 0dde 17bd
000002a0: f57b acbc db2f 8f3f 349c 623f 0ec6 623d
000002b0: d4b5 ed3d 0583 6e3d 5f5d b2bd b48d 2d3e
000002c0: b188 12b9 11e7 bd3c 61b3 4c3e 6d55 21bf
000002d0: 367d febd 0cc4 e7bc 6e9f f1be 1dba f1bd
000002e0: b9cd af3e aa9c 533c 36d6 30bc aa52 6b3e
000002f0: c8c1 07bf 0d08 b03b 6ab7 75ba 136f 033e
00000300: ecaa 79bd cd15 0a3c 2ba1 d13c f398 07be
00000310: f801 8fbe 2b94 8fbf 7266 bd3c bd22 b0be
00000320: 6d3a 93be 720b 7d3d 3cf0 8c3e 1fee aebc
00000330: a0a8 fa3c a713 07bf 9a47 3ebe 570b d5be
00000340: 821a 6e3e ad95 e73e 7f9e 19be 599e 84be
00000350: d254 55bd 8c40 db3c 992e 4d3e 47f9 0e3f
00000360: 441b e23d 881d fdbd 31b6 bfbd c18d 563c
00000370: b8f9 653e 0a0c 6c3b addd c83b c83d 94bc
00000380: 7415 20bf 89a1 973c 9925 ef3d 67d1 773d
00000390: 7de2 c13d 013d 393e 93d6 e0bc c5e0 8e3c
000003a0: 1c7c 49be 2b6d 9fbd 1278 c93d 54ae 07be
000003b0: 7f78 dd3e e502 573e daa4 3f3e 0564 303c
000003c0: b505 9ebc 925b 073f fc68 9dbe 54e5 bd3b
000003d0: 39b3 2f3c fb57 e23d 80dc 163e e7cf c0bd
000003e0: 8637 28bc 8648 07bd bf8b 4b3f 93f2 223e
000003f0: 7c63 4ebe 97de b5bd 8499 113e ca94 9e3e

dynamic_emb.0.bias f4 [256]
0.068633005 0.053634103 -0.055006646 -0.12652646 -0.1990645 -0.08552544 -0.0031979429 -0.10954567
-0.116264574 -0.033476852 0.039121 -0.1840291 -0.18368627 -0.16119361 -0.13662735 -0.10468208
-0.105952434 -0.099705234 -0.044398084 0.10185276 -0.05893454 -0.20986696 -0.001688957 -0.06930261
-0.12880635 0.036033124 -0.13814294 -0.011446812 0.039081328 -0.24105215 0.100899205 -0.15157895
-0.11104115 -0.09357444 -0.17962518 -0.18668754 -0.068960145 -0.11916359 -0.09034561 0.02730607
-0.032640267 -0.036134258 0.06092257 -0.18220319 -0.09946744 -0.266483 -0.13533692 -0.14455414
-0.16101281 -0.021272408 -0.16612531 -0.14664592 -0.13852261 -0.19283128 0.0076165255 -0.113996804
-0.10016283 -0.106215276 -0.15803939 0.015682047 0.0621079 0.054358378 -0.042763975 -0.122364596
-0.25246927 -0.21952303 0.06253852 -0.20235841 -0.19507422 -0.13279158 -0.093433745 -0.095487244
-0.11065725 -0.13067448 -0.11426096 -0.12948261 0.04970164 -0.035180338 -0.1631389 -0.09807731
0.019040506 -0.0017605923 -0.17097025 -0.19568262 -0.15884224 -0.17689458 -0.1534159 -0.1820572
-0.08391633 -0.326789 -0.13641864 -0.17979686 -0.113303415 -0.042222254 0.08713748 -0.046649948
-0.20892745 -0.0076608164 -0.10071061 0.023579804 -0.1315758 -0.14142276 -0.1858978 -0.10161466
0.057495512 -0.09490942 -0.19246772 -0.06778994 -0.061847888 0.037899226 -0.16647197 -0.09161419
-0.15446728 -0.10204978 0.020700373 -0.10806111 -0.15399544 0.010522565 -0.11784612 0.097477846
-0.09065686 -0.16873354 0.048977703 -0.29872057 -0.16198048 -0.14039268 -0.2818257 -0.07860201
-0.06431058 -0.3273612 -0.18018319 -0.08491277 -0.067972265 -0.21435462 -0.13466734 -0.19471306
-0.08250285 -0.2764651 -0.11057402 -0.12857088 -0.15687972 0.08614227 -0.055275343 -0.191051
0.034695137 -0.11086824 -0.22059181 -0.25401554 -0.13360764 -0.09596644 -0.081254594 -0.10606503
0.06298219 -0.17238842 -0.12770194 0.081757374 -0.1945203 0.037036307 -0.0078505 -0.08386857
-0.12631105 -0.099859044 -0.052505568 -0.07689691 -0.11940325 -0.16190359 -0.058016986 -0.07419019
0.034030948 0.04406895 -0.027052136 -0.10006615 -0.118302755 -0.12229866 0.03505117 0.03395318
-0.06407655 -0.13272843 -0.12662081 -0.13194767 -0.14825246 -0.19284756 -0.23474379 -0.19322473
-0.14213295 -0.04883684 -0.15424965 -0.15814221 0.11237824 -0.15187265 0.104078606 -0.12165379
-0.008107527 -0.064589605 -0.16531736 -0.1511303 -0.091441706 -0.19469696 -0.013277173 -0.105158396
-0.016092792 -0.23876327 -0.17814243 -0.12389566 -0.20896801 -0.24728924 -0.12217172 -0.24923089
-0.14579418 -0.18410099 -0.14546224 -0.09703634 -0.10259693 -0.2548229 -0.10122373 -0.04648421
-0.020240348 0.015743354 -0.14393182 0.060901847 -0.14134315 -0.15418193 -0.14711735 -0.17932133
-0.17789702 0.11729276 -0.06399904 -0.22030453 -0.07772012 -0.13791871 -0.015861625 -0.14891928
0.024695726 -0.16464366 -0.2078028 0.026037192 -0.10863816 -0.17843722 -0.13330099 -0.16085349
-0.10285082 -0.13892522 -0.12677196 -0.13213333 0.13781796 -0.09512986 -0.2644304 -0.06703293
0.12016527 0.075745836 0.07668139 -0.14440812 0.07662078 0.0014179079 -0.054060355 -0.18574639
00000000: 768f 8c3d 6faf 5b3d a64e 61bd 2790 01be
00000010: 90d7 4bbe f627 afbd 9494 51bb 7b59 e0bd
00000020: 1f1c eebd 061f 09bd 573d 203d 2072 3cbe
00000030: 4118 3cbe f00f 25be 0ae8 0bbe 8f63 d6bd
00000040: 97fd d8bd 4232 ccbd c4da 35bd 2e98 d03d
00000050: 5865 71bd 5de7 56be fe5f ddba 87ee 8dbd
00000060: d0e5 03be 7897 133d 5875 0dbe 698b 3bbc
00000070: be13 203d 60d6 76be 3ea4 ce3d 8337 1bbe
00000080: 8b69 e3bd f5a3 bfbd aaef 37be 052b 3fbe
00000090: fa3a 8dbd 0a0c f4bd 1f07 b9bd fbb0 df3c
000000a0: cdb1 05bd 8401 14bd f289 793d 7993 3abe
000000b0: 96b5 cbbd 7670 88be c395 0abe 0006 14be
000000c0: 8be0 24be 7943 aebc c11c 2abe 592a 16be
000000d0: dfd8 0dbe 9075 45be 0c94 f93b 2877 e9bd
000000e0: 2b22 cdbd 6587 d9bd 14d5 21be a377 803c
000000f0: da64 7e3d e4a6 5e3d 4729 2fbd 4a9a fabd
00000100: a743 81be a5ca 60be 3214 803d 0b37 4fbe
00000110: 89c1 47be 84fa 07be 315a bfbd d18e c3bd
00000120: 45a0 e2bd 88cf 05be a601 eabd 1797 04be
00000130: f293 4b3d 4219 10bd e20d 27be c2dc c8bd
00000140: d6fa 9b3c adc3 e6ba d312 2fbe 0661 48be
00000150: 8aa7 22be da23 35be 0f19 1dbe 346d 3abe
00000160: 53dc abbd e350 a7be 54b1 0bbe ab1c 38be
00000170: 9f0b e8bd 3ef1 2cbd 2375 b23d 0414 3fbd
00000180: 14f1 55be 9607 fbbb 5d41 cebd 6f2a c13c
00000190: cebb 06be 21d1 10be fe5b 3ebe 591b d0bd
000001a0: 6a80 6b3d df5f c2bd 4216 45be 74d5 8abd
000001b0: 3654 7dbd 383c 1b3d a177 2abe 38a0 bbbd
000001c0: ac2c 1ebe 7aff d0bd d493 a93c 254f ddbd
000001d0: fbb0 1dbe d666 2c3c 4e59 f1bd 77a2 c73d
000001e0: 4eaa b9bd 7cc8 2cbe d89c 483d e7f1 98be
000001f0: 36de 25be 19c3 0fbe 754b 90be 17fa a0bd
00000200: 44b5 83bd e39b a7be f181 38be bfe6 adbd
00000210: 0b35 8bbd c77f 5bbe 3ce6 09be dc62 47be
00000220: 41f7 a8bd d58c 8dbe a274 e2bd 16a8 03be
00000230: 14a5 20be 5c6b b03d 6668 62bd e0a2 43be
00000240: 7d1c 0e3d e30e e3bd d2e2 61be 530e 82be
00000250: 71d0 08be 0e8a c4bd cf68 a6bd 9f38 d9bd
00000260: cefc 803d 9786 30be 4cc4 02be 6970 a73d
00000270: 5430 47be 62b3 173d 629f 00bc 49c3 abbd
00000280: af57 01be e682 ccbd 1410 57bd 217c 9dbd
00000290: b189 f4bd 0eca 25be 38a3 6dbd 07f1 97bd
000002a0: 0964 0b3d a581 343d 719c ddbc 7bef ccbd
000002b0: b748 f2bd b877 fabd d191 0f3d 7d12 0b3d
000002c0: 913a 83bd f6e9 07be e3a8 01be 4a1d 07be
000002d0: 7ecf 17be d579 45be ad60 70be b4dc 45be
000002e0: 4d8b 11be 2309 48bd 9ff3 1dbe 08f0 21be
000002f0: 9026 e63d 8184 1bbe 2a27 d53d 9f25 f9bd
00000300: 6fd5 04bc 8e47 84bd f448 29be e7c1 1abe
00000310: ca45 bbbd a45e 47be 8088 59bc 495d d7bd
00000320: 08d5 83bc 5c7e 74be f86a 36be 02bd fdbd
00000330: b6fb 55be 6439 7dbe 2b35 fabd 6236 7fbe
00000340: 124b 15be f884 3cbe 0ef4 14be fdba c6bd
00000350: 571e d2bd 2678 82be 634e cfbd 3a66 3ebd
00000360: 16cf a5bc 35f8 803c dd62 13be 3774 793d
00000370: 42bc 10be dee1 1dbe eea5 16be 03a0 37be
00000380: a32a 36be 3037 f03d ee11 83bd 8397 61be
00000390: ba2b 9fbd 903a 0dbe 3df0 81bc 4c7e 18be
000003a0: b14e ca3c 5998 28be 42ca 54be f34b d53c
000003b0: af7d debd 3fb8 36be 0e80 08be c7b6 24be
000003c0: 73a3 d2bd 6a42 0ebe 82d0 01be f64d 07be
000003d0: 2720 0d3e 72d3 c2bd 6c63 87be 9048 89bd
000003e0: 3619 f63d a220 9b3d 220b 9d3d b9df 13be
000003f0: 5beb 9c3d 18d9 b93a 646e 5dbd 4d34 3ebe
