output/CarlaNavigation-v0/gin/1/actor.pt (torch, 535763 bytes, 7 tensors)

action_log_std f4 [1, 2]
000000 6b 61 6c bf 25 99 2f c0
       -0.9233615 -2.7437222

linear1.weight f4 [256, 261]
000000 ec d4 07 3d 75 78 c1 be 0b 2b 59 3f f8 b2 03 3f
       0.033162042 -0.37787214 0.84831303 0.5144496
000010 8b fa b6 3f 86 00 e8 be c6 78 19 3e a4 0e b0 3e
       1.429521 -0.453129 0.14987478 0.3438617
000020 46 93 8c 3f f4 f2 04 bf 7f f2 f9 bd c1 ab 9b 3e
       1.0982444 -0.5193322 -0.122044556 0.30404475
000030 d6 1a e7 be e0 49 91 3e 91 8e 4d be d1 03 d9 3d
       -0.45137662 0.28376675 -0.20073916 0.10596431
000040 b6 64 07 bf 90 d8 b3 bd a1 71 cb bd 01 3e 16 3d
       -0.5288805 -0.087815404 -0.09933782 0.036680225
000050 df 3a 52 bf 15 e1 12 3e 25 a5 e6 3e 7d c3 07 bd
       -0.8212108 0.14343674 0.4504787 -0.033145417
000060 e7 8c 7e 3e b5 f8 8d be de a1 44 be 5c 2d ed bd
       0.24858437 -0.2772881 -0.19202372 -0.11580917
000070 bf db bd 3e c5 6d 19 3d 0a 02 cd be d9 88 b2 be
       0.37081715 0.0374582 -0.40040618 -0.3487003
000080 53 5b 99 3f ef 4c 37 3f 11 de 36 3d b1 fb 88 3d
       1.1980995 0.71601766 0.044645373 0.06688631
000090 27 a1 38 3e 9b f2 05 bf aa b7 04 3f f7 82 dd 3d
       0.18030225 -0.5232331 0.5184275 0.10815995
0000a0 79 d5 e5 be c8 d7 9c bd a2 db 1c 3d a7 a2 9e 3e
       -0.4488943 -0.076583445 0.038295396 0.3098347
0000b0 d7 d2 82 be f0 6c 84 3e 84 f7 88 bc 00 53 e6 3e
       -0.25551483 0.25864363 -0.016719587 0.449852
0000c0 bc e5 da be 8b 47 70 be a5 76 2c 3f 96 7b 56 3e
       -0.42753398 -0.23464791 0.6736854 0.20945582
0000d0 f7 54 de 3b 7e 95 cb bc 87 e6 09 bd 89 af e5 3e
       0.006785031 -0.024851557 -0.033667114 0.44860485
0000e0 64 8d e7 3d 6e 2e 0e be 58 11 68 3e 43 05 45 3e
       0.11306265 -0.13884899 0.22662866 0.19240288
0000f0 7a 00 10 be 75 90 53 3f 2e 6b ae 3e 3c 22 b4 3e
       -0.14062682 0.826423 0.34066147 0.3518237
000100 59 b6 9b bc e4 4c 33 3e bc 76 07 3e 77 72 bf be
       -0.019007849 0.175098 0.13228887 -0.37392017
000110 c5 1b 86 be 12 59 23 be fa 53 3a 3f f2 6d 8b 3d
       -0.2619306 -0.15951946 0.7278439 0.0680808
000120 bb 85 76 be 24 fc c7 be 10 06 73 3d 2b 4c b3 bd
       -0.24074452 -0.39059556 0.059331954 -0.08754762
000130 4d 63 a3 be 66 76 ba be 3d fc 1d 3f ed 69 92 3e
       -0.31911698 -0.36418456 0.6171301 0.2859644
000140 6d 95 6c 3f a7 2d 01 be c4 6f 7c be 59 0b ad be
       0.92415506 -0.12615071 -0.2465201 -0.3379772
000150 87 93 eb 3e c0 00 1e 3f 28 bb 46 be 6e 93 4b 3d
       0.46010992 0.61719894 -0.19407332 0.049701147
000160 8b 71 32 3e d1 0b ac 3e 6b fe 12 3f 3b 07 f5 3e
       0.17426126 0.33602765 0.5741946 0.4785708
000170 8b 51 0f 3c 4d 45 39 3e fd 00 3a 3f e1 0c 42 ba
       0.008747469 0.18092842 0.7265776 -0.0007402432
000180 d9 e8 95 be 18 22 69 be bc 01 97 3e 2e 9f 42 3b
       -0.2927921 -0.22766912 0.2949351 0.002969693
000190 81 02 7a be 4c 84 33 3e 89 dc 1f 3f c3 77 f0 3e
       -0.24415018 0.17530936 0.62445885 0.4696637
0001a0 00 45 30 3c 9d ee 3b 3e e1 0f 8d 3d 74 95 41 be
       0.010758638 0.18352742 0.06887794 -0.18904668
0001b0 41 c3 f7 3e bb ff 29 3d 59 d8 10 be 97 37 61 3f
       0.48391154 0.04150365 -0.1414503 0.8797545
0001c0 5c 00 c8 3e 99 94 3c be 4f 8f e1 bc d8 ae 73 be
       0.39062774 -0.1841606 -0.027534155 -0.23797166
0001d0 f2 96 33 be 1c 3f 07 3e 5f fb 24 3e b0 72 27 be
       -0.1753805 0.13207668 0.16111515 -0.16352344
0001e0 44 00 9e 3e 8a 8f 9b be 32 86 77 3e 9d a5 bd 3e
       0.30859578 -0.3038295 0.24172285 0.37040415
0001f0 a6 ec 9f 3c dd 57 2e 3f b1 96 b6 bb b4 4b 1d 3f
       0.019522022 0.6810282 -0.005572163 0.6144364
000200 3f 3a 9e 3e b5 4c 3b be 6e ef 69 3f a3 e3 50 be
       0.30903813 -0.1829098 0.91380966 -0.20399337
000210 4f 73 3b 3e cb 62 a6 be 85 e1 a1 be 7a 19 51 3e
       0.18305705 -0.32497248 -0.3161737 0.20419875
000220 d0 8a 21 3f f9 1d 01 3f 98 ed f6 3e 78 36 6b be
       0.63102436 0.5043636 0.48228145 -0.22969997
000230 64 75 be be 7c 1a e2 bd 18 97 1e 3c 00 f3 ea be
       -0.37198937 -0.11040208 0.009679578 -0.4588852
000240 27 dc 4a 3f 1a d0 62 be 18 7a 83 3c 8f 63 f6 bd
       0.79242176 -0.22149697 0.01604943 -0.12030708
000250 08 55 a3 3e a4 38 ef bd 58 75 fc bd 3c d4 03 3e
       0.3190081 -0.11680725 -0.12327069 0.1287393
000260 c4 c2 47 be d8 f8 11 3f 3f 20 36 3e ba 2f 86 bd
       -0.19507891 0.5702033 0.17785738 -0.06552072
000270 c1 82 94 bd 84 9b b0 3e ed 32 46 3d 93 dd 65 be
       -0.07251502 0.3449365 0.04838841 -0.22447805
000280 ca f9 94 bd 5b 2b c1 3e 0a 24 13 3f 80 b6 7e 3d
       -0.07274206 0.3772839 0.57476866 0.062185764
000290 32 25 25 3d ee e2 8d 3e 24 1a ba 3e 70 bf f8 be
       0.040318675 0.27712196 0.3634807 -0.48583555
0002a0 a5 04 06 3c 3e a2 c3 bd 30 87 14 be d3 18 94 be
       0.008179818 -0.095524296 -0.14504695 -0.2892519
0002b0 11 06 d7 3d 8d e1 a7 be c1 07 82 3e 73 6a 02 3d
       0.10499204 -0.3278927 0.2539654 0.0318398
0002c0 a1 10 3b be 1c a7 81 3e c2 9a 48 3f 2e db 22 3f
       -0.18268062 0.25322807 0.7836114 0.6361569
0002d0 98 96 80 3e 9e 0f ca bc 0e 09 09 bf 5b d8 5a 3d
       0.25114894 -0.02466565 -0.5352944 0.05342899
0002e0 b7 76 cb 3d f0 cb 06 3f 23 53 e7 3e 0f b3 0c 3e
       0.099347524 0.52654934 0.45180616 0.1374018
0002f0 31 c7 f3 3e 87 7a a4 be e9 f5 95 3d f5 91 f1 bd
       0.47612908 -0.3212473 0.07322294 -0.11795417
000300 77 e6 39 3f 9c 25 ed 3d 76 6b 01 be ff 9d bf bd
       0.72617286 0.11579439 -0.1263865 -0.09356307
000310 01 ad 7e bf dd da 2c 3e 2f cc a9 3d ad 94 14 3d
       -0.99482733 0.16880365 0.08290898 0.0362746
000320 13 72 b7 3d 41 7c 30 3e 57 52 dc 3e e0 53 33 3e
       0.08957305 0.17234899 0.4303157 0.17512465
000330 7c c2 60 3c fe 97 06 bf 08 69 f2 bd 3a c0 0b bd
       0.013718244 -0.5257567 -0.11836439 -0.03411887
000340 80 73 62 be b2 4b e3 3d 5e 83 1d be 72 ce 31 be
       -0.22114372 0.11098422 -0.15382144 -0.17363909
000350 17 56 ad bd 19 a0 9f be f6 e0 8c 3d 11 c0 6d be
       -0.08463686 -0.31176832 0.068788454 -0.23217799
000360 e9 18 53 3c ef 45 45 be 21 9f 26 3f 37 c7 6c be
       0.012884357 -0.19264959 0.6508656 -0.2312287
000370 60 6c 12 3e 63 c6 0c bf d7 34 03 be 43 da b5 bd
       0.14299154 -0.54990214 -0.12813126 -0.08879521
000380 28 89 93 bd 09 09 00 3e f9 0b 33 be 5e e9 c0 bc
       -0.07203895 0.12503447 -0.17485036 -0.023548778
000390 86 5a 52 3e 97 1c 4f 3e d5 f9 f2 3e ce c4 3a be
       0.20542344 0.2022575 0.47456232 -0.18239138
0003a0 24 93 a8 bd e7 95 47 be 76 0a 66 bc ce de bf 3e
       -0.0823119 -0.19490777 -0.01404058 0.37474674
0003b0 78 c0 87 bd 27 62 87 bd 52 e4 a0 3d 82 43 33 be
       -0.066285074 -0.06610518 0.07856049 -0.17506221
0003c0 55 18 08 be 0c 81 f3 be e5 45 23 bf 18 b1 a6 be
       -0.13290532 -0.47559392 -0.63778526 -0.32556987
0003d0 85 f0 98 be f3 c3 6e be f3 a2 b8 bb 4e 43 2b be
       -0.29871002 -0.23316936 -0.0056346594 -0.16724893
0003e0 67 b1 a8 be 2f 8c 9d be 60 55 8e 3d 6d 4a 91 3e
       -0.32947847 -0.30771014 0.06949878 0.28377095
0003f0 6b 17 a5 bc 98 d3 21 bd be a5 84 3e 68 ff 46 3f
       -0.020152768 -0.039508432 0.259077 0.7773347

linear1.bias f4 [256]
000000 4d 58 24 3b 6e 60 b6 be 9a 2f eb bd 6f b2 19 3e
       0.0025077045 -0.35620445 -0.11483689 0.15009473
000010 b5 37 0b bf 90 fc 9e 3e 5b 35 64 3e 99 b4 f7 3c
       -0.5438188 0.31052065 0.22285978 0.030237483
000020 1b c6 0a 3e e7 78 a2 39 17 06 4c 3e f4 98 87 be
       0.13552134 0.00030989127 0.19924198 -0.2648388
000030 c8 b2 62 bc c8 34 42 bd f9 94 77 bd dc 4e 12 bf
       -0.01383657 -0.047413617 -0.060444806 -0.5715158
000040 42 16 c8 3e 9b 59 92 3e cc 28 ec be dc d4 8f be
       0.3907948 0.2858399 -0.46124876 -0.28092086
000050 27 4f d1 be f8 12 da 3d 1f 57 d2 bb 77 d8 a3 3e
       -0.408807 0.10648149 -0.006419077 0.32001087
000060 3f 4f 8a be 2d 8a 14 bd f1 7b 1d 3d 3e e6 a1 be
       -0.27013585 -0.036264587 0.038448278 -0.31620973
000070 04 66 1c 3f f6 3d 07 be 32 40 20 be aa 36 6d bb
       0.61093163 -0.1320723 -0.15649489 -0.0036195912
000080 2a e2 fb 3e fb 55 38 3e 20 00 56 be 00 90 a5 be
       0.49195987 0.18001549 -0.20898485 -0.32336426
000090 37 ca af 3e 32 e2 05 3e 58 64 11 3f 04 ec 8f 3d
       0.34333965 0.13074568 0.5679374 0.07027438
0000a0 5b 31 05 bf 69 e6 65 bd e8 b8 d5 be eb fd 27 3e
       -0.52028435 -0.05612794 -0.41742635 0.16405456
0000b0 a5 d3 5f bc db 09 85 3e 85 2a 81 be ad be 8c 3d
       -0.0136613 0.25984082 -0.25227752 0.06872306
0000c0 17 72 4a 3d 06 63 e8 be ed 57 8b 3d df ec 1e be
       0.04942521 -0.4538805 0.0680388 -0.15520047
0000d0 ea 22 55 3e 4d a6 a5 be bc e4 9a be c9 3b 41 be
       0.208141 -0.3235344 -0.30252635 -0.18870462
0000e0 06 84 ee 3d 83 3c c8 3e 8d 40 8e 3e 9e da ee bd
       0.11646275 0.39108667 0.27783623 -0.11662792
0000f0 f0 4a 79 be d4 c6 3d bd 09 dc 42 bd 13 2d c3 3e
       -0.24344993 -0.046332195 -0.047573123 0.38120326
000100 bd c3 86 bd 69 33 2a 3f 96 ea 04 be 5c 13 ec be
       -0.06580303 0.66484696 -0.12980112 -0.4610852
000110 be 86 b6 bd 76 99 39 3e 31 e2 8b be 78 33 a4 be
       -0.08912419 0.18124947 -0.27321008 -0.32070518
000120 3f 7d e9 bc 79 12 48 be ad 05 a7 3e d5 d1 0a be
       -0.028502105 -0.19538297 0.32621518 -0.13556607
000130 a0 e2 de 3e fa f5 89 be 4a 86 28 bf 7e 98 2e bc
       0.43532276 -0.26945478 -0.6582991 -0.010656474
000140 f0 48 e1 bc 3b 47 8e bd 79 68 01 3e 62 64 e4 3e
       -0.0275006 -0.0694718 0.1263751 0.44607836
000150 34 be 6e be 70 a1 fd be 8b e2 29 be 1e b6 2a be
       -0.23314744 -0.4953723 -0.16590326 -0.16671035
000160 4c 00 90 be e1 8c 86 3d 40 00 1d 3f 09 d8 2f be
       -0.28125226 0.06569839 0.61328506 -0.17172255
000170 42 57 c1 3d 89 5b cc be ce b0 05 3f 55 13 29 be
       0.09440471 -0.39913586 0.5222291 -0.16511281
000180 5c cb 51 bd 0c da dc 3e 3e bc d5 ba cc 13 b7 3e
       -0.05121933 0.43135107 -0.0016306711 0.3575729
000190 04 93 59 be 41 7d f3 3e b3 89 72 3e e0 78 2b 3e
       -0.21247488 0.475565 0.2368534 0.16745329
0001a0 d2 0f d4 be ad 8b b1 3e 21 27 10 3d 8e 0a b0 bc
       -0.4141832 0.34676877 0.035193566 -0.021489408
0001b0 d0 93 49 be 83 cc 76 be cb ce 0f be 39 dc a8 bc
       -0.19685292 -0.24101453 -0.14043729 -0.020612823
0001c0 42 5f 7d 3b 4a f8 43 3e 44 1d 83 3e b3 3c 11 3f
       0.0038661514 0.19137684 0.25608265 0.56733245
0001d0 07 fc 94 bd 9d b1 70 be 82 d0 90 3e 07 2b f7 bb
       -0.07274633 -0.23505254 0.2828408 -0.007542971
0001e0 7d 23 80 bd 7a 4e 3e bf 2b 2d 1d bf a1 a4 77 be
       -0.06256769 -0.74338496 -0.61397046 -0.24183895
0001f0 19 eb cf bd 47 67 91 be ab f9 f8 bd 76 a2 1f be
       -0.10152263 -0.28399107 -0.121569954 -0.15589318
000200 6b d1 0d 3f 79 fb 47 3e 2d ef 55 3e 28 2f df 3c
       0.5539767 0.19529523 0.2089202 0.027244166
000210 5c 0b 16 3d f5 f0 a0 bd d6 74 13 3f 0c 7e 27 bd
       0.036631927 -0.07858459 0.5760015 -0.040891692
000220 31 a1 22 3e 55 2a d1 3d 1c a5 70 3d 31 87 80 be
       0.15881802 0.10213152 0.05875121 -0.25103143
000230 2e a2 c0 bd 6c e3 ea 3b 53 89 e5 3d 96 f0 6f 3e
       -0.09405933 0.007168224 0.11207833 0.2343162
000240 70 0c 4b 3e ce c3 5f be e7 34 cc bd 74 21 dc be
       0.19828963 -0.21852037 -0.09971028 -0.42994273
000250 2a 99 a3 3e c8 fc 00 3e 09 e3 b4 3d 1d 96 83 be
       0.31952792 0.12596428 0.08832366 -0.25700465
000260 e4 0a 60 be ff b7 18 be 3d fd 4d 3e 62 8a c9 3e
       -0.21879154 -0.14913939 0.20116134 0.3936339
000270 d7 b3 00 3f 8d f3 81 bd 94 a2 00 bf fd 0c e5 be
       0.50274414 -0.06345282 -0.50248075 -0.44736472
000280 98 c0 64 be 09 08 17 3f a8 11 db be e7 39 ea 3d
       -0.22339094 0.58996636 -0.42786908 0.11436825
000290 4d 45 a2 3e 7f b0 58 3e f3 44 6d 3e b1 22 dd bb
       0.31693497 0.21161078 0.23170833 -0.0067485203
0002a0 a3 18 03 3f 29 4d 6b 3e aa 69 52 3e 1b b7 09 be
       0.5120947 0.22978653 0.2054812 -0.13448755
0002b0 00 05 6a 3e 38 bb 17 bc 7f 90 d8 be cd 67 d0 3d
       0.2285347 -0.009260945 -0.42297742 0.101760484
0002c0 d5 6b 13 bd 8a 0e b4 3e 5a 0f 21 be 22 54 10 bf
       -0.03599151 0.35167342 -0.15728512 -0.56378376
0002d0 cc a9 b3 be 89 3e 02 3e 9d c6 c1 bd e5 1c 07 be
       -0.35090482 0.12719168 -0.094617106 -0.13194616
0002e0 f1 ea 28 3f 15 36 d3 be 93 63 a5 3e 17 c9 b0 3e
       0.6598349 -0.412522 0.32302532 0.3452842
0002f0 b1 e5 c9 3b 1a 36 4d be 0c b0 9f bc 04 00 62 be
       0.0061614146 -0.2004017 -0.019493125 -0.22070318
000300 6e a4 ad 3e 03 04 ee be 0c 87 52 3d 31 41 90 3e
       0.33914512 -0.46487436 0.051398322 0.28174737
000310 72 ed 2c be 33 02 45 3d 7a 98 3b 3e dd d5 00 3c
       -0.16887453 0.0480978 0.18319884 0.007863489
000320 ab bd 0a be 51 f1 a6 be 37 44 f2 3e 5f 98 0e 3e
       -0.13548915 -0.32605985 0.4731767 0.13925312
000330 c5 b8 03 3f 0d 02 33 be 91 d9 71 be eb 3d 01 be
       0.5145381 -0.17481251 -0.23618151 -0.12621276
000340 a2 e4 71 3d 56 28 a5 3e 76 fc 08 3f 9e 70 01 3e
       0.059055932 0.32257336 0.53510225 0.12640616
000350 3b 88 9e 3e 31 95 d5 3e fc 25 83 3e 22 fd 3e be
       0.3096331 0.41715387 0.25614917 -0.1865125
000360 75 f2 19 3f 4e 63 28 3d 3e 1b ff be 3a 23 55 bd
       0.60135585 0.04111033 -0.49825472 -0.052035548
000370 25 f4 90 be 72 9e 00 3f 4b e8 d3 be 14 7e 16 3e
       -0.28311267 0.5024177 -0.41388163 0.14696532
000380 63 dc 89 bd 38 99 91 be aa 6d f0 bd e1 79 08 bd
       -0.067314886 -0.2843721 -0.11739667 -0.033319358
000390 19 04 fd 3e db 87 64 3d 6a 0c fc bd 11 63 d7 3d
       0.4941719 0.055793624 -0.12307055 0.10516942
0003a0 f5 f5 0d 3e 4f 8c 0f 3f 55 41 63 3c 9c 1b 87 be
       0.13863356 0.5607347 0.013870557 -0.26388252
0003b0 3c a9 bb 3e a2 34 e1 3e f8 71 a4 bd a6 67 96 be
       0.36652553 0.43985468 -0.0802955 -0.29375952
0003c0 a3 42 85 3e 76 b2 33 be 9d 17 49 be 93 34 c4 3c
       0.26027402 -0.17548546 -0.19637914 0.02395085
0003d0 c5 bd 5d be 8c d6 87 3e 18 14 fb be a3 fc b4 be
       -0.21654423 0.26530874 -0.49038768 -0.35348997
0003e0 2f 4d b8 be 0f 35 24 3e ae 8b ce be 01 65 22 3d
       -0.35996386 0.16035865 -0.40340942 0.039647106
0003f0 d8 7d 1e 3e e6 20 18 bf 48 48 17 3f d1 b1 5a 3e
       0.15477693 -0.594252 0.5909467 0.21356894

linear2.weight f4 [256, 256]
000000 bb d0 66 be c6 5b dc bd f2 42 17 3e 1f e9 92 3e
       -0.22540562 -0.10759692 0.14771631 0.28693482
000010 be 9e e3 3b e9 39 f0 3e cd 88 83 bd ea 20 00 3f
       0.006946414 0.46919182 -0.06422577 0.5005022
000020 c0 6b 0e bc 93 ac 0f bc 0b ac 81 3e e6 5e 95 3e
       -0.008692682 -0.008769172 0.2532657 0.29173964
000030 37 23 06 be 5f f2 86 be f0 af ea be de 71 9f 3d
       -0.13099371 -0.2635679 -0.45837355 0.0778539
000040 e5 81 82 3d a8 c7 54 bd da 5e 40 be 36 d5 50 3d
       0.06372432 -0.05194822 -0.18786183 0.050984584
000050 75 f1 0f 3e 1d b5 91 be 7d dc c2 3d d2 8a a2 3e
       0.14056952 -0.2845849 0.09514711 0.31746536
000060 56 43 7b 3d 03 bf 6f bd 28 46 5b 3c a8 82 11 be
       0.061343513 -0.058531772 0.013383426 -0.14209998
000070 5f aa 62 be 54 25 5d be c1 dc 58 3e 3e 83 04 3e
       -0.22135304 -0.21596271 0.21177961 0.1294069
000080 cf eb 5a 3e 53 be 56 be 72 f2 1e 3e 48 73 80 3e
       0.21379016 -0.2097104 0.15522173 0.25087953
000090 41 48 dc 3d 40 e2 37 be 79 38 4f bd e7 d2 0d 3f
       0.10755969 -0.17957401 -0.050590966 0.55399936
0000a0 80 fa 30 3b 03 08 cd bd dc 39 da bc 3f 87 62 bc
       0.0027004778 -0.10011294 -0.026638918 -0.0138261905
0000b0 9b 03 38 3e 11 f0 81 be db 93 fa bd 5e 0c 01 be
       0.17970125 -0.2537847 -0.122352324 -0.12602374
0000c0 52 53 87 be f8 e7 d6 3c 43 91 f6 bd 14 4e 3f 3e
       -0.26430756 0.026233658 -0.12039425 0.18682128
0000d0 62 7f 23 3e 97 1c 57 3e 2a 78 1a 3e 99 7d 95 bb
       0.15966561 0.21007 0.15084901 -0.0045620915
0000e0 3c d0 76 3e a9 4f 04 3e 90 4c 3b 3c 9d df 58 3e
       0.24102873 0.12921013 0.011431828 0.21179052
0000f0 6d 39 d4 be 49 08 6c 3e 7a 6a ed 3e 03 c9 c0 bd
       -0.41450062 0.23050036 0.46370298 -0.0941334
000100 92 01 35 be 55 62 0a be 39 f7 a7 bd de 5f 35 3e
       -0.1767638 -0.13514073 -0.08201451 0.17712352
000110 d1 47 de be a5 d0 bd bd de e3 70 3e 48 5e 78 3e
       -0.43414167 -0.092683114 0.23524424 0.24254715
000120 ff 2c a1 3e bb ad 10 3e 2e eb d1 3d 1e c8 0d be
       0.31479642 0.14128773 0.10249935 -0.1384587
000130 db b2 4a bb db d9 dc bc c8 fb a7 bc d4 90 b2 3c
       -0.003092936 -0.02695935 -0.0205058 0.021797575
000140 ea e6 be 3d 7a e6 62 3d 92 12 06 3c aa f2 15 be
       0.09321387 0.05539558 0.008183138 -0.1464335
000150 26 8a 36 bd b9 c6 b5 be 77 ca b8 be 6d 77 84 bd
       -0.044565342 -0.35503176 -0.36091968 -0.06468091
000160 71 b7 4f 3d fa fc 0f bd 66 79 55 3d 3a e6 be bd
       0.050712053 -0.035153367 0.052117728 -0.09321256
000170 6a 42 7e 3e 5a 2f 84 bc cc 10 86 3c ec 47 20 3e
       0.24830022 -0.01613586 0.016365431 0.15652436
000180 ad a1 37 3e 30 90 73 3d 23 3f d7 3d 60 13 e7 bc
       0.17932768 0.05946368 0.10510089 -0.02820748
000190 ea 19 1b be 06 14 59 3e a2 0b 37 3e 12 cf d6 bd
       -0.15146604 0.21199045 0.17875531 -0.10488714
0001a0 ab c4 78 3e 98 91 65 3d 84 0c a5 be 00 c5 cb 3a
       0.24293773 0.056047052 -0.3223611 0.0015546381
0001b0 5d dd 48 bd 06 4e 92 3e e3 1e 77 3c 27 82 d4 bd
       -0.049039233 0.28575152 0.015083048 -0.10376387
0001c0 bc 53 2a 3e 83 08 24 3e e7 ea 3b 3e cb 03 44 3e
       0.16633505 0.16018872 0.18351327 0.19142072
0001d0 93 f3 2b 3e e9 fa 76 be ff 05 8d be 0c 6f 34 3b
       0.16792135 -0.24119152 -0.27543637 0.002753201
0001e0 35 4c 06 3f 8b 66 36 be f2 59 4b 3c ac 4f 1d 3e
       0.5246003 -0.17812555 0.012411581 0.15362424
0001f0 f3 7b c2 be ee c5 7d 3d b5 a6 3c be 78 23 1e be
       -0.3798519 0.06195634 -0.18422969 -0.15443218
000200 86 f3 27 3d 3d 37 a8 bc 1f ea 4d be 98 0b f4 bd
       0.041003726 -0.020534152 -0.20108841 -0.11916274
000210 d6 c9 23 3e db 0a 0d 3e 35 d3 d7 3d 50 5f b4 3e
       0.15994963 0.13773672 0.105383314 0.35228968
000220 36 ae a0 be 24 c2 19 bc a9 56 46 bc dc 8f 0d be
       -0.31382912 -0.009384666 -0.012105622 -0.13824409
000230 da e0 46 be ca ed 54 be 50 58 9a bd 06 63 e0 3c
       -0.19421712 -0.20793834 -0.075363755 0.027390968
000240 72 e1 40 3e cf a9 c7 3c 5e e1 c2 bd 57 8a 82 3d
       0.18836 0.024372963 -0.09515642 0.063740425
000250 c9 4f 48 be 81 83 ea bc 3e 57 c2 3d 81 c8 cb bd
       -0.19561686 -0.02862716 0.094892964 -0.099503525
000260 58 25 a6 be 84 55 bb 3d 40 f2 52 3d c9 85 75 bd
       -0.32450366 0.0914717 0.05150056 -0.05994204
000270 56 10 12 be cf eb 67 bc ae 4b 0b be 1c a5 e6 bd
       -0.14264044 -0.014155342 -0.13603088 -0.11261961
000280 c2 95 34 3d 17 64 cb 3c 17 a5 7d be 85 53 8e 3e
       0.044088133 0.024828 -0.24770008 0.27798095
000290 80 4c f9 bd 65 5d a1 be cc d5 6a bd 0b 6e 66 bd
       -0.12172794 -0.31516567 -0.0573328 -0.05625729
0002a0 e1 bf 6c 3d bb 97 a9 be fc 3b 18 3e e4 83 a3 be
       0.057800177 -0.33123574 0.14866632 -0.31936562
0002b0 6f bf 5d 3d 48 c9 8a 3e fb 44 55 3e 6c 80 ae 3e
       0.054137643 0.2710669 0.20827095 0.34082353
0002c0 df c4 d1 3d 1e 8c 3a 3d 21 4f 60 be 86 c6 13 3e
       0.10242628 0.045543782 -0.21905185 0.144312
0002d0 f9 8e 98 be c2 95 37 3e ab 9e c1 bd b3 35 ec bd
       -0.2979658 0.17928222 -0.09454092 -0.1153368
0002e0 30 60 0e 3e fb 92 3d 3e b5 61 28 3d 71 cb 7f be
       0.1390388 0.185131 0.041108806 -0.2497995
0002f0 61 81 37 be 36 8d 14 bd 30 f1 9d 3d cd b6 9f be
       -0.17920448 -0.03626748 0.077120185 -0.31194153
000300 40 c7 8a 3e ec 7e 39 be 7b a7 00 3f ac db 30 3e
       0.2710514 -0.18114823 0.50255555 0.17271298
000310 ef 9a 47 be 7e 45 61 3d d3 32 44 3d 57 95 81 bc
       -0.19492696 0.054997914 0.047900032 -0.015818281
000320 ff f1 86 be 50 6a 7e 3e df 5b 59 bd 74 54 74 3e
       -0.26356503 0.24845243 -0.05306613 0.23860341
000330 bc bb 54 be 55 2b 00 bc 6b 70 ca 3e 3b 43 d5 be
       -0.2077474 -0.007822831 0.39538893 -0.41652855
000340 a2 6f b1 3e 05 fa 40 be 85 41 4a 3e 93 b0 b2 be
       0.34655482 -0.18845375 0.19751556 -0.3490034
000350 6d ab aa 3d 8f 03 c2 3c 90 2b 55 3e 57 cf 37 3e
       0.08333478 0.023683337 0.20817399 0.17950188
000360 9e 6a 48 3d bf 8c 1c be c6 d1 c2 3d 2d e1 90 3d
       0.048929803 -0.15288065 0.09512667 0.07074199
000370 57 6c 29 be b8 c1 92 3d dd 28 a1 be 78 3e b5 3d
       -0.16545235 0.07165855 -0.3147649 0.088498056
000380 a1 c7 70 3e 29 13 f9 bc 2b 1e 3f be a8 44 b7 3d
       0.23513652 -0.030404644 -0.18663852 0.08948642
000390 05 91 5c 3b a2 3c 49 3e ec 9e 5b be 55 47 c3 bd
       0.0033655774 0.19652036 -0.21447343 -0.0953509
0003a0 e4 1a 4e 3e 05 c5 0c be 43 d3 6d bc 4c 22 00 bd
       0.20127445 -0.13747032 -0.014515701 -0.031282708
0003b0 77 fb c5 be a2 9d 8b be c4 f1 08 3e 20 c6 7d 3e
       -0.38668415 -0.27268702 0.13373476 0.2478261
0003c0 de 25 36 3e 70 54 95 3e d8 86 d2 3d 35 e9 13 be
       0.17787883 0.29165983 0.10279626 -0.1444443
0003d0 89 c7 80 be 7e d8 95 3d 3b 3a 27 3d c8 e4 7a be
       -0.25152233 0.07316683 0.040827017 -0.24501336
0003e0 ec 3a 16 be 31 0c 8f be a3 95 e1 3d 6c 20 07 bd
       -0.14670914 -0.2793899 0.11014869 -0.032989904
0003f0 ef 20 e7 3e 23 a5 81 3d 5a 93 2a 3e 07 2a 27 be
       0.45142314 0.063303255 0.16657773 -0.16324626

linear2.bias f4 [256]
000000 db 96 31 bd 1e 98 33 3c 47 35 8c 3c 5f cb 42 3e
       -0.043356758 0.0109615605 0.017115248 0.19022892
000010 82 d4 d7 bc f7 be 01 be d2 e1 5d bd af d7 63 be
       -0.026346449 -0.12670504 -0.054170437 -0.22250246
000020 fc dc e0 3d b8 b6 30 3e 9c 39 e8 bd 6b 6d 32 be
       0.109796494 0.17257202 -0.11339113 -0.17424552
000030 04 79 e1 bd 74 e8 3a be 2f 35 d9 3c 9a 75 01 3e
       -0.1100941 -0.18252736 0.026514618 0.12642518
000040 a9 39 be bd 8d a1 7f be 45 a3 2f 3e ab 53 51 bd
       -0.092883416 -0.2496397 0.17152126 -0.051105183
000050 28 20 94 bc 1e ef 48 3c 76 5a 3c be 8f ac de 3d
       -0.01808174 0.012264041 -0.18393883 0.10872757
000060 11 b1 6a bc 11 d6 a1 bd 0e 36 65 3b ab ce 1b 3e
       -0.0143244425 -0.07902158 0.0034974846 0.15215556
000070 59 93 61 bd 60 51 94 3d 60 c3 17 bd 73 94 3a be
       -0.055072162 0.072420835 -0.03705156 -0.18220691
000080 2e 29 73 3d 27 3d 55 3d 34 5f 23 3d 28 94 2d 3d
       0.059365444 0.052060273 0.039885715 0.04237762
000090 f0 b0 93 bd 6d 5f 0a be 06 fe ee 3d c6 22 49 be
       -0.072114825 -0.13512965 0.11669545 -0.19642171
0000a0 c0 62 84 bd 7d 2f a7 bc c4 07 9c bd 31 31 7c be
       -0.064641476 -0.020408386 -0.07618669 -0.2462814
0000b0 eb 16 19 be 88 fb 93 3d a5 16 85 bc 03 8b 65 bd
       -0.14950149 0.0722571 -0.01624615 -0.056040775
0000c0 69 47 0a 3c 47 6e 00 3e 57 58 cb bc 94 1a 91 bd
       0.008439877 0.12542067 -0.024822397 -0.070851475
0000d0 24 43 8e 3c 44 60 34 bd 87 d2 51 3e 72 62 39 be
       0.017366 -0.04403712 0.20490466 -0.1810396
0000e0 6d 0c 38 3c ca 18 30 3e 86 35 a6 bd 1d ed 19 3d
       0.011233431 0.17196956 -0.081156775 0.037579644
0000f0 44 44 02 3e cb 54 21 bc c5 40 82 3d 34 46 7c 3d
       0.12721354 -0.009846876 0.0636001 0.06159039
000100 5e f8 07 be 7d 59 ae 3d c6 b4 f7 3c f2 ad f3 bc
       -0.13278338 0.08513162 0.030237567 -0.02974603
000110 e4 8a 5c be 6c 5c 96 3c c6 a8 73 be b0 ef a4 3d
       -0.21537358 0.018354617 -0.2379485 0.08053529
000120 47 1f 6b be cc 5b 6b 3c 1a 8d f2 3c 60 79 7c bd
       -0.2296115 0.014365148 0.029608298 -0.06163919
000130 39 32 29 be f3 7a b0 bd 0a ab 99 be 99 78 d8 bd
       -0.16523065 -0.08617201 -0.30013305 -0.10569877
000140 60 ea fa 3c 66 6e 0a bd d8 91 fe 3a 97 1d 05 3e
       0.030629337 -0.03379669 0.0019422127 0.12999569
000150 d0 5a d3 3d 1d 9f 68 bb 28 f9 8e bc 58 ee 18 be
       0.103200555 -0.003549523 -0.017452791 -0.14934671
000160 60 ab 8e bd 23 2e 1c be ed 45 cf 3b 1b ee 8d be
       -0.06966281 -0.15251975 0.0063254745 -0.27720723
000170 84 da 74 3d 19 f0 f9 3d f8 c4 04 be 41 76 cf bc
       0.059778705 0.12203998 -0.12965763 -0.025324943
000180 a3 95 b1 bd c4 c4 1c bc e0 65 37 3d ac ec 03 3e
       -0.08671119 -0.009568397 0.04477489 0.12883252
000190 3a 00 98 be 5b 0c 8c 3b 6b 4d 0b 3e ce d9 8a 3d
       -0.29687673 0.004273934 0.13603751 0.06779824
0001a0 5b 31 c7 bc bb 0a 77 3d 69 9e 8b bd 2a 39 e8 3d
       -0.024315527 0.060312968 -0.06817324 0.11339028
0001b0 37 5e 8c bd 1f 95 4c bd d5 89 af 3d 04 15 3e 3d
       -0.068539076 -0.0499469 0.08571211 0.04640676
0001c0 67 e0 14 be 69 cc cf bd 19 ac f1 3d 43 62 3c bc
       -0.14538728 -0.1014641 0.11800403 -0.011498037
0001d0 08 47 87 3d 3a 9f a7 bd 44 58 87 bc 3d a4 77 bc
       0.06605345 -0.08184667 -0.01652158 -0.015114841
0001e0 7c 85 22 be c7 2d d7 3c 1a 1a 08 be 5a 85 36 be
       -0.15871233 0.026266946 -0.13291207 -0.17824307
0001f0 4c db 41 be 83 c4 a4 bc 3a 39 03 3e 57 31 d2 3c
       -0.18931311 -0.020113235 0.12814799 0.025658293
000200 23 25 d3 3d 24 40 19 3c 76 bd 50 be 5e 7d 2f be
       0.10309818 0.009353671 -0.20384774 -0.17137668
000210 e5 9f 53 3c 50 7e ad 3d 23 a6 0b be 5c 64 81 bd
       0.01291654 0.08471358 -0.13637595 -0.0631797
000220 d3 85 34 be c3 46 72 3d a6 1e e8 3d 07 d3 b1 3d
       -0.17629175 0.059149515 0.11333971 0.086828284
000230 39 06 da bd fe f1 06 3c 0c 1c 24 bd 3e f1 2c bd
       -0.10645718 0.008236406 -0.04006581 -0.042222254
000240 b8 72 02 3d 79 9a 02 be 64 13 8e 3e ba c5 69 be
       0.031847686 -0.12754239 0.2774917 -0.22829333
000250 4b f2 65 3d 84 43 87 3d 49 17 e3 bd 7e 28 00 3e
       0.05613927 0.066046745 -0.11088426 0.12515447
000260 7e a1 58 be 79 fc d2 3c 8c 30 7b 3a 31 d9 b5 3b
       -0.21155354 0.025755154 0.0009582124 0.005549573
000270 fc 66 b1 3d ca 31 4d 3e f3 f0 c4 3d f1 bb 08 3d
       0.08662221 0.20038524 0.0961627 0.03338236
000280 94 cc 77 3e 7e f0 8a bd 91 fd 33 3d e2 fe 42 3c
       0.24199134 -0.067841515 0.04394299 0.011901589
000290 b9 80 dd bc 57 52 69 be 8d d4 46 be 9a 49 bf bd
       -0.027038919 -0.22785316 -0.19417019 -0.0934021
0002a0 94 07 83 3b 78 f8 73 be 62 7b c9 3c 18 8e 32 be
       0.003998706 -0.23825252 0.024594966 -0.17437017
0002b0 b8 b3 ce 3d 08 b9 f6 3c 6e f8 4e 3e c4 ef 3e 3e
       0.100928724 0.030117527 0.20211956 0.18646151
0002c0 5a ed d9 bd 05 e6 7a 3e bc aa 23 3e 40 61 d8 3c
       -0.10640974 0.24501808 0.15983099 0.02641356
0002d0 01 29 36 be 40 0b f9 3d e8 64 36 be e8 8c b9 bd
       -0.17789079 0.12160349 -0.1781193 -0.09060079
0002e0 28 73 2f 3e e8 85 1c 3d 5f 16 32 3e b3 e0 e2 bd
       0.17133772 0.03821364 0.17391346 -0.11078014
0002f0 b4 7e bc 3d 36 bb 1f 3e 25 7c 47 bd ba bd 1f 3e
       0.09203854 0.15598759 -0.048702378 0.15599719
000300 73 80 18 bd e0 dd b0 bc 44 fd f7 3c c3 c1 d8 bd
       -0.037231874 -0.021590173 0.030272134 -0.10583832
000310 fa f0 06 3e 35 50 de 3d bb 5d 0a 3e 99 64 27 3e
       0.13177863 0.10855142 0.13512318 0.16346969
000320 be 51 bb bd 64 26 b3 bd e5 45 48 3d 2c 75 24 be
       -0.091464505 -0.08747557 0.04889478 -0.16060323
000330 c2 cf 85 bc 74 6b 23 3e 8d 33 2c be 29 7b 04 bc
       -0.016334418 0.15958959 -0.1681654 -0.008086004
000340 92 32 ca 3c 2b 2a 14 bc 01 47 11 be 80 dc 35 3d
       0.024682317 -0.009043257 -0.14187242 0.04439974
000350 13 33 83 3e bc 76 04 3c 1e 46 32 3d 5b 6b 0d be
       0.25624904 0.008084949 0.0435239 -0.13810484
000360 51 4b 24 be 54 68 bf 3d b8 9a 92 bd 54 b1 9a 3d
       -0.16044356 0.09346071 -0.071584165 0.07553354
000370 10 44 97 3d 91 4c cc bc f7 42 99 3d 0c bf 86 bd
       0.07386029 -0.024938853 0.07483476 -0.06579408
000380 b2 a3 e6 bd e7 e8 60 3d fa dc 3e bb 85 70 c3 bd
       -0.11261691 0.054909613 -0.0029123412 -0.09542946
000390 71 08 09 be 21 69 63 be dd c4 40 3e 06 13 e2 3c
       -0.13382126 -0.22208072 0.18825097 0.027596962
0003a0 7f 63 39 be f4 14 ec 3d 46 97 d7 bc fe 77 61 bd
       -0.18104361 0.11527434 -0.02631725 -0.055046074
0003b0 06 56 42 be 35 38 87 bd 78 00 a2 3c eb 8d 4b 3d
       -0.18978128 -0.066025175 0.019775614 0.04969589
0003c0 d0 97 69 3d 42 28 05 bd d8 68 c5 3d 91 bf 71 3e
       0.057029545 -0.032509096 0.09639138 0.23608233
0003d0 6b 15 4b 3e 2b fd 1e 3c d2 af a1 bd 3b c6 f5 bc
       0.19832389 0.009703915 -0.07894863 -0.03000175
0003e0 4d a7 c5 bd df a4 d3 bd e4 fc a5 bc b0 09 13 be
       -0.09651051 -0.10334181 -0.02026219 -0.14359164
0003f0 b9 5e 99 3c ee 16 a3 3d 6b 27 11 3e 7e b9 e2 bc
       0.018721925 0.07963358 0.14175193 -0.02767634

mean_linear.weight f4 [2, 256]
000000 3d 68 8b 3e bd 0c 41 3d e1 4a 6c 3e 03 b4 4e 3e
       0.27227965 0.04713129 0.23075439 0.20185857
000010 60 09 63 3d 94 1f 4c 3e df 47 82 be 7b 2d 5b bf
       0.055428863 0.19933921 -0.25445458 -0.8561627
000020 a8 3a 2c be c4 63 81 3e c2 e7 00 be 4c 39 87 be
       -0.1681925 0.25271428 -0.12588409 -0.26410902
000030 b1 6a 9d 3e 5c 30 7b bd ed 6e 0a bf 21 74 ed bd
       0.30745462 -0.061325416 -0.5407551 -0.115944155
000040 a9 8f 49 be 99 5e 67 3e e2 86 77 3e c1 8c f0 be
       -0.19683708 0.2259468 0.24172547 -0.46982387
000050 f3 ee 6e 3e fe 45 a0 3e 16 af 79 3e b9 3e ad 3e
       0.2333334 0.313034 0.24383196 0.33836916
000060 5a b4 25 3e 3f 99 47 bd 19 8d 8a bc eb fb 83 be
       0.1618208 -0.04873013 -0.016912984 -0.25778136
000070 c3 e7 3a 3e 76 35 06 bf 2e 81 fb bd 2b 43 76 3e
       0.18252473 -0.52425325 -0.122804984 0.2404906
000080 a5 fc 25 3b 51 6e 5c 3e 0d 81 7d 3e 01 18 83 3d
       0.002532759 0.21526457 0.2475626 0.06401063
000090 a7 d0 56 3e 4d bf 0a bd 54 62 5a be 4f 90 4a 3e
       0.20978032 -0.033873845 -0.21326572 0.19781612
0000a0 86 9b 6c be 0e 51 93 3d 3a 8f 8e 3d d0 75 87 3e
       -0.23106202 0.07193194 0.06960912 0.2645707
0000b0 68 ad b0 3e d9 24 1b be c0 5f 64 3e 94 8f 2d be
       0.34507298 -0.15150775 0.2230215 -0.16949302
0000c0 af 84 67 3e 1b 55 c6 be 50 3c 5e be 6a 33 6f 3e
       0.22609209 -0.38736805 -0.21702695 0.23359457
0000d0 95 c6 82 3d 64 f0 6f be 77 82 e2 be f7 f1 8e be
       0.06385533 -0.23431545 -0.44240162 -0.2791898
0000e0 68 9f 1f be e7 31 8f be 23 44 79 3e 67 10 50 be
       -0.15588152 -0.2796776 0.24342398 -0.20318757
0000f0 45 ae 3c be 6f 1b ce 3b 8d f3 1b 3e b7 8a 1b 3e
       -0.18425854 0.0062898914 0.15229626 0.15189634
000100 43 30 9e be 5d c1 95 3e 7d 19 65 be 7d 6a 4c bd
       -0.30896196 0.29249087 -0.22373004 -0.049906243
000110 dc 00 65 be a1 37 9e bd b4 03 0d 3e 3c bb f4 3d
       -0.22363609 -0.07725454 0.13770944 0.119497746
000120 b5 ad 49 bd 06 b5 1b 3e ee f0 65 be c8 61 9e 3e
       -0.049237926 0.15205774 -0.22455189 0.30933976
000130 b5 b7 5d bd e9 ca 74 be 99 31 1c 3e 0b d7 62 3e
       -0.054130275 -0.23905529 0.15253295 0.22152345
000140 c1 c6 85 3e b5 b3 8c be 22 92 88 bc 42 e5 32 be
       0.261282 -0.27480856 -0.016671244 -0.17470267
000150 20 4f 0a bc 41 cb d3 3c 57 3c 54 bd 98 9e b5 3e
       -0.008441716 0.025853755 -0.051815357 0.3547256
000160 60 19 95 bd 48 29 02 bf a6 2e 5e 3e 0a eb 67 bf
       -0.072802305 -0.5084424 0.21697482 -0.90593016
000170 61 02 8d 3e d4 8c 36 bd e0 db e5 be d9 ed 0f 3e
       0.27540877 -0.044567898 -0.44894314 0.14055575
000180 af 9b 90 be a7 e4 6f be 83 7e 38 be 5d 84 41 be
       -0.28243777 -0.23427068 -0.1801701 -0.18898149
000190 2a 86 8c be 5f 02 a2 3d 27 86 7a be 57 b1 93 be
       -0.2744611 0.079106085 -0.24465238 -0.28846237
0001a0 c3 30 a5 3d 2b 84 e4 3d ae 8e 02 be 06 61 41 3e
       0.08065941 0.111580215 -0.1274974 0.18884668
0001b0 45 69 3f be 3a 2f 3e 3e 58 ab d5 bd 45 93 af be
       -0.18692501 0.18572703 -0.10433072 -0.34292045
0001c0 b8 ee 45 3e a3 12 ac 3e 81 dc 7f 3e eb a5 6e 3e
       0.19329345 0.3360797 0.2498646 0.2330548
0001d0 07 48 27 3e cd e8 4e be 33 76 03 be 56 bd 42 bd
       0.1633607 -0.20205994 -0.12838058 -0.047543846
0001e0 a2 ec 84 be 08 1d 83 3e 97 2c b6 be 70 a5 1d bd
       -0.25961787 0.25608087 -0.35580894 -0.03848785
0001f0 c2 b1 0b 3d 22 c9 fa bd bb 34 16 be 2e 5d 9e 3c
       0.03410507 -0.12245394 -0.14668553 0.01933154
000200 57 ac 65 3e fc 86 88 3c 3f 16 36 bb 3c 91 0c be
       0.22429024 0.016665928 -0.0027784256 -0.13727278
000210 04 59 bf 3e f6 e3 20 be 6c 04 52 3e 44 3a 68 be
       0.373726 -0.1571196 0.205095 -0.22678477
000220 3d 43 21 be 06 e1 a6 3e ea 7e 72 3e 0a e7 22 be
       -0.15748306 0.32593554 0.23681226 -0.15908447
000230 7a f1 bf be 23 21 a1 be e0 22 01 3e b0 42 9a 3e
       -0.3748892 -0.31470594 0.1261096 0.30129004
000240 79 45 63 3e 6f b4 88 3e 62 3a 39 3c f5 21 71 be
       0.2219447 0.2670016 0.011305423 -0.2354811
000250 8c f9 6f 3e eb 21 51 be ed d0 83 3e 80 30 d8 3e
       0.23435038 -0.20423095 0.25745335 0.42224503
000260 45 b2 92 3e c9 79 6e 3e c7 f0 6c be 0a 50 88 3d
       0.28651634 0.23288645 -0.23138724 0.06655891
000270 04 00 3a bc 4d 65 c9 3d 9c 3d 8d 3e 4e 16 27 be
       -0.011352543 0.09833775 0.27586067 -0.16317102
000280 c7 c5 c2 3d 0c dd 51 be 6f ae 2b 3d 7d 19 6e bd
       0.09510379 -0.20494479 0.0419144 -0.058129776
000290 b7 b8 cd 3e 15 1a 70 be 9a 37 a0 be 93 a0 b6 3e
       0.4017999 -0.2344745 -0.3129242 0.35669383
0002a0 ba 9f ef 3d c2 b0 43 bf 8b 6f b8 bd 09 9d 2b bd
       0.11700387 -0.76441586 -0.0900565 -0.041897807
0002b0 cf 34 a7 be 62 fe 6a bd d8 5b 6d be 3e 15 60 3c
       -0.32657477 -0.057371505 -0.23179567 0.0136769395
0002c0 7a ac 2a 3d 33 79 95 bd 14 a5 06 3f 94 60 93 3e
       0.041668393 -0.072985075 0.5259564 0.2878462
0002d0 48 fe bf be cf 0b 9f 3d c5 30 71 3d ee 71 14 3e
       -0.3749869 0.07765924 0.0588844 0.14496586
0002e0 54 5e 8f bb c2 91 8b be 7a 25 b2 be e5 b7 56 be
       -0.0043752585 -0.27259642 -0.34794217 -0.20968588
0002f0 43 ac f7 3d 08 95 3f bd 8d f9 32 3e 41 b9 97 3e
       0.12093403 -0.046772987 0.17478009 0.29633525
000300 17 16 8f 3e ce d5 50 3d 18 c6 21 3e 7b be fe bc
       0.2794654 0.05098515 0.15798223 -0.031096688
000310 9d 7e 9b 3e 63 99 97 be 24 4d ba 3c 76 0a 82 be
       0.30370036 -0.29609212 0.022741862 -0.25398606
000320 9d 18 7a be 86 8b 98 3e 77 40 0e 3e 7b 36 1f 3e
       -0.24423452 0.29793948 0.13891779 0.15548126
000330 00 cf 13 3e 19 0d ca bd 60 3e 98 be ab 18 85 3e
       0.14434433 -0.098657794 -0.29735088 0.25995383
000340 ea a7 54 be 6e 53 17 3e 58 74 7c be bb 31 22 3e
       -0.20767179 0.1477792 -0.24653757 0.15839283
000350 bf 0e 1c 3e 1e 5e 0d 3e ad c5 68 3e cc ec 0b 3e
       0.1524 0.13805434 0.22731657 0.1366455
000360 7b 01 43 be 5f ad 5d 3d bd f2 49 3e f4 5a 5a be
       -0.19043534 0.054120418 0.19721504 -0.21323758
000370 d5 41 22 3e fd a1 76 be 2f ce f3 bd 81 68 3f 3e
       0.15845425 -0.24085231 -0.11904561 0.18692209
000380 37 5c 3d 3e 06 56 c1 bd 95 f5 3f 3e a2 ee 86 3e
       0.18492208 -0.09440236 0.18746026 0.26353937
000390 74 4e a6 be 9e 03 fd be bf dc 1b 3e 78 af 6a 3e
       -0.3248173 -0.49416822 0.15220927 0.22918499
0003a0 ed a0 63 be 2a 73 8d 3e dd 1c 49 3e a3 59 64 3e
       -0.22229357 0.27626926 0.19639917 0.22299819
0003b0 4f b7 e8 3d 86 f1 84 3e 0b 08 44 be f4 62 99 be
       0.11363088 0.25965518 -0.19143693 -0.29958308
0003c0 62 f6 6d 3e bc 1c 07 bd 5d 3f 2e be ef 43 ba 3d
       0.23238519 -0.032986388 -0.17016359 0.090949886
0003d0 32 04 02 be 78 66 21 3d 42 b4 87 3e 93 32 1a be
       -0.12696913 0.039404362 0.26504713 -0.15058355
0003e0 8a 05 75 be a4 df 2e be 11 a4 fb bd 1b 38 9b 3e
       -0.23927894 -0.170775 -0.122871526 0.30316243
0003f0 8a 4c 28 ba 07 d1 27 3d 43 8e 9a be e7 ae a0 bc
       -0.00064200966 0.04097083 -0.30186662 -0.01961465

mean_linear.bias f4 [2]
000000 a8 1f 92 bd 6e 23 88 bd
       -0.07134944 -0.06647383
