output/CarlaNavigation-v0/gin/1/cost_target.pt (torch, 536535 bytes, 5 tensors)

net.0.weight f4 [256, 263]
-0.079118535 0.18119976 0.35983658 0.08764052 0.3077063 0.04233014 -0.08998597 0.1773374
-0.05725367 -0.14094576 0.1645641 -0.0493255 -0.050142083 0.15587671 0.11546846 0.28164715
-0.087516844 -0.00714069 -0.07281981 0.044179376 0.15603466 -0.18853416 -0.10423745 0.077160515
0.17362104 -0.12420055 0.1993047 0.005724612 -0.100275226 -0.15187128 0.083217844 -0.00055730983
0.12142595 0.09799981 0.0889548 -0.14271899 0.09292298 0.057773717 0.08893841 -0.17085539
0.02412519 0.15277131 -0.14306173 0.1310752 0.091376245 -0.0841909 0.06873688 -0.06953112
-0.27867284 0.029193822 0.1783775 -0.18646884 -0.11387106 -0.16505586 0.14373526 -0.037119202
-0.04768339 0.029874062 0.03753196 -0.038267337 0.020101871 0.062525705 -0.08201384 0.04621115
0.01899583 -0.014741454 -0.15980767 -0.10474111 0.15555187 0.102719024 -0.021514505 -0.08993679
0.021841211 -0.076540634 -0.1594858 -0.090602875 -0.09387518 0.027350549 -0.03311302 -0.13413592
-0.15900002 0.08832299 -0.24618381 0.023121594 0.11900153 -0.2008753 0.081817135 -0.05602507
-0.0058096424 -0.20550361 -0.08965665 -0.122306615 -0.10853793 -0.065725364 -0.030574791 0.13326567
0.08936756 0.02821258 0.20028818 -0.1598792 -0.1329021 0.042261593 -0.12964173 -0.0009764985
0.08343242 -0.035904758 0.019797888 -0.023205787 -0.06861172 -0.0968867 -0.014283429 -0.10558899
0.07577918 -0.016019696 -0.14462635 0.033048943 -0.1922058 -0.060388133 0.10968383 -0.17191339
-0.00870685 0.048258573 -0.0039884397 -0.015050467 0.09363674 -0.025663737 0.042862114 -0.12519448
-0.07007501 0.15621348 -0.009935824 -0.13554855 -0.13356371 0.1781957 -0.11619266 -0.10817583
-0.15045568 -0.18729436 -0.04960266 0.12975198 0.04023578 0.16273424 0.023743719 -0.171517
-0.09632344 -0.07620834 0.04836288 0.1330362 -0.18458235 -0.094484635 -0.04680124 -0.06309829
0.15299185 -0.046062887 -0.07996791 -0.011357769 0.053342108 -0.115732215 0.07100633 -0.07814252
-0.16997026 0.015931405 -0.18893945 -0.0022447924 0.023215843 -0.076665804 0.056929566 -0.0018031703
0.0009511781 0.015864722 -0.15668736 -0.0019330666 0.19818711 0.034165785 -0.13728005 -0.08991891
-0.023387954 -0.12872382 0.015559155 -0.06899766 -0.049291972 0.14408095 0.13999206 -0.20231177
0.13404948 -0.07458411 -0.17443168 -0.16395615 -0.12219933 0.07428906 -0.1655476 -0.106465176
-0.060603455 -0.14177129 -0.15845464 0.1619266 0.015383321 -0.09352946 -0.04725722 0.1694636
0.17958747 0.02733937 -0.27514425 0.0023015563 0.0030852184 -0.12954636 0.2093779 -0.14553234
0.064440876 0.103492394 0.148295 -0.0146239195 0.122138225 0.009829281 -0.14646217 0.03635477
-0.08088582 -0.17725992 -0.16980337 -0.019663407 -0.06633482 0.085807666 0.08172177 -0.01777729
-0.13975067 -0.053602137 -0.097320326 -0.060565457 -0.009581362 0.11626269 -0.08767629 0.031240126
-0.16223656 0.09234928 0.007005741 0.083880946 0.18243657 -0.24762625 -0.21357706 0.020340662
-0.21685532 0.12702805 0.03967028 -0.15103683 0.17479227 -0.094097205 -0.07118069 -0.09582872
0.045538362 -0.09236717 -0.09067738 0.09461278 -0.18149185 -0.31347606 -0.22937231 0.023769423
00000000: e608 a2bd 6e8c 393e 803c b83e df7c b33d
00000010: ae8b 9d3e 5e62 2d3d 904a b8bd ef97 353e
00000020: d382 6abd 1654 10be 7e83 283e 8909 4abd
00000030: c961 4dbd 259e 1f3e ba7a ec3d 0e34 903e
00000040: 083c b3bd 73fc e9bb 8d22 95bd 6ff5 343d
00000050: 8dc7 1f3e 190f 41be 727a d5bd 5506 9e3d
00000060: b7c9 313e dc5c febd 8816 4c3e 8795 bb3b
00000070: 195d cdbd 2584 1bbe 1e6e aa3d 6e18 12ba
00000080: 2bae f83d 20b4 c83d ef2d b63d ed24 12be
00000090: 674e be3d 22a4 6c3d 5725 b63d b7f4 2ebe
000000a0: 31a2 c53c 1570 1c3e c67e 12be 9438 063e
000000b0: 7823 bb3d 476c acbd ecc5 8c3d 5566 8ebd
000000c0: 35ae 8ebe e227 ef3c 97a8 363e b0f1 3ebe
000000d0: 3b35 e9bd 6704 29be 562f 133e 4e0a 18bd
000000e0: a94f 43bd 73ba f43c 1dbb 193d 36be 1cbd
000000f0: aeac a43c 7a0d 803d dff6 a7bd e747 3d3d
00000100: 259d 9b3c 2486 71bc 9fa4 23be 8282 d6bd
00000110: fd48 1f3e 5a5e d23d 303f b0bc c830 b8bd
00000120: 57ec b23c 56c1 9cbd 3f50 23be 008e b9bd
00000130: a141 c0bd 420e e03c 85a1 07bd ed5a 09be
00000140: e7d0 22be afe2 b43d 9c17 7cbe 7f69 bd3c
00000150: 13b7 f33d 41b2 4dbe be8f a73d 8b7a 65bd
00000160: d05e bebb 8a6f 52be e89d b7bd e47b fabd
00000170: 2249 debd 059b 86bd fc77 fabc cc76 083e
00000180: 5706 b73d 121e e73c 5818 4d3e 5fb7 23be
00000190: 7d17 08be 7e1a 2d3d cdc0 04be b4fb 7fba
000001a0: 9ede aa3d de10 13bd 2e2f a23c 101a bebc
000001b0: 4d84 8cbd 896c c6bd 0b05 6abc 0a3f d8bd
000001c0: 1d32 9b3d bd3b 83bc ee18 14be 545e 073d
000001d0: 99d1 44be 8c59 77bd eaa1 e03d 100a 30be
000001e0: 2da7 0ebc c8aa 453d 75b1 82bb 3c96 76bc
000001f0: 9fc4 bf3d c23c d2bc 2f90 2f3d fb32 00be
00000200: 7d83 8fbd 6df6 1f3e dec9 22bc 3dcd 0abe
00000210: edc4 08be ef78 363e 6bf6 edbd 4a8b ddbd
00000220: 0e11 1abe 18ca 3fbe 292c 4bbd b4dd 043e
00000230: 46ce 243d cea3 263e 3082 c23c 27a2 2fbe
00000240: 3945 c5bd 1e13 9cbd 2818 463d a43a 083e
00000250: 2803 3dbe 2981 c1bd a8b2 3fbd ad39 81bd
00000260: e5a9 1c3e 70ac 3cbd 37c6 a3bd f015 3abc
00000270: 417d 5a3d 0305 edbd c46b 913d 2f09 a0bd
00000280: af0c 2ebe 9482 823c 5879 41be 5e1d 13bb
00000290: 272f be3c f602 9dbd fa2e 693d 5b58 ecba
000002a0: 7b58 793a bcf6 813c a772 20be f45e fdba
000002b0: 90f1 4a3e 6cf1 0b3d 2493 0cbe 6827 b8bd
000002c0: 1898 bfbc 2dd0 03be d3eb 7e3c a54e 8dbd
000002d0: 61e6 49bd f589 133e 145a 0f3e d12a 4fbe
000002e0: 4444 093e 8ebf 98bd 389e 32be 1fe4 27be
000002f0: a443 fabd dd24 983d 4f85 29be 6a0a dabd
00000300: 543b 78bd 7e2c 11be ef41 22be 16d0 253e
00000310: 530a 7c3c 608c bfbd c990 41bd de87 2d3e
00000320: c7e5 373e d1f6 df3c b5df 8cbe b5d5 163b
00000330: 6031 4a3b cda7 04be 2967 563e 6e06 15be
00000340: 94f9 833d d2f3 d33d a5da 173e 2a99 6fbc
00000350: 9b23 fa3d fe0a 213c 2efa 15be bde8 143d
00000360: 77a7 a5bd a083 35be efe0 2dbe 2715 a1bc
00000370: 8dda 87bd eebb af3d be5d a73d aea1 91bc
00000380: cd1a 0fbe ea8d 5bbd e14f c7bd 7c13 78bd
00000390: 25fb 1cbc 221b ee3d a08f b3bd 4beb ff3c
000003a0: 5721 26be 9f21 bd3d 6a90 e53b c6c9 ab3d
000003b0: a7d0 3a3e bc91 7dbe f2b3 5abe 76a1 a63c
000003c0: 520f 5ebe a413 023e 4e7d 223d 66a9 1abe
000003d0: bffc 323e 09b6 c0bd 2ec7 91bd d941 c4bd
000003e0: 6f86 3a3d 002b bdbd 10b5 b9bd 58c4 c13d
000003f0: 00d9 39be ef7f a0be 93e0 6abe 18b8 c23c

net.0.bias f4 [256]
0.028848115 0.032655556 -0.11788841 -0.14648601 -0.119216114 0.07267676 0.05807994 -0.0726246
0.10500039 -0.06776682 0.031100428 -0.04089143 0.042672124 -0.080695085 0.07815741 -0.029233685
0.044186827 0.022444708 0.05678801 -0.040644817 -0.008788061 -0.053285487 -0.074323334 -0.09104693
-0.15265808 -0.019093808 -0.016317345 -0.037550587 0.07952981 -0.045501858 0.032255456 0.04316163
-0.019670857 0.037838925 -0.026466537 -0.054793485 -0.064716555 -0.002047864 -0.018284673 -0.012016028
-0.114581846 -0.08374535 -0.09878809 -0.060002938 -0.12813967 -0.023543298 -0.12176123 0.006824692
-0.14707312 0.07721566 -0.028896172 -0.016442144 -0.038095973 -0.0331011 -0.013594993 -0.05668817
-0.050792523 -0.042644557 0.08103185 0.16457306 -0.030436208 -0.10263558 0.13075633 0.04075658
-0.011949532 -0.13894601 -0.0186654 0.038880516 -0.046179116 -0.08834088 0.025898801 -0.02526662
-0.026259039 -0.08127325 -0.07456623 0.032957304 -0.12627108 -0.10960933 -0.038815696 0.011371552
0.08757496 0.033899803 0.026532846 -0.12550889 -0.12043503 -0.09336853 -0.10511811 -0.031649727
-0.088033915 -0.007610915 -0.051148657 -0.07282875 -0.032756884 -0.10498698 -0.03786426 0.06405941
-0.047957573 0.04795161 0.03765862 0.038968436 0.13010068 -0.030110247 0.029492965 -0.10441775
0.08390926 -0.055161547 0.060674235 0.0034901581 -0.046519607 0.1233035 -0.003419983 -0.13610585
0.10429556 0.058728885 -0.023913594 0.08096629 -0.017211044 0.0069231326 -0.079671375 -0.124962
0.011419981 -0.006929745 0.02508557 0.043189198 -0.08761817 -0.118953854 0.076948926 -0.08608931
0.096666165 0.026470635 -0.06118758 -0.017756056 0.017663294 -0.020924788 -0.0014969745 0.007350145
0.023062361 -0.04964811 0.1160213 -0.09965981 -0.14507934 0.04890454 -0.087025106 -0.013362164
0.05301503 0.03411661 -0.049781475 -0.133218 -0.10396625 -0.045197874 -0.016116554 -0.04752246
-0.06234242 -0.0077449325 -0.05766047 -0.06565086 -0.07664941 0.048459742 -0.01998378 -0.01886135
-0.08884901 -0.04915488 0.007512567 -0.032391805 -0.012681365 -0.018327888 -0.15538797 -0.0976407
-0.06910196 -0.030910438 -0.07405065 0.018094312 0.022241307 -0.028716242 -0.12119945 -0.08478992
0.020256845 0.10557856 -0.07412366 -0.023810402 -0.070773885 -0.08164578 -0.07494621 -0.13506873
0.007876855 -0.017729979 -0.015135403 -0.03713336 -0.13205273 0.011660821 -0.096937366 -0.02659655
-0.017017702 -0.094878025 0.039326068 -0.07234149 0.06984553 -0.026017267 0.103246525 -0.020238591
-0.01874214 -0.015591006 -0.034015287 0.014009619 -0.013318391 0.043370992 -0.0223106 -0.049115393
-0.021162463 -0.019671602 0.05001691 -0.027794976 -0.100533016 -0.06589971 -0.014279517 -0.10904159
-0.038496815 0.03405403 -0.051848266 -0.1408951 -0.06747029 -0.05362374 -0.11218276 -0.13703866
-0.059861377 0.060411975 -0.056419205 0.10407652 0.08143418 -0.03719594 0.07484339 -0.01976883
-0.015133541 -0.105662 -0.025760222 -0.08481824 -0.056960117 0.05150927 0.02687073 -0.017297098
0.0028834005 0.06979487 -0.0069419458 -0.004272493 -0.009380942 -0.027877677 -0.025718125 -0.02264364
0.08667791 -0.045962304 -0.017781014 0.07006011 0.05836008 -0.004133074 -0.022482706 0.08157127
00000000: e252 ec3c d5c1 053d 7b6f f1bd 6e00 16be
00000010: 9427 f4bd 8ed7 943d 3be5 6d3d 35bc 94bd
00000020: 720a d73d 55c9 8abd 53c6 fe3c c67d 27bd
00000030: f7c8 2e3d 7743 a5bd fe10 a03d 7b7b efbc
00000040: 3ffd 343d f7dd b73c 8b9a 683d 2e7b 26bd
00000050: cdfb 0fbc e241 5abd d536 98bd d076 babd
00000060: 6652 1cbe 9e6a 9cbc f4ab 85bc a5ce 19bd
00000070: 86e0 a23d 2860 3abd 4c1e 043d 40ca 303d
00000080: c724 a1bc fdfc 1a3d 5ad0 d8bc 226f 60bd
00000090: 1d8a 84bd 7535 06bb bdc9 95bc e0de 44bc
000000a0: e3a9 eabd af82 abbd 6951 cabd a4c5 75bd
000000b0: 0c37 03be e0dd c0bc f45d f9bd aaa1 df3b
000000c0: 569a 16be 3e23 9e3d aab7 ecbc adb1 86bc
000000d0: 860a 1cbd 0595 07bd 89bd 5ebc db31 68bd
000000e0: d20b 50bd 0fac 2ebd 07f4 a53d d785 283e
000000f0: 5b55 f9bc 9a32 d2bd fde4 053e 5ff0 263d
00000100: f8c7 43bc dd47 0ebe 2ee8 98bc 2d41 1f3d
00000110: 5026 3dbd 10ec b4bd b929 d43c f1fb cebc
00000120: 321d d7bc 9772 a6bd 2eb6 98bd 3dfe 063d
00000130: 354d 01be db7a e0bd 35fd 1ebd bf4f 3a3c
00000140: 805a b33d 85da 0a3d 695b d93c 6785 00be
00000150: a4a6 f6bd 0038 bfbd 2a48 d7bd 25a3 01bd
00000160: 204b b4bd fc64 f9bb 4181 51bd 3d27 95bd
00000170: 152c 06bd 6a03 d7bd 8e17 1bbd 9431 833d
00000180: 296f 44bd e868 443d ed3f 1a3d 5e9d 1f3d
00000190: 1d39 053e c4a9 f6bc 3b9b f13c f9d8 d5bd
000001a0: 9ed8 ab3d 13f1 61bd 8c85 783d 23bb 643b
000001b0: 588b 3ebd 8c86 fc3d cb21 60bb 555f 0bbe
000001c0: e998 d53d b38d 703d 71e6 c3bc a7d1 a53d
000001d0: 2dfe 8cbc 72db e23b bf2a a3bd 14ec ffbd
000001e0: df1a 3b3c ea12 e3bb 4180 cd3c 28e7 303d
000001f0: 2871 b3bd 149e f3bd 6697 9d3d 984f b0bd
00000200: e9f8 c53d f2d8 d83c d49f 7abd 2675 91bc
00000210: 9db2 903c 766a abbc 2136 c4ba 7cd9 f03b
00000220: 47ed bc3c d15b 4bbd 939c ed3d 711a ccbd
00000230: ae8f 14be 2050 483d 383a b2bd faec 5abc
00000240: 4a26 593d dcbd 0b3d a9e7 4bbd 4d6a 08be
00000250: 42ec d4bd 6821 39bd dd06 84bc e9a6 42bd
00000260: c45a 7fbd 34c9 fdbb 632d 6cbd f573 86bd
00000270: 5efa 9cbd b97d 463d 06b5 a3bc 1e83 9abc
00000280: 78f6 b5bd a156 49bd fb2b f63b 45ad 04bd
00000290: 80c5 4fbc 5e24 96bc 061e 1fbe d9f7 c7bd
000002a0: 5485 8dbd e337 fdbc dea7 97bd 863a 943c
000002b0: 6733 b63c 533e ebbc 6b37 f8bd 56a6 adbd
000002c0: aff1 a53c 9239 d83d 25ce 97bd 080e c3bc
000002d0: e6f1 90bd e735 a7bd 667d 99bd 754f 0abe
000002e0: ed0d 013c 763e 91bc 7bfa 77bc 2619 18bd
000002f0: d538 07be 070d 3f3c 1987 c6bd 02e1 d9bc
00000300: b568 8bbc 694f c2bd 5f14 213d c627 94bd
00000310: 2c0b 8f3d 2a22 d5bc ea72 d33d 67cb a5bc
00000320: 1e89 99bc 6b71 7fbc 9d53 0bbd 9a88 653c
00000330: 6135 5abc c8a5 313d b8c4 b6bc 392d 49bd
00000340: e75c adbc 5726 a1bc 88de 4c3d 4ab2 e3bc
00000350: 41e4 cdbd 6df6 86bd a3f4 69bc 3251 dfbd
00000360: d6ae 1dbd 3d7c 0b3d d95e 54bd ce46 10be
00000370: dd2d 8abd 91a4 5bbd 13c0 e5bd dd53 0cbe
00000380: 3431 75bd 8c72 773d d317 67bd 1226 d53d
00000390: f7c6 a63d c55a 18bd 7e47 993d 3ef2 a1bc
000003a0: acf2 77bc 5265 d8bd 1a07 d3bc 2fb5 adbd
000003b0: 034f 69bd 62fb 523d 0120 dc3c a5b2 8dbc
000003c0: 6ff7 3c3b 9df0 8e3d 4379 e3bb 4500 8cbb
000003d0: 86b2 19bc ba5f e4bc d1ae d2bc 287f b9bc
000003e0: 3084 b13d f842 3cbd 7da9 91bc ad7b 8f3d
000003f0: fb0a 6f3d bd6e 87bb a72d b8bc d70e a73d

net.2.weight f4 [256, 256]
0.018840114 0.093535416 -0.27706352 -0.06941936 0.007723046 -0.050860323 -0.02295433 0.07448576
0.1704441 0.024284631 -0.044134676 -0.15097424 0.07296137 0.011747621 -0.09608651 0.08592092
0.12949568 0.065345384 0.044772442 0.051949594 -0.038621236 -0.048356924 -0.28307766 0.11463101
-0.0701972 -0.024763333 -0.069244176 -0.02377315 -0.04774076 -0.024155738 -0.02222976 0.020961668
-0.06720505 0.11279817 -0.17212796 0.06669393 -0.06771914 -0.09764815 -0.14130935 -0.096415825
-0.123987466 0.12837213 -0.05664123 -0.1349078 -0.16608404 0.13856453 -0.1844244 0.054359857
0.01348398 -0.103122845 -0.13580187 -0.055207737 0.1074263 0.13235074 -0.011442333 0.053810745
-0.0828334 -0.19469728 -0.096017964 0.07312826 -0.048572246 -0.04572761 0.03828298 0.038316507
-0.11462335 -0.1325862 -0.09702529 -0.043569177 -0.36763287 -0.16753839 -0.055843275 0.13761683
-0.04888368 0.053499315 -0.031039335 0.024131149 -0.12048569 0.09374701 0.09545171 0.09244763
0.34480426 0.022099374 -0.14528498 0.035980005 0.06188197 -0.029210588 -0.14090404 0.06453475
-0.1787262 -0.0055998154 -0.014076303 0.07764629 -0.13781054 0.094083786 -0.090745926 0.09903991
0.13063115 0.0036916498 -0.007858787 0.061405133 0.08573167 -0.0406627 -0.18262136 -0.008422238
0.016190313 -0.12550591 -0.15122756 0.03264959 -0.08626962 -0.11410203 0.019295344 -0.042982817
0.12660187 -0.12298163 0.09014242 0.084237084 -0.1330839 -0.0698962 0.008668665 -0.16421245
-0.034133006 0.08726948 -0.106699124 0.0033125079 -0.057970416 0.12088206 -0.011621147 -0.10111863
-0.047637943 -0.09071016 -0.065093555 -0.04205149 -0.081577234 0.0681006 0.11527624 -0.060690627
0.17186865 -0.043952882 -0.17199385 -0.1821326 -0.045429587 -0.037910454 -0.0061819856 0.11809703
0.035758723 0.04495498 0.090833835 0.013148517 -0.114569925 -0.024492132 -0.050387207 -0.17942357
-0.11334653 -0.104286626 0.01699423 0.07168732 0.11967357 -0.13150735 -0.1751976 -0.09863758
0.08071147 -0.07237128 0.14923973 -0.051153876 -0.19322802 -0.2151536 -0.0906595 0.059219133
0.0010100785 0.024824426 -0.035082955 -0.11190113 0.007662324 0.08377068 -0.208159 -0.027776724
0.20388533 -0.042839017 -0.05221633 0.1399861 -0.16131864 -0.050510142 -0.10675277 -0.14903113
-0.140153 -0.03298821 0.044286665 -0.037257038 -0.06193562 -0.11082675 -0.18107462 -0.1276718
-0.10725494 0.0063336976 -0.079529814 0.08568846 -0.12862547 -0.05000648 -0.10225709 -0.12883407
-0.1465039 -0.09299302 -0.055022966 -0.13024373 -0.02521152 -0.05800841 0.011690437 0.07790557
0.0016742285 0.000896556 -0.08477502 0.12501118 -0.12729926 -0.19852985 -0.061213657 -0.03322329
-0.12703413 -0.14148518 -0.1537846 -0.051238067 -0.037215315 0.0018227512 -0.15344486 -0.055963974
-0.12316343 0.097821 -0.11789736 -0.11272963 -0.03850799 -0.13781054 0.0871607 -0.0015856364
-0.0468668 -0.14284417 0.029910034 0.018743629 -0.08407169 -0.19456913 -0.098598845 -0.15157923
-0.10891791 0.014141122 0.05957229 0.1418875 0.039533935 -0.003617563 -0.13890727 -0.09528036
-0.096801765 0.03571402 0.05138633 0.03842156 -0.13080998 0.09255641 0.10251487 0.025538193
00000000: 9556 9a3c 7f8f bf3d 45db 8dbe bd2b 8ebd
00000010: 9b11 fd3b ea52 50bd b80a bcbc fd8b 983d
00000020: e688 2e3e 90f0 c63c 90c6 34bd fe98 1abe
00000030: c56c 953d 1879 403c 01c9 c4bd 4ff7 af3d
00000040: 849a 043e cdd3 853d 4f63 373d 19c9 543d
00000050: 4d31 1ebd e911 46bd 8eef 90be aac3 ea3d
00000060: 8dc3 8fbd 79dc cabc e4cf 8dbd e9bf c2bc
00000070: d18b 43bd 41e2 c5bc 301b b6bc ceb7 ab3c
00000080: cda2 89bd ba02 e73d 5042 30be d496 883d
00000090: 55b0 8abd c1fb c7bd 66b3 10be a975 c5bd
000000a0: 24ed fdbd fc73 033e a200 68bd 4525 0abe
000000b0: ef11 2abe dce3 0d3e c0d9 3cbe 71a8 5e3d
000000c0: e9eb 5c3c 1232 d3bd a50f 0bbe 8221 62bd
000000d0: 5202 dc3d f486 073e a078 3bbc a868 5c3d
000000e0: 8fa4 a9bd b95e 47be 11a5 c4bd 45c4 953d
000000f0: b1f3 46bd e04c 3bbd 9dce 1c3d c5f1 1c3d
00000100: a6bf eabd adc4 07be 32b5 c6bd 9875 32bd
00000110: 603a bcbe 2f8f 2bbe ebbb 64bd 6deb 0c3e
00000120: 413a 48bd 1922 5b3d 3446 febc b0ae c53c
00000130: 34c1 f6bd 6ffe bf3d 307c c33d 2f55 bd3d
00000140: 2f8a b03e bf09 b53c 96c5 14be c55f 133d
00000150: f377 7d3d 0b4b efbc 2649 10be cc2a 843d
00000160: 0004 37be a87e b7bb 4ba0 66bc 0505 9f3d
00000170: 351e 0dbe 00af c03d 00d9 b9bd 70d5 ca3d
00000180: 2cc4 053e 9bef 713b 24c2 00bc f383 7b3d
00000190: 1694 af3d ee8d 26bd 1801 3bbe 6dfd 09bc
000001a0: 8ca1 843c 9f84 00be 66db 1abe 94bb 053d
000001b0: 20ae b0bd 53ae e9bd 4511 9e3c c00e 30bd
000001c0: eca3 013e cbdd fbbd 979c b83d 7e84 ac3d
000001d0: 2547 08be bd25 8fbd 0407 0e3c 4f27 28be
000001e0: 0dcf 0bbd 57ba b23d 1285 dabd a916 593b
000001f0: 6372 6dbd 0391 f73d a066 3ebc 4917 cfbd
00000200: 0120 43bd 40c6 b9bd c54f 85bd 2f3e 2cbd
00000210: f711 a7bd 5478 8b3d f315 ec3d bc96 78bd
00000220: 56fe 2f3e f007 34bd 281f 30be f880 3abe
00000230: 6014 3abd fe47 1bbd 4192 cabb dbdc f13d
00000240: bd77 123d b722 383d 1707 ba3d e16c 573c
00000250: a3a3 eabd b9a3 c8bc d162 4ebd d0ba 37be
00000260: 3a22 e8bd 3a94 d5bd 7c37 8b3c cdd0 923d
00000270: 6b17 f53d dda9 06be 0067 33be 8002 cabd
00000280: 0e4c a53d 6537 94bd 4dd2 183e ba86 51bd
00000290: 91dd 45be 3a51 5cbe b0ab b9bd c38f 723d
000002a0: 9c64 843a 985c cb3c 25b3 0fbd 6b2c e5bd
000002b0: 3b14 fb3b f68f ab3d a227 55be 038c e3bc
000002c0: 51c7 503e f777 2fbd cae0 55bd 8458 0f3e
000002d0: b730 25be b9e3 4ebd 32a1 dabd 9e9b 18be
000002e0: 4584 0fbe a51e 07bd ef65 353d d69a 18bd
000002f0: 34b0 7dbd 23f9 e2bd a06b 39be 65bc 02be
00000300: 7aa8 dbbd e88a cf3b 87e0 a2bd 6e7d af3d
00000310: 65b6 03be 98d3 4cbd 2a6c d1bd 14ed 03be
00000320: 1e05 16be 2073 bebd c35f 61bd 9d5e 05be
00000330: 6488 cebc 3a9a 6dbd 3f89 3f3c f58c 9f3d
00000340: c971 db3a db06 6b3a 879e adbd ee02 003e
00000350: bd5a 02be 694b 4bbe 2cbb 7abd 2515 08bd
00000360: 3c15 02be 7ee1 10be b679 1dbe 02df 51bd
00000370: 166f 18bd 62e9 ee3a a620 1dbe 7b3a 65bd
00000380: 1c3d fcbd 6056 c83d 2c74 f1bd cbde e6bd
00000390: 8eba 1dbd 351e 0dbe 4f81 b23d 21d5 cfba
000003a0: 67f7 3fbd be45 12be e305 f53c 3d8c 993c
000003b0: c72d acbd 213d 47be 31ee c9bd 9637 1bbe
000003c0: 5a10 dfbd 2ab0 673c 1302 743d f54a 113e
000003d0: 56ee 213d a314 6dbb b53d 0ebe 5922 c3bd
000003e0: 0140 c6bd dd48 123d 797a 523d ed5f 1d3d
000003f0: 0df3 05be 378e bd3d 51f3 d13d 7935 d13c

net.2.bias f4 [256]
-0.014434303 -0.01752136 0.04609269 -0.06174414 0.09458447 0.027744312 -0.035796724 0.061533287
0.0015044018 0.010539694 0.02641699 -0.0049057934 -0.025582524 -0.10777945 -0.061599594 -0.08489423
-0.02034141 0.0347745 -0.038361214 -0.014228108 -0.09440566 0.018234383 0.01750795 -0.010576016
0.014725435 -0.012105809 0.0017453816 0.055439454 0.051274575 -0.023149535 0.07472418 -0.05474953
-0.040279742 0.042340573 0.012588978 0.018524583 -0.07505201 0.01021131 -0.04848731 -0.004656664
0.0037964236 0.055583995 -0.0033108317 -0.011377327 -0.044140637 -0.001467405 -0.011926622 0.020800736
-0.0038197534 -0.0155239515 -0.03540408 0.00035254375 -0.10014111 0.08966112 -0.016758421 -0.01660494
-0.03394823 -0.008490224 -0.048315946 -0.019781496 0.15413031 -0.030733489 0.008214739 0.0035363052
0.057527106 -0.010146304 -0.009892984 -0.08425646 -0.03810864 -0.024431037 -0.012518012 0.1120412
-0.045156896 0.081976585 0.09656782 0.04315716 0.024800211 0.03358017 -0.117545694 -0.022818357
-0.030809484 -0.0014051691 -0.107862905 0.05699737 -0.04425165 0.03572967 0.12032923 0.046843708
-0.016863475 0.06801716 -0.055995267 -0.028048297 0.041868206 -0.019404124 0.024849387 -0.022763222
-0.0043390826 0.0019033806 -0.030274533 -0.0027836561 0.029438205 0.048350964 -0.04952294 0.052078493
0.030771486 -0.04905132 0.07129691 -0.020734055 0.018794667 0.03004282 -0.042364415 0.048988733
-0.018242206 0.13795061 -0.044971377 0.022091178 0.035429407 0.052784808 0.09699548 0.08015268
-0.03661927 0.06062059 -0.07330559 0.014464478 -0.06340078 0.0627835 -0.0026691963 0.1518713
-0.08191549 0.104919925 0.07742725 0.122908615 -0.082736544 0.14448032 -0.0023389026 -0.03992137
0.028670048 0.11245843 -0.008828109 -0.027452251 -0.0083536925 0.008530643 -0.0419673 0.050370816
0.015407163 0.13464554 -0.005937886 -0.021262301 -0.050682995 -0.024518581 0.007497107 -0.0015354381
0.004844698 0.08775824 0.064876 -0.014573815 0.03177117 -0.003427992 -0.026707564 0.08522355
0.06345294 -0.02685881 0.029242253 -0.02151525 -0.008772229 -0.0739374 0.06717376 0.011616676
0.067781724 -0.06773255 -0.024102094 0.039611425 0.046854135 0.0024246771 -0.0508484 -0.016153434
-0.034264136 0.02298227 -0.038673393 0.024711924 0.003312508 0.031722743 0.042673614 -0.033050437
-0.040107634 0.052465923 0.011548131 0.03300722 -0.0068937964 0.04617837 -0.031071745 -0.049642894
0.0045930543 0.08086794 -0.077068135 -0.012004108 0.003770114 -6.4403204e-05 0.07583431 -0.011840195
-0.030083053 -0.007121039 0.039222505 0.010730057 -0.009805999 0.02462736 0.109962486 -0.0014696401
-0.037317388 0.0049213464 -0.04293662 -0.03880303 0.052260287 -0.06097822 -0.010220065 0.054962616
-0.028706929 0.10769601 0.0533816 0.06737492 -0.029045558 0.07408939 0.028918153 0.061004296
0.0027245171 -0.015663093 0.07840924 0.0049880287 -0.0039778226 -0.0066817338 0.13732179 -0.00061703095
0.07162772 0.0048193657 -0.079933636 0.04289117 -0.037313662 -0.016223468 -0.028859293 -0.02277328
-0.004425603 0.06913326 0.047927026 0.023699015 0.020559337 -0.030270062 -0.08722329 0.074363574
-0.0075400416 0.10444458 -0.00776775 -0.030170225 -0.038431995 0.016666032 0.07786535 0.047043387
00000000: db7d 6cbc f588 8fbc b0cb 3c3d 6ce7 7cbd
00000010: 81b5 c13d 0a48 e33c 969f 12bd 540a 7c3d
00000020: 592f c53a aeae 2c3c 7268 d83c c7c0 a0bb
00000030: 7192 d1bc 79bb dcbd db4f 7cbd 07dd adbd
00000040: 07a3 a6bc b56f 0e3d a620 1dbd 031d 69bc
00000050: c157 c1bd 4660 953c d56c 8f3c 0747 2dbc
00000060: f342 713c 7157 46bc 4ac5 e43a 7b14 633d
00000070: 4a05 523d 18a4 bdbc fe08 993d 0b41 60bd
00000080: 5ffc 24bd 4f6d 2d3d 0042 4e3c dec0 973c
00000090: deb4 99bd 574d 273c a19a 46bd ee96 98bb
000000a0: 6bcd 783b 0bac 633d 8afa 58bb f867 3abc
000000b0: d0cc 34bd f155 c0ba e167 43bc 4e66 aa3c
000000c0: d454 7abb 2c58 7ebc de03 11bd 9fd5 b839
000000d0: c816 cdbd 40a0 b73d f548 89bc 1507 88bc
000000e0: 4d0d 0bbd 951a 0bbc f1e6 45bd ce0c a2bc
000000f0: 56d4 1d3e ccc4 fbbc 1d97 063c 5bc1 673b
00000100: 8ba1 6b3d af3c 26bc 2f16 22bc a78e acbd
00000110: ce17 1cbd 9923 c8bc 5918 4dbc db75 e53d
00000120: 70f6 38bd 57e3 a73d 59c5 c53d 90c5 303d
00000130: d029 cb3c 5c8b 093d ccbb f0bd 90ed babc
00000140: 2c64 fcbc a72d b8ba 3ae7 dcbd 1376 693d
00000150: 3841 35bd 4659 123d 2c6f f63d 30df 3f3d
00000160: 4525 8abc 954c 8b3d 4b5b 65bd 8bc5 e5bc
00000170: ff7d 2b3d 66f5 9ebc f190 cb3c f079 babc
00000180: dd2e 8ebb db7a f93a 4c02 f8bc 006e 36bb
00000190: 6428 f13c a90b 463d 91d8 4abd 4250 553d
000001a0: 7c14 fc3c 09ea 48bd 1d04 923d 77da a9bc
000001b0: 46f7 993c 5c1c f63c 4f86 2dbd 69a8 483d
000001c0: ae70 95bc ed42 0d3e e833 38bd 8ff8 b43c
000001d0: 6d1e 113d e234 583d 91a5 c63d 1727 a43d
000001e0: 16fe 15bd 4c4d 783d 3e21 96bd 6bfc 6c3c
000001f0: 45d8 81bd a394 803d afed 2ebb 2684 1b3e
00000200: 4fc3 a7bd 42e0 d63d 2e92 9e3d 83b7 fb3d
00000210: c771 a9bd a6f2 133e 4648 19bb 9784 23bd
00000220: 73dd ea3c 9b50 e63d c6a3 10bc 8be3 e0bc
00000230: eddd 08bc 1cc4 0b3c e7e5 2bbd a151 4e3d
00000240: 536e 7c3c 85e0 093e 9992 c2bb 472e aebc
00000250: f998 4fbd 31db c8bc 4baa f53b c140 c9ba
00000260: 46c0 9e3b 98ba b33d b5dd 843d 03c7 6ebc
00000270: 7d22 023d 2aa8 60bb d2c9 dabc af89 ae3d
00000280: 9df3 813d 0207 dcbc 738d ef3c c040 b0bc
00000290: 65b9 0fbc 7e6c 97bd 6592 893d df53 3e3c
000002a0: 25d1 8a3d 5db7 8abd c171 c5bc 973f 223d
000002b0: 1fea 3f3d 55e7 1e3b 6946 50bd 3554 84bc
000002c0: 8d58 0cbd 5045 bc3c fe67 1ebd a970 ca3c
000002d0: aa16 593b b5ef 013d 87ca 2e3d e55f 07bd
000002e0: e747 24bd 82e6 563d 5f34 3d3c 9432 073d
000002f0: 5be5 e1bb 8825 3d3d 2c8a febc 5956 4bbd
00000300: 5581 963b 179e a53d e6d5 9dbd e1ac 44bc
00000310: 0414 773b 3510 87b8 054f 9b3d 61fd 41bc
00000320: bc70 f6bc 9b57 e9bb c7a7 203d 1fcd 2f3c
00000330: 57a9 20bc 51bf c93c 0334 e13d f0a0 c0ba
00000340: 1eda 18bd 3f43 a13b 4fde 2fbd edef 1ebd
00000350: e20e 563d 4cc4 79bd 0f72 27bc 7b20 613d
00000360: cb2a ebbc ba8f dc3d aaa6 5a3d ddfb 893d
00000370: f3f0 edbc 2ebc 973d c3e5 ec3c a4df 793d
00000380: d08d 323b e34f 80bc 0695 a03d 9e72 a33b
00000390: 6558 82bb 72f2 dabb 159e 0c3e 3fc0 21ba
000003a0: 8eb1 923d c5eb 9d3b 3fb4 a3bd a7ae 2f3d
000003b0: 36d6 18bd 14e7 84bc 536a ecbc 088f babc
000003c0: a604 91bb bd95 8d3d 214f 443d 7024 c23c
000003d0: 0e6c a83c ecf8 f7bc 20a2 b2bd ee4b 983d
000003e0: 7412 f7bb 0ae7 d53d 9c88 febb 8c27 f7bc
000003f0: de6a 1dbd 3487 883c de77 9f3d 91b0 403d

net.4.weight f4 [1, 256]
0.09899223 0.23373237 -0.47297823 0.12938541 -0.85955346 0.21338929 0.049227893 -0.25217858
-0.854046 -0.43251255 -0.04662317 0.19708145 -0.24180585 0.33718082 -0.52940303 0.34160346
0.12975198 -0.43535572 0.12682837 0.16585454 0.32885998 -0.6044096 -0.5571549 0.17576979
-0.23169689 0.22286645 0.5488937 -0.37997106 -0.45855984 0.2804371 -0.28959244 -0.18217729
0.46000823 -0.25281635 -0.6383604 -0.5163973 0.49503192 -0.37210917 0.10079229 0.18306838
0.1165026 -0.22561423 0.17090306 0.041352622 0.063531905 0.17988847 -0.47468886 0.18344687
0.09051644 0.17689334 -0.36966535 0.17764138 -0.6875582 -0.34342143 0.07771335 0.042771213
0.081435665 0.21514465 -0.5979126 -0.5161112 -0.51934177 0.056890078 -0.16704963 -0.40308574
-0.35709476 0.07931374 0.12980264 0.45651537 0.06369731 -0.068149775 0.10089958 -0.26985136
0.25044554 -0.43070656 -0.30088156 -0.2056109 -0.17294155 -0.26377165 0.23361018 -0.030362448
0.1441793 -0.49874532 0.26234114 -0.53715163 -0.3700826 -0.26086298 -0.301871 -0.39720872
0.21715929 -0.565595 0.078467354 -0.24788848 -0.532276 0.21646787 -0.5010521 -0.31829208
0.22309592 0.18984544 0.023841694 0.18202828 -0.31724903 -0.50708705 0.25846088 -0.33899876
-0.4611288 0.15367134 -0.42146185 -0.25164807 -0.47724593 -0.23738915 0.09827399 -0.62250555
-0.41660407 -0.55031234 0.12771648 0.1505719 -0.34489366 -0.17993617 -0.506789 -0.16404258
0.2675625 -0.8665272 0.09683454 -0.396565 -0.6398625 -0.21946006 0.21941534 -0.824947
0.32868713 -0.40868264 -0.64519113 -0.4534398 0.014202775 -0.5848831 0.603587 0.072554566
-0.34455395 -0.4990791 -0.5291407 0.14791353 0.029586842 0.22110215 -0.04897532 -0.19206871
-0.37623382 -0.4471515 0.1268552 0.49860224 -0.48046455 0.19300747 0.22909513 0.22092631
-0.29858083 -0.4932915 -0.6087011 -0.04207682 -0.35422778 -0.60028493 0.12975198 -0.3134105
-0.5035823 0.1139396 -0.36728716 0.23198894 0.22452345 0.06808719 -0.34072134 0.4040215
-0.20287801 0.18361078 0.011831068 -0.29896826 0.18061863 0.50507236 0.2852711 -0.45461398
-0.04840237 -0.101954594 -0.36345455 -0.14974341 -0.114301704 -0.51516944 -0.72240305 0.08037619
0.4364703 -0.37339067 0.06592652 0.4306827 -0.325993 -0.40062407 0.11653091 0.4297469
0.5029981 -0.4047368 0.21440555 0.5245273 -0.6977267 0.45103174 -1.2039553 0.21436085
0.43256024 0.009445948 -0.18755962 -0.5118912 0.21029879 -0.3450725 -0.8434602 -0.30254453
0.058288552 0.7774778 0.26564324 -0.32930705 -0.45295104 0.29290047 0.17200874 -0.56492746
0.004609073 -0.5250042 -0.24286383 -0.4129861 -0.10649199 -0.26415315 -0.49606907 -0.7784911
-0.20209125 0.14903708 -0.48940524 -0.28728572 0.17642544 0.19002426 -0.73248816 0.11259253
-0.47045696 0.20274985 0.28933612 -0.115982555 -0.2636584 -0.24816567 -0.20559597 -0.11927869
0.21909645 -0.5179351 -0.3859494 0.6040161 0.40906408 0.483564 0.32081932 -0.65460867
0.11447902 -0.34342143 0.13362926 -0.24278335 0.07397763 -0.28664798 -0.2411502 -0.4491304
00000000: 70bc ca3d 8a57 6f3e 342a f2be 9c7d 043e
00000010: b20b 5cbf b982 5a3e 30a3 493d 8d1d 81be
00000020: c2a2 5abf 4972 ddbe f0f7 3ebd b8cf 493e
00000030: f49b 77be f7a2 ac3e f586 07bf a6e6 ae3e
00000040: b4dd 043e f2e6 debe 4cdf 013e c6d5 293e
00000050: 5660 a83e 96ba 1abf b4a1 0ebf fffc 333e
00000060: f341 6dbe 1a37 643e 4c84 0c3f 918b c2be
00000070: 5bc8 eabe 7495 8f3e 7645 94be af8c 3abe
00000080: 3386 eb3e 2571 81be 966b 23bf 9d32 04bf
00000090: d374 fd3e 1885 bebe 306c ce3d 4776 3b3e
000000a0: ea98 ee3d 6b07 67be 3601 2f3e 5e61 293d
000000b0: 041d 823d af34 383e 6b0a f3be 7fd9 3b3e
000000c0: af60 b93d 8723 353e c744 bdbe 9fe7 353e
000000d0: d003 30bf efd4 afbe 2d28 9f3d de30 2f3d
000000e0: bec7 a63d e14e 5c3e cd10 19bf dd1f 04bf
000000f0: 95f3 04bf 9205 693d 0f0f 2bbe 4161 cebe
00000100: 20d5 b6be 3e6f a23d fcea 043e 62bc e93e
00000110: bc73 823d 1c92 8bbd 70a4 ce3d f529 8abe
00000120: 663a 803e 9285 dcbe 260d 9abe aa8b 52be
00000130: 9717 31be 140d 87be 8237 6f3e abba f8bc
00000140: bda3 133e 8c5b ffbe 9451 863e c582 09bf
00000150: 777b bdbe d58f 85be d68e 9abe f15e cbbe
00000160: 015f 5e3e d5ca 10bf 7eb3 a03d 7ad6 7dbe
00000170: 3d43 08bf c1a9 5d3e f344 00bf 2ef7 a2be
00000180: 4273 643e d866 423e a84f c33c 9f65 3a3e
00000190: 776e a2be 75d0 01bf fc54 843e 3f91 adbe
000001a0: 1319 ecbe 055c 1d3e d9c9 d7be 04d8 80be
000001b0: 9459 f4be 2416 73be e043 c93d 865c 1fbf
000001c0: 214d d5be 45e1 0cbf 1cc8 023e 852f 1a3e
000001d0: e795 b0be 3041 38be edbc 01bf c7fa 27be
000001e0: f4fd 883e bad4 5dbf 3051 c63d 910a cbbe
000001f0: 07ce 23bf 23ba 60be 6aae 603e ba2f 53bf
00000200: ae49 a83e da3e d1be 3f2b 25bf 4329 e8be
00000210: c2b2 683c e6ba 15bf ad84 1a3f 7d97 943d
00000220: 6069 b0be 4c87 ffbe c475 07bf a576 173e
00000230: 1b60 f23c 9a68 623e 589a 48bd a9ad 44be
00000240: b8a1 c0be 0bf1 e4be 54e6 013e cb48 ff3e
00000250: 73ff f5be c0a3 453e ea97 6a3e 823a 623e
00000260: 96df 98be b490 fcbe d6d3 1bbf be58 2cbd
00000270: 585d b5be 46ac 19bf b4dd 043e 5777 a0be
00000280: c5ea 00bf 2a59 e93d 100d bcbe 828e 6d3e
00000290: 7ae9 653e 4c71 8b3d 0773 aebe e8db ce3e
000002a0: 41bf 4fbe 7704 3c3e 19d7 413c 5e12 99be
000002b0: 17f4 383e 6c4c 013f 0e0f 923e 2ac3 e8be
000002c0: 9041 46bd 92cd d0bd b716 babe 5656 19be
000002d0: 0317 eabd 25e2 03bf 68ef 38bf 469c a43d
000002e0: 0979 df3e 102d bfbe 7c04 873d 7182 dc3e
000002f0: 8ee8 a6be 991e cdbe c2a7 ee3d c907 dc3e
00000300: 7cc4 003f a939 cfbe 218d 5b3e 6c47 063f
00000310: 389e 32bf a2ed e63e 351b 9abf 6981 5b3e
00000320: 8978 dd3e 2dc3 1a3c a10f 40be 4d0b 03bf
00000330: 9158 573e 58ad b0be 02ed 57bf 1ee7 9abe
00000340: fabf 6e3d c908 473f 6402 883e ef9a a8be
00000350: 33e9 e7be 0df7 953e 0f23 303e 169f 10bf
00000360: b507 973b ad66 06bf 4cb1 78be ea72 d3be
00000370: 7918 dabd 153f 87be c4fc fdbe 314b 47bf
00000380: 02f1 4ebe 2d9d 183e 5393 fabe 1d17 93be
00000390: dfa8 343e b895 423e 5884 3bbf ea96 e63d
000003a0: bcdf f0be a89d 4f3e dd23 943e 4388 edbd
000003b0: 3cfe 86be 241f 7ebe c087 52be 6348 f4bd
000003c0: d25a 603e 6597 04bf 299b c5be cda0 1a3f
000003d0: d970 d13e b395 f73e 6e42 a43e 6f94 27bf
000003e0: fa73 ea3d efd4 afbe 1cd6 083e 339c 78be
000003f0: 9581 973d 86c3 92be 14f0 76be 6bf4 e5be
