output/CarlaNavigation-v0/gin/1/cost_var_target.pt (torch, 536535 bytes, 5 tensors)

net.0.weight f4 [256, 263]
00000000: 7c0b f13d 25e9 9fbc 8093 36bf bc50 733e
00000010: c1c2 c4be bf8e a33e ddb0 093e 361b 9a3e
00000020: 6be1 643f 1b44 e63d 28fc b93d f059 b73e
00000030: 62a0 5d3d f04c b53e ee36 28bc bf4b aa3d
00000040: ec89 fd3e 81f9 57be f5b3 8c3e 672f a63e
00000050: c639 113f 795d 423d 323c efbe ce95 a0bd
00000060: 5dda 003f 3c53 fd3d 6f88 a93d f59f 073e
00000070: b14e 55be 9b44 683e 48c7 3a3d 6cce 7c3e
00000080: 0967 493f a75a 243f f6ff 903d a64a 2fbe
00000090: f259 e9bd de6e 943e 434a 6f3e 4071 c3be
000000a0: 8f96 a33e d673 923e 54c1 83be 3777 ac3e
000000b0: 92af d53d 7576 90bd f620 183e 0e40 27be
000000c0: eb44 fcbe 8cf7 fe3c b505 8f3e 744a 8fbe
000000d0: 6b29 f2be 1760 273e 2f74 3cbe b527 9abe
000000e0: 4e51 a1bd bbd2 ee3d 1824 b13e 6743 2b3e
000000f0: a8d8 c1bd 9955 483f de0f a8bd 6779 3bbe
00000100: 88eb 4ebd 15bd 8b3d f5d2 8b3e 8809 cabd
00000110: 02b2 e5bd 1c84 85be e4f4 83bd ff83 2a3d
00000120: dd38 043f b06b 4cbe d2ec 69be 6f14 34bd
00000130: 5e81 acbd c2f2 d53b 1a58 ebbe 43c5 e73e
00000140: fb3f 7bbe 24b3 8fbe 5f72 3bbe 5fc4 253e
00000150: b723 a33e 00cf c3be 64c0 f93d 2b57 e13d
00000160: 8f85 2a3e 0386 7dbe 85e3 15bf cd07 0e3f
00000170: ae60 80be 1b31 e53e bdd7 9bbe 66e1 993c
00000180: 146d 773e 2cfd 88be 0c2c f03e 55fe 96be
00000190: d466 f73e dc13 86be e421 89bd fdff 0d3f
000001a0: 3910 d2bd 7e78 953e c3d5 77be c601 2bbe
000001b0: f246 68bd cdc2 8c3e 27b7 38be e199 dcbd
000001c0: 0543 043f 87c8 263e d72e aa3a a9b0 d0be
000001d0: 7c3d 0abf eae5 5d3c 6164 4e3d f104 5abd
000001e0: 4edd abbe e168 c73d 9361 e23d 4a62 e8bd
000001f0: c8d2 cfbd 538d 623f 26aa 1d3e 5cd5 05be
00000200: 1928 dabe e488 7c3e fc15 82be 360c a9be
00000210: 4e70 a0be cb50 6d3e a6bf 28be f446 01bf
00000220: 947f 8fbc cef8 1c3d de1b a6be 57b2 2b3e
00000230: b4eb 713e 1297 d73e 8384 77be fd8c 833e
00000240: 0771 263e a903 58be c487 84bd 8af7 65be
00000250: 5c85 0abd 17cc 2e3b 81ea cd3e 7925 c33e
00000260: b839 c9be bde1 91be 477c babe b54a 10be
00000270: e3c0 623c 7976 dbbe 210a 433e 47b5 243e
00000280: 4aa5 61be 70ae 44be 8d57 883e aac5 d93d
00000290: 9784 a33e 6b12 7abe 6a34 d33e 1ef2 943c
000002a0: 4da3 0b3d ff7b bcbe 04ee 0dbe 8f07 263f
000002b0: cc26 743d 41c2 423d 4fea 2d3e fa0d e2be
000002c0: 211c 403e a9a0 dbbe 3671 adbe c5f7 9bbe
000002d0: a889 b13d 4949 cf3e 4b87 e63d 9aa1 e5be
000002e0: a18f cc3d 70a7 41be 8a2a 6abe 3f6c af3e
000002f0: a325 ffbe 4d2a 023d 9127 5bbe 638b 6d3e
00000300: 0c06 07bf 5532 1fbe b67c a9bd c9c8 403d
00000310: 5a96 513e f572 023e d9cf d6be 59ea c33e
00000320: bb13 803e 12cd e7bd 604d 3d3c 851e 083f
00000330: d522 93be 6259 6dbe 18e6 b23e cf43 b6bd
00000340: 70b9 3e3d 725d de3c 3ef7 9c3d c5ba 083e
00000350: dbe5 fcba f878 b33e 1c91 87be 1d71 043e
00000360: 4c95 85be 2a1c 563d c382 f0be a4c3 86bd
00000370: 0e77 22bd 9664 a0bb b798 35be d0ac cabe
00000380: 11cb 5fbe 0caa 0dbf 9d1c 10be 9c77 05bf
00000390: 4061 cebe 9140 c23e dcc8 85bd 7d65 94be
000003a0: ac79 87bd 97bf ae3e fab7 e7bd bccd f33e
000003b0: 9a3e 503f 395e debe cc2a 84be 06d8 993b
000003c0: 9d70 1bbe 150d 873d 66b5 983e a9b1 54be
000003d0: 90a7 4ebe 3d53 96be 7aa3 80be dcdd f53d
000003e0: 5612 1c3e 263d 923d 7002 373e 023a 60be
000003f0: 9d1e 98be a8a6 c1bd ece9 06be 1f27 213f
0.117697686 -0.019520352 -0.7131882 0.23761266 -0.38429835 0.31944844 0.13446374 0.30098885
0.8940646 0.11243459 0.09081298 0.35810804 0.05410803 0.3541026 -0.0102670025 0.08315229
0.4951929 -0.21091272 0.27481046 0.3245804 0.5672878 0.047452424 -0.46725613 -0.07841073
0.50333196 0.12369391 0.08277976 0.13244613 -0.208308 0.22682421 0.045600206 0.24688119
0.78672844 0.64200824 0.07080071 -0.1711832 -0.11394109 0.28990835 0.23368172 -0.3817234
0.31950805 0.28604 -0.25733435 0.33684704 0.10433878 -0.07053844 0.14856324 -0.16333029
-0.4927133 0.031123899 0.27934042 -0.2798649 -0.47297224 0.16345249 -0.18403696 -0.3010842
-0.07876836 0.116612874 0.3459785 0.1672493 -0.09465152 0.7825561 -0.082061514 -0.1830803
-0.05051759 0.06823174 0.27309385 -0.09865099 -0.11215593 -0.26077354 -0.064431936 0.041629788
0.51649266 -0.19962955 -0.22844246 -0.0439648 -0.08423112 0.006529183 -0.45965654 0.45267686
-0.24536125 -0.2806636 -0.18305348 0.16188191 0.31863186 -0.38243866 0.12194899 0.11002954
0.16652511 -0.24758153 -0.5855029 0.55480653 -0.2507376 0.44764027 -0.30438033 0.018784236
0.24162704 -0.26755655 0.46908605 -0.29490915 0.4832064 -0.26187027 -0.06695917 0.5546873
-0.102570005 0.2919349 -0.24202637 -0.16699895 -0.056708284 0.2749237 -0.18038617 -0.107715376
0.51664764 0.16287433 0.001298393 -0.4075978 -0.5400007 0.013543585 0.050388698 -0.05322737
-0.3356728 0.09736801 0.11053767 -0.11346872 -0.10147625 0.88496894 0.15396938 -0.13069671
-0.42608717 0.24661595 -0.25407398 -0.3301713 -0.31335682 0.23175351 -0.16479358 -0.5049889
-0.017516889 0.038323216 -0.32443136 0.1676725 0.2362507 0.42107445 -0.24171643 0.25693503
0.16254054 -0.21095146 -0.06471208 -0.2245771 -0.033818588 0.002667194 0.40217975 0.38114527
-0.39301848 -0.28492537 -0.3642294 -0.14090998 0.013839933 -0.42863825 0.19046833 0.16084777
-0.22035709 -0.19207168 0.26629296 0.106334046 0.31937096 -0.24421088 0.41250926 0.018181857
0.034091283 -0.36813352 -0.13860327 0.64855283 0.059607312 0.047548536 0.16983913 -0.44151288
0.1876073 -0.4289601 -0.33875436 -0.3046247 0.08668834 0.404856 0.11256274 -0.44849855
0.099883325 -0.18911529 -0.2286779 0.34262273 -0.49833402 0.031778622 -0.21401812 0.23197703
-0.527436 -0.15546544 -0.0827574 0.047066484 0.20467511 0.12739165 -0.4195545 0.3826473
0.25015053 -0.11318411 0.011554092 0.5317157 -0.28737512 -0.23178628 0.34941173 -0.08899652
0.046563566 0.027144168 0.07664345 0.13352497 -0.0019294576 0.3505323 -0.26477897 0.12933774
-0.26090467 0.052272953 -0.46974763 -0.06580284 -0.03966432 -0.0048948033 -0.17734037 -0.3958497
-0.21854807 -0.55337596 -0.14073415 -0.52135634 -0.4030857 0.37939885 -0.065324515 -0.2898368
-0.06615004 0.34130546 -0.113143876 0.476179 0.8134552 -0.4343126 -0.258139 0.0046949415
-0.15179677 0.06594292 0.29825896 -0.20770897 -0.20181108 -0.2936038 -0.25124723 0.12005207
0.1524137 0.071405694 0.17872024 -0.21897128 -0.29710856 -0.09455615 -0.13175172 0.6295032

net.0.bias f4 [256]
00000000: 4dc0 9bbc 959b 1bbd ae5f 9c3b dcf4 063e
00000010: 5574 143e c3a4 e2bd eba3 e8bc 35e5 09be
00000020: 5c42 f83d 1533 89be 47fe 353e 35ad 0a3e
00000030: dd7c 813e c62e 17bc 01de 4dbe 87f4 27bd
00000040: 9840 bfbd 4d82 043e 7a56 583e 84c4 fd3c
00000050: 61ad c63d e1cb 43be 67b3 a9bb ae0e 1dbe
00000060: 5ee1 1c3e 6bcf 67be 701d 3f3e 86fe 9dbe
00000070: 252e 88be 73c9 e5bc 68d6 38be f665 993c
00000080: d0d4 3b3e 576b 223d fd74 87be fff2 24bd
00000090: 8d50 053e a6f5 1f3e 8406 0c3e c8bf 4ebd
000000a0: 2d27 9b3c a349 603e ff2a 24bd 59dc d63d
000000b0: 3d0c 0dbd 6ff4 303d f95d c43c 6db7 04bd
000000c0: febd 183e 18d5 39be cfd7 2ebe e94f 44be
000000d0: ec6a fe3d bdc6 89be f4c0 0e3e de95 9abe
000000e0: 3d76 8cbc 8b5b ff3d b3ab ebbc a99c 4b3e
000000f0: 3334 68bd e2ca 583e c8a1 3abe b7b4 a8be
00000100: 4954 493e 7efc 98bb 194e 433e dfc1 b43c
00000110: 9e1c 10bd 8560 163e bd17 09bd 054e 97be
00000120: 1dcb 0ebc e043 30bd ea0e 533e 58c7 4dbe
00000130: c797 2bbe 86f7 1abc 03ea 64bd e21c 5c3e
00000140: a35b 76be 56ce 9ebe cd2f 18be 2a8e 5c3d
00000150: 1683 9dbe 39be 4ebd f5eb 0b3e b651 13be
00000160: f9a8 44bd 0a3b 61bc aa5b 5abe 6412 fd3d
00000170: 3a90 5e3e f75e 2fbd 8b94 e9bc e085 be3c
00000180: c9f6 c93d 71ed 5f3d 6b00 fd3d 0dff 83be
00000190: 64b2 73bc 6f7c 2bbd df20 213c 37c3 b03d
000001a0: 6e27 1c3d c2f1 d13d 26e8 1b3e 7117 c0bd
000001b0: fe50 263d e161 dd3d eb81 763c 3055 3d3d
000001c0: ec37 7abe b564 143c 3bcc 6d3e 25ce 17bd
000001d0: 7810 3abe d47e 0c3d 06fe 1b3e d53e 06bd
000001e0: 453f 0e3d 8a6e e73c ba06 5ebe 6447 703e
000001f0: 8895 bbbe 4eb1 91be 4974 4cbe 0943 4f3d
00000200: 4532 8c3c c8b4 bbbe f5aa 813d ac3d f8bc
00000210: 8d9f 95bd a55e 02be 356f 8cbe 26c8 183c
00000220: 2cc8 7cbe 80a7 bbbe b9af 46be a39e 6f3e
00000230: c44c f9bd 4758 a73d 18d9 30be 49b0 423e
00000240: bd98 19bd baae 5bbd 8c26 8cbe ba90 603c
00000250: 27e3 39bc b4b7 02be 1ec6 ac3c 2ea3 17bc
00000260: d569 1c3d 280e b7be c628 983e 0be4 623e
00000270: 880c 3d3e ad1b 06bd 1d49 133d 369d 95bd
00000280: 7e61 9dbd c714 2cbd 838b 61be 5c3b 75be
00000290: 8508 14bd 8862 37be f32e 6c3e 5af0 5b3c
000002a0: f6d4 93be 07c9 283e 0041 4abd 61c6 46bc
000002b0: 3c72 7cbe ff1e a6be 37b9 a13e a121 563d
000002c0: 9df6 8dbe c63f 903e 9811 32be b5c6 8cbe
000002d0: 65f8 113e f18a ccbb 0419 8bbe 47f6 ae3d
000002e0: 0270 573d 8f58 3e3e fbfc 68be 8c71 f3bc
000002f0: 2c49 74be 9c20 073c 0539 0e3e e841 be3d
00000300: 07f0 2ebd 154c 09bb ad21 85be ff7b 233e
00000310: 3e5f 14be ce55 9a3d e0ae b33d 0bea fabc
00000320: c73a aebe 268a 9abe 8eab 133e 1a8b ef3d
00000330: c141 4d3e 95f4 88be 8cbc f3bd 5dc4 8c3d
00000340: b74c b1bc 739c 80be 7ee1 29be 1ec1 98be
00000350: 954e 133c adf2 90be 85bb 0b3e 3e28 99be
00000360: 5476 03be ca03 e53d 0f48 ae3d 8272 e13d
00000370: c058 453e 46d2 1bbe 2600 983d 105c 333e
00000380: d650 9c3e 657e 843e 95d9 00bd 5f56 2fbd
00000390: df6c a5be 1a26 52be be97 2e3e b56f 0e3d
000003a0: a750 2e3d 4699 98be f855 3d3e bb08 ff3d
000003b0: 521c 803e 6799 3ebd 3588 8c3e cd11 043e
000003c0: 5de8 9f3c 3293 54be 4441 7dbd 75ad 0b3e
000003d0: 388e bdbc 2926 ccbb 3885 32bd 0bac fc3d
000003e0: ddc8 05be 15ef 8bbc 5644 9cbe 1c87 783d
000003f0: 5e0b 16be a226 513e 1d38 813e 354d 9abd
-0.019012595 -0.03799017 0.004772148 0.13179344 0.14497502 -0.11066582 -0.028398475 -0.13466342
0.12122032 -0.26796785 0.1777278 0.13542636 0.25290576 -0.00922746 -0.20104219 -0.041004684
-0.09338492 0.12940331 0.21126738 0.030977495 0.09701038 -0.19120742 -0.005178857 -0.15337631
0.15320346 -0.22637717 0.18663573 -0.30858248 -0.26597705 -0.02805016 -0.1805054 0.018725377
0.183429 0.03965315 -0.26456442 -0.0402708 0.13019009 0.15621051 0.1367436 -0.050475866
0.018939579 0.2190309 -0.040080067 0.10491247 -0.0344355 0.04320186 0.02397059 -0.03240149
0.14916226 -0.18147695 -0.17074512 -0.19171108 0.124227375 -0.26909438 0.13940793 -0.30192465
-0.017146224 0.12468632 -0.028768396 0.1988398 -0.056690406 0.21171144 -0.18225777 -0.32950374
0.19661058 -0.0046687713 0.1907276 0.022065101 -0.03518354 0.14685257 -0.033469904 -0.29551712
-0.008715418 -0.04303348 0.20611158 -0.20095575 -0.16757117 -0.009458428 -0.055887233 0.21495393
-0.24058394 -0.31016797 -0.14861985 0.053846516 -0.30764073 -0.05047438 0.13664229 -0.14386639
-0.048012707 -0.013746986 -0.2132403 0.12357023 0.21734706 -0.042815175 -0.028513214 0.023257196
0.09861524 0.0546698 0.12353595 -0.25780526 -0.014874075 -0.041866716 0.009834497 0.08630984
0.03812354 0.1025119 0.15225276 -0.09379471 0.040604584 0.108096845 0.015045623 0.04622382
-0.24435395 0.009057214 0.23222439 -0.03706183 -0.18170345 0.03430064 0.15233621 -0.032774765
0.034728307 0.028250951 -0.21682253 0.23464733 -0.3663752 -0.28455585 -0.19966234 0.05060104
0.017113814 -0.36661363 0.063314356 -0.030302845 -0.073058225 -0.12731417 -0.27428594 0.009325063
-0.24685735 -0.3665123 -0.1940297 0.23400359 -0.12172845 0.081711344 -0.17270315 0.1901256
-0.03749918 -0.05363343 -0.2737316 0.0137063805 -0.011345661 -0.1276539 0.021090563 -0.009255214
0.038186867 -0.35752988 0.29718608 0.22157304 0.18461812 -0.032741237 0.035958398 -0.07305376
-0.07684611 -0.042012002 -0.22025876 -0.23948425 -0.036140937 -0.1790868 0.23064785 0.0134240035
-0.28873414 0.16482936 -0.049378395 -0.012132258 -0.24652952 -0.32445523 0.3158662 0.052278165
-0.27727214 0.28173655 -0.17389524 -0.2749535 0.14254911 -0.006242149 -0.27167523 0.085430674
0.052597053 0.1858847 -0.22752754 -0.02971723 -0.23856038 0.008247521 0.13888939 0.09289914
-0.042709377 -0.002094989 -0.26002255 0.1596527 -0.14489457 0.07535897 0.08773589 -0.030629179
-0.3402922 -0.30183524 0.14420912 0.116964534 0.20044614 -0.267491 -0.11901197 0.06873391
-0.021643026 -0.2511936 -0.16589925 -0.29834837 0.008990903 -0.28310147 0.13645752 -0.29913515
-0.12838107 0.11182363 0.08509838 0.11008169 0.19272137 -0.15216932 0.07421903 0.17515588
0.30530423 0.2587768 -0.031457502 -0.04280698 -0.32309625 -0.20522347 0.17050073 0.0347745
0.042557385 -0.29804438 0.18489826 0.12452837 0.25021607 -0.046533015 0.27447668 0.12897415
0.01951998 -0.20759276 -0.06182982 0.13640387 -0.023139104 -0.006230135 -0.04358408 0.12337502
-0.13064905 -0.017081777 -0.30520886 0.060675725 -0.14652774 0.20424893 0.25238124 -0.07534257

net.2.weight f4 [256, 256]
00000000: 6696 99bf 5afc d9bd 7c8d 05bc 05c0 843b
00000010: 49c3 dc3e 1e16 283f 4b12 edbd f49a 0c3e
00000020: dd98 0dbf f11d 41bd 5eb2 a8bd 8236 eb3d
00000030: 1902 d83c e2d5 eb3e 4400 8c3e d5e1 08bc
00000040: 62d4 653e eabc e83d 0a2a 683e 87c8 a6bf
00000050: 8ea1 1d3f 284b 4a3e e422 0d3e b2be 6c3c
00000060: 7626 15be 95bc 89bb 4d43 1b3d 9ff9 323e
00000070: 169e a53e 11dd 433d 5216 e13d d8ed 38be
00000080: 118b 40bf 1aaa 55bd ec6c 063e 7f77 2a3d
00000090: 5e8e 153e ee62 10be f7e8 b1be fc83 f8be
000000a0: 8a02 803e 1f54 26bd ed38 173e f617 26be
000000b0: dd77 06bd 2f55 24bf 6e7c 92bf 3645 ac3b
000000c0: 248c 70be 9478 0c3f 991e cdbd 2fde bb3e
000000d0: c88b 463e 7c6a f6bc a61c 26be a0fa b6b9
000000e0: e13b db3d 426f ed3d a7a0 293d 9d44 1a3e
000000f0: 8c3e 083f ed6a 973d 9dd5 9f3e 381b b3bd
00000100: fb19 60bc bf36 ba3d 5663 9bbf c645 283f
00000110: db68 7cbd b22d 673e 3df1 04be e95b 5b3c
00000120: 26a0 273e 547d 063f 8080 b5be eceb f53e
00000130: fd89 903d bc18 74bc 7caf f73d 4ed8 97bd
00000140: d915 c3be de02 a63d 7488 f4bd 5441 77be
00000150: 98e0 ce3e ea6f 00be 1f0a 2abf 54c8 863e
00000160: 3825 c23b 1390 ed3d b479 843e 5816 c53d
00000170: fda4 183e 64ab f0bd e81c c03d 11e3 42be
00000180: 3d35 82be 50ec b53d f24d 52be e960 563e
00000190: e5d2 11be 05ab 14be d7f0 2bbf d02c bebc
000001a0: 47f0 2fbf 40f0 32bf 50d3 b5bd 79c4 cebe
000001b0: bdb7 983e 6b19 7d3e 5a56 e43e 2b76 e0bd
000001c0: 7be3 7f3e c9df d13e 1ecd 96bf 3ef4 10bf
000001d0: d058 3fbc 7b33 7bbe 61bd d43b 45be 963d
000001e0: fc37 74bf dc34 8d3e de0b 18bf cf39 27bd
000001f0: eff1 bf3d 34e4 053e 29f5 4fbc 445c 053c
00000200: 85bb 8bbe 3bcb 69be 60bc 37bf b8f4 c73d
00000210: 8835 32bf a1f0 d93d ef62 a9bd a28f 653d
00000220: ef65 b53d 58f6 c13e 42bf e83e 1758 20be
00000230: 144c 893e 5f6e 2bbf 73e7 f93d fe6a aa3d
00000240: 8439 77bc 4e70 003f ab10 733e 0b36 ff3e
00000250: 9309 e03d 2835 3dbf 67dd 3bbf f163 5f3e
00000260: 6609 a43e fb7e fd3d 33d2 6fbd 92dc 5abf
00000270: 3759 313d be5f 163e d9c3 d83e 15a6 933e
00000280: 6f73 b93e 8600 a63e 90c3 413e df88 313e
00000290: bb92 e8be 9f9b 313f 2852 34be 360d 14bf
000002a0: 1be4 f53e e3a8 ff3d c921 c7bc e19e 573e
000002b0: afb8 bb3e e512 983d c9a4 46bb e42c 833e
000002c0: 5173 453e f20e 50bf 2ca6 8a3e ede2 9c3e
000002d0: 77e9 33bf 8f7d 3c3e bdeb 07be 0dc9 0cbe
000002e0: 571a 23bf e123 c6bd b87f 4e3e 23f9 fb3d
000002f0: abce e4be 0cc7 043e ddf6 8ebf 9497 0b3e
00000300: 8dc7 1f3d 8c97 8ebd 3747 343e 0ca4 f5bd
00000310: dba5 f63e 9e61 11be 820d ddbd c4b5 f4bd
00000320: 3eaf a83e f70a 3d3f d826 bcbe ed10 8d3e
00000330: 45c7 08be 466b a83e 552f 933e 3e1a 93bf
00000340: d23c e53c ff4d b33e 58da ce3d bf9f 353c
00000350: 65e6 143f d844 b7be b086 3bbf c253 e33c
00000360: dfcf 3abf 06f0 15be 8f0f adbe ec54 71be
00000370: 3944 dabd 9dcc 14bf aeed 95be a5ab 8abe
00000380: fd07 153c a1a7 48be 9365 f23d b5a9 95bc
00000390: e60f 253f f7f2 a7bd 918f d23d 5756 323d
000003a0: 5ae2 ee3d 66fd 253e 8cee f3bd f4ec 763e
000003b0: f1b1 d2bd 89b7 46bf f8f1 bcbd e90b c7be
000003c0: aa19 e5be 1dbc 04bf f1ad 5b3e 348a fbbe
000003d0: ee25 963d a064 b6bd c8a6 4e3f b748 213e
000003e0: 6257 653e 0b4d f7bd 1c85 093e 91c7 513d
000003f0: 91da 523e 46d3 9fbd 412b 573e 0825 3bbf
-1.1999023 -0.10643835 -0.008151408 0.004051211 0.4311774 0.6565875 -0.11575755 0.13730985
-0.55311376 -0.047147695 -0.08237146 0.11485006 0.026368188 0.46061617 0.27343953 -0.008354624
0.22444299 0.113641575 0.22672287 -1.3029946 0.6157464 0.19755232 0.13782841 0.014449762
-0.14565453 -0.004203389 0.03790598 0.17478035 0.32347172 0.047818247 0.109905854 -0.1805948
-0.752122 -0.052164175 0.13127488 0.041617867 0.1460509 -0.14100239 -0.3474805 -0.48538196
0.25001937 -0.040607568 0.14767809 -0.16220078 -0.032829154 -0.6419248 -1.1444223 0.005257274
-0.2349096 0.5487149 -0.10015602 0.3669295 0.1938926 -0.030080073 -0.16221866 -0.00034900475
0.1070478 0.11593486 0.041412976 0.15065236 0.5322044 0.07393441 0.31217661 -0.08745426
-0.013678069 0.09092473 -1.213969 0.65731466 -0.061623435 0.22576025 -0.1298265 0.013388612
0.16369686 0.52534986 -0.354496 0.48031557 0.07057569 -0.014898475 0.12094018 -0.07414304
-0.38102606 0.081060156 -0.11940089 -0.24146014 0.40405726 -0.12542692 -0.66421694 0.26324713
0.005924847 0.115997456 0.25874102 0.09623402 0.14906688 -0.1175144 0.093805134 -0.19031931
-0.25431243 0.08882964 -0.20537546 0.20935406 -0.14240606 -0.14518364 -0.6716437 -0.023214728
-0.6872601 -0.6989784 -0.08878195 -0.40384272 0.2982768 0.24716727 0.4459713 -0.10960039
0.2498912 0.40991047 -1.1781347 -0.56622684 -0.011678889 -0.24531357 0.0064923023 0.0736051
-0.95397925 0.2757939 -0.5939311 -0.040826615 0.09372317 0.13075334 -0.012692728 0.008139674
-0.27291504 -0.22831433 -0.7177181 0.09763473 -0.6961293 0.106415994 -0.08270823 0.056045182
0.08857333 0.37883258 0.45458418 -0.15658604 0.26815856 -0.6696529 0.122023486 0.083211884
-0.015089396 0.50171363 0.23736827 0.4984592 0.10939326 -0.73909235 -0.7338471 0.21815468
0.3203842 0.12377735 -0.05855007 -0.85492814 0.043297973 0.1468496 0.4233692 0.28837648
0.3622088 0.32422274 0.18922257 0.17337368 -0.45424446 0.69378084 -0.17609465 -0.5783266
0.48025593 0.124833845 -0.024308102 0.21056701 0.3666434 0.07425479 -0.0030310622 0.25620186
0.19282271 -0.81272805 0.27079904 0.3064188 -0.70278114 0.18407272 -0.13273521 -0.1374857
-0.63712066 -0.09674812 0.20165908 0.123033784 -0.44688925 0.12966555 -1.1169087 0.13632041
0.039008666 -0.06962499 0.17605291 -0.1199418 0.48173413 -0.14197394 -0.10793592 -0.119487315
0.329462 0.73844856 -0.36748385 0.27551976 -0.13357265 0.32894343 0.2874705 -1.1492383
0.027983103 0.35020444 0.101002395 0.01108545 0.58164054 -0.3579471 -0.7325239 0.0277499
-0.72973436 -0.14642343 -0.33800933 -0.23567551 -0.10657544 -0.58124715 -0.29282898 -0.2708408
0.009096143 -0.19595195 0.1183578 -0.0182694 0.64477384 -0.08200639 0.10281289 0.04353937
0.11664267 0.16209945 -0.119107336 0.24113828 -0.10287846 -0.776238 -0.092258394 -0.38876274
-0.44746143 -0.5184954 0.21453072 -0.49128878 0.07331453 -0.089059114 0.8072324 0.15750395
0.22396615 -0.12075242 0.13429683 0.051215712 0.20591189 -0.07803969 0.21012594 -0.7310338

net.2.bias f4 [256]
00000000: ba4f d6bc 3bf0 67bd f7f2 27bd 69da 48bd
00000010: 6945 4cbc fb1b 68be afb1 383d d500 88bd
00000020: ccae 073c 4bd2 663e 0ffb 253e 00b3 b7bd
00000030: 1123 493e 3126 493e 3008 b53d a157 4dbe
00000040: fcce 783e f1d2 40bd 960b 1abe f862 3f3e
00000050: a1c9 533c 9cbe 753e 75ca 02be d2ae 52be
00000060: 6b2b fa3d ab69 603e 2196 4d3e 1db7 893e
00000070: 586a 37bc 17ee 20be 48e5 ce3d fd93 9f3d
00000080: 67eb 283e 8166 cabd bbd7 69bc d178 423e
00000090: 52be 5e3e 6db8 883e f743 27bd 11fc c2bd
000000a0: be6c 18be ef9e b83c c143 d53d 13e4 f83c
000000b0: 321c 533e 7e22 9bbc a645 1bbc a630 92bd
000000c0: 6a9f 56bc 58d6 3ebd 42b6 5d3e 21c2 4e3e
000000d0: 8264 5bbe 1f3b 263e be4b 11be 7ee3 18be
000000e0: 60e1 353e 4412 70bd b737 28be 7175 da3c
000000f0: 8a2b 553e b9f3 43bc 5645 803d 518c 45bd
00000100: 098c 473e 7c19 773e 47d2 343d 12e4 5f3e
00000110: 28b1 39be 7dc5 843e 011c 4c3e a2f1 ddbd
00000120: 3b77 773e b7c8 2dbe ec48 f3bc d61d 18bd
00000130: b26c 503e ce6f 1ebd e98c 57bc 6feb a53d
00000140: 9dd3 173e 7bee 60bc 7240 67be e174 453e
00000150: a5ef 073e fe89 903e fa84 633d a3a0 f73c
00000160: 8c34 603e 1143 4cbe 9167 483d 0a7d d6bd
00000170: b9cd 41be 94f0 f8bd ad52 813e 7626 95be
00000180: 8337 6f3e 5a3a 583e 4ce2 0dbd d9c6 cbbc
00000190: 15cd 00be b0c5 bdbe 6809 3dbd f619 15be
000001a0: 5316 e1bd 3310 6e3e 5316 613e 8088 3c3e
000001b0: 76a5 9d3d 72f3 5e3e 02d6 5fbc a1ba 493e
000001c0: 4057 3fbd 458d 013e 396c 4bbd 92b5 543e
000001d0: a04a 32bd b9bd 4c3e 63a3 e9bb e6e7 1a3e
000001e0: 0949 4e3e 30ad 3fbe 92b6 58bd d803 46bd
000001f0: bcc9 7cbe c54e 81be e900 4d3e c57c 8a3b
00000200: 4cb3 803d 64b1 883d db50 67be a859 393e
00000210: bc15 013b f8b3 3ebd e0e3 3f3e 2ec7 11be
00000220: 5017 33be 4e1f a13d a152 523b f418 78bc
00000230: 615b c3bb 98e2 bdbd 594d c0bd ca4f 503e
00000240: 68a2 30bd cba5 7c3d f091 b6bc ca19 593e
00000250: 7a3e dcbc 3ecc 1f3e fbfb e43d a98d c13d
00000260: 157c 1a3d 84a0 03bc c54f 1e3d 1bce 683e
00000270: 3e6e 1ebe 4afc 5f3e 6f41 803e 1111 4cbe
00000280: 5fc4 25bd f509 873e afa4 363e 09b9 4c3e
00000290: 3f08 2fbb 5a7e 553b 1358 6e3e b194 413e
000002a0: 1df7 8fbd a377 e9bb 8a8f 55bd 7266 503e
000002b0: 7d04 873e 1d1a 1f3d 04f8 833a fe0c 293e
000002c0: 71b9 d73d 40ab 31be f911 40be ce2d 10be
000002d0: c84a 3cbd 5ae8 543e 3855 3abe 2338 e5bc
000002e0: 5bf4 6b3e c138 423e d485 763e 5d85 0a3e
000002f0: 91f0 c6bc 3d4e 823e ffa2 29bc e4ad 7a3e
00000300: d4a5 793e ff42 20be 423c 693e 90d9 ce3d
00000310: 2727 b73d 818d d03d 35c5 1f3e 5de1 03bd
00000320: f60e 1b3d 14de e0bd 0dac 953d 81d7 ccbc
00000330: 002f 343e 12c4 5cbc 672a abbc 4bc5 643e
00000340: ed3a 9f3d 90ff 373e def6 273e d158 d83b
00000350: 120e 59be f816 3bbe e6e8 1ebc 3a8a 5f3e
00000360: 69e2 4f3e f989 c5bc d090 bebd e4ac 763e
00000370: b6ea 1f3e 48ed 3cbe 7d03 033e caf8 513e
00000380: b321 693e 7a56 d8bd 6e13 17be e45b 773e
00000390: 632c 683e 6893 3fbc 9949 4a3e 657c 153e
000003a0: 82be 653d 17e5 2e3e 551f 853e f57b 0dbd
000003b0: 2f95 2abe 1d3f 04bd 2dc0 8ebc 7fff a4bd
000003c0: 936d f93c 34e5 703e 44b6 0f3b 8cb0 0e3c
000003d0: 8fb4 b73d 100b 343e 29ce 493e 6bdc 69be
000003e0: 685f 37bd d0c6 353e 928d e33c 63c9 6b3e
000003f0: d533 0cbd 801d 39be 4ec6 1a3e a2e1 683b
-0.026161063 -0.056625586 -0.041003194 -0.049036417 -0.012467721 -0.22666924 0.045091327 -0.06640784
0.008281421 0.22541158 0.16209053 -0.089696884 0.19642283 0.19643475 0.08839452 -0.20052959
0.24297708 -0.04707617 -0.15043482 0.18690097 0.01292649 0.23998493 -0.12772544 -0.20574501
0.122153126 0.21915309 0.20076801 0.26897517 -0.011194788 -0.15715824 0.10102326 0.077918984
0.16496049 -0.09882832 -0.014272626 0.189914 0.21752289 0.26703206 -0.0408363 -0.09520734
-0.14885232 0.022536723 0.10413314 0.030382192 0.20616224 -0.018937346 -0.009477055 -0.07138185
-0.013099531 -0.046591133 0.21651557 0.20191242 -0.2142506 0.1623349 -0.1418905 -0.14930531
0.17761755 -0.05861117 -0.16427504 0.026667329 0.2081739 -0.0119599635 0.06263225 -0.04822952
0.19487013 0.24130815 0.04414585 0.21864346 -0.18133986 0.25931922 0.19932558 -0.108371034
0.24166577 -0.16971098 -0.029697858 -0.03713783 0.20353964 -0.038680844 -0.013156154 0.08101546
0.14826818 -0.013728733 -0.22583178 0.19282867 0.13275011 0.2823028 0.05554674 0.030227965
0.21895045 -0.19947459 0.048926894 -0.10473068 -0.18926133 -0.12155262 0.2525839 -0.29130906
0.2336102 0.2111601 -0.03463964 -0.024875091 -0.12578233 -0.37064886 -0.04615155 -0.14560685
-0.10990586 0.23248367 0.21981172 0.18411446 0.07697575 0.21772555 -0.013661863 0.197001
-0.046714067 0.12651546 -0.049663756 0.20772389 -0.0435282 0.19994248 -0.007130073 0.15127525
0.20145048 -0.1871841 -0.052908488 -0.04834351 -0.2468633 -0.2525541 0.20019878 0.0042262995
0.06284198 0.066744596 -0.22589438 0.18100607 0.0019696793 -0.04655835 0.18739271 -0.14236137
-0.17489362 0.07867299 0.0032092708 -0.015142668 -0.005961821 -0.09271735 -0.09389753 0.20342937
-0.043123633 0.06168155 -0.022286385 0.21201244 -0.02688526 0.15605256 0.11180874 0.09450848
0.03771599 -0.008033875 0.038650293 0.22734873 -0.15471742 0.21873584 0.25049922 -0.19928385
-0.040470477 0.26374784 0.1783626 0.1999246 -0.0026707796 0.0032576532 0.23275785 0.18904378
-0.07029555 -0.0071248575 -0.052138843 0.2035158 0.26370612 0.038843263 0.0010068421 0.16508862
0.10533417 -0.17350483 -0.18756856 -0.14079973 -0.045969754 0.2079176 -0.18196571 -0.02798087
0.23042433 0.18966962 0.24074489 0.13527437 -0.024284633 0.25450316 -0.010353803 0.24480397
0.24379665 -0.15650557 0.22776893 0.101000905 0.089430146 0.1018324 0.15602572 -0.032197345
0.037856065 -0.10979858 0.07308207 -0.025005104 0.17596054 -0.013474481 -0.020894242 0.22340886
0.07774911 0.17968583 0.16402766 0.0066023846 -0.21196774 -0.1827048 -0.009699082 0.21830073
0.20301212 -0.024113642 -0.093049645 0.2408939 0.15616879 -0.1844989 0.127943 0.20505062
0.22766761 -0.10563369 -0.14753506 0.24156147 0.22673182 -0.011692859 0.19754638 0.14598234
0.056089886 0.17079578 0.26000467 -0.034542043 -0.16658472 -0.032286752 -0.01742562 -0.080565445
0.030447757 0.23524934 0.0021928707 0.008709084 0.08969986 0.17582345 0.1970755 -0.22837989
-0.04476872 0.17751622 0.027777467 0.23026042 -0.03422912 -0.1807766 0.1511471 0.0035534878

net.4.weight f4 [1, 256]
00000000: c625 253f 30ee c93c fa02 e83e 7198 d03d
00000010: af0f 3aba 0971 d83f 05c0 1d3f 407e 453f
00000020: 4926 d9bd eab3 5dbf e9f2 c6bf f4c5 093f
00000030: 0b11 68bf 1bc2 6abf d91b c2bf 290a d93f
00000040: 15bc 87bf ff4f 3b3d 71f6 d13f c5b9 84bf
00000050: 72bf 6f3f a4d2 77bf e4b2 8e3f ca76 ef3f
00000060: bc57 8f3f 9b6a eabf 2cee 7ebf caad d1bf
00000070: 39e1 ddbd 8cae 863f cee2 283f b9ff 5a3f
00000080: 73bf 6fbf c000 433f 4bdf e8bd bac5 d3bf
00000090: 10a0 b0bf 7f25 a7bf 74c7 0f3d a675 2c3f
000000a0: 41b6 dd3f 9ae0 673f 1de2 1f3f 9cc9 083f
000000b0: b470 79bf 3723 3abd 4ef6 abbd 6009 403f
000000c0: 44e8 0f3d 53a5 773d 93e6 69bf 9e51 9cbf
000000d0: 70d0 cf3f 1a72 56bf 3038 463f 81cd d63f
000000e0: 631b efbf 15de 12bf a2f2 e13f 2980 563f
000000f0: a38f e5bf 2030 453f b5e8 973f 9551 1f3d
00000100: 8048 b6bf dd8a 87bf 4b59 76bf 9524 81bf
00000110: 0da6 163f 3a99 50bf f35a 6dbf 31bf d53f
00000120: 5cdc 083f c906 583f 5029 30b7 485b 4cbd
00000130: 861c 19c0 67fd be3d c4a7 87bd a06c bdbf
00000140: f04b 4abf 39ba 573f 3be4 693f 1f1c a7bf
00000150: e057 b5bf e402 71bf 426e 693f 8308 7b3f
00000160: e677 9cbf 5106 d33f 594d c0be 1b23 f83f
00000170: 698c d53f 908e 4e3f 2592 08c0 163f 803f
00000180: 15b6 88bf edd7 89bf 9753 a7bb ed14 9dbf
00000190: f128 d43f 3c16 833f 58b2 443f 43c8 f33f
000001a0: 1d2c 9c3f 5342 e2bf 3ce8 79bf dcef 72bf
000001b0: d14d 45bf e5fd 8ebf 4e51 213f f7c8 aebf
000001c0: 7dfc 183d ce60 94bf fc49 0a3d c72b a4bf
000001d0: a1a5 593f a6a7 93bf 2d71 173f 8af2 d1bf
000001e0: 56be 90bf 44af 8c3f ed27 1ebc 7701 b0bf
000001f0: 118c dd3f e506 9a3f 0715 adbf 3dc9 93bd
00000200: 0938 d53f 07d9 36bf e283 e83f 95c9 8bbf
00000210: b58a 163f 9960 db3f 237c e2bf 7799 383e
00000220: d97f db3f f46d 073f 7812 42bf de93 2b3f
00000230: da5d e9bd 3e13 293f ab37 f93f 658a 82bf
00000240: bb4c fc3c faeb 6f3f 8f7d bc3f d5ba 82bf
00000250: 3a27 e33a aa5f d1bf b7d2 a3bf 1605 99bf
00000260: 11d0 5a3f 939c edbd 9cfc 0c3f 9598 8fbf
00000270: 5342 7b3f 5c7b 7bbf df71 a0bf 21f2 df3f
00000280: 39ba 573c 2d03 88bf c24c 60bf 5a28 5bbf
00000290: 0998 de3d 3509 04be 1eb6 9ebf d477 70bf
000002a0: eb0f f03f 2dca 843c aae2 e93f a236 5fbf
000002b0: 6b2d 69bf af33 b4bf dd3d 183f 69d0 52bf
000002c0: 0195 553f 9212 6b3f 9a70 693f 09cf d93f
000002d0: e722 bf3a 3d2f 83bf 540e 8c3f 27b8 bc3d
000002e0: 93af 6ebf 6d23 8cbf 0b56 69bf 2eae 91bf
000002f0: e72d b9bb c82a b9bf d92d d8bd 9982 4dbf
00000300: 2d91 81bf 69be d53f c9ad d1bf edb9 8ebf
00000310: 7b88 71bf 8c3d 843f d200 6fbf 6ddc 9b3c
00000320: 007b 38bf 17e1 373f 2d06 143f fcc3 fe3b
00000330: 3279 50bf fe45 2c3f ef98 393f 85b4 88bf
00000340: 1738 363f 3d30 87bf 10ba cdbf e565 1fbd
00000350: cafd e53f e943 df3f 7355 f0bd acd2 74bf
00000360: 7625 91bf 9e0a ac3d 9b88 7e3e 165e 9fbf
00000370: 7761 a0bf 1ae5 e03f 62dc 53bf fa0c 5ebf
00000380: d94d 42bf 5568 163f 71fe 583f 3e95 8bbf
00000390: 54e9 74bf 5a5e ebbb 6247 57bf f8b5 463f
000003a0: 7995 5a3f b535 87bf 7d4a 8cbf ac3a 05bd
000003b0: 3162 583f 8436 0440 73cc f1bd dc0c 0340
000003c0: 397a 513f e56d 8dbf 07cc b4bf b8aa cbbd
000003d0: c35e 763f e26b d3bf 756f 0dc0 503d ce3f
000003e0: cf42 323e 7431 76bf c389 733f 800b bcbf
000003f0: 820f 653f 032e 7b3f 099e c4bf a03c c5bd
0.6451076 0.02464971 0.4531477 0.10185326 -0.0007097674 1.6909496 0.61621124 0.7714577
-0.106030054 -0.8660265 -1.554288 0.5381768 -0.90651006 -0.9170243 -1.5164748 1.6956226
-1.0604273 0.045730587 1.6403333 -1.0369192 0.936515 -0.9680579 1.1148343 1.8708127
1.119865 -1.8313783 -0.9958217 -1.6381161 -0.108339734 1.0522017 0.65971076 0.8554645
-0.93651503 0.7617302 -0.11370715 -1.6544716 -1.3798847 -1.3058318 0.035102323 0.6736702
1.7321244 0.9057709 0.62454396 0.5343263 -0.97437596 -0.04544374 -0.08396588 0.75014305
0.035133615 0.0604604 -0.91367453 -1.2212408 1.6235485 -0.83767855 0.77429485 1.6781465
-1.8680233 -0.5737012 1.7652171 0.83789307 -1.793446 0.7702656 1.1867892 0.038896162
-1.4240875 -1.0589253 -0.9623 -1.0089289 0.58847123 -0.81483805 -0.927169 1.6698972
0.5346124 0.84385353 -1.0500036e-05 -0.04989174 -2.392366 0.093256764 -0.06623796 -1.4798775
-0.7902212 0.8426853 0.9136388 -1.3055457 -1.4167442 -0.94145036 0.91183865 0.9805986
-1.222409 1.6486303 -0.37559012 1.9385713 1.6683475 0.80686283 -2.13392 1.0019252
-1.0680567 -1.076902 -0.0051064 -1.2272011 1.6574994 1.024116 0.7683463 1.904549
1.2200962 -1.767649 -0.97619987 -0.94897246 -0.77071863 -1.1171232 0.63014686 -1.365508
0.037350167 -1.1592042 0.033761963 -1.282586 0.85018355 -1.1535537 0.5915707 -1.6402142
-1.1308086 1.0990987 -0.009653074 -1.3750447 1.730837 1.2033354 -1.3522042 -0.072161175
1.6657726 -0.7142491 1.8165247 -1.0920893 0.588054 1.7138854 -1.7694134 0.18027292
1.7148391 0.5290215 -0.7580943 0.670225 -0.11394854 0.66044986 1.9470114 -1.0198485
0.030798307 0.93719447 1.4725817 -1.0213267 0.0017330416 -1.6357319 -1.279868 -1.1954677
0.85473734 -0.1160213 0.5507295 -1.1218439 0.9814808 -0.98235106 -1.2534751 1.7495767
0.013166958 -1.0625969 -0.87617123 -0.85608447 0.10868842 -0.12894137 -1.2399328 -0.93932843
1.8754858 0.016209686 1.8272297 -0.8719274 -0.9108493 -1.4078273 0.59469396 -0.8234926
0.83430487 0.9182521 0.9118744 1.7016307 0.0014582545 -1.0248791 1.0941873 0.09214812
-0.93236655 -1.0948311 -0.91146916 -1.138128 -0.005651224 -1.4466181 -0.1055562 -0.802774
-1.0122429 1.6698734 -1.638116 -1.115049 -0.9434888 1.0331283 -0.93360627 0.019026006
-0.72062683 0.71827835 0.57821923 0.007774828 -0.8143493 0.672943 0.72498983 -1.068009
0.71179336 -1.0561596 -1.6072407 -0.038915534 1.7968075 1.74426 -0.11735048 -0.9563396
-1.1339557 0.084004626 0.24856798 -1.2450588 -1.2529744 1.7569916 -0.8275815 -0.8673855
-0.75900036 0.5875295 0.84763247 -1.090492 -0.9566853 -0.0071828784 -0.84093297 0.7762141
0.8538433 -1.0563265 -1.0960232 -0.032526657 0.8452483 2.0658274 -0.11806574 2.0476599
0.8182712 -1.1049162 -1.4124764 -0.099446714 0.96238345 -1.6517298 -2.2099278 1.6112461
0.17408298 -0.9616921 0.9513208 -1.469101 0.8947679 0.98117083 -1.5360729 -0.09630704
