output/CarlaNavigation-v0/gin/1/cost_var.pt (torch, 536535 bytes, 5 tensors)

net.0.weight f4 [256, 263]
000000 df 0b f1 3d c5 e8 9f bc e6 93 36 bf 4a 51 73 3e
       0.11769842 -0.019520173 -0.71319425 0.23761478
000010 6c c3 c4 be 04 8f a3 3e e4 b0 09 3e df 1b 9a 3e
       -0.38430345 0.3194505 0.13446385 0.3009939
000020 d9 e1 64 3f 64 44 e6 3d 50 fc b9 3d 83 5a b7 3e
       0.89407116 0.11243513 0.09081328 0.35811242
000030 81 a0 5d 3d 3d 4d b5 3e d5 36 28 bc 49 4c aa 3d
       0.054108147 0.3541049 -0.010266979 0.083153315
000040 f2 89 fd 3e 20 f9 57 be 67 b4 8c 3e 16 30 a6 3e
       0.49519306 -0.21091127 0.27481386 0.32458562
000050 44 3a 11 3f e7 5d 42 3d f4 3b ef be ae 95 a0 bd
       0.5672953 0.047452834 -0.46725428 -0.07841049
000060 78 da 00 3f 4c 53 fd 3d 29 89 a9 3d 08 a0 07 3e
       0.50333357 0.12369403 0.08278114 0.13244641
000070 78 4e 55 be 3a 45 68 3e 67 c7 3a 3d a0 ce 7c 3e
       -0.20830715 0.22682658 0.04560032 0.24688196
000080 78 67 49 3f 2b 5b 24 3f 8c 00 91 3d 5d 4a 2f be
       0.78673506 0.6420161 0.070801824 -0.17118211
000090 85 59 e9 bd db 6e 94 3e e9 4a 6f 3e a4 70 c3 be
       -0.113940276 0.28990826 0.2336842 -0.38171875
0000a0 93 96 a3 3e 09 74 92 3e ea c0 83 be 31 77 ac 3e
       0.31950817 0.28604153 -0.2573312 0.33684686
0000b0 38 b0 d5 3d bc 75 90 bd 92 21 18 3e c5 3f 27 be
       0.10434002 -0.07053706 0.14856556 -0.1633292
0000c0 32 44 fc be 98 f7 fe 3c fe 05 8f 3e d5 49 8f be
       -0.4927078 0.031123921 0.2793426 -0.27986017
0000d0 3d 29 f2 be d2 60 27 3e fd 73 3c be f2 26 9a be
       -0.47297087 0.16345528 -0.18403621 -0.30107838
0000e0 dc 50 a1 bd e9 d2 ee 3d 2b 24 b1 3e 08 44 2b 3e
       -0.07876751 0.11661322 0.34597906 0.1672517
0000f0 49 d8 c1 bd aa 55 48 3f 3b 0f a8 bd 9e 78 3b be
       -0.09465081 0.78255713 -0.0820603 -0.1830773
000100 6f eb 4e bd a2 bd 8b 3d 2e d3 8b 3e bf 08 ca bd
       -0.050517496 0.06823279 0.27309555 -0.098649494
000110 bb b1 e5 bd 0d 84 85 be b3 f4 83 bd 8f 84 2a 3d
       -0.1121554 -0.2607731 -0.06443157 0.041630324
000120 9a 39 04 3f 2d 6b 4c be a9 ec 69 be fa 13 34 bd
       0.51650393 -0.1996276 -0.22844185 -0.043964364
000130 4a 81 ac bd dd f2 d5 3b c9 57 eb be a9 c5 e7 3e
       -0.084230974 0.0065291957 -0.45965412 0.4526799
000140 bf 3f 7b be 00 b3 8f be df 71 3b be fe c4 25 3e
       -0.24536036 -0.28066254 -0.18305157 0.16188428
000150 65 24 a3 3e 42 ce c3 be 1d c1 f9 3d 51 57 e1 3d
       0.31863704 -0.382433 0.121950366 0.110029824
000160 c9 85 2a 3e 96 85 7d be 21 e3 15 bf e3 07 0e 3f
       0.16652597 -0.2475799 -0.58549696 0.55480784
000170 2e 60 80 be 8d 31 e5 3e 3e d7 9b be c6 e1 99 3c
       -0.2507338 0.44764367 -0.30437654 0.018784415
000180 bc 6d 77 3e 88 fc 88 be 53 2c f0 3e d7 fd 96 be
       0.24162954 -0.26755166 0.46908817 -0.2949054
000190 18 67 f7 3e 53 13 86 be 40 21 89 bd a5 00 0e 3f
       0.48320842 -0.26186618 -0.06695795 0.55469733
0001a0 f4 0f d2 bd a5 78 95 3e f4 d4 77 be 1f 01 2b be
       -0.10256949 0.29193607 -0.24202329 -0.16699646
0001b0 db 46 68 bd 62 c3 8c 3e a6 b6 38 be 64 99 dc bd
       -0.056708198 0.27492815 -0.18038425 -0.107714444
0001c0 88 43 04 3f db c8 26 3e 19 2f aa 3a 92 b0 d0 be
       0.51665545 0.16287558 0.0012984007 -0.40759712
0001d0 58 3d 0a bf 61 e6 5d 3c c9 64 4e 3d 49 04 5a bd
       -0.53999853 0.013543696 0.050389085 -0.053226743
0001e0 7d dc ab be 02 69 c7 3d 8e 61 e2 3d 00 62 e8 bd
       -0.33566657 0.097368255 0.11053763 -0.11346817
0001f0 7f d2 cf bd 88 8d 62 3f 80 aa 1d 3e dd d4 05 be
       -0.10147571 0.8849721 0.15397072 -0.13069482
000200 d0 27 da be 0e 89 7c 3e 9a 15 82 be ff 0b a9 be
       -0.426085 0.24661657 -0.25407106 -0.33016965
000210 12 70 a0 be 58 51 6d 3e 26 bf 28 be ac 46 01 bf
       -0.31335503 0.23175561 -0.16479167 -0.5049846
000220 46 7f 8f bc e5 f8 1c 3d 24 1b a6 be 62 b2 2b 3e
       -0.017516743 0.0383233 -0.32442582 0.16767266
000230 0d ec 71 3e a5 97 d7 3e bf 83 77 be 60 8d 83 3e
       0.23625202 0.42107883 -0.24171351 0.25693798
000240 03 71 26 3e 57 03 58 be 38 87 84 bd 3f f7 65 be
       0.16254048 -0.21095024 -0.064711034 -0.22457598
000250 0c 85 0a bd 50 cc 2e 3b e5 ea cd 3e 8a 25 c3 3e
       -0.03381829 0.0026672073 0.40218273 0.38114578
000260 8f 39 c9 be 36 e1 91 be dd 7b ba be 67 4a 10 be
       -0.39301726 -0.28492135 -0.36422625 -0.14090882
000270 4f c1 62 3c bb 75 db be 92 0a 43 3e f7 b5 24 3e
       0.013840034 -0.4286326 0.19047001 0.16085039
000280 e8 a4 61 be b5 ad 44 be 1f 58 88 3e bc c5 d9 3d
       -0.22035563 -0.19206889 0.2662973 0.10633418
000290 99 84 a3 3e 9b 11 7a be 9e 34 d3 3e da f2 94 3c
       0.319371 -0.24420778 0.4125108 0.018182207
0002a0 ab a3 0b 3d ea 7b bc be 8a ed 0d be 2e 08 26 3f
       0.034091633 -0.3681329 -0.13860145 0.6485623
0002b0 4a 27 74 3d b1 c2 42 3d e8 ea 2d 3e 68 0d e2 be
       0.05960778 0.047548953 0.16984141 -0.44150853
0002c0 1d 1c 40 3e 8d a0 db be 85 70 ad be 99 f7 9b be
       0.18760724 -0.42895928 -0.33874908 -0.3046234
0002d0 cf 89 b1 3d ef 49 cf 3e da 87 e6 3d fc a0 e5 be
       0.08668863 0.40486094 0.112563804 -0.44849384
0002e0 16 90 cc 3d 39 a7 41 be d8 29 6a be d0 6c af 3e
       0.0998842 -0.18911447 -0.22867525 0.34262705
0002f0 86 25 ff be db 2a 02 3d 7f 27 5b be df 8b 6d 3e
       -0.49833316 0.03177915 -0.21401785 0.23197888
000300 9a 05 07 bf e3 31 1f be 77 7c a9 bd 7e c9 40 3d
       -0.5274292 -0.15546374 -0.08275693 0.047067158
000310 a2 96 51 3e 3a 73 02 3e 4b cf d6 be 57 ea c3 3e
       0.20467618 0.12739268 -0.41955027 0.38264725
000320 39 14 80 3e af cc e7 bd 8b 4d 3d 3c 7e 1e 08 3f
       0.2501543 -0.11318337 0.011554132 0.5317153
000330 ac 22 93 be 34 59 6d be 44 e6 b2 3e ff 42 b6 bd
       -0.2873739 -0.2317856 0.34941304 -0.08899497
000340 8c b9 3e 3d ac 5d de 3c 35 f7 9c 3d 19 bb 08 3e
       0.04656367 0.027144276 0.076643385 0.13352622
000350 b0 e5 fc ba a0 79 b3 3e 12 91 87 be 1c 71 04 3e
       -0.0019294526 0.3505373 -0.26477867 0.12933773
000360 e9 94 85 be 98 1c 56 3d f7 81 f0 be d7 c2 86 bd
       -0.26090172 0.052273363 -0.46974155 -0.065801315
000370 ae 76 22 bd 5a 64 a0 bb 7f 98 35 be 7c ac ca be
       -0.039663963 -0.0048947753 -0.17733954 -0.3958472
000380 44 ca 5f be c8 a9 0d bf 58 1c 10 be 23 77 05 bf
       -0.21854502 -0.5533719 -0.14073312 -0.52134913
000390 75 60 ce be 23 41 c2 3e 89 c8 85 bd 6f 65 94 be
       -0.40307966 0.3794032 -0.0653239 -0.28983638
0003a0 34 79 87 bd c0 bf ae 3e 92 b7 e7 bd c0 cd f3 3e
       -0.066149145 0.3413067 -0.1131431 0.47617912
0003b0 10 3f 50 3f 79 5d de be b4 2a 84 be 2b d8 99 3b
       0.81346226 -0.4343069 -0.2581383 0.0046949587
0003c0 5b 70 1b be a7 0d 87 3d 81 b5 98 3e 59 b1 54 be
       -0.15179579 0.06594401 0.29825976 -0.20770778
0003d0 64 a7 4e be b6 52 96 be ec a2 80 be 72 de f5 3d
       -0.20181042 -0.29359978 -0.251243 0.12005319
0003e0 5c 12 1c 3e 31 3d 92 3d 29 03 37 3e 9b 39 60 be
       0.15241379 0.071405776 0.17872299 -0.21896975
0003f0 4f 1e 98 be 5b a6 c1 bd 30 e9 06 be 8c 27 21 3f
       -0.29710624 -0.09455558 -0.13174891 0.6295097

net.0.bias f4 [256]
000000 32 c0 9b bc 0e 9b 1b bd bd 5f 9c 3b 72 f4 06 3e
       -0.019012544 -0.03798967 0.004772155 0.13179186
000010 36 74 14 3e 08 a5 e2 bd 34 a4 e8 bc 66 e5 09 be
       0.14497456 -0.110666335 -0.02839861 -0.13466415
000020 ab 42 f8 3d 6f 33 89 be 34 fe 35 3e 84 ad 0a 3e
       0.12122091 -0.26797053 0.17772752 0.13542753
000030 03 7d 81 3e 80 2f 17 bc 05 de 4d be 83 f4 27 bd
       0.2529069 -0.0092276335 -0.20104225 -0.04100467
000040 d5 40 bf bd a4 82 04 3e f3 56 58 3e f5 c4 fd 3c
       -0.093385376 0.1294046 0.21126918 0.030977705
000050 f3 ad c6 3d 93 cc 43 be 66 b3 a9 bb 67 0f 1d be
       0.09701147 -0.19121008 -0.0051788567 -0.15337907
000060 60 e1 1c 3e 80 cf 67 be bc 1d 3f 3e f4 fe 9d be
       0.15320349 -0.22637749 0.18663687 -0.30858576
000070 50 2e 88 be 2a ca e5 bc b8 d6 38 be 1a 66 99 3c
       -0.26597834 -0.0280505 -0.18050659 0.018725444
000080 43 d5 3b 3e 52 6b 22 3d 19 75 87 be 53 f3 24 bd
       0.18343072 0.03965313 -0.26456526 -0.040271115
000090 c8 50 05 3e 31 f6 1f 3e 22 06 0c 3e 7b bf 4e bd
       0.13019097 0.15621258 0.13674214 -0.05047558
0000a0 0b 27 9b 3c a7 49 60 3e 3e 2b 24 bd d4 db d6 3d
       0.018939516 0.21903096 -0.0400803 0.10491148
0000b0 c7 0c 0d bd 20 f4 30 3d 26 5e c4 3c f8 b7 04 bd
       -0.034436014 0.043201566 0.023970675 -0.03240201
0000c0 68 be 18 3e 7b d5 39 be e3 d7 2e be 93 50 44 be
       0.14916384 -0.18147843 -0.17074542 -0.19171362
0000d0 e2 6a fe 3d f7 c6 89 be 35 c0 0e 3e 3f 96 9a be
       0.1242273 -0.2690961 0.13940509 -0.30192754
0000e0 e5 76 8c bc 62 5b ff 3d 4b ac eb bc fc 9c 4b 3e
       -0.017146537 0.12468602 -0.02876868 0.19884104
0000f0 6a 34 68 bd f0 ca 58 3e fe a1 3a be 5d b5 a8 be
       -0.05669061 0.21171165 -0.18225858 -0.3295087
000100 42 54 49 3e 3a fd 98 bb 45 4e 43 3e c7 c1 b4 3c
       0.19661048 -0.004668859 0.19072826 0.022065056
000110 0d 1d 10 bd 32 60 16 3e 29 18 09 bd 93 4d 97 be
       -0.035183955 0.14685133 -0.033470307 -0.29551372
000120 88 cb 0e bc 65 44 30 bd e8 0e 53 3e 94 c6 4d be
       -0.008715518 -0.043033976 0.20611155 -0.20095283
000130 0f 98 2b be 85 f7 1a bc 79 ea 64 bd 9c 1d 5c 3e
       -0.16757225 -0.009458427 -0.055887673 0.2149567
000140 0e 5b 76 be 5e ce 9e be ab 2f 18 be b7 8e 5c 3d
       -0.24058172 -0.3101682 -0.14861934 0.05384704
000150 a4 83 9d be 2e be 4e bd b2 ec 0b 3e 07 52 13 be
       -0.30764496 -0.05047434 0.13664511 -0.1438676
000160 ad a9 44 bd f1 3a 61 bc ae 5b 5a be 93 12 fd 3d
       -0.048013378 -0.013746963 -0.21324036 0.123570584
000170 9f 90 5e 3e b2 5f 2f bd 16 95 e9 bc 27 86 be 3c
       0.21734856 -0.04281587 -0.028513473 0.023257328
000180 2a f7 c9 3d 54 ed 5f 3d a7 ff fc 3d 1c ff 83 be
       0.09861596 0.054669693 0.12353449 -0.2578057
000190 8b b2 73 bc c2 7c 2b bd 10 21 21 3c ec c2 b0 3d
       -0.014874111 -0.041867025 0.009834543 0.086309284
0001a0 86 27 1c 3d 0b f2 d1 3d 9a e8 1b 3e 7d 17 c0 bd
       0.03812363 0.10251244 0.15225449 -0.0937948
0001b0 d4 50 26 3d 8e 61 dd 3d b3 81 76 3c 61 55 3d 3d
       0.040604427 0.10809623 0.015045571 0.046224
0001c0 0b 38 7a be 8b 64 14 3c f0 cc 6d 3e aa cd 17 bd
       -0.24435441 0.009057174 0.23222709 -0.03706137
0001d0 20 11 3a be 98 7e 0c 3d 4b fe 1b 3e 07 3f 06 bd
       -0.18170595 0.034300417 0.15233724 -0.03277495
0001e0 5e 3f 0e 3d 1f 6e e7 3c e8 06 5e be a5 47 70 3e
       0.0347284 0.028250752 -0.21682322 0.2346483
0001f0 9f 95 bb be 5f b1 91 be da 74 4c be 28 43 4f 3d
       -0.3663759 -0.28455636 -0.1996645 0.050601155
000200 f9 32 8c 3c d9 b4 bb be 08 ab 81 3d a1 3d f8 bc
       0.01711415 -0.36661413 0.0633145 -0.030302824
000210 fb 9e 95 bd c7 5e 02 be 45 6f 8c be 5d c8 18 3c
       -0.07305714 -0.12731467 -0.27428642 0.009325114
000220 76 c8 7c be c9 a7 bb be d3 af 46 be 00 9f 6f 3e
       -0.24685845 -0.36651447 -0.19403009 0.23400497
000230 5d 4d f9 bd ed 58 a7 3d bc d9 30 be af b0 42 3e
       -0.12172959 0.08171258 -0.17270559 0.19012712
000240 9f 98 19 bd 40 af 5b bd 6d 26 8c be 96 90 60 3c
       -0.037499066 -0.05363393 -0.27373067 0.013706347
000250 f7 e2 39 bc 77 b7 02 be f7 c5 ac 3c d4 a3 17 bc
       -0.011345617 -0.12765299 0.02109049 -0.009255368
000260 c3 69 1c 3d 30 0e b7 be d8 28 98 3e 41 e4 62 3e
       0.0381868 -0.35753012 0.2971866 0.22157384
000270 43 0d 3d 3e cf 1b 06 bd 82 48 13 3d b6 9d 95 bd
       0.1846209 -0.032741364 0.03595782 -0.073054716
000280 0c 62 9d bd d9 14 2c bd fa 8b 61 be 73 3b 75 be
       -0.076847166 -0.04201207 -0.22026053 -0.2394846
000290 17 08 14 bd ce 62 37 be 61 2f 6c 3e b6 f0 5b 3c
       -0.036140528 -0.17908785 0.23064949 0.013424089
0002a0 03 d5 93 be 7a c9 28 3e e0 40 4a bd 82 c6 46 bc
       -0.28873453 0.16483107 -0.049378276 -0.012132289
0002b0 bf 72 7c be 03 1f a6 be db b9 a1 3e 8d 21 56 3d
       -0.24653147 -0.32445535 0.3158711 0.05227809
0002c0 23 f7 8d be ef 3f 90 3e df 11 32 be 50 c7 8c be
       -0.27727613 0.28173777 -0.1738963 -0.27495813
0002d0 ce f7 11 3e a4 8b cc bb 9c 18 8b be d4 f6 ae 3d
       0.14254686 -0.0062422324 -0.27167213 0.085431725
0002e0 10 70 57 3d 5b 58 3e 3e 61 fd 68 be 8a 71 f3 bc
       0.052597106 0.18588392 -0.22752906 -0.029717226
0002f0 c2 49 74 be d8 1f 07 3c 37 39 0e 3e 45 42 be 3d
       -0.23856261 0.008247338 0.13889013 0.09289984
000300 56 f0 2e bd 43 4c 09 bb e4 21 85 be 9f 7c 23 3e
       -0.04270967 -0.0020949997 -0.2600242 0.15965508
000310 c2 5f 14 be 11 56 9a 3d fe ae b3 3d e4 e9 fa bc
       -0.14489654 0.07535947 0.087736115 -0.030629106
000320 72 3b ae be 75 8a 9a be 2a ac 13 3e 8e 8a ef 3d
       -0.34029728 -0.3018376 0.14421144 0.11696349
000330 e3 41 4d 3e 08 f5 88 be 8b bc f3 bd 81 c4 8c 3d
       0.20044665 -0.26749444 -0.11901196 0.06873418
000340 35 4c b1 bc a4 9c 80 be 2c e1 29 be 1f c1 98 be
       -0.021642784 -0.25119507 -0.16589803 -0.2983484
000350 55 4e 13 3c 51 f2 90 be e8 bb 0b 3e 96 28 99 be
       0.008990844 -0.28309873 0.136459 -0.29913777
000360 29 76 03 be a7 03 e5 3d 3c 48 ae 3d e2 71 e1 3d
       -0.12838043 0.11182337 0.08509871 0.110080495
000370 62 58 45 3e 6f d2 1b be 2d 00 98 3d b4 5c 33 3e
       0.19271997 -0.15216993 0.074219085 0.17515832
000380 46 51 9c 3e e8 7e 84 3e b4 d9 00 bd ba 56 2f bd
       0.30530757 0.25878072 -0.031457618 -0.04280732
000390 1d 6d a5 be a5 26 52 be 81 97 2e 3e ce 6f 0e 3d
       -0.3230981 -0.20522554 0.17049982 0.034774594
0003a0 a1 50 2e 3d 83 99 98 be ae 56 3d 3e 40 08 ff 3d
       0.042557362 -0.2980462 0.18490097 0.124527454
0003b0 f3 1b 80 3e e9 98 3e bd 94 88 8c 3e 85 12 04 3e
       0.25021324 -0.046532545 0.2744795 0.1289769
0003c0 1d e8 9f 3c 89 93 54 be a2 41 7d bd 80 ad 0b 3e
       0.01951986 -0.20759405 -0.06183017 0.13640404
0003d0 a3 8e bd bc 97 26 cc bb 76 85 32 bd 90 ab fc 3d
       -0.023139304 -0.006230186 -0.04358431 0.123374104
0003e0 5c c9 05 be a3 ef 8b bc b5 44 9c be 19 87 78 3d
       -0.13065094 -0.017082041 -0.3052117 0.060675714
0003f0 d1 0b 16 be d1 26 51 3e bf 38 81 3e 76 4c 9a bd
       -0.14652945 0.20424964 0.25238606 -0.07534115

net.2.weight f4 [256, 256]
000000 a1 96 99 bf 01 fd d9 bd 10 8d 05 bc a1 c0 84 3b
       -1.1999093 -0.1064396 -0.008151308 0.0040512835
000010 a7 c2 dc 3e 6e 15 28 3f 51 12 ed bd 5f 9a 0c 3e
       0.43117258 0.656577 -0.11575759 0.13730763
000020 1b 99 0d bf 6d 1e 41 bd 96 b1 a8 bd fd 35 eb 3d
       -0.55311745 -0.047148157 -0.08236997 0.11484907
000030 b9 01 d8 3c 43 d5 eb 3e de ff 8b 3e 5d e2 08 bc
       0.026368009 0.46061143 0.2734365 -0.00835475
000040 c1 d3 65 3e 60 bc e8 3d 8a 29 68 3e aa c8 a6 bf
       0.22444059 0.11364055 0.22672096 -1.3029988
000050 96 a1 1d 3f 14 4b 4a 3e 43 22 0d 3e 18 be 6c 3c
       0.61574686 0.19755203 0.13782601 0.014449619
000060 23 27 15 be bf bc 89 bb d5 42 1b 3d 51 f9 32 3e
       -0.1456571 -0.0042034085 0.037905533 0.17477919
000070 fc 9d a5 3e a2 dd 43 3d cf 15 e1 3d 17 ee 38 be
       0.32347095 0.047818787 0.10990488 -0.18059574
000080 c3 8b 40 bf c8 aa 55 bd b6 6c 06 3e 10 78 2a 3d
       -0.7521326 -0.052164823 0.13127407 0.041618407
000090 71 8e 15 3e 95 63 10 be 44 e8 b1 be 97 84 f8 be
       0.14605118 -0.14100488 -0.34747517 -0.48538658
0000a0 30 02 80 3e ad 54 26 bd 9c 38 17 3e 79 17 26 be
       0.2500167 -0.040608097 0.14767689 -0.16219892
0000b0 ee 77 06 bd 3b 55 24 bf 6e 7c 92 bf 81 44 ac 3b
       -0.032829218 -0.6419255 -1.1444223 0.0052571897
0000c0 7d 8c 70 be e6 77 0c 3f 38 1f cd bd 61 dd bb 3e
       -0.23491092 0.5487045 -0.1001572 0.36692336
0000d0 67 8b 46 3e 70 6a f6 bc 61 1c 26 be 11 fb b6 b9
       0.19389115 -0.03008005 -0.16221763 -0.00034900804
0000e0 a2 3b db 3d b6 6e ed 3d be a0 29 3d 0f 44 1a 3e
       0.107047334 0.11593382 0.04141306 0.15065025
0000f0 28 3e 08 3f d7 6a 97 3d 06 d5 9f 3e a7 1b b3 bd
       0.5321984 0.07393425 0.3121721 -0.08745509
000100 73 1a 60 bc f4 35 ba 3d b9 63 9b bf a4 45 28 3f
       -0.013678181 0.09092322 -1.2139808 0.65731263
000110 14 68 7c bd 39 2d 67 3e cc f1 04 be 41 5b 5b 3c
       -0.061622694 0.22575845 -0.12982863 0.013388456
000120 75 9f 27 3e b6 7c 06 3f 05 81 b5 be e8 eb f5 3e
       0.16369422 0.52534044 -0.35449997 0.48031545
000130 38 89 90 3d f8 18 74 bc 02 b0 f7 3d 4b d8 97 bd
       0.070574224 -0.014898531 0.12094118 -0.074143015
000140 fa 15 c3 be 88 02 a6 3d 99 88 f4 bd f6 41 77 be
       -0.38102704 0.081059515 -0.119401164 -0.24146256
000150 67 e0 ce 3e 93 6f 00 be 21 0a 2a bf a1 c7 86 3e
       0.4040558 -0.12542562 -0.66421705 0.2632418
000160 fa 24 c2 3b 44 90 ed 3d 53 79 84 3e 26 16 c5 3d
       0.005924818 0.11599782 0.25873813 0.09623365
000170 c9 a4 18 3e ee ab f0 bd 37 1c c0 3d 9a e3 42 be
       0.1490661 -0.11751543 0.093803816 -0.19032136
000180 a7 35 82 be ae ec b5 3d 79 4e 52 be 62 60 56 3e
       -0.25431558 0.08883034 -0.20537747 0.20935205
000190 d7 d2 11 be 89 aa 14 be 14 f1 2b bf 80 2d be bc
       -0.14240585 -0.14518179 -0.6716473 -0.023215055
0001a0 91 f0 2f bf 8b f0 32 bf d6 d3 b5 bd 9d c4 ce be
       -0.6872645 -0.6989829 -0.08878295 -0.4038438
0001b0 40 b7 98 3e 96 18 7d 3e c1 55 e4 3e 87 76 e0 bd
       0.2982731 0.2471641 0.44596675 -0.10960107
0001c0 02 e3 7f 3e 94 df d1 3e 3b cd 96 bf 3e f4 10 bf
       0.2498894 0.4099089 -1.1781381 -0.56622684
0001d0 40 59 3f bc b4 32 7b be 4a bd d4 3b bb bd 96 3d
       -0.011678994 -0.2453106 0.0064922916 0.07360407
0001e0 0f 38 74 bf 6c 34 8d 3e dc 0b 18 bf 1a 3a 27 bd
       -0.9539804 0.27579057 -0.59393096 -0.040826894
0001f0 1d f1 bf 3d 89 e3 05 3e d9 f5 4f bc 7b 5b 05 3c
       0.093721606 0.13075079 -0.012692892 0.008139486
000200 e9 bb 8b be 6d cb 69 be ec bc 37 bf 2d f4 c7 3d
       -0.27291802 -0.22831507 -0.71772647 0.0976337
000210 e9 35 32 bf 08 f0 d9 3d a8 63 a9 bd 7e 8f 65 3d
       -0.6961351 0.106414855 -0.08270961 0.056045048
000220 3f 65 b5 3d a7 f5 c1 3e dc be e8 3e c8 58 20 be
       0.08857202 0.3788273 0.45458114 -0.15658867
000230 a3 4b 89 3e 82 6e 2b bf 4c e7 f9 3d 75 6a aa 3d
       0.2681552 -0.66965497 0.122023195 0.08321086
000240 95 39 77 bc b5 6f 00 3f e9 0f 73 3e 94 35 ff 3e
       -0.015089412 0.5017045 0.23736538 0.49845564
000250 b2 09 e0 3d 8f 35 3d bf a6 dc 3b bf 5b 63 5f 3e
       0.10939349 -0.7390985 -0.7338356 0.21815245
000260 cb 08 a4 3e 2c 7e fd 3d c5 d2 6f bd 43 dd 5a bf
       0.32037959 0.12377581 -0.058550615 -0.8549387
000270 ed 58 31 3d 34 60 16 3e 37 c3 d8 3e 6b a5 93 3e
       0.043297697 0.14685136 0.42336437 0.2883714
000280 d9 72 b9 3e 3d 00 a6 3e 6f c3 41 3e b7 88 31 3e
       0.36220434 0.32422057 0.18922208 0.17337309
000290 19 93 e8 be df 9a 31 3f 30 52 34 be 74 0d 14 bf
       -0.45424727 0.6937694 -0.17609477 -0.5783303
0002a0 d2 e3 f5 3e 73 a8 ff 3d 01 22 c7 bc 45 9e 57 3e
       0.48025376 0.12483301 -0.024308207 0.21056469
0002b0 00 b8 bb 3e 92 12 98 3d c4 a4 46 bb 56 2c 83 3e
       0.36663818 0.07425417 -0.003031061 0.25619763
0002c0 72 73 45 3e 06 0f 50 bf 83 a5 8a 3e 38 e2 9c 3e
       0.1928232 -0.81272924 0.270794 0.3064134
0002d0 24 e9 33 bf be 7c 3c 3e 64 ec 07 be 59 c9 0c be
       -0.7027762 0.1840696 -0.1327377 -0.13748683
0002e0 7c 1a 23 bf 49 24 c6 bd e5 7e 4e 3e 4f f8 fb 3d
       -0.63712287 -0.096748896 0.20165594 0.123032205
0002f0 cd ce e4 be f7 c6 04 3e f3 f6 8e bf d7 96 0b 3e
       -0.44689026 0.12966524 -1.1169113 0.1363176
000300 fa c6 1f 3d 83 97 8e bd c3 46 34 3e 4e a4 f5 bd
       0.03900812 -0.06962492 0.17605118 -0.11994229
000310 1c a5 f6 3e 07 62 11 be 2e 0e dd bd 74 b6 f4 bd
       0.48172843 -0.1419755 -0.1079372 -0.11948863
000320 86 ae a8 3e 3d 0a 3d 3f ec 26 bc be 45 11 8d 3e
       0.3294565 0.7384375 -0.36748445 0.27552238
000330 62 c7 08 be 8b 6a a8 3e 92 2e 93 3e 63 1a 93 bf
       -0.13357309 0.32893786 0.28746468 -1.1492428
000340 b1 3c e5 3c 3d 4d b3 3e d7 d9 ce 3d 77 9f 35 3c
       0.027983041 0.35019866 0.101001434 0.011085383
000350 f3 e5 14 3f 6e 45 b7 be ab 86 3b bf 57 53 e3 3c
       0.58163375 -0.35795158 -0.7325236 0.0277497
000360 a8 cf 3a bf 64 f0 15 be 08 10 ad be 65 55 71 be
       -0.7297311 -0.14642483 -0.33801293 -0.23567732
000370 7f 43 da bd 35 cc 14 bf 05 ee 95 be bd ab 8a be
       -0.10657405 -0.58124095 -0.29283157 -0.2708415
000380 c5 07 15 3c 3c a8 48 be e2 64 f2 3d fb a8 95 bc
       0.009096091 -0.19595426 0.11835648 -0.018269053
000390 26 0f 25 3f 53 f3 a7 bd 29 8f d2 3d d6 55 32 3d
       0.6447624 -0.08200707 0.10281212 0.04353889
0003a0 0b e2 ee 3d b1 fc 25 3e 85 ee f3 bd ee ec 76 3e
       0.11664208 0.16209675 -0.11910728 0.24113819
0003b0 9f b1 d2 bd c3 b7 46 bf b1 f2 bc bd 11 0c c7 be
       -0.10287785 -0.7762415 -0.09225977 -0.38876393
0003c0 17 19 e5 be 31 bc 04 bf 8a ad 5b 3e d5 8a fb be
       -0.44745705 -0.5184966 0.21452919 -0.49129358
0003d0 8e 26 96 3d 0d 65 b6 bd 4c a6 4e 3f 3b 49 21 3e
       0.073315725 -0.08905993 0.807225 0.15750591
0003e0 fa 56 65 3e 83 4c f7 bd d3 84 09 3e 6d c7 51 3d
       0.2239646 -0.1207514 0.13429575 0.051215578
0003f0 02 da 52 3e 4c d3 9f bd ec 2a 57 3e 5b 25 3b bf
       0.20590976 -0.078039736 0.21012467 -0.73103875

net.2.bias f4 [256]
000000 b2 4f d6 bc e7 f0 67 bd 5e f3 27 bd 65 da 48 bd
       -0.026161049 -0.056626227 -0.041003577 -0.049036402
000010 dd 45 4c bc 9e 1c 68 be 9d b1 38 3d 5d 01 88 bd
       -0.012467829 -0.22667167 0.04509126 -0.06640885
000020 82 ae 07 3c 4a d2 66 3e 35 fb 25 3e fd b2 b7 bd
       0.008281352 0.22541156 0.16209109 -0.08969686
000030 79 23 49 3e 26 26 49 3e c1 08 b5 3d cd 57 4d be
       0.19642438 0.19643459 0.0883956 -0.20053025
000040 3d cf 78 3e 01 d3 40 bd 1f 0c 1a be a1 63 3f 3e
       0.24297805 -0.04707623 -0.15043686 0.18690349
000050 31 c9 53 3c af be 75 3e 91 ca 02 be 0e af 52 be
       0.012926386 0.23998521 -0.12772585 -0.2057459
000060 17 2b fa 3d 3c 6a 60 3e 2a 96 4d 3e c6 b7 89 3e
       0.1221525 0.21915525 0.20076814 0.2689802
000070 72 6a 37 bc 12 ee 20 be 25 e5 ce 3d e6 93 9f 3d
       -0.011194812 -0.15715817 0.101022996 0.07791881
000080 6e eb 28 3e 1d 67 ca bd 03 d8 69 bc 35 79 42 3e
       0.1649606 -0.098829485 -0.014272693 0.1899155
000090 c8 be 5e 3e 26 b9 88 3e 75 44 27 bd 97 fc c2 bd
       0.21752465 0.26703757 -0.04083677 -0.09520834
0000a0 6d 6d 18 be 72 9e b8 3c a1 43 d5 3d f4 e3 f8 3c
       -0.14885493 0.02253649 0.1041329 0.030382134
0000b0 5b 1c 53 3e ef 22 9b bc f1 45 1b bc 48 31 92 bd
       0.20616286 -0.018937556 -0.009477125 -0.07138306
0000c0 a7 9f 56 bc 01 d7 3e bd 9d b6 5d 3e 1f c2 4e 3e
       -0.0130995875 -0.046591762 0.21651693 0.20191239
0000d0 a1 64 5b be 79 3b 26 3e 1f 4c 11 be b5 e3 18 be
       -0.21425106 0.16233625 -0.14189194 -0.14930613
0000e0 14 e2 35 3e b8 12 70 bd 31 38 28 be 27 75 da 3c
       0.17762023 -0.0586116 -0.16427685 0.02666719
0000f0 cc 2b 55 3e 6d f4 43 bc c6 44 80 3d 68 8c 45 bd
       0.20817488 -0.011960131 0.062631175 -0.048229605
000100 70 8c 47 3e 74 19 77 3e ce d1 34 3d 47 e4 5f 3e
       0.19487166 0.24130803 0.044145398 0.21864425
000110 87 b1 39 be 08 c6 84 3e 32 1c 4c 3e ea f1 dd bd
       -0.18134128 0.25932336 0.1993263 -0.10837157
000120 02 77 77 3e d4 c8 2d be e0 48 f3 bc 88 1e 18 bd
       0.24166492 -0.16971141 -0.029697835 -0.037138492
000130 b9 6c 50 3e 52 70 1e bd d9 8c 57 bc 23 ec a5 3d
       0.20353974 -0.038681336 -0.013156139 0.0810168
000140 29 d3 17 3e b6 ee 60 bc 42 40 67 be ef 74 45 3e
       0.14826645 -0.013728788 -0.22583106 0.19282888
000150 d1 ef 07 3e 72 8a 90 3e ae 84 63 3d 4c a0 f7 3c
       0.13275076 0.28230625 0.055546455 0.030227803
000160 45 35 60 3e a6 43 4c be 0c 68 48 3d 24 7d d6 bd
       0.2189532 -0.19947681 0.04892735 -0.104730874
000170 5e ce 41 be b1 f0 f8 bd 56 53 81 3e 20 27 95 be
       -0.18926379 -0.12155283 0.25258893 -0.29131413
000180 c9 37 6f 3e 92 3a 58 3e 25 e2 0d bd 38 c7 cb bc
       0.23361124 0.21116093 -0.034639496 -0.024875268
000190 30 cd 00 be ad c5 bd be 84 09 3d bd 22 1a 15 be
       -0.12578273 -0.37064877 -0.046151653 -0.1456075
0001a0 6c 16 e1 bd 43 10 6e 3e 78 16 61 3e fd 88 3c 3e
       -0.10990605 0.23248391 0.21981227 0.18411632
0001b0 b3 a5 9d 3d f1 f3 5e 3e 69 d6 5f bc 17 bb 49 3e
       0.0769762 0.21772744 -0.013661959 0.19700275
0001c0 7f 57 3f bd b6 8d 01 3e 75 6c 4b bd a3 b5 54 3e
       -0.046714302 0.12651715 -0.04966398 0.20772414
0001d0 b6 4a 32 bd 16 be 4c 3e 57 a3 e9 bb e1 e7 1a 3e
       -0.04352828 0.19994387 -0.0071300673 0.15127517
0001e0 1f 49 4e 3e 9f ad 3f be 21 b7 58 bd 20 03 46 bd
       0.20145081 -0.18718575 -0.05290902 -0.048342824
0001f0 3d ca 7c be c4 4e 81 be 8e 01 4d 3e 6f 7d 8a 3b
       -0.24686523 -0.25255406 0.20020124 0.0042263786
000200 a6 b2 80 3d e6 b0 88 3d ce 50 67 be a8 59 39 3e
       0.062840745 0.06674366 -0.22589418 0.18100607
000210 08 15 01 3b 9c b4 3e bd 50 e4 3f 3e 85 c7 11 be
       0.0019696373 -0.04655896 0.18739438 -0.14236267
000220 55 17 33 be 31 1f a1 3d ed 51 52 3b 8d 19 78 bc
       -0.17489369 0.078672774 0.0032092289 -0.0151428105
000230 7b 5b c3 bb bd e2 bd bd cf 4d c0 bd d8 4f 50 3e
       -0.005961833 -0.092717625 -0.09389841 0.20342958
000240 06 a3 30 bd 33 a5 7c 3d 59 92 b6 bc 10 1a 59 3e
       -0.04312422 0.061680984 -0.02228658 0.21201348
000250 bd 3e dc bc 39 cc 1f 3e 7e fc e4 3d e5 8d c1 3d
       -0.026885385 0.15605249 0.111809716 0.09450892
000260 0a 7c 1a 3d 39 a0 03 bc 95 4f 1e 3d 5e ce 68 3e
       0.03771595 -0.0080338055 0.038650114 0.22734973
000270 c3 6e 1e be fa fc 5f 3e f0 41 80 3e 33 11 4c be
       -0.1547194 0.21873847 0.25050306 -0.19928436
000280 9d c4 25 bd ff 09 87 3e 08 a4 36 3e 34 b9 4c 3e
       -0.04047071 0.26374814 0.1783601 0.19992524
000290 db 08 2f bb cf 7e 55 3b 41 58 6e 3e e0 94 41 3e
       -0.002670816 0.0032576805 0.23275854 0.18904448
0002a0 67 f7 8f bd e3 77 e9 bb 27 90 55 bd fa 66 50 3e
       -0.0702961 -0.0071248873 -0.052139428 0.20351782
0002b0 af 04 87 3e 5a 19 1f 3d 6e f7 83 3a ee 0c 29 3e
       0.2637076 0.038842537 0.0010068247 0.16508839
0002c0 bf b8 d7 3d 82 ab 31 be 72 12 40 be 33 2e 10 be
       0.105332844 -0.17350581 -0.18757036 -0.14080124
0002d0 c7 4a 3c bd 9d e8 54 3e d3 55 3a be 8d 38 e5 bc
       -0.04596975 0.2079186 -0.18196802 -0.027981067
0002e0 93 f4 6b 3e 21 39 42 3e 38 86 76 3e 84 85 0a 3e
       0.23042516 0.18967105 0.24074638 0.13527495
0002f0 4b f1 c6 bc f2 4e 82 3e 99 a3 29 bc e4 ad 7a 3e
       -0.02428498 0.25450855 -0.010353946 0.24480397
000300 7d a6 79 3e 74 43 20 be 0c 3c 69 3e c4 d8 ce 3d
       0.24379916 -0.15650731 0.22776812 0.100999385
000310 9a 26 b7 3d b7 8c d0 3d ec c4 1f 3e 01 e2 03 bd
       0.089429095 0.10183089 0.15602463 -0.032197956
000320 25 0f 1b 3d cc de e0 bd 79 ab 95 3d ba d7 cc bc
       0.03785624 -0.10979995 0.073080964 -0.02500521
000330 40 2f 34 3e 0f c4 5c bc 7d 2a ab bc 80 c5 64 3e
       0.1759615 -0.013474478 -0.020894283 0.22340965
000340 ab 3a 9f 3d 4c 00 38 3e 27 f6 27 3e 17 58 d8 3b
       0.07774862 0.17968863 0.16402493 0.006602298
000350 c7 0e 59 be 5b 17 3b be 02 e9 1e bc 4d 8a 5f 3e
       -0.21197043 -0.18270628 -0.009699108 0.21830101
000360 b4 e2 4f 3e 92 8a c5 bc 82 91 be bd 37 ad 76 3e
       0.20301324 -0.024113927 -0.09305097 0.24089514
000370 64 eb 1f 3e 51 ed 3c be 07 04 03 3e be f8 51 3e
       0.15617138 -0.18449904 0.12794505 0.20505044
000380 d8 21 69 3e 2d 57 d8 bd fd 13 17 be 79 5c 77 3e
       0.22766817 -0.105635025 -0.14753719 0.2415637
000390 76 2c 68 3e f0 93 3f bc ae 49 4a 3e 2f 7c 15 3e
       0.2267321 -0.011692986 0.19754669 0.14598154
0003a0 e5 bd 65 3d b5 e5 2e 3e cf 1f 85 3e ff 7b 0d bd
       0.0560893 0.17079814 0.2600083 -0.03454208
0003b0 af 95 2a be 97 3f 04 bd 69 c0 8e bc 87 ff a4 bd
       -0.16658662 -0.032287207 -0.017425733 -0.080565505
0003c0 ee 6c f9 3c 8f e5 70 3e d2 b5 0f 3b f0 af 0e 3c
       0.03044745 0.2352507 0.0021928442 0.008708939
0003d0 ee b3 b7 3d 1f 0b 34 3e 7a ce 49 3e 1a dd 69 be
       0.08969866 0.17582367 0.19707671 -0.2283825
0003e0 77 5f 37 bd c7 c6 35 3e 76 8d e3 3c f8 c9 6b 3e
       -0.044768777 0.17751609 0.027777415 0.23026264
0003f0 2f 34 0c bd 21 1e 39 be 67 c6 1a 3e ee e0 68 3b
       -0.034229454 -0.180779 0.15114747 0.003553446

net.4.weight f4 [1, 256]
000000 51 25 25 3f 7d ed c9 3c c6 02 e8 3e 1c 98 d0 3d
       0.64510065 0.024649376 0.45314616 0.101852626
000010 2b 0f 3a ba 42 70 d8 3f eb bf 1d 3f 0b 7e 45 3f
       -0.0007097597 1.6909258 0.6162097 0.7714545
000020 d0 25 d9 bd 59 b4 5d bf 8f f3 c6 bf 37 c5 09 3f
       -0.10602915 -0.86603314 -1.5543078 0.5381655
000030 19 11 68 bf 36 c2 6a bf 22 1c c2 bf f9 09 d9 3f
       -0.9065109 -0.9170259 -1.5164835 1.6956168
000040 76 bc 87 bf da 4f 3b 3d b6 f5 d1 3f 0c ba 84 bf
       -1.0604389 0.04573045 1.640311 -1.0369277
000050 bb be 6f 3f b1 d2 77 bf 46 b2 8e 3f 7b 76 ef 3f
       0.93650407 -0.96805865 1.1148155 1.8708032
000060 36 57 8f 3f e0 6a ea bf d9 ee 7e bf 0e ae d1 bf
       1.119849 -1.8313866 -0.995832 -1.6381242
000070 79 e0 dd bd ef ad 86 3f b6 e2 28 3f 20 ff 5a 3f
       -0.108338304 1.052183 0.65970933 0.8554554
000080 f0 bf 6f bf 61 00 43 3f f5 df e8 bd 26 c6 d3 bf
       -0.9365225 0.76172453 -0.113708414 -1.6544845
000090 22 a0 b0 bf 30 26 a7 bf e5 c6 0f 3d 78 75 2c 3f
       -1.3798869 -1.3058529 0.03510179 0.67366743
0000a0 8f b5 dd 3f 26 e0 67 3f b8 e1 1f 3f de c8 08 3f
       1.7321032 0.905764 0.62453794 0.534315
0000b0 b4 70 79 bf d8 22 3a bd 96 f5 ab bd c4 08 40 3f
       -0.97437596 -0.045443386 -0.08396451 0.75013375
0000c0 b2 e7 0f 3d cd a4 77 3d 05 e7 69 bf d2 51 9c bf
       0.03513307 0.0604599 -0.9136813 -1.221247
0000d0 d3 cf cf 3f c5 72 56 bf 69 37 46 3f ec cc d6 3f
       1.6235298 -0.83768874 0.774283 1.6781287
0000e0 bb 1b ef bf ba dd 12 bf e2 f1 e1 3f f4 7f 56 3f
       -1.8680338 -0.5736958 1.7651942 0.8378899
0000f0 38 90 e5 bf ad 2f 45 3f 77 e8 97 3f 10 51 1f 3d
       -1.7934637 0.7702587 1.1867818 0.038895667
000100 fe 48 b6 bf 43 8b 87 bf 7d 58 76 bf b4 24 81 bf
       -1.4241025 -1.0589374 -0.9622877 -1.0089326
000110 5e a5 16 3f ec 99 50 bf 2e 5b 6d bf 09 bf d5 3f
       0.5884608 -0.81484866 -0.92717254 1.6698924
000120 31 dc 08 3f 32 06 58 3f 8b 29 30 b7 85 5a 4c bd
       0.53460985 0.84384453 -1.050009e-05 -0.049891014
000130 18 1d 19 c0 99 fc be 3d 56 a7 87 bd 38 6d bd bf
       -2.3924007 0.09325523 -0.06623714 -1.4798956
000140 65 4b 4a bf 00 ba 57 3f df e4 69 3f 95 1c a7 bf
       -0.7902129 0.8426819 0.91364855 -1.3055598
000150 59 58 b5 bf 67 03 71 bf 91 6d 69 3f db 07 7b 3f
       -1.4167587 -0.94145817 0.9118281 0.9805886
000160 22 78 9c bf 08 06 d3 3f 0f 4e c0 be b9 22 f8 3f
       -1.2224162 1.6486216 -0.37559554 1.9385597
000170 17 8c d5 3f e9 8d 4e 3f af 92 08 c0 d4 3e 80 3f
       1.6683377 0.8068529 -2.1339529 1.0019174
000180 93 b6 88 bf 48 d8 89 bf 05 54 a7 bb d1 14 9d bf
       -1.0680717 -1.0769129 -0.0051064515 -1.2271978
000190 d7 28 d4 3f f7 15 83 3f 0b b2 44 3f ed c7 f3 3f
       1.6574963 1.0241078 0.7683417 1.9045388
0001a0 e5 2b 9c 3f 84 42 e2 bf a1 e8 79 bf 32 f0 72 bf
       1.2200896 -1.7676549 -0.9762059 -0.9489776
0001b0 f4 4d 45 bf 01 fe 8e bf f8 50 21 3f fb c8 ae bf
       -0.7707207 -1.1171266 0.63014174 -1.3655084
0001c0 d5 fb 18 3d 24 61 94 bf 33 49 0a 3d ca 2b a4 bf
       0.03734954 -1.1592145 0.033761214 -1.2825863
0001d0 2e a5 59 3f 1b a8 93 bf ee 70 17 3f 01 f3 d1 bf
       0.8501767 -1.1535677 0.5915669 -1.6402284
0001e0 4d be 90 bf 96 ae 8c 3f 8e 27 1e bc 0d 01 b0 bf
       -1.1308075 1.0990779 -0.009652985 -1.3750321
0001f0 94 8b dd 3f 16 06 9a 3f 77 15 ad bf 0a c9 93 bd
       1.7308221 1.2033107 -1.3522176 -0.072160795
000200 ec 37 d5 3f 90 d8 36 bf 1c 83 e8 3f e7 c9 8b bf
       1.6657691 -0.714242 1.8165011 -1.0920991
000210 4e 8a 16 3f fb 5f db 3f 2a 7c e2 bf dd 98 38 3e
       0.58804786 1.7138666 -1.7694142 0.18027063
000220 2b 7f db 3f b8 6d 07 3f 2d 12 42 bf 4a 93 2b 3f
       1.7148184 0.5290179 -0.75808984 0.6702162
000230 12 5d e9 bd dc 12 29 3f 4f 37 f9 3f f7 8a 82 bf
       -0.11394705 0.660444 1.9470004 -1.0198659
000240 71 4c fc 3c 6c eb 6f 3f 76 7d bc 3f 05 bb 82 bf
       0.030798169 0.937186 1.4725788 -1.0213324
000250 e5 26 e3 3a 3a 60 d1 bf 2b d3 a3 bf 29 05 99 bf
       0.0017330317 -1.6357491 -1.2798818 -1.19547
000260 f9 cf 5a 3f 3f 9d ed bd cf fb 0c 3f eb 98 8f bf
       0.8547359 -0.11602258 0.5507173 -1.1218542
000270 19 42 7b 3f f2 7b 7b bf ff 71 a0 bf 66 f1 df 3f
       0.9814773 -0.98236 -1.2534789 1.7495544
000280 24 ba 57 3c ce 03 88 bf 99 4c 60 bf e8 28 5b bf
       0.013166938 -1.0626161 -0.8761688 -0.85609293
000290 c9 97 de 3d 30 09 04 be a2 b6 9e bf 5b 78 70 bf
       0.108687945 -0.1289413 -1.2399485 -0.9393365
0002a0 5e 0f f0 3f 71 ca 84 3c 7b e2 e9 3f 06 37 5f bf
       1.875469 0.016209813 1.8272241 -0.87193334
0002b0 c3 2d 69 bf 7c 33 b4 bf cd 3d 18 3f 08 d0 52 bf
       -0.9108545 -1.4078212 0.594693 -0.8234868
0002c0 2e 94 55 3f 6f 12 6b 3f 79 70 69 3f 91 ce d9 3f
       0.8342923 0.91825 0.91187245 1.7016164
0002d0 6e 22 bf 3a e1 2f 83 bf 86 0d 8c 3f 8a b7 bc 3d
       0.0014582404 -1.0248986 1.0941627 0.09214695
0002e0 bf af 6e bf 01 24 8c bf 63 56 69 bf 28 ae 91 bf
       -0.9323692 -1.0948488 -0.9114744 -1.1381273
0002f0 ce 2d b9 bb 4d 2b b9 bf 64 2d d8 bd 46 83 4d bf
       -0.0056512123 -1.4466339 -0.105555326 -0.8027843
000300 72 91 81 bf 01 be d5 3f 4c ad d1 bf 8d ba 8e bf
       -1.0122511 1.669861 -1.6381011 -1.1150681
000310 08 88 71 bf ec 3c 84 3f bc 00 6f bf d9 db 9b 3c
       -0.9434819 1.0331092 -0.93360496 0.01902573
000320 f6 7a 38 bf d8 e0 37 3f 14 06 14 3f 37 c4 fe 3b
       -0.72062624 0.7182746 0.57821774 0.0077748555
000330 af 79 50 bf 99 45 2c 3f d2 98 39 3f a3 b4 88 bf
       -0.81435674 0.672937 0.7249881 -1.0680126
000340 54 37 36 3f a0 30 87 bf 8d b9 cd bf ca 65 1f bd
       0.71178174 -1.0561714 -1.6072251 -0.038915433
000350 11 fd e5 3f 8d 43 df 3f ef 54 f0 bd 23 d3 74 bf
       1.7967855 1.744249 -0.1173495 -0.9563467
000360 86 25 91 bf f1 09 ac 3d 3b 88 7e 3e 13 5e 9f bf
       -1.1339576 0.08400334 0.24856655 -1.2450584
000370 af 61 a0 bf 7a e4 e0 3f 1b dd 53 bf 3b 0d 5e bf
       -1.2529811 1.7569726 -0.82759255 -0.8673894
000380 e8 4d 42 bf 8d 67 16 3f 45 fe 58 3f fc 95 8b bf
       -0.75900126 0.58751756 0.84762985 -1.0905147
000390 a3 e9 74 bf af 5d eb bb e8 47 57 bf 4c b5 46 3f
       -0.95669 -0.007182799 -0.84094095 0.7762039
0003a0 2d 95 5a 3f 38 36 87 bf 9d 4a 8c bf 79 3a 05 bd
       0.85383874 -1.0563421 -1.096027 -0.032526467
0003b0 a6 61 58 3f c2 35 04 40 ce cb f1 bd 3a 0c 03 40
       0.84524 2.065781 -0.11806451 2.0476213
0003c0 98 79 51 3f 04 6e 8d bf 58 cb b4 bf 75 aa cb bd
       0.8182616 -1.1049199 -1.4124556 -0.099446215
0003d0 28 5e 76 3f 49 6c d3 bf f1 6f 0d c0 91 3c ce 3f
       0.9623742 -1.6517421 -2.2099574 1.6112233
0003e0 61 42 32 3e a5 31 76 bf 65 89 73 3f de 0b bc bf
       0.17408134 -0.961695 0.9513152 -1.4691122
0003f0 10 0f 65 3f 43 2d 7b 3f 25 9e c4 bf 5e 3c c5 bd
       0.8947611 0.9811594 -1.5360762 -0.09630655
