output/CarlaNavigation-v0/gin/1/tp.pt (torch, 154595 bytes, 10 tensors)

decoder.lstm.weight_ih_l0 f4 [192, 2]
00000000: 7359 86bf 5c8f a6be 2e69 df3d 591b bdbf
00000010: 0f4d cd3e 7255 8cbf 869c bf3d 2c87 933f
00000020: d0e1 c43e e7e2 17bf 781d f9bd 77d1 773f
00000030: b311 873d ee17 88bf 2b0a fcbd 51a6 8dbf
00000040: ca2a 58be bc81 243f 5310 97bf 367d 1b3f
00000050: edad bc3e 3f3f bdbe 9435 edbe f38b bd3e
00000060: 684c e73e b500 fa3e 0f88 dd3e 7318 2240
00000070: aa6e debd b61a 8b3e d45b 6ebe 3014 2bbf
00000080: f2a6 833e d4e4 48be 2e77 fcbe 2744 1bbe
00000090: 6d3f 4ebe c239 593f c7a7 3cbe dafa 8c3f
000000a0: 272c 073f 4c4b 9bbf 7bad 0f3f afd1 f2be
000000b0: 49aa 88bf fa68 42be 2e05 303f ccd8 453e
000000c0: c54a 9cbf f0fa ae3f 328d 3ebf b76d 6dbf
000000d0: fabe 88bd cbbb 30be 8aa3 9a3f a6b1 963f
000000e0: da6f c0be 457c b33e d829 16bd 83e5 053f
000000f0: 2d8d 243e d5e9 023f 27ed dc3e 0d65 1fbe
00000100: 08e3 a9bd 19fc 8a3f 75dd 0c3f 42c2 2bbf
00000110: 28c0 e3bd 09d4 a43e d176 91be ff8e d73d
00000120: 376d 1f3d af92 febd d50d bf3f e8d2 0140
00000130: 53f8 9fbd 6f82 c9bd 57ea d13e 67c8 36bf
00000140: d7a0 58bf 4fdc dfbe 464c ec3d c9d8 543f
00000150: 1970 a73f 9952 fe3e bfb1 f13e fa19 4ebf
00000160: 14b1 d03e fc1c eabd 01a5 f33d d7bd cb3e
00000170: 7ace 99be 9916 d93e 46eb 6dbe 0045 033e
00000180: b1f4 21be 4dd8 5f3d 6a9a f73f 4a3a 223f
00000190: 6093 3d3f 6d4b d4bf aec3 ef3e e182 4b3f
000001a0: 2c6d 9bbe 6b0e 333f 782e ee3e 9af1 363e
000001b0: 142a 12bf ed04 583f a4bd 20be 7bb9 973d
000001c0: ba08 44bf 9608 153f d1c7 0cbf 4738 03bf
000001d0: 175b cebf 8d6c 7740 59da 81bf 905a 83bf
000001e0: fa4d a03f bf6b 69bf 4f6b 033d 5bd4 d5bd
000001f0: 358f 4440 170f 4e3f 617c 0940 7191 92bf
00000200: d04e 33c1 36c5 dec0 d4d4 533d 3c75 0b40
00000210: 7d5c 68be 9eaf 4c40 9ab7 a9bd 20d5 fabf
00000220: 7287 603f c397 b0be d1a9 113f da4b e73f
00000230: c9cd 823f 71a5 05bf 5f4a 243f 8b17 1b3f
00000240: 1a0f e63e 7cd7 39c0 d5b8 47c0 aa62 c23f
00000250: 72bb 58bf 5096 913f 5918 263f 2bc8 32c0
00000260: 9e71 20bf e4e5 7d3d 33dd 223f 8389 593e
00000270: 9fc9 0f3e 2fc9 0a40 aad2 55bf 8637 b4be
00000280: b9c0 cbbd 4556 e4bf b138 9f3f 738c 1540
00000290: bf34 5ebf fdbc c9bd 0892 033e 8eae cbbf
000002a0: 653e 9dbe 6d89 4b40 9104 0dbf f251 cdbe
000002b0: 2acd aa40 719f dc3f 54d7 f1be c891 2b3d
000002c0: 22aa 7940 a6de 1fc0 38c0 da3f d2ec c0bf
000002d0: d25a 553f 10de 9b3e dd08 29bf 5dd0 54bf
000002e0: 245c a9bf c01f 5dc0 8a81 86be a7af 893f
000002f0: 27d8 51c0 8888 61c0 c34e 15bf 0c5f 75bf
00000300: d570 d5bd 847c a13f e9de a23e 6964 a1be
00000310: de77 1abe f76a 9a3e 75bd 563f 9e38 8fbc
00000320: f13e 2fbd 3d0e 04c0 4d47 923f 0edd 9a3f
00000330: 9dac 3d3f 6992 d83f fb32 4340 9493 cbbe
00000340: a8e9 a43f 0f82 abbf f236 0f40 31bd d23f
00000350: 9037 9abf c1f9 a3bf a1bd 11c0 98dc b3be
00000360: f068 f93e 69a8 f83d ab8a 46bf 75a2 b83e
00000370: 5851 d43f 89f0 55bf c44d 90bf 070e 82be
00000380: f5be 4a3f 330a f63e 4269 34bd 6755 de3d
00000390: f72a 9140 34b5 07c0 cf3a 0fbf ad6f 00bf
000003a0: c5a9 4cbf 820a 3bbf ff53 2cbf eaf3 f5be
000003b0: 6569 3d3f f71b 0140 cdd6 e9bd 5221 8a3f
000003c0: 8ee6 563f 8b6c 973f 83a7 5bbf 4ab0 473f
000003d0: 0b00 603f 9d07 c1bf 190c 903f de44 f53e
000003e0: 1590 c53f cb06 afc0 ecf7 5c3d 4de6 f9be
000003f0: c7f8 813c de64 873e 5b34 eabf 135e 49bf
-1.0496048 -0.3253125 0.10908733 -1.4773971 0.40097854 -1.0963576 0.09356026 1.1525626
0.3845353 -0.593306 -0.12163824 0.96803993 0.06595173 -1.0632303 -0.12306627 -1.1066381
-0.21110073 0.6426046 -1.1801857 0.6073793 0.36851445 -0.36962315 -0.4632994 0.37020835
0.4517548 0.48828664 0.43267867 2.5327423 -0.10860951 0.27168816 -0.23277217 -0.6682768
0.25713307 -0.19618541 -0.49309677 -0.15162717 -0.20141383 0.84853756 -0.18423377 1.1014054
0.52801746 -1.2132354 0.56124085 -0.474256 -1.0676967 -0.18985358 0.68757904 0.19320983
-1.2210318 1.367033 -0.74434197 -0.92745537 -0.06677051 -0.17259137 1.2081158 1.1772964
-0.37585336 0.35055748 -0.036661 0.5230333 0.1606948 0.5113805 0.43149683 -0.15565892
-0.08295256 1.0858184 0.55025417 -0.6709329 -0.11120635 0.3219302 -0.28410962 0.10525321
0.038922515 -0.124303214 1.4926096 2.0284977 -0.07811036 -0.09839331 0.409991 -0.7139954
-0.8462042 -0.4372277 0.115379855 0.8314329 1.3081084 0.49672392 0.47205922 -0.8050839
0.407601 -0.114313096 0.11896706 0.39793274 -0.30040342 0.42400053 -0.23234281 0.1281929
-0.15815999 0.05464964 1.9343998 0.6337019 0.74053 -1.6585518 0.4682898 0.7949658
-0.3035673 0.69943875 0.46519828 0.17865601 -0.57095456 0.84382516 -0.15697342 0.074084245
-0.76575816 0.58216226 -0.54992396 -0.5125775 -1.6121548 3.8660004 -1.014476 -1.0262012
1.2523797 -0.9118003 0.03208476 -0.10440894 3.0712407 0.80491775 2.1482165 -1.1450635
-11.206741 -6.9615736 0.05171664 2.1790304 -0.22691531 3.1982188 -0.08286972 -1.959629
0.87706673 -0.34490785 0.56899744 1.8070023 1.0219051 -0.5220557 0.6417598 0.605828
0.44933397 -2.9037771 -3.1206563 1.518636 -0.8466102 1.1373997 0.648809 -2.7934673
-0.62673366 0.06198682 0.63618773 0.21243863 0.14041756 2.1685293 -0.8352457 -0.3519861
-0.09948868 -1.7838827 1.2439176 2.3366973 -0.86799234 -0.098505 0.12848675 -1.5912645
-0.30711666 3.1802628 -0.5508509 -0.40101582 5.3375444 1.7236158 -0.47234595 0.041887075
3.901009 -2.4979644 1.708991 -1.5072272 0.83341706 0.30442858 -0.6602915 -0.8313044
-1.3231244 -3.4550629 -0.26270705 1.075673 -3.278818 -3.5239582 -0.58323306 -0.95848155
-0.104219116 1.2616124 0.31810692 -0.3152192 -0.15084788 0.30159733 0.8388284 -0.017483052
-0.042784635 -2.063369 1.1428009 1.209871 0.7409151 1.6919681 3.0499866 -0.3976103
1.2883806 -1.3399066 2.2377286 1.6463987 -1.2048206 -1.2810594 -2.277199 -0.35129237
0.48712873 0.12141497 -0.7755534 0.36061445 1.6587324 -0.8357015 -1.1273732 -0.25401327
0.7919763 0.48054656 -0.044045694 0.10856133 4.5364947 -2.1204348 -0.5594911 -0.50170404
-0.7994655 -0.7306291 -0.6731567 -0.48037654 0.73988944 2.0173318 -0.11417923 1.0791419
0.8394555 1.183 -0.8580248 0.7800337 0.87500066 -1.5080448 1.1253692 0.47904104
1.5434595 -5.469579 0.053947374 -0.48808518 0.015865697 0.26444143 -1.8297228 -0.7865917

decoder.lstm.weight_hh_l0 f4 [192, 64]
00000000: d543 cbbc 0f1e b2bc 8cf7 46bd 8638 3bbe
00000010: 888a 013d a5c3 7cbd c99c 8f3d 53a6 5b3e
00000020: 1b99 013d 4ade 943e 0007 a83e 779e b6bd
00000030: bcf5 8ebe 351e b8bc 4496 74bd 07a3 863e
00000040: 1063 87b8 d05b 9c3d 2a97 013d 89b9 d0bd
00000050: c2a6 79bc 6d4a ba3e 1879 4a3d cb9e a9bd
00000060: 415c 4bbe 6f10 d8bc 2b2d e0bd e6f0 24be
00000070: ff98 893d 6cbe 4d3e 3b29 033f edbb 01bf
00000080: 2830 fb3d 1a53 61be 0138 cfbd e7f9 dc3d
00000090: 2a52 183e c13c 62be ed2d 10bd 369f 0b3f
000000a0: 876b 88bc 9b1b 4b3e 3bfa 0d3e 0fba dd3d
000000b0: c6db e43d 34ea adbd b25b 4cbe c2b5 5a3e
000000c0: 26b2 3cbe efe5 563e c443 c93d 883f ccbe
000000d0: dce2 b03d 68c5 97be 2dd9 acbd bcce 773d
000000e0: b476 dfbd d986 3d3b 8acf 353e 97d8 ba3e
000000f0: bb51 3cbe 611f 28bd b7e1 8fbe 2281 9dbd
00000100: 353f 283d d7b7 c8bd e997 fdbd 8eb0 3fbd
00000110: c68f 15bc fcd4 0b3d a48e e6bd d384 fabc
00000120: 26fa 303e 0cc5 98be 2c8d 5abe 3ce5 5c3c
00000130: 3036 d5be 50f7 0b3b 9f1c 4a3d d22e 0c3e
00000140: 76af 2a3e 0196 073d 6487 5fbf 4dd1 193d
00000150: 87fc 1d3e 2ed0 703d 70b3 cfbd 6ff2 e6bc
00000160: 879a d1bd c667 febc 0e78 60bd 4fe9 5ebd
00000170: 3b8b 033e 6bfc 8d3d 36a0 523e 69e5 afbc
00000180: 0289 bb3d e2bb 8fbe 6c50 f53c f88c a73c
00000190: 0a35 383e 41ca 72be 9c1f df3c 7455 2f3d
000001a0: d78c efbd 0449 ec3b 2004 3ebd c549 19bf
000001b0: 0bc9 e93d b584 03be 8d6c d73d 3da2 4a3e
000001c0: 75ff be3d 12fe 44be 3434 a3be 9a94 303e
000001d0: 85e1 3a3e 2e54 50bd 6a98 4c3e a28e a03d
000001e0: c6a8 cfbd 321b 6fbe 184c 6e3d 4ebc 573c
000001f0: ce63 b13c 0f26 3cbd 5ed6 523b aca8 923e
00000200: b30e c03c 8525 6b3d 70a2 8cbd f505 57bd
00000210: a855 1bbe fc14 cb3d 953c 74be 1217 04bb
00000220: c789 0b3e f03d e63e c751 973e 21b2 e6bd
00000230: 733c 093d 5aaa 863d 23bf bfbd 2499 85bd
00000240: 31ed d5bb 633b d8bc 68ec e33e b12b 043e
00000250: bf5b b93d 006c 723c a405 9c3d e388 153d
00000260: 7e65 d8bd 7d71 f03b fe18 f3bc 750f 493c
00000270: 95c8 71bd 4255 243e 6d4f 7ebe d7d7 0d3c
00000280: 7066 fa3d 6cfe 2f3d 9ab1 f3ba 1ae6 513e
00000290: dfc5 373d f2f4 37bd d34b f13d 78d9 98bd
000002a0: 6ea9 453d f6df ea3c 2f71 81bd 98e6 41be
000002b0: 9f40 7a3d 7c43 1fbd 840c 09be 53ca 55bb
000002c0: 3bb3 0e3b a6ce 023c 78ac 44be 58e6 dcbd
000002d0: 83f1 173e c5d6 4e3d d07a b43d eed0 cbbd
000002e0: c6cf b43c 8791 1e3c 8540 943d 5b0e 33bd
000002f0: fc38 1dbd 4c53 86be a131 c8bd 7521 e1bb
00000300: 0cb9 c3bc 6591 3f3d 9df3 3bbe 9fe8 af3d
00000310: abac 19be 562f 913c 6bb4 fdbd c7b5 d03d
00000320: 41d9 783e ff05 323d adb1 b23e c931 29bd
00000330: a6f0 e2bd a282 413c 9c9e 8b3d 7c32 253e
00000340: 63c6 38bc c2e1 1abc e3d3 0abe 35a9 5fbc
00000350: 2210 fa3c f3ef cb3d e523 2bbd e29f 193c
00000360: b22b d0bd d1a6 333d 6cb5 043e 6850 3ebe
00000370: c715 833d 385e c63d 62d9 9dbe 9892 a1bd
00000380: 8686 4bbd 2fe9 84bd baad 6bbd 720b 12bd
00000390: 1668 d3bd 0ffd 10be eb35 f5bd 928a d9be
000003a0: 86e9 03be 403b 043d 8288 e93b ef2b 1e3e
000003b0: d67a 303c 23f5 15be e59f 6e3c b68d cbbd
000003c0: 80aa b33d efb5 06be d433 dd3e b5b4 27be
000003d0: 3a7a b0bd ac08 d0bd 33c3 013d 3922 f53d
000003e0: dd20 e9bd 6d09 00bd 05f8 ba3c f19c 103e
000003f0: 7962 32be 1543 bdbc 94cb 98bc 123c f8bd
-0.024812618 -0.021742849 -0.048575923 -0.1828328 0.031626254 -0.06171002 0.07012326 0.21450166
0.031640153 0.29075843 0.3281784 -0.089169435 -0.27921855 -0.022475341 -0.059713617 0.26296255
-6.4557535e-05 0.07634699 0.031638302 -0.10191638 -0.015237512 0.36384907 0.04943189 -0.082822405
-0.19859411 -0.026375024 -0.10946115 -0.1610752 0.06718635 0.20092171 0.5123479 -0.50677377
0.122650445 -0.22004357 -0.10118104 0.107898526 0.14875093 -0.22093488 -0.03520005 0.5453981
-0.016652836 0.1983475 0.13864987 0.108265035 0.11174731 -0.08491936 -0.19956854 0.21358398
-0.18427333 0.2098615 0.098273784 -0.3989222 0.0863702 -0.29642797 -0.084398605 0.06049989
-0.10911313 0.0028919487 0.17754951 0.3649337 -0.18390553 -0.04104555 -0.28101894 -0.07690646
0.041075904 -0.0980069 -0.1238249 -0.046799235 -0.009128517 0.034138665 -0.11257675 -0.030580914
0.17282924 -0.29837835 -0.21342915 0.013482388 -0.41642904 0.0021357127 0.0493437 0.13689736
0.16668496 0.03310204 -0.87315965 0.03755312 0.15428363 0.058792286 -0.10141647 -0.028191773
-0.10234552 -0.031055342 -0.054801993 -0.05442172 0.12846081 0.069329105 0.20568928 -0.021471696
0.091569915 -0.2807303 0.029945575 0.020452961 0.17988983 -0.23709966 0.027236752 0.042806104
-0.11696785 0.0072108526 -0.046390653 -0.5987819 0.11415299 -0.12843592 0.10518751 0.19788451
0.09326068 -0.19237545 -0.31875765 0.17244187 0.18250091 -0.05086153 0.19980016 0.07839705
-0.10139613 -0.23350218 0.058178037 0.013167454 0.021654036 -0.045934733 0.003217123 0.2864431
0.02344451 0.05740883 -0.0686692 -0.052495915 -0.15169394 0.09916112 -0.23851235 -0.0020155353
0.13626777 0.4496913 0.2955458 -0.11264444 0.033504914 0.06575461 -0.09362628 -0.0652335
-0.0065285196 -0.026395505 0.445163 0.12907292 0.09050702 0.014796257 0.07618263 0.0365075
-0.10566233 0.0073377476 -0.029675003 0.012271752 -0.05902918 0.16048148 -0.24834986 0.008657417
0.1222657 0.042967245 -0.0018592358 0.20497933 0.04486644 -0.044911332 0.117820404 -0.07463354
0.048257284 0.028671246 -0.06320416 -0.18935621 0.061096784 -0.038882717 -0.1338368 -0.0032621815
0.002177431 0.007983839 -0.19206417 -0.10786122 0.14838223 0.05049779 0.08812487 -0.099519596
0.02207173 0.009678251 0.072388686 -0.043714862 -0.038384423 -0.26235425 -0.09775091 -0.0068704435
-0.023891948 0.04676952 -0.1835465 0.08589291 -0.15007274 0.017722767 -0.123879276 0.10190921
0.24301626 0.04346275 0.3490118 -0.041307244 -0.11081056 0.01181093 0.06817362 0.1613254
-0.011277768 -0.009453239 -0.13557391 -0.013651182 0.03052527 0.09957876 -0.04178228 0.009376498
-0.10164584 0.04386026 0.12959832 -0.1858536 0.06400638 0.096859396 -0.30829912 -0.07889289
-0.04968884 -0.06489789 -0.057538725 -0.035655446 -0.10322587 -0.14159034 -0.11973175 -0.42488533
-0.12882051 0.032283068 0.0071268687 0.15446447 0.010771474 -0.14644293 0.014564489 -0.099391386
0.08772755 -0.1315534 0.43203604 -0.16377528 -0.08617063 -0.10157904 0.031680297 0.11969418
-0.11383221 -0.03125899 0.022823343 0.14122368 -0.17420377 -0.023103276 -0.018651761 -0.121208325

decoder.lstm.bias_ih_l0 f4 [192]
00000000: 4d35 763c 9f0a 023e e2b1 5a3c 9025 be3c
00000010: cf7c 1dbe 6465 9cbc 237f 0d3e 604f cf3d
00000020: 1c01 213c 50de 7b3d 741d 10be 1a81 64bd
00000030: a208 98be 7ff0 283b 35c5 973d fdf0 943e
00000040: d4cb 44be 244b fe3d 8072 d33d 2a38 a23c
00000050: 76c0 3a3e 9e61 61be d0b2 613d c0bc ef3d
00000060: f0d2 c53c 2c5b 363e 3b08 9dbe 9688 ab3d
00000070: 30d5 30bc c621 223e 31fe bcbd ea61 903e
00000080: f378 0ebe 0d67 56be 2909 7ebd 7922 bdbd
00000090: 3800 85bd 6054 5a3d add9 a33e b3dd fabd
000000a0: 0d3d 123e 188b 843e 009c 14be cd37 5a3d
000000b0: 09ce 4dbe bbbc 9b3d 834c 9d3d 2b09 a2bd
000000c0: b049 b23c 2367 06be 4997 ea3b 685e 2abe
000000d0: 6dea e3bd 9901 5dbe ddc8 5b3e 37b1 25bd
000000e0: bf54 09bd d41b 89bb 4066 093e ec57 4c3d
000000f0: 2d5c 363d 3a20 14bd 5fd9 ad3e 7755 9ebe
00000100: 1e53 49bf 42db c63c 1689 48be fdda 253d
00000110: 7d23 47bf 0770 67bd 033a ff3d e6b2 8d3c
00000120: 8b20 76be b92a 03bf 7f30 c63d f465 ef3c
00000130: 17af 8ebd 0581 0abf be20 a9be 6716 10bf
00000140: 16dc 4dbe 8cb3 73be 7264 d8be 5940 623d
00000150: aea3 f6bd 12fa 6fbe 25de 99be d670 0fbe
00000160: 6933 25bf eaa0 4dbe 2da6 d13d 3b6d dabe
00000170: 58f6 28be 21f7 cebb 7ab6 16bf f87f 5abe
00000180: 1f4a ca3c ad11 00be 4970 94bd ee35 d8bd
00000190: 9d3e 3ebe 6569 43bf 0637 dbbe 22f8 f13d
000001a0: aae2 8ebe 0027 a0bc b405 4bbe 616b 01c0
000001b0: f1db 6cbe 0f72 40be 11e7 bfbe cded e2be
000001c0: b045 68bd 82cf e1be fa0a efbe 4374 513e
000001d0: 5ad4 84be 6d07 bd3d ee60 00bf ca5f aebd
000001e0: 5ec7 08bd ec48 11bf 3618 31bf b634 cbbe
000001f0: fa64 f1bd c5d2 893e 0f2d 34bf 4106 8cbf
00000200: 493b 8c3d 5a2c be3d 9253 943d 1395 3ebc
00000210: bf93 ef3c 8ea8 3e3d f5ae 853c ad5c 14bd
00000220: 64ee 173e 50d1 19be 155e 8fbd 1bd0 2a3d
00000230: f954 283b fef4 e03c 662b 4d3d f062 113d
00000240: 1fab 88bd 7567 7a3d 1e77 2b3d 42c4 c93c
00000250: ddea 393d 4159 0cbd 3002 c23d 9e1a fe3c
00000260: 321f 97bd 4a94 9dbd 1c31 9a3d 6f5c 9abc
00000270: 8dfa 743d e4eb 8dbc e54a ff3d c80d 14be
00000280: 61b4 d1bb 0c01 ddbc 19eb b83d 6654 233d
00000290: dfc1 4dbd a2cc b8bd 5b36 d73d 85d8 663d
000002a0: d8b7 d4bd 734d 2bbe d79d febc f154 da3d
000002b0: 7efd 113d 1f0a db3c 88c6 973d 0c0e 96bd
000002c0: d639 973d a1de c53b 9a1b 6e3d 9c15 e9bc
000002d0: 6964 b5bd 5f76 f93c 6bf1 01bd 2bc9 0ebd
000002e0: d087 b33c 5d78 413d 6d6c d2bc 50e1 0b3e
000002f0: 29bc 5f3e 3cca a23d 0b53 87bd 8c71 cabd
0.015027356 0.12699364 0.013348075 0.02321127 -0.15379642 -0.019091316 0.1381803 0.101225615
0.009826925 0.06149131 -0.14073735 -0.055787183 -0.29694086 0.0025778112 0.07410661 0.2909011
-0.1921838 0.12416676 0.103245735 0.019802172 0.1823748 -0.22009894 0.05510217 0.11705923
0.024148434 0.17808217 -0.30670342 0.08375661 -0.010793015 0.15833196 -0.09228171 0.28199703
-0.13913326 -0.20937748 -0.062020455 -0.09235091 -0.06494182 0.053303123 0.3200201 -0.12249317
0.14281102 0.2588737 -0.14512634 0.053275872 -0.20098127 0.07604357 0.07680609 -0.07911905
0.021763653 -0.13125281 0.007159148 -0.16637576 -0.111286975 -0.2158264 0.21463342 -0.04045221
-0.033528086 -0.0041842256 0.13417912 0.049888536 0.0445215 -0.036163546 0.33954903 -0.3092458
-0.7864245 0.024274472 -0.19583544 0.040492047 -0.77788526 -0.056503322 0.12462237 0.01729722
-0.24035852 -0.51237065 0.09677219 0.02922342 -0.069669895 -0.5410312 -0.33032793 -0.56284183
-0.20103487 -0.2379896 -0.42264134 0.055237148 -0.12042938 -0.23435238 -0.30052295 -0.14007887
-0.6453157 -0.20080915 0.10236774 -0.4266146 -0.16500223 -0.006316081 -0.5887219 -0.21337879
0.024693547 -0.12506743 -0.07247979 -0.10557161 -0.18578573 -0.76332694 -0.42815417 0.11814906
-0.27907306 -0.019549847 -0.19826394 -2.022179 -0.23130776 -0.1879351 -0.37480977 -0.44322053
-0.056707084 -0.44103628 -0.46688062 0.20454507 -0.2594326 0.09229932 -0.501479 -0.08514364
-0.033393256 -0.56751895 -0.6917757 -0.39688653 -0.11786838 0.26918617 -0.70381254 -1.0939409
0.06847245 0.09285803 0.07242502 -0.011632222 0.029245256 0.046547465 0.016318778 -0.036221195
0.14837033 -0.15021253 -0.070003666 0.04170237 0.0025685413 0.027460571 0.050090216 0.035494745
-0.06673264 0.06113382 0.041861646 0.024629716 0.04539 -0.034264807 0.094730735 0.031018551
-0.07378997 -0.076942995 0.07528898 -0.018842904 0.059809256 -0.017324395 0.12465457 -0.14458382
-0.0063996767 -0.026978038 0.09029216 0.03987541 -0.050233718 -0.090234056 0.10508414 0.056358833
-0.10386628 -0.16728763 -0.031081123 0.106607325 0.03564214 0.026738225 0.07410914 -0.07326898
0.07384078 0.0060385023 0.05813179 -0.028452687 -0.08857042 0.030451952 -0.031724375 -0.034859817
0.021915346 0.047233928 -0.025686467 0.13660169 0.21849121 0.079487294 -0.06607636 -0.098849386

decoder.lstm.bias_hh_l0 f4 [192]
00000000: d3c6 06bd 10dc 293e 75bb 92bd 53a5 cebd
00000010: cf38 a7bd 6400 7c3c d2d4 8c3d dd3b dd3d
00000020: c6b5 02be 29df 2dbd f53b 93bd 2432 d3bd
00000030: c79c c4be 312f 9ebd ee92 82bd 0824 233e
00000040: 7627 7fbe 231a 09bd 45ae 983c 8099 963c
00000050: a975 353e 0202 73be 16d0 44bd 7a27 143e
00000060: 8dbd 033e 2677 be3d 8f39 5fbe e11e 84bd
00000070: db1f d63c de5d 363e 3f96 b33d 8a48 923d
00000080: f9ab aabe c971 3ebe dab3 afbd 2c98 5a3d
00000090: 1807 a13c 5176 afbd ef55 aa3e 2856 a83d
000000a0: 96cc 62bd 3310 7e3d 6ca2 4cbe 056f df3c
000000b0: a235 a2bd ab63 c53c 4630 1e3e 397c 49be
000000c0: ce10 e538 b99b 3abe ce18 dabc bb55 1aba
000000d0: abf7 eabd 5bd2 81be ff6d fe3d ca38 8f3c
000000e0: 71e0 d33c 4055 6f3d 4082 06bd 7aa8 313e
000000f0: c693 0c3e 9931 e03c 7aa2 9a3e 7bef c1be
00000100: e6d5 4bbf 4177 8bbd 06a3 0ebe 28a2 b73a
00000110: 9ae9 2ebf 192c 40bd c218 663e e4f8 933c
00000120: df45 febd fba6 19bf af2b 9cbd 9fcc 25be
00000130: 1e4d 4ebd 36a5 26bf 39ab 8dbe 2065 16bf
00000140: e7d7 10be 21af b5be a3f6 f4be 5c7e cfbc
00000150: ac11 99be 0b6f 57be d1a2 61be f2c0 20be
00000160: d49e 2bbf c535 75be 4295 e43d 3c16 b0be
00000170: 849a 3dbc f073 43bd e4a0 13bf f240 26be
00000180: 91b3 7cbd dfe5 93bc 8902 62be 8292 ec3c
00000190: 4c92 f0bd d98e 3cbf cedc c0be 2023 2c3e
000001a0: 0e0f 81be 8576 9abd cfd6 15be 76b2 f8bf
000001b0: cc8c 3dbe 6f5c 9abe 7b26 70be 0031 babe
000001c0: 2d8c a4bd 203f f7be 535a adbe 9e23 163e
000001d0: a0ee 42be 31ea 83bd d3b3 02bf e45e b8bd
000001e0: 59bc 0a3c e9cf 25bf 93f1 11bf 0744 77be
000001f0: ed2d bdbd 3b74 913e 2d2f 32bf 66ec 67bf
00000200: 4bfe 01be 0129 00be b21a 8c3d 4954 56bd
00000210: 62a3 d13c 1ff4 783d a320 523d d46d ebbd
00000220: 5229 f9bb d12e 62be c3f6 b13d 981a 8bbd
00000230: 09cc 9fbc 197b 9b39 91bf f73d 204b 133c
00000240: 4202 bdbd 17f5 c23d ec27 133d 59a6 b5bd
00000250: 7312 81bd 834e 483b 2814 41be bd40 de3c
00000260: 808f 053e 83ac acbd 28e9 403d fd3d de3d
00000270: 68b1 073e 53c8 1cbe 1e9b e3bd 91ab 2d3d
00000280: 2dc5 1f3d 3f2e 6cbc 3931 203e 9a6a b13d
00000290: 65ec a3bc 6db4 873d b410 05bd 4998 d93d
000002a0: efac d33d f541 a83d 1aa4 843c ca0a a5bd
000002b0: 4aed 83ba ae0c 8b3d fd09 363d def4 f53d
000002c0: acf7 adbd 8559 3abe 2411 65bd 8a31 ae3c
000002d0: 15cb fb3c e2b4 1fbd 2fa2 16bd 1efc cb3d
000002e0: b008 533c a774 d6bd 149e 08be 3276 42be
000002f0: fed7 5c3e 5f0f a33c 122d 203e 0004 993d
-0.032904457 0.16587853 -0.07164661 -0.10090127 -0.08165132 0.0153809525 0.0687653 0.10802434
-0.12764654 -0.04244915 -0.0718917 -0.10312298 -0.38400862 -0.07723845 -0.06375681 0.15931714
-0.24917397 -0.03347219 0.018637786 0.018383741 0.17720665 -0.23731235 -0.04805001 0.14468184
0.12865277 0.093000695 -0.217993 -0.06451202 0.026138237 0.17809245 0.087688915 0.07142742
-0.3333433 -0.18598093 -0.08579226 0.05336778 0.019656703 -0.08567489 0.33268687 0.08219558
-0.05537089 0.062027168 -0.19983834 0.027274618 -0.07920386 0.024095377 0.15448102 -0.19676293
0.00010922701 -0.18223466 -0.026623156 -0.00058874086 -0.1147302 -0.253558 0.12423324 0.017483134
0.025863858 0.05843091 -0.03283906 0.17349425 0.13728246 0.0273674 0.30202085 -0.37878022
-0.7962326 -0.06809855 -0.13929376 0.0014010118 -0.683252 -0.046917055 0.22470382 0.018063016
-0.124156706 -0.60020417 -0.076255195 -0.16191338 -0.050366513 -0.6509584 -0.27669695 -0.58748055
-0.1414486 -0.35485175 -0.4784442 -0.025328808 -0.29896295 -0.21038453 -0.22034766 -0.15698603
-0.6703923 -0.23946293 0.11161281 -0.34391963 -0.011572484 -0.04771799 -0.57667375 -0.16235712
-0.061694685 -0.018053947 -0.2207128 0.028878454 -0.11746654 -0.7365547 -0.3766846 0.16810274
-0.25206798 -0.07542137 -0.14632724 -1.9429462 -0.18510741 -0.30148646 -0.23452179 -0.3636551
-0.08034549 -0.48290348 -0.33857974 0.14662024 -0.1903634 -0.06441153 -0.5105564 -0.09002474
0.008467757 -0.6477037 -0.5700924 -0.24147044 -0.09237275 0.2840899 -0.69603235 -0.9059509
-0.12694661 -0.12515642 0.06841029 -0.052326474 0.025590602 0.060779687 0.051300656 -0.114955574
-0.0076038027 -0.22088172 0.08689644 -0.06792182 -0.019506471 0.0002965562 0.12097085 0.008990079
-0.09228946 0.095194034 0.035926744 -0.08869619 -0.06302347 0.0030564375 -0.18855345 0.027130479
0.13043022 -0.084313415 0.047097355 0.10851667 0.13251269 -0.15310793 -0.11113571 0.042399947
0.0390064 -0.014415323 0.15643777 0.08662911 -0.020010183 0.0662621 -0.032486632 0.10624749
0.10335719 0.08215705 0.016191531 -0.080586985 -0.0010065224 0.06789528 0.04444312 0.12009595
-0.08494505 -0.18198211 -0.05592455 0.021263856 0.030736485 -0.038990863 -0.036775764 0.09960197
0.012880489 -0.104714684 -0.13341552 -0.189904 0.2156677 0.01990479 0.15642193 0.07471466

decoder.lstm.weight_ih_l1 f4 [192, 64]
00000000: 2c38 25bd 7360 b5bd 73e5 90be 6910 593e
00000010: d0de 353d 9fb3 72bd c766 7e3e 4018 e63d
00000020: b897 7bbe 8f92 19bd 4bf5 ca3a 5f2d 6dbc
00000030: cea6 8d3c c838 073e 83c2 85be ad1c a63e
00000040: b902 0f3e 9cfa f7bd 5d39 bf3d 453e 0ebd
00000050: fe76 063e 2f8b 35bd 1497 ec3e b164 e4bc
00000060: b9e2 4bbd 5e1d a13e 0236 f8bd 5cd7 bf3e
00000070: fe60 6dbe eb7a 223e 7000 2ebe 4cf0 1a3e
00000080: 3e39 123e 07b5 83bd 96bf 9dbe 05e4 c93e
00000090: 1c99 403e 90b9 a6be 5ca8 4ebe 895e 95be
000000a0: 6bea 263d 9075 86be 0afa 8e3e 272d 0b3e
000000b0: 16c0 7ebb 3e7f 1fbe 67a8 55be 3aae 8f3e
000000c0: 9885 1abd f554 e53e 243f e2bd 0ad9 4f3c
000000d0: be5c 6b3e 9e1c 7abd b4ee 55be 6d3d 7c3c
000000e0: 7e2a 3cbe 6f0b 59bf 3c77 c4bd 4f21 85be
000000f0: 6874 3cbe 321a 27be 2bd2 283e 89d3 d8bc
00000100: 6eaa bfbe 33ca 8ebe 7ff7 9fbe 1138 3d3e
00000110: c3c5 bc3d 3349 92be ebcf c63d c9f0 d13e
00000120: 7807 72be 45e6 b3be da7c 25be 93e3 bcbe
00000130: b3ed cc3e b8ad 85be ac76 04be cdf6 a43e
00000140: 62d5 ec3e da29 c1bc 130e 2fbf 21ab 43be
00000150: 4228 933e 80e6 a2be b958 1b3d 7ab4 c13c
00000160: 6c47 983d bd9f bb3e da24 bd3d c93d 0f3d
00000170: 4d4b 25bf e28e 2d3e 1d1f 393f 670c 8fbc
00000180: 8e22 67be 2813 513e d695 22be 05be fabd
00000190: cb3a efbe e095 84be 6bbe b33f a51f f3bd
000001a0: 7299 173f 9f95 11bf d0b7 26bf c9ef e5bd
000001b0: 519a 623d 6ce7 84be 020f 783f 5660 023e
000001c0: 25cd 963e 8a87 d3be b4b1 473e bb43 de3e
000001d0: 48f9 4cbc bb88 1c3f 08aa 2cbd b5c6 25be
000001e0: 48d3 983d ad01 2cbf 1284 debe 3c4d 82bf
000001f0: ce99 64be e51c 36bf 77c1 103c eb26 213f
00000200: 6f53 3c3f c6b1 e9be fef1 f23d 3c6f 16bf
00000210: f017 c0bd f75e 3abe 8931 9a3e 2c4e 243f
00000220: 21fa 11be 1d5b cb3e d5d3 303f e3c2 a43b
00000230: 3c8e 8e3e eff9 f8bc fc8c 03be adb4 a6bd
00000240: feb9 edbc 61bd 52be 0886 5abf 7ab9 033e
00000250: ae09 0ebf aa24 af3e ec89 943f db02 333f
00000260: b752 573b 1602 903e 53e2 89be 67f1 9a3e
00000270: e907 eabe da1a d83e 39a7 7cbe 96c9 8e3e
00000280: ce1e a93e 680f 243e 1668 75be ff29 f1bc
00000290: 4fb0 1f3f 3d81 923e c66a 003f 45ba f43d
000002a0: dc5a 15bd fcfa a0bf b8ff 81be ea38 4f3e
000002b0: 5569 05be b108 803d 003a 10bf d219 8d3e
000002c0: eecd 46be 116d 89bf 3276 16bf 2eee 9b3e
000002d0: 6509 613e ef99 13be 3711 a73c cf87 aabe
000002e0: cbc9 9fbd 4eef a13e b644 9a3e b68c 0fbe
000002f0: 6fdd 18be c006 0dbf c1db 113e 8d4e 183f
00000300: d5ae bcbe e5ba 0c3e fbac 3d3e 9c99 17be
00000310: f5c7 3fbd 910a 933e 4b6d 52be d0af 24be
00000320: 6d8a dfbd d10a 44be bf69 d3bd d157 c33d
00000330: 1b9b 803e 5a58 b83d e07d 36be 9e9d 033f
00000340: 388c 853e efc2 583e e967 63bd d345 01bf
00000350: 7377 dcbd 0304 d9bd 2309 833e a9e8 a9be
00000360: fa97 8e3c 5a5a b73e bd11 e53d a568 b63e
00000370: 9a32 33be eb3a bbbd 9ed6 bf3e 29a2 62be
00000380: b3ac 0a3e 19f3 3a3e 2950 abbe 32e2 d03e
00000390: 77b0 9b3e 38a4 10bd d166 2bbf 7ebf 19be
000003a0: 1838 aabe 87ec 063c 25a5 813e c68a 3bbe
000003b0: 709f 99be 2e24 d2be 2a05 4e3d dc4a de3e
000003c0: dbbe 153e 3546 993e 4bfb 3cbf ef09 e83e
000003d0: 34d1 febc 0c4f a03d ebf3 1f3e 5517 50bd
000003e0: bb39 fdbd 0b86 d6be 7aad 1fbd 0ba8 54bf
000003f0: 5f07 2cbd 32c2 67be ffbd 31bd a424 76be
-0.040336773 -0.08856287 -0.28300056 0.21197666 0.044401944 -0.05925333 0.24843894 0.11235094
-0.24569595 -0.037493285 0.001548448 -0.014476149 0.017291453 0.13205254 -0.26124963 0.32443753
0.13965882 -0.12108347 0.09337113 -0.034727354 0.1313133 -0.04432219 0.46209013 -0.027880045
-0.049776766 0.31467718 -0.12119676 0.37468994 -0.23181531 0.15867202 -0.16992354 0.15130728
0.14279649 -0.064310126 -0.3081023 0.39431778 0.18808407 -0.32563448 -0.20181412 -0.29173687
0.040750902 -0.26261568 0.2792514 0.13591443 -0.0038871816 -0.15575883 -0.20865022 0.28062612
-0.03772506 0.4479138 -0.11047199 0.0126860235 0.22984597 -0.061062448 -0.2089184 0.015395504
-0.18375584 -0.8478307 -0.09593055 -0.26001975 -0.1840378 -0.16318586 0.16486423 -0.026468055
-0.37434715 -0.2788864 -0.31243512 0.18478419 0.092174076 -0.28571472 0.09707626 0.41004017
-0.23635662 -0.3513662 -0.16160908 -0.36892375 0.400251 -0.261091 -0.12935895 0.32219544
0.46256548 -0.023579527 -0.6838085 -0.19108249 0.28741652 -0.31816483 0.03792641 0.023645628
0.07435498 0.36645308 0.092355445 0.034971032 -0.64568025 0.16949037 0.723131 -0.017461969
-0.22571775 0.20417464 -0.1587747 -0.122432746 -0.46724543 -0.25895596 1.4042486 -0.1187127
0.59218514 -0.5686893 -0.65124226 -0.11227376 0.05532295 -0.2595781 0.968979 0.12732062
0.29453388 -0.41314346 0.19501382 0.4341105 -0.012510605 0.61146134 -0.042154342 -0.16189082
0.07462174 -0.6719006 -0.43460137 -1.017982 -0.22324297 -0.7113784 0.008835188 0.6295001
0.7356481 -0.45643443 0.118625626 -0.5876348 -0.09379566 -0.18200289 0.30115917 0.6418178
-0.14255573 0.3971795 0.6907323 0.005028115 0.2784289 -0.030392615 -0.1284675 -0.0813993
-0.029019352 -0.20580055 -0.85360765 0.12863722 -0.5548352 0.3420766 1.160459 0.6992623
0.0032855698 0.2812659 -0.26930484 0.302623 -0.4570916 0.42207986 -0.24673165 0.27888173
0.33031315 0.16021502 -0.23965487 -0.02943897 0.623784 0.28614226 0.50162923 0.119495906
-0.036463603 -1.2576594 -0.2539041 0.20236555 -0.13028462 0.06251658 -0.563385 0.27558762
-0.19414493 -1.073641 -0.587741 0.30455154 0.2197624 -0.1441419 0.02039395 -0.3330674
-0.07802161 0.31627887 0.30130547 -0.1401852 -0.1492822 -0.55088425 0.14243986 0.5949486
-0.36852136 0.1374317 0.18523018 -0.14804691 -0.046821553 0.28719 -0.20549504 -0.16082692
-0.109150745 -0.19144751 -0.10322904 0.09538234 0.25118336 0.09001227 -0.17821455 0.5141238
0.2608354 0.21168111 -0.05551902 -0.5049717 -0.10764971 -0.10596468 0.25592908 -0.33185318
0.017406452 0.3581112 0.11185024 0.35626712 -0.17499772 -0.09142097 0.37468427 -0.22132172
0.13542442 0.18256797 -0.33459595 0.40797573 0.3040807 -0.03531286 -0.6695376 -0.15014455
-0.3324592 0.008235103 0.25321308 -0.18314657 -0.30004454 -0.41043228 0.050297894 0.43416488
0.14623587 0.29936376 -0.7382094 0.4532008 -0.031105615 0.07827577 0.15620391 -0.0508035
-0.12364527 -0.41899142 -0.0389838 -0.83068913 -0.041999217 -0.22632673 -0.043394085 -0.24037415

decoder.lstm.weight_hh_l1 f4 [192, 64]
00000000: 9aca c0bd 5df3 4bbe f436 6cbf f788 033f
00000010: 188b 5bbf 858d e33f ad9a e23e 6daf 843c
00000020: a421 03be e049 acbd edc2 b7be c697 b7be
00000030: 3ecc 7c3f d69b 03bf 6b63 d93f 0fe0 62bf
00000040: 6a8b c73d fbc5 183f 596c 4940 257f bf3e
00000050: fdc9 c9be e991 303e 9e53 103c 5c05 8c3e
00000060: ce55 30be 1844 1b3b 4f8f 85be a388 77bf
00000070: b95c da3e 706d 013f b91e b6be eb7b 733c
00000080: 54a4 433f 8ef0 30bf 86aa b93e 738b 17bf
00000090: 7245 11be 4da1 9abe 674e 8f3e 56ab 88be
000000a0: 2345 dfbe 9dac b1be ed6e 393e 9768 90be
000000b0: d6d2 e43d 476e d7bd 6b50 7bbf d418 293f
000000c0: 38d0 003f 18f5 1e3e 43a9 433f 0e2a 413e
000000d0: 4191 f53e 5371 0ebf 2503 d73e f758 9d3e
000000e0: 5fa2 2a3e 2e22 c53e aa61 a2bf 4216 d93d
000000f0: bb1f 95bc fbcd e5be 2b4c 0a40 800d 543f
00000100: 32ce bc3e f084 0ec0 ebe0 bc3d d282 50be
00000110: 3a36 7fbb e2e4 c63e 98ab 553e 1195 4bbe
00000120: 6ac9 533f 2a4e b6bf 38fc ff3f d115 9ebd
00000130: f544 9f3c e32b 3b3e b2ff dd3e 9b40 2cbf
00000140: aa68 c73d d605 553f daff 413f f9a8 bb3e
00000150: ea01 c8be 31e7 ccbd 93dd 1b3e bb55 873e
00000160: c56b 2d3e eacf 033f 498f f73e 6ce1 823f
00000170: 79d0 ddbe f482 1ebd 5d14 89bc 3128 6cbf
00000180: 2046 4e3f c36d 89bd 898a 943c af21 0c3f
00000190: c8e3 02c0 e5a3 0e3f 272b 7a3e 00d3 eabf
000001a0: 519b cabf e698 8a3e 19b7 883e 4327 573e
000001b0: cce6 4bbf 6738 d5be c724 3bbf f764 95bb
000001c0: e79b b03c 02db cdbd 2fc4 903e aa0a af3f
000001d0: 30bd f33d 52d8 233f 043e 9d3c 7d9b 893f
000001e0: c893 25bf e398 26bc d48e 81bf 3328 5bbe
000001f0: 0ba5 a13e 2bb9 053f adaf 8abf a17b 713f
00000200: 72bd 63bf 8a67 8cbf f101 2c3e 7444 183f
00000210: cf82 f4bd f2ca 3b3f 7f7e 9e3e 3da4 4a3e
00000220: 25f4 bc3f 85e1 b8be 535c a03e 719d 8b3f
00000230: 10fa 7ebe 01c9 5ebf 6cda 81be 81fc 19bf
00000240: 0a11 08be 60cc c33e b6e3 cf3f 0f98 11be
00000250: dee2 00be fb01 c63e ee19 023e 5b8d 83bc
00000260: 55b7 01bf 6cff 353e 9eba 46bf 2a14 813e
00000270: c425 97be d16c c13f b491 d4be 7c6c ddbe
00000280: 4dfd e7bd 7011 1b3f 823a bcbd 8abf 18bf
00000290: 592d 4fbf 10eb 763f 0a76 643f 3bea e3bf
000002a0: 58b2 c7be 60ac 8c3d 5682 5fbf bc03 133f
000002b0: a09d cabe d2c0 95bf 0233 08be e1d4 4e3e
000002c0: 74c1 2ebf 613e e83f a107 bbbe 83ec 223f
000002d0: ec22 7c3f 690a 9a3e 7784 743f fc09 e0bd
000002e0: 953f 11be da65 1a40 5ffc bfbe ba09 afbe
000002f0: 5f0b 413f 0e52 ea3e a38e 2440 96a2 b33e
00000300: c54b c63e ec63 75be 2a1d 15bf b335 f7be
00000310: a787 7dbd d416 58be ba15 65bd 04c2 f8be
00000320: 8357 5d3e 8a8d 0cbe 8a3c bcbe eaaa 993e
00000330: c41f 073f 4791 3abd 24fd 8d3e 988a f0be
00000340: 7a25 5b3f 62c8 563f 821d 833f 9c15 f23e
00000350: be18 c73d 16da 1ebe ed9a 3fbe 9963 413e
00000360: 1316 20bd 4376 2d3e c5f6 09bd e1e8 0abd
00000370: a8bc d63e e88f acbe fe22 d2bd 995a 893e
00000380: 6e2d c8bf b156 59bd 5d1a d13e c509 babe
00000390: fabd 5cbd 701d 6abe 3c10 d0be a17c 03bf
000003a0: 6e86 2cbf b3e9 58be dfc7 88be ac05 563d
000003b0: b220 e8bf 0801 d93d 82b7 33be 28d7 083f
000003c0: 49b0 213f 91fd 75be 968d af3e 89d1 1abe
000003d0: c105 513e a005 35bc 08ba 1c3e 365e 35be
000003e0: fc58 373e 1ea1 f43c 4f44 53bd 3358 ce3d
000003f0: 9eea 8ebe b387 ef3e 46d1 293f 91ef 633e
-0.09413643 -0.19917054 -0.9227135 0.51380867 -0.85759115 1.7777563 0.44258633 0.01619693
-0.12805802 -0.08412528 -0.35890904 -0.3585798 0.9874915 -0.5140966 1.6983465 -0.88623136
0.09743388 0.59677094 3.147238 0.3740169 -0.39411917 0.1724316 0.008808998 0.2734784
-0.17220232 0.002369171 -0.26085898 -0.96692866 0.42648867 0.50557613 -0.35570315 0.014861087
0.7642262 -0.6911706 0.36262912 -0.5919716 -0.14186648 -0.30201188 0.27989504 -0.2669322
-0.43607435 -0.34702006 0.18108721 -0.28204796 0.11173026 -0.105190806 -0.98169583 0.6605351
0.50317717 0.15523183 0.7643015 0.18863699 0.47962382 -0.5564167 0.41994587 0.30731937
0.16663502 0.3850264 -1.2686055 0.105999485 -0.018203607 -0.44883713 2.160899 0.828331
0.36876065 -2.2268639 0.09222587 -0.20362404 -0.0038942234 0.388465 0.20866239 -0.19881083
0.8272921 -1.4242604 1.9998846 -0.07719005 0.019442061 0.1827846 0.43359143 -0.6728608
0.0973676 0.8321203 0.75781024 0.36652353 -0.3906396 -0.10005034 0.15221243 0.26432595
0.16935642 0.51489127 0.48351505 1.0225043 -0.43323115 -0.038699105 -0.016733343 -0.9224883
0.8057575 -0.067103885 0.018132465 0.547389 -2.0451527 0.55718833 0.24430524 -1.8345642
-1.5828649 0.27069777 0.26702192 0.21011071 -0.79649043 -0.41644594 -0.7310299 -0.004559155
0.021558715 -0.10051538 0.28274676 1.367513 0.11901319 0.64001954 0.01919461 1.0750576
-0.6467862 -0.010168287 -1.0121713 -0.21402054 0.3157123 0.5223567 -1.0834862 0.9432927
-0.88960946 -1.0969098 0.16797616 0.5947945 -0.11939012 0.73356545 0.30955884 0.19789214
1.4762007 -0.36109558 0.31320438 1.0907422 -0.24900079 -0.8702546 -0.25361955 -0.60150915
-0.1328775 0.38241863 1.6241367 -0.14218162 -0.12586543 0.38673386 0.12705204 -0.016058614
-0.5067037 0.17773217 -0.77628505 0.25210696 -0.29521 1.5111333 -0.41517413 -0.4324683
-0.1132761 0.6057348 -0.09190847 -0.59667265 -0.8092857 0.96452427 0.89242613 -1.7805856
-0.39003253 0.068688154 -0.8730825 0.57427573 -0.39573383 -1.1699469 -0.13300708 0.20198394
-0.68263936 1.8144037 -0.36529258 0.6364214 0.98490787 0.30086067 0.95514625 -0.10939404
-0.14184411 2.4124665 -0.3749723 -0.34187108 0.75407976 0.45765728 2.5712059 0.3508498
0.38729683 -0.23963898 -0.58247626 -0.48283157 -0.061896946 -0.21102458 -0.055928923 -0.48585522
0.21615414 -0.13725868 -0.36764938 0.3001321 0.52782845 -0.045548704 0.27732193 -0.4698074
0.8560406 0.8389951 1.024338 0.47282112 0.09721516 -0.1551288 -0.18711443 0.1888565
-0.03908355 0.16939645 -0.033682603 -0.033913497 0.41940808 -0.33703542 -0.102605805 0.26826933
-1.5638864 -0.05306119 0.40840426 -0.3633558 -0.053892113 -0.22862792 -0.40637386 -0.51362044
-0.67392623 -0.21182899 -0.2671499 0.052251503 -1.8134978 0.105959 -0.17550471 0.534533
0.63159615 -0.24022509 0.3428771 -0.15118994 0.20412351 -0.011048704 0.1530534 -0.1771172
0.17905039 0.029861983 -0.051578816 0.100754164 -0.27913374 0.46783218 0.6633495 0.22259356

decoder.lstm.bias_ih_l1 f4 [192]
00000000: 631d 71be badc 5fbe c2d5 1ebe b5de 77be
00000010: 1fdd b7be 2ff9 1f3e 3843 013e ccd8 c13d
00000020: 8290 c5bd 2fcb e4bc 3237 b8be 6717 1a3d
00000030: 767e f2bd fb89 0bbf 9ba1 53bc 4b83 de3e
00000040: c197 3bbe f890 debe 08f3 4dbd e6b2 fe3d
00000050: 06f4 52be 89d6 b7be b62f 63be a0fc d23d
00000060: de13 373e 7796 a4be ba5c 97be d39c d3be
00000070: 8388 99bd ad43 a9bd 802f a8bd 8435 aebe
00000080: 89dd 46be e944 f53d 6067 a1be 2d60 dd3d
00000090: 18ba 5ebe b1de 85be 1d6e 60be 9cd4 713d
000000a0: aebe 8ebd d0b1 1abf 9fff 20be a080 923d
000000b0: 58bb 38be 39d9 9abd 9490 88be cd8f ee3d
000000c0: 2597 cfbe 1494 e6bc 0810 81be 810e c2bd
000000d0: 4934 f6be 1054 22be 9185 a93c 8422 6c3d
000000e0: 360a 0ebe f22f b3bb be38 85be 5574 ef3c
000000f0: c613 f8bd 7287 b0be 1880 9f39 33e1 debd
00000100: 7dfd eebd adc7 08bf 77be b3bc e8d6 95be
00000110: 60b2 81be f7b9 aaba 5566 d4be 1dbd 02bf
00000120: 1223 e6be 4432 83be 74f0 243c 4240 9cbe
00000130: 86e8 10be ed92 1fbf 80d4 95bd 1605 bfbe
00000140: b212 f8be 5cb0 b0be 05ae e0bd 0ee0 d4be
00000150: 69d7 f4be 44f0 f0be 2c55 66be 5ad8 afbd
00000160: 32b0 19bf 881b bbbe 11f0 c4be 0f00 4e3d
00000170: 6b82 31be 2e04 4abe 42ca 2bbf 445a b4bf
00000180: 3beb 62bd a00e 93be d3d5 583e 6e85 8b3d
00000190: e825 1f3f ab0e 1fbf 9bf0 6dbe bad7 a9bd
000001a0: e598 58bf bdbd 94bf b4d1 bebe 3e43 ecbe
000001b0: 840b c0bd 8486 c4be 1a83 27bf 0500 e8be
000001c0: c9a4 32bf c296 85be c5f3 72be 40c5 153e
000001d0: e3ad 18bf 3213 83be 7aec 963d ead9 9ebd
000001e0: 7a30 c1bd 0d72 8bbe fffe 1cbf f3df 0ebe
000001f0: 184c acbe 776e 25bf 0120 8ebe 5963 d8bd
00000200: 30de 4abd 5a3c 043e f439 f1bc 9ff7 14bd
00000210: 26d1 d2bc 1c23 8fbd d79d 133d 385c 913d
00000220: 4d68 c43b 0b80 41bd f9cc 2d3c b4e9 b9bc
00000230: 8bba 013e 6c3f 173d 0b3f bd3d 6610 2036
00000240: bb5e 7c3d 5464 3a3d 5e87 49bd 3e61 dabd
00000250: 6787 7fbd 93d3 433d 362c 7a38 5b27 8ebd
00000260: 61e8 c2bd 2dfd a13b c6a0 b33a 14a9 933c
00000270: 250f 06be a3e6 4dbd 6feb 113d 764d bb3c
00000280: 9326 b4bb e5f8 643c 1882 e03c df62 713c
00000290: f7da 763d 3629 3d3d a6a5 d9bd 7587 863d
000002a0: 0d49 c4bd 1d71 1b3d 48e6 babc 02fe e63c
000002b0: 1eb8 923c 0f88 d4bc 386c 303c 6ce5 a03d
000002c0: 0747 1a3d 246d 79bd 3de6 cd3c 2fd7 c53d
000002d0: 329b a03d 03e3 c1bc 7890 b0bc b39d 573c
000002e0: 124d d93c 7d4a 1f3d 1385 febb ed09 6dbc
000002f0: 091d 5cbd 543d 003d b9ff 56bd 3acc 82bc
-0.23546366 -0.21861544 -0.1551123 -0.2420605 -0.3591089 0.156224 0.12623298 0.09465179
-0.09646703 -0.027928917 -0.3597961 0.037619974 -0.11840527 -0.54507416 -0.012916948 0.43459544
-0.18319608 -0.43469977 -0.0502806 0.12436466 -0.206009 -0.35905865 -0.22186169 0.10302091
0.17878672 -0.32146046 -0.29562932 -0.41330585 -0.07496741 -0.08264861 -0.08212185 -0.34025204
-0.19420446 0.11976034 -0.3152418 0.1080936 -0.21750677 -0.26146463 -0.21917005 0.05904065
-0.06969963 -0.6042757 -0.15722512 0.071534395 -0.18040216 -0.07560963 -0.26672804 0.116485216
-0.40545002 -0.028146781 -0.25207543 -0.09475423 -0.48086765 -0.1585238 0.020693572 0.057650104
-0.13871083 -0.005468362 -0.26019853 0.029230276 -0.121131465 -0.34478337 0.0003042228 -0.10882797
-0.11669443 -0.5342968 -0.021941407 -0.29265523 -0.25331402 -0.0013025393 -0.41484323 -0.51069814
-0.44948632 -0.25624287 0.010067094 -0.30517775 -0.141512 -0.62333566 -0.07315922 -0.37308568
-0.48451763 -0.34509552 -0.109706916 -0.4157719 -0.47820595 -0.47058308 -0.22493428 -0.08586188
-0.6003448 -0.36544442 -0.38464406 0.050293025 -0.17334907 -0.19728157 -0.67105496 -1.4090047
-0.055400115 -0.28722095 0.21175317 0.06812559 0.62167215 -0.62131757 -0.23236315 -0.082931
-0.846083 -1.1620404 -0.37269366 -0.46145052 -0.093771964 -0.38383877 -0.6543442 -0.45312515
-0.6978269 -0.26091582 -0.23725803 0.14626026 -0.5964033 -0.25600582 0.07369323 -0.077564076
-0.09433074 -0.2723545 -0.61326593 -0.13952617 -0.33651805 -0.6462168 -0.27758792 -0.10565824
-0.0495283 0.12913647 -0.02944658 -0.036368962 -0.025734495 -0.069891185 0.0360392 0.070976675
0.005993879 -0.047241252 0.010607951 -0.022694446 0.12668817 0.03692572 0.0924054 2.3851403e-06
0.06161378 0.045505837 -0.04920136 -0.10663079 -0.06238499 0.047809195 5.964582e-05 -0.069411
-0.09516979 0.004943511 0.001370453 0.018024959 -0.13091715 -0.05026878 0.035624918 0.022864085
-0.0054977625 0.013975357 0.027405784 0.014733045 0.060267415 0.04618188 -0.10627298 0.06568805
-0.09584246 0.03794967 -0.022814885 0.028197292 0.01791006 -0.025943784 0.010767989 0.07856259
0.037665393 -0.0608951 0.0251342 0.09660184 0.07842101 -0.023667818 -0.021553263 0.013160157
0.026526008 0.038889397 -0.0077673285 -0.0144676985 -0.053738628 0.031308487 -0.05248997 -0.015966523

decoder.lstm.bias_hh_l1 f4 [192]
00000000: 1d03 5abe 9553 d3be 240b 7bbe 2736 f3bd
00000010: fff3 aabe 3700 fb3d ab91 0e3e c625 9f3d
00000020: a271 58be 9808 a1bd f575 e1be 7863 7c3d
00000030: 1687 70be a367 edbe b3d9 8ebd d984 7e3e
00000040: 4c0d 10be d1e0 ebbe 6901 56be 4659 57bd
00000050: 69aa 0bbe e7eb a7be 5f8c 97be 26ad ad3d
00000060: e0fa 9d3d 2812 77be 7bbf acbe 752e f2be
00000070: 07d0 703d 529e cbbd c115 0fbe 1983 16be
00000080: 8c25 2abe a5e5 dbbd bf1d a2be 7041 8c3c
00000090: 5342 03be 7edb e0be ec11 41be 3aeb 0c3d
000000a0: 8c1d b3bd a639 cabe f2c3 e03c fff9 00bd
000000b0: 7b72 23be b3a2 a0bd ff91 f4be af74 d43c
000000c0: bf94 cbbe b817 b3bd 8dfc b2be 6230 fd3c
000000d0: b11f e1be 18e4 bbbd 7634 383d d52f 8abd
000000e0: 89ba 3dbe 61e1 a9bc 57d1 b3be 3e59 953c
000000f0: f8ee 88be ec21 c3be 94e0 6b3c b5fd dbbd
00000100: e41c 19be c957 06bf 3184 82be 1b98 d8be
00000110: ddcd c6be 2665 63be 0cf4 11bf 27f9 01bf
00000120: 8365 92be 9696 afbe d938 d43b 1dde b2be
00000130: c150 7b3c 3efd 05bf 0bdc c9bc 970e ccbe
00000140: e22c 00bf 7165 b0be 7385 5ebe 3bf2 e5be
00000150: 9b3a 14bf 7b15 03bf 9364 08be ee41 56be
00000160: 2785 03bf 76b8 e2be e9a1 09bf f9e5 d7bd
00000170: b99f bfbe 0700 22be 4008 0fbf 0d5f b7bf
00000180: baae 5a3d 060d 92be 9262 0b3e b4e0 263e
00000190: 26c7 2d3f b3ef 1fbf e29c d0be b874 54bd
000001a0: 4f97 62bf 7ae1 a5bf 9f82 87be af4c 14bf
000001b0: a9ad 3fbe 1790 dabe 8f01 1ebf 0e8b 01bf
000001c0: 4979 0ebf 3766 9bbe f662 c6be d1a8 933d
000001d0: 9452 0fbf 7a6a 39be c457 773e 809c 3cbe
000001e0: 2ddd 85be fa8e 3ebe 28ff 11bf c6eb dabd
000001f0: 99bc c2be 29cc fdbe 8980 9fbe da49 cabd
00000200: bd3c 203d 76bc 193d 3e68 ae3d c377 c03d
00000210: e569 ce3d 2256 893e 878a 00bc faa6 80be
00000220: fd3b 40bd 8cb6 ed3d 237c a83c 5f3c 373e
00000230: f944 853d e9ad 5a3d 5597 89be bf98 7dbe
00000240: de64 813c 070c 333d 9849 7f3d 5d38 093d
00000250: 1295 c73d dd69 e13b b282 debc cd3c 8fbd
00000260: c3d4 8a3e 05ca 5ebd 145d f33c 8327 7a3d
00000270: 5486 ac3e af8e c13d cb8d 7abe 2ca5 80bd
00000280: 2b41 04bb b500 c93c 1c11 88bc 2f70 dc3d
00000290: 43bb b53d d67c c2bc bc04 8e3e 22d6 5ebd
000002a0: f43b b73d cbbf 27bd cf76 98bd 1623 78be
000002b0: dda3 103e 7f4b 353e 6cba 3e3d f1f4 b3bc
000002c0: d98f 14bb 5c5f 48bd b53f 9abd cc06 00be
000002d0: 509a cabd 5277 923c 1db9 483e c60f f4bb
000002e0: 1a27 fbbc 1ed1 c93d b546 9b3d f88a 7d3d
000002f0: 5fef 863e 2532 19be 71b2 a1bc a601 693d
-0.2129025 -0.41274706 -0.24515969 -0.11875563 -0.3338928 0.122559 0.13922755 0.077708766
-0.21137097 -0.07862967 -0.44035307 0.0616183 -0.23489031 -0.4636813 -0.069751166 0.24855365
-0.14067572 -0.4606996 -0.20898975 -0.052575372 -0.13639225 -0.32797167 -0.29599282 0.08480291
0.07713866 -0.2412802 -0.33739838 -0.4730107 0.05879214 -0.099423066 -0.13973142 -0.14698447
-0.16615885 -0.107371606 -0.3166332 0.017121047 -0.1281827 -0.4391746 -0.18854493 0.034404017
-0.0874587 -0.39497107 0.027437184 -0.031488415 -0.1596164 -0.078435324 -0.47767636 0.025934545
-0.39761922 -0.08744758 -0.34958306 0.03090686 -0.4396949 -0.09174365 0.044971906 -0.067474045
-0.18528189 -0.020737352 -0.3512065 0.01823103 -0.2674482 -0.38111818 0.014396805 -0.1074175
-0.14952427 -0.524777 -0.2549148 -0.42303547 -0.38828936 -0.22206554 -0.5701301 -0.507708
-0.28593072 -0.34294575 0.0064765033 -0.34935084 0.015339077 -0.5233954 -0.024641057 -0.3985488
-0.50068486 -0.34452394 -0.21730594 -0.4491137 -0.57901925 -0.5120465 -0.13319616 -0.20923588
-0.5137505 -0.44281358 -0.5376268 -0.10541911 -0.37426546 -0.15820323 -0.55871964 -1.4325882
0.05338929 -0.2852556 0.1361182 0.16296655 0.67882 -0.62475127 -0.40744692 -0.051869124
-0.8851213 -1.2959435 -0.26466843 -0.5792951 -0.1871859 -0.42688057 -0.6172113 -0.50602806
-0.55653816 -0.3035142 -0.38747376 0.072099335 -0.5598538 -0.18107024 0.24154574 -0.18419075
-0.26145306 -0.18609229 -0.5702996 -0.106895015 -0.38034514 -0.49569824 -0.31152752 -0.09877367
0.039120425 0.037533246 0.08515976 0.09397843 0.100787915 0.26823527 -0.0078455275 -0.25127393
-0.04693221 0.11607084 0.020567006 0.17894123 0.06507296 0.05338851 -0.2687327 -0.247653
0.015795168 0.043712642 0.062326044 0.033501018 0.0974523 0.006879075 -0.02716193 -0.06994019
0.2711545 -0.05439188 0.029707469 0.061072838 0.33696234 0.09451043 -0.24468152 -0.06281504
-0.0020180445 0.02453647 -0.01660972 0.10763585 0.08873608 -0.023741167 0.27737987 -0.05440343
0.08946982 -0.040954392 -0.07444536 -0.24232134 0.14125009 0.1770458 0.046564505 -0.021967383
-0.0022668748 -0.048919067 -0.075316824 -0.12502593 -0.09892714 0.017879162 0.19601865 -0.0074481694
-0.030658294 0.09854339 0.07581846 0.06190011 0.263545 -0.14960535 -0.019738408 0.056886338

decoder.linear.weight f4 [2, 64]
00000000: 7cef 493d e4ac 9db8 bbf9 b63a cb5b 97bd
00000010: 2b62 8f3d 538e aa3d bec6 4339 8929 a3bd
00000020: 14aa 19b7 3b2f 9838 f7b2 1f39 dc0a 563d
00000030: 236e 24b9 ac1e 8fb8 829b 64bd 109e adb9
00000040: 1d3e bcbc 5276 08bd 08dc ac3c 68d6 bf37
00000050: af8e 78b9 ba22 d3b8 1f24 c43a 68b1 4dba
00000060: 4a01 ac3d 952f 6d3d e72b 92bd fcf7 443d
00000070: 1f97 5139 48fa 7eb9 1a27 7fb8 aee2 4139
00000080: e8cd cebd 90ae c438 d776 75b9 513d 3db6
00000090: 9f79 39b9 9044 59b8 108c c6bd e6d4 47bd
000000a0: 4b52 2d39 c0fc e437 f222 8ab8 7f0a 9abd
000000b0: 8ff9 19bd 606e a53d 70b1 51bd 8f28 26ba
000000c0: ff80 313d 90d7 baba 7c32 863d 7d30 6539
000000d0: eb58 99b9 f72c 783d ebb6 d1b8 91e7 f536
000000e0: 8554 573d cf22 36b9 f913 393d 8e9a e737
000000f0: 549c 2a3b 3c3a 343d 0110 903c 867a a33a
00000100: 9e9b 50b9 3fef b5b7 f9d7 8537 370c 0f39
00000110: a570 e439 de79 b3b9 2508 b2bb 1c4c 9c38
00000120: d868 9cb7 b0b0 c8bb 25e4 aa38 05a2 b239
00000130: 1372 4db6 822e 533c b844 5d38 c3b1 cc37
00000140: f2b1 7039 13f9 5839 3fa4 82b9 a1b6 82b7
00000150: f0a2 67bc f173 d33c 5027 88b6 0077 8fb8
00000160: 2e1e 9f37 89ba 04ba 5df8 1439 a57a 18b9
00000170: f9e5 08bd afbd ad3b 5fb8 d93b bee9 75bc
00000180: 3b0c ab39 d87b aebb cfaa 083d 7d0a b5b8
00000190: 5bde 03b9 7bbc d8bc ca49 2e39 6d36 f1b8
000001a0: dfb4 4637 2bc3 a7bc b4ce 9ebb 2d72 94b7
000001b0: a22f b739 b91e 01b8 f821 c239 e76f 25b8
000001c0: 6ceb 1436 16c4 9d38 6720 07b9 f168 1bbb
000001d0: a61b 513c 09fc 4cba ab35 fa37 b4e9 96ba
000001e0: 3f40 aab9 0e7c 9eba 26ea 61b8 8977 84b7
000001f0: 88fa 07b9 804c 6d38 99ea 23b9 fbf9 bf37
0.049300656 -7.518547e-05 0.0013959924 -0.07390555 0.07001146 0.083279274 0.00018670686 -0.079669066
-9.15911e-06 7.256722e-05 0.00015230091 0.05225645 -0.00015681288 -6.8244844e-05 -0.055812366 -0.00033114897
-0.022978837 -0.033315964 0.021101013 2.2868815e-05 -0.00023704277 -0.000100677324 0.0014964378 -0.0007846565
0.08398683 0.057906706 -0.0713728 0.04808806 0.0001998809 -0.00024316565 -6.0833154e-05 0.00018490359
-0.10097867 9.378523e-05 -0.00023409292 -2.8198886e-06 -0.00017688282 -5.1800685e-05 -0.096946836 -0.04878702
0.00016529222 2.7297414e-05 -6.586862e-05 -0.07521533 -0.037591513 0.08077693 -0.05119461 -0.0006338441
0.04333591 -0.0014254916 0.06552598 0.00021857205 -0.00029248683 0.060589757 -9.999968e-05 7.328527e-06
0.05257084 -0.0001736984 0.045185063 2.7609316e-05 0.002603312 0.04400085 0.017585756 0.0012472428
-0.00019894398 -2.1688289e-05 1.5955406e-05 0.00013642093 0.00043571476 -0.0003423234 -0.0054331 7.452836e-05
-1.864547e-05 -0.0061245784 8.148727e-05 0.0003407152 -3.061378e-06 0.012889506 5.2754505e-05 2.4401472e-05
0.00022954473 0.00020692153 -0.00024917905 -1.558225e-05 -0.014137968 0.025812121 -4.0576924e-06 -6.840937e-05
1.896833e-05 -0.00050631963 0.00014206902 -0.00014541538 -0.033422444 0.005302153 0.006644293 -0.015009342
0.00032624774 -0.005324822 0.03336602 -8.632706e-05 -0.00012575967 -0.026457062 0.00016621422 -0.00011501913
1.1843832e-05 -0.020478806 -0.0048464183 -1.7696142e-05 0.0003493997 -3.078461e-05 0.00037027872 -3.9443283e-05
2.2190752e-06 7.522867e-05 -0.00012886674 -0.0023713673 0.01276294 -0.00078195386 2.9827313e-05 -0.0011513741
-0.00032472794 -0.0012091415 -5.3862248e-05 -1.579129e-05 -0.00012967933 5.657645e-05 -0.00015632286 2.288538e-05

decoder.linear.bias f4 [2]
00000000: 2bee be39 f6b0 33b8
0.00036417073 -4.2841733e-05
