output/CarlaNavigation-v0/gin/3/cost_var_target.pt (torch, 536535 bytes, 5 tensors)

net.0.weight f4 [256, 263]
-0.0021865845 0.7327027 -0.27615753 0.37076208 -0.11013982 -0.027971556 -0.17281938 -0.21024218
0.1031884 0.28642744 0.0082164155 0.025762085 0.10882998 0.030252924 0.09513879 0.27566874
-0.0016625638 0.23550265 0.13068777 0.039179288 -0.20497611 0.1259641 0.38472748 0.13689859
-0.15672311 -0.061466232 0.10431345 0.05013314 0.10621036 0.18057095 0.27588332 -0.017888304
0.25115484 0.046217855 -0.098470695 0.027439583 -0.17366278 0.15691088 0.12576741 0.2664956
0.08829319 0.0863918 -0.0009851657 0.024952203 -0.16563402 -0.0028345063 -0.27043548 0.10569925
0.15499158 0.13593896 0.15492304 0.09501958 0.1807289 -0.080449216 -0.24747425 -0.0066526765
0.01630766 -0.280157 0.17599927 0.1712577 -0.06815276 -0.048091684 0.1929121 0.00824007
-0.32459232 0.1050898 0.38276052 -0.54957324 -0.049231622 0.016676836 -0.23451322 0.038738955
-0.087275445 -0.14632806 -0.14754996 0.306842 -0.10340746 0.08961939 0.0632011 0.24817757
-0.20170678 0.023974687 0.14011127 -0.0053184624 -0.12603267 0.14240606 -0.00059810176 0.0474554
-0.15802251 -0.25692904 -0.07394336 0.11463846 -0.13110203 0.15518828 -0.07284813 0.119843446
-0.07685654 0.1313166 0.18025206 0.031383924 0.03101102 -0.20154585 -0.07242046 0.0681006
0.23898058 0.035300512 0.07376603 0.032055035 0.09601498 -0.033753026 -0.041567948 0.27207458
-0.11766192 0.120601915 0.17191933 0.0086831935 0.043198135 -0.20588806 -0.15882716 0.10230477
-0.017532162 0.04673865 0.20319392 -0.01683777 0.04158359 -0.30505985 -0.076042935 -0.0113367215
0.03829341 -0.2106773 -0.009744531 -0.11370864 0.010195477 0.2258288 -0.18724668 -0.31299922
0.33508867 -0.011160329 0.19977558 -0.13815625 0.07276169 0.036010552 0.0261931 0.3149721
0.017508693 0.045690358 0.0159925 0.07584772 0.008865175 -0.28422207 0.16573831 0.3284487
0.088273816 -0.041682687 0.06887845 -0.071664974 -0.105286494 -0.08126729 0.016942076 0.12526003
-0.097686894 0.0012429792 -0.13983114 -0.023700507 -0.06764165 -0.19776095 0.124456845 -0.14639959
0.15204115 0.13602537 -0.059979096 -0.016583703 0.0871458 0.10815198 -0.010256386 -0.03393333
0.0148014305 0.29174414 -0.021317435 0.16815528 -0.2041476 0.06188123 0.20247865 0.11541035
0.2755078 -0.1581596 -0.11412139 0.22840074 0.0040243883 0.14285608 0.13897878 -0.041506108
-0.114316605 0.033560053 -0.07350527 0.15345974 0.31677812 0.073958255 0.23172966 -0.04238006
-0.021214617 -0.18665361 -0.011968532 -0.025332185 -0.29874176 -0.10144646 -0.27721253 0.1858251
0.1387791 -0.010655737 -0.034395266 -0.22049122 -0.30249685 0.07668517 -0.044116795 -0.12823506
-0.11545356 -0.020075051 0.17322169 0.2344387 -0.0036321848 0.016385518 -0.00059249054 -0.15374288
0.100224555 -0.033773888 0.11489477 0.24304561 -0.13235374 -0.007781813 0.012193166 0.16777083
0.1802908 -0.19565691 0.118289255 0.14407499 0.22983125 -0.084894225 -0.244196 0.030187732
-0.14527008 0.3324899 -0.16239153 -0.03424402 0.10942902 0.020682272 0.23509435 -0.3622744
-0.18591452 0.07027766 0.050946 0.27482235 0.27810657 -0.034788657 -0.22396617 -0.011903898
00000000: cd4c 0fbb 6792 3b3f 8564 8dbe 87d4 bd3e
00000010: fc90 e1bd 9b24 e5bc 90f7 30be ba49 57be
00000020: 7154 d33d 9ea6 923e 259e 063c 020b d33c
00000030: 41e2 de3d fbd4 f73c 20d8 c23d 7424 8d3e
00000040: 62ea d9ba 9b27 713e 04d3 053e 767a 203d
00000050: 42e5 51be bcfc 003e 00fb c43e 252f 0c3e
00000060: 067c 20be 04c4 7bbd 4aa2 d53d 6858 4d3d
00000070: d184 d93d 97e7 383e 9440 8d3e 7e8a 92bc
00000080: 5e97 803e ef4e 3d3d 01ab c9bd fac8 e03c
00000090: a8d4 31be 3fad 203e 2cc9 003e 1c72 883e
000000a0: 0fd3 b43d 2fee b03d ad20 81ba 9068 cc3c
000000b0: f79b 29be 20c3 39bb 8576 8abe d978 d83d
000000c0: 1db6 1e3e 9533 0b3e 25a4 1e3e a099 c23d
000000d0: ff10 393e 8fc2 a4bd e469 7dbe b2fe d9bb
000000e0: a497 853c bd70 8fbe 2739 343e 2e5e 2f3e
000000f0: ad93 8bbd c9fb 44bd c08a 453e 5c01 073c
00000100: f730 a6be 5239 d73d 30f9 c33e d5b0 0cbf
00000110: 19a7 49bd dc9d 883c 3c24 70be bdac 1e3d
00000120: 78bd b2bd 06d7 15be 5617 17be 651a 9d3e
00000130: 4ac7 d3bd 5f8a b73d 946f 813d 4322 7e3e
00000140: 398c 4ebe 9066 c43c 5479 0f3e 7f46 aebb
00000150: b50e 01be e5d2 113e eec9 1cba 9860 423d
00000160: a7d0 21be 348c 83be 9e6f 97bd 92c7 ea3d
00000170: 9c3f 06be ade9 1e3e 6631 95bd 7b70 f53d
00000180: f666 9dbd dc77 063e ff93 383e 6e8c 003d
00000190: d30a fe3c 0962 4ebe 2e51 94bd 5478 8b3d
000001a0: 53b7 743e 4597 103d a512 973d 244c 033d
000001b0: 80a3 c43d 9d40 0abd 2743 2abd 5c4d 8b3e
000001c0: bcf8 f0bd 23fe f63d 9f0b 303e f443 0e3c
000001d0: 87f0 303d 52d4 52be 96a3 22be 2a85 d13d
000001e0: 9c9f 8fbc 0771 3f3d 1112 503e 5def 89bc
000001f0: 8e53 2a3d ce30 9cbe 66bc 9bbd a8bd 39bc
00000200: 8dd9 1c3d cabb 57be 86a7 1fbc 13e0 e8bd
00000210: ee0a 273c aa3f 673e 98bd 3fbe 6f41 a0be
00000220: be90 ab3e d0d9 36bc f891 4c3e d578 0dbe
00000230: 1504 953d cd7f 133d e992 d63c 0644 a13e
00000240: 646e 8f3c d025 3b3d b402 833c 0d56 9b3d
00000250: 3d3f 113c 8e85 91be 4eb7 293e 6e2a a83e
00000260: e7c8 b43d 77bb 2abd 2510 8d3d 16c5 92bd
00000270: 72a0 d7bd 776f a6bd 1cca 8a3c 2a44 003e
00000280: 1110 c8bd 76eb a23a e52f 0fbe 9127 c2bc
00000290: b587 8abd d981 4abe 3be3 fe3d c6e9 15be
000002a0: adb0 1b3e 3c4a 0b3e a4ac 75bd 8cda 87bc
000002b0: 7f79 b23d c97e dd3d 670a 28bc adfd 0abd
000002c0: b381 723c 7d5f 953e e7a1 aebc e630 2c3e
000002d0: 120c 51be 2c77 7d3d 9056 4f3e 435c ec3d
000002e0: 5c0f 8d3e 97f4 21be 7ab8 e9bd e2e1 693e
000002f0: 04df 833b dd48 123e 7450 0e3e 4f02 2abd
00000300: d31e eabd 4476 093d ee89 96bd 8d24 1d3e
00000310: be30 a23e 6d77 973d 8a4a 6d3e b796 2dbd
00000320: 47ca adbc 2022 3fbe a917 44bc 7185 cfbc
00000330: aef4 98be 29c3 cfbd cdee 8dbe ef48 3e3e
00000340: 1c1c 0e3e 6695 2ebc 0de2 0cbd 73c8 61be
00000350: dee0 9abe 1d0d 9d3d d0b3 34bd 0d50 03be
00000360: eb72 ecbd 6f74 a4bc 0761 313e b310 703e
00000370: f309 6ebb ec3a 863c 5e51 1bba c66e 1dbe
00000380: 8842 cd3d 7d56 0abd f34d eb3d f3e0 783e
00000390: bd87 07be 94fe febb d8c5 473c 1ecc 2b3e
000003a0: 279e 383e 495a 48be a341 f23d 6588 133e
000003b0: e258 6b3e 06dd adbd 840e 7abe 434c f73c
000003c0: aec1 14be 1e3c aa3e f749 26be 7543 0cbd
000003d0: 521c e03d de6d a93c 93bc 703e 087c b9be
000003e0: 6060 3ebe bced 8f3d c1ac 503d 84b5 8c3e
000003f0: fc63 8e3e 8d7e 0ebd 6357 65be 9108 43bc

net.0.bias f4 [256]
-0.0033868277 0.04666787 -0.063697316 0.102364376 0.10000104 0.14024837 -0.17628539 0.13153417
0.026186395 -0.0717365 -0.08677924 0.14603004 -0.06538263 0.14135702 -0.065194875 -0.12212481
0.09914721 -0.020947514 -0.080054335 -0.03266971 0.07956856 0.12942417 0.15339717 -0.09667659
0.055333655 0.14653072 0.07189445 0.1370148 0.066750556 0.024343865 -0.009682132 0.13993843
-0.25317398 -0.041757938 -0.09051942 -0.03476258 -0.0803464 -0.024392294 -0.12905164 0.18319058
0.13380212 -0.003737704 0.12157645 -0.022122845 -0.011052482 -0.13898773 -0.054911952 0.06303719
0.017912889 -0.060375463 0.042555895 -0.00648718 -0.07163368 0.08677327 0.05164487 -0.06375542
0.020536615 -0.012083828 -0.054011915 0.04597944 0.13534887 0.048003767 -0.11651601 0.120640665
-0.15959607 -0.036172975 0.063387364 -0.02313836 -0.11371013 0.14191136 0.0 -0.21612814
-0.09984756 -0.016090475 -0.06416372 -0.017135048 -0.08952105 -0.15073285 0.15661882 -0.05074632
0.12514529 0.035638023 0.1491116 -0.013911831 -0.071514465 0.12762709 -0.1513736 -0.04809839
0.11823115 -0.0761994 0.14872417 -0.19447078 0.047866676 0.14053148 -0.08865231 0.08696102
-0.0802257 -0.083346 -0.03001935 -0.11874822 -0.16409622 -0.08960003 -0.18073785 -0.2318608
0.04828614 -0.14671549 0.16756521 0.034735754 0.014157141 -0.07077686 0.17073916 0.13784629
-0.010296247 0.20682386 0.058574658 0.18404591 -0.028444666 -0.019330364 -0.17952788 -0.18622147
-0.023538457 -0.16403066 -0.03219138 -0.0737854 -0.09033018 0.0999012 -0.028772492 -0.14247164
-0.063292004 -0.07730208 0.093560755 -0.23870641 -0.017178634 -0.0709363 -0.07364832 0.023589492
-0.20945242 -0.11357602 0.09520435 0.06972036 0.1323001 -0.09583766 0.037058853 -0.15438959
0.06062059 -0.092660725 0.08424007 -0.026452009 -0.19766858 -0.091111004 0.03975522 0.03560524
0.0544053 0.0835725 0.13589723 0.17621088 0.04809615 0.008819354 0.13347729 0.15421078
-0.22170715 0.05389718 0.011115625 -0.052169386 0.04282784 0.01693947 0.0879296 -0.18483269
-0.08528762 0.10666037 -0.04196655 -0.02319461 0.02358763 -0.11155393 0.018818509 0.030724548
-0.025733026 0.12067791 -0.022037536 0.015615035 -0.03743734 -0.055894684 -0.1747297 -0.09097093
-0.27051893 -0.24218136 -0.22008292 0.15028581 -0.22339992 -0.12317386 -0.18338132 -0.080952875
-0.010410612 -0.11453565 -0.08887881 0.1728909 0.014240029 -0.07225059 0.06667903 -0.02797491
-0.103754655 -0.15259549 -0.15071794 0.024357274 0.10972406 -0.100130685 0.12255099 -0.112394355
0.16043948 0.058667045 0.020812286 0.15202627 0.058691636 0.046249148 -0.07468543 -0.01692494
-0.070232965 0.14729068 0.18012393 0.11597659 0.0130704725 -0.20127167 0.13435346 -0.14862284
0.0077553634 -0.029304095 -0.08874023 0.1356916 0.017767977 -0.022732675 0.1612352 -0.09104246
-0.018032845 -0.08520418 0.14712676 -0.083992705 0.07631563 -0.016988644 -0.19751658 -0.039884858
0.060555022 0.025714772 -0.0038528154 0.1439856 -0.02125038 0.14396176 -0.023704978 -0.020512773
0.1242691 0.0693523 0.08207344 0.14136001 -0.20553938 -0.088285744 0.021078642 -0.08794302
00000000: 8af5 5dbb cf26 3f3d bd73 82bd 6aa4 d13d
00000010: 58cd cc3d 459d 0f3e 2884 34be e5b0 063e
00000020: da84 d63c 96ea 92bd 50b9 b1bd e688 153e
00000030: 54e7 85bd e5bf 103e e484 85bd 931c fabd
00000040: b10d cb3d 1f9a abbc 87f3 a3bd add0 05bd
00000050: d7f4 a23d c587 043e 2614 1d3e 60fe c5bd
00000060: 8ba5 623d 260c 163e 663d 933d 9c4d 0c3e
00000070: 84b4 883d c96c c73c cea1 1ebc 054c 0f3e
00000080: 05a0 81be 5f0a 2bbd 3f62 b9bd 3563 0ebd
00000090: a78c a4bd 59d2 c7bc 1d26 04be 5096 3b3e
000000a0: 6c03 093e 44f4 74bb 13fd f83d f83a b5bc
000000b0: 7815 35bc cd52 0ebe 5beb 60bd a419 813d
000000c0: 0dbe 923c 434c 77bd 174f 2e3d 6992 d4bb
000000d0: aeb4 92bd 2fb6 b13d 9289 533d 3492 82bd
000000e0: 673c a83c 40fb 45bc 993b 5dbd f054 3c3d
000000f0: e598 0a3e 999f 443d f29f eebd 7412 f73d
00000100: 276d 23be 1d2a 14bd 3cd1 813d a88c bdbc
00000110: dbe0 e8bd 3651 113e 0000 0000 b250 5dbe
00000120: e17c ccbd 2cd0 83bc 4568 83bd cd5e 8cbc
00000130: d056 b7bd b659 1abe af60 203e 60db 4fbd
00000140: 1626 003e 2df9 113d b6b0 183e 73ee 63bc
00000150: 2d76 92bd adb0 023e ae01 1bbe d102 45bd
00000160: 2c23 f23d 6e0e 9cbd 264b 183e 5923 47be
00000170: d90f 443d 7ce7 0f3e 588f b5bd 9f18 b23d
00000180: 5f4d a4bd 4fb1 aabd 24eb f5bc 4432 f3bd
00000190: d708 28be 3880 b7bd 5813 39be eb6c 6dbe
000001a0: b0c7 453d 963c 16be 3796 2b3e 1447 0e3d
000001b0: 5af3 673c 75f3 90bd 3fd6 2e3e 9427 0d3e
000001c0: 97b1 28bc a2c9 533e fbeb 6f3d 8876 3c3e
000001d0: ca04 e9bc b65a 9ebc 28d6 37be d7b0 3ebe
000001e0: b9d3 c0bc a7f7 27be 1cdb 03bd cd1c 97bd
000001f0: 08ff b8bd 0099 cc3d 4ab4 ebbc 16e4 11be
00000200: 3d9f 81bd 8e50 9ebd c89c bf3d 746f 74be
00000210: 35ba 8cbc 0d47 91bd eed4 96bd c03e c13c
00000220: b27a 56be 8b9a e8bd 80fa c23d 8cc9 8e3d
00000230: ad79 073e 8946 c4bd 06cb 173d 4e18 1ebe
00000240: 4c4d 783d e8c4 bdbd 0f86 ac3d e2b1 d8bc
00000250: a269 4abe 6898 babd 5fd6 223d cdd6 113d
00000260: 18d8 5e3d 0f28 ab3d a528 0b3e a070 343e
00000270: 7800 453d 0d7f 103c 45ae 083e 6ee9 1d3e
00000280: 3307 63be 4ac3 5c3d 4f1e 363c 91af 55bd
00000290: 3f6c 2f3d a5c4 8a3c 6f14 b43d c844 3dbe
000002a0: 47ab aebd c170 da3d 1ee5 2bbd 9f02 bebc
000002b0: d83a c13c 6376 e4bd 4629 9a3c 0cb2 fb3c
000002c0: 11ce d2bc fb25 f73d 1088 b4bc 34d6 7f3c
000002d0: e557 19bd d3f1 64bd 58ec 32be f84e babd
000002e0: 7581 8abe 64fe 77be 6b5d 61be 86e4 193e
000002f0: f3c2 64be 9442 fcbd 50c8 3bbe 9fca a5bd
00000300: 4691 2abc ab91 eabd 1806 b6bd 500a 313e
00000310: 034f 693c 1ef8 93bd 048f 883d a32b e5bc
00000320: 527d d4bd fe41 1cbe ce55 1abe e888 c73c
00000330: 02b7 e03d 5111 cdbd 03fc fa3d 032f e6bd
00000340: 3f4a 243e db4c 703d 877e aa3c c6ac 1b3e
00000350: a466 703d bf6f 3d3d adf4 98bd 2ca6 8abc
00000360: 4dd6 8fbd 5ed3 163e 6872 383e 2285 ed3d
00000370: 8925 563c 291a 4ebe f493 093e 9630 18be
00000380: b420 fe3b 240f f0bc 70bd b5bd bdf2 0a3e
00000390: 268e 913c e039 babc d71a 253e 7874 babd
000003a0: 9eb9 93bc 877f aebd 66a8 163e 5e04 acbd
000003b0: 5e4b 9c3d c52b 8bbc c941 4abe 4e5e 23bd
000003c0: 8b08 783d c9a7 d23c 847f 7cbb f670 133e
000003d0: 4715 aebc b66a 133e f130 c2bc 670a a8bc
000003e0: cc80 fe3d 9408 8e3d 1f16 a83d aec0 103e
000003f0: ea78 52be 28cf b4bd 1ead ac3c 781b b4bd

net.2.weight f4 [256, 256]
0.18559265 0.025672305 0.017583948 0.13105436 0.27216402 -0.045634475 -0.103777 0.34965014
-0.25136796 0.1301573 -0.1859026 0.56640565 0.15835331 -0.035223026 0.15465483 0.06648234
0.20050575 -0.09118997 0.03715124 -0.3814373 0.38041213 -0.002493502 0.16839372 -0.080151185
0.43301922 0.4504417 0.17495024 -0.29332367 0.006911119 0.32692882 -0.056532454 0.3062877
0.116898976 -0.0167953 -0.050075024 -0.16487405 -0.012563087 0.121782094 0.18131304 0.16761886
-0.031231558 -0.11669334 0.13645752 -0.1567857 -0.039181523 -0.026788773 -0.4103575 0.12376693
0.15282199 0.095258005 0.28208226 0.055557918 -0.03393258 0.47315106 -0.22241347 0.1028129
0.33030245 -0.11131849 0.0141176535 0.7848211 0.15258357 0.09257132 -0.007231214 0.13217194
-0.2843353 0.018502977 -0.09245955 -0.02121536 -0.10852749 0.44906482 -0.00070941873 -0.10065818
-0.05987255 -0.00040561758 -0.032341138 -0.13608497 -0.096625924 0.1247206 0.03562387 0.1169407
0.057667177 -0.15735492 0.115997456 0.11126186 0.11437174 0.08250856 -0.27258122 0.14904901
0.27806488 -0.13461274 -0.13035399 -0.008248638 0.8408853 -0.012340315 0.2274739 -0.016062163
0.015242506 -0.015679857 -0.09660507 0.20318499 0.2878639 0.028832471 -0.007242576 -0.29862252
-0.07217608 -0.079251155 -0.015575918 -0.13742608 0.34414864 0.018435922 0.2032595 -0.019389221
0.008981591 0.373343 -0.07157109 0.13675256 -0.110175565 -0.113754824 -0.22173992 0.46118245
-0.22052698 0.08784616 0.14888212 -0.32003257 0.12642904 0.6251163 -0.10521049 -0.17741488
-0.1510249 -0.059920978 -0.044908043 0.13474686 -0.27820194 0.31923983 -0.041965805 -0.00057855557
-0.01836067 -0.059298854 -0.017004661 0.15150473 0.28523535 -0.0014890349 0.13074738 -0.08016609
0.13111396 0.070228495 0.21896832 0.3015849 0.19193757 0.012853662 -0.026104812 0.9576985
0.12681049 0.15918778 0.13755424 0.2360093 0.6494349 0.15772747 0.065479495 0.03792908
0.16801523 0.7718392 -0.24036044 0.031346302 0.17161237 0.27953115 0.865645 -0.054955162
-0.019275228 0.30966726 0.15190706 0.13913079 0.44314605 -0.07978164 0.12135592 0.51670724
-0.014508249 0.04932401 -0.028028924 0.056734364 0.033187527 0.07657789 0.15521511 -0.21605958
-0.09994739 -0.08598351 0.21318963 0.33705565 -0.1910882 0.025354164 -0.13972086 -0.09149843
0.12407091 0.22169523 -0.03577437 0.45635447 -0.12158241 0.0174137 0.00076230575 0.10726388
0.041586574 -0.120350085 -0.020419266 1.084126 0.9234377 0.18095541 0.123583645 -0.055733003
0.4403089 0.16974972 0.17504263 0.0064991014 0.09932603 0.06408176 -0.13864201 0.062086117
-0.056375988 0.31521055 0.506491 -0.035370547 -0.1229414 -0.011311202 0.047712445 -0.13230306
0.61976373 -0.13010366 -0.001396438 0.60439765 0.08085453 0.11811194 -0.059403162 0.3822122
0.013660187 -0.24948888 0.062148705 0.04687724 0.58708847 -0.15986131 0.070645735 -0.01672303
0.21541587 0.07997238 -0.132914 0.28280348 -0.2523514 0.8874008 -0.12498584 0.08607441
0.13356371 0.25263155 0.09181881 0.5644387 0.11913267 -0.030898517 0.08870447 -0.202425
00000000: 000c 3e3e ba4e d23c 360c 903c 1d33 063e
00000010: 1559 8b3e 37eb 3abd 0989 d4bd 5805 b33e
00000020: 4db3 80be f547 053e 405d 3ebe f6ff 103f
00000030: 5f27 223e 0546 10bd d65d 1e3e e527 883d
00000040: 6151 4d3e cfc1 babd e62b 183d c04b c3be
00000050: 61c5 c23e 066a 23bb 676f 2c3e 4e26 a4bd
00000060: b2b4 dd3e 4ba0 e63e 2826 333e 852e 96be
00000070: ab76 e23b 3763 a73e 938e 67bd bed1 9c3e
00000080: bb68 ef3d 4c96 89bc 781b 4dbd bed4 28be
00000090: 68d5 4dbc e468 f93d 20aa 393e 47a4 2b3e
000000a0: 53d9 ffbc ebfc eebd 85bb 0b3e 6e8c 20be
000000b0: ce7c 20bd 2174 dbbc 611a d2be 8479 fd3d
000000c0: 5e7d 1c3e a116 c33d 166d 903e b390 633d
000000d0: e4fc 0abd db40 f23e 5bc0 63be 928f d23d
000000e0: 671d a93e f3fa e3bd bb4d 673c 09ea 483f
000000f0: de3e 1c3e 0896 bd3d d2f3 ecbb 1558 073e
00000100: 6594 91be 8e93 973c 6f5b bdbd d6cb adbc
00000110: a943 debd d3eb e53e 49f8 39ba e025 cebd
00000120: eb3c 75bd 12a9 d4b9 2478 04bd dc59 0bbe
00000130: d0e3 c5bd 846d ff3d 56ea 113d 9b7e ef3d
00000140: 6b34 6c3d a621 21be 1390 ed3d 42dd e33d
00000150: bb3b ea3d 3ffa a83d c48f 8bbe 4ea0 183e
00000160: 855e 8e3e ecd7 09be 847b 05be 4c25 07bc
00000170: 4244 573f 082f 4abc ebee 683e cc94 83bc
00000180: b4bb 793c 0b73 80bc e1d8 c5bd ba0f 503e
00000190: e662 933e 1332 ec3c 2253 edbb 0de5 98be
000001a0: 0dd1 93bd 6e4e a2bd 2332 7fbc 6cb9 0cbe
000001b0: 4034 b03e ee06 973c 4223 503e 25d6 9ebc
000001c0: 8627 133c d026 bf3e dd93 92bd dd08 0c3e
000001d0: baa3 e1bd 4af8 e8bd ca0f 63be 1b20 ec3e
000001e0: d3d1 61be b0e8 b33d 8e74 183e 4fdb a3be
000001f0: 9d76 013e 9f07 203f 9978 d7bd 3fac 35be
00000200: 45a6 1abe b36f 75bd 7ff1 37bd 15fb 093e
00000210: 7c70 8ebe 6773 a33e 56e4 2bbd 35aa 17ba
00000220: 1e69 96bc 5be3 72bd 5c4d 8bbc 0e24 1b3e
00000230: 5e0a 923e b82b c3ba a4e2 053e 1e2e a4bd
00000240: bd42 063e f5d3 8f3d 3b39 603e 5669 9a3e
00000250: 488b 443e 2a98 523c c2d9 d5bc bb2b 753f
00000260: 9cda 013e 1f02 233e 05db 0c3e 6cac 713e
00000270: 5e41 263f 4f83 213e 1d1a 863d 865b 1b3d
00000280: 2f0c 2c3e 4197 453f 0c21 76be fb64 003d
00000290: 27bb 2f3e b51e 8f3e e99a 5d3f aa18 61bd
000002a0: 15e7 9dbc b58c 9e3e 868d 1b3e 4d78 0e3e
000002b0: 0ae4 e23e 8e64 a3bd 7489 f83d ed46 043f
000002c0: 02b4 6dbc f907 4a3d ea9c e5bc 4b62 683d
000002d0: a5ef 073d ded4 9c3d b6f0 1e3e b93e 5dbe
000002e0: 38b1 ccbd 1f18 b0bd 624e 5a3e 8f92 ac3e
000002f0: a0ac 43be 89b3 cf3c fc12 0fbe 8763 bbbd
00000300: e418 fe3d 1304 633e 2588 12bd 4ba7 e93e
00000310: 3300 f9bd 2da7 8e3c 79d5 473a 2aad db3d
00000320: af56 2a3d 1b7a f6bd 4e46 a7bc a4c4 8a3f
00000330: 6a66 6c3f 604c 393e 6c19 fd3d 4a48 64bd
00000340: 2b70 e13e dfd2 2d3e 603e 333e 6af6 d43b
00000350: 726b cb3d 4c3d 833d 2cf8 0dbe 034e 7e3d
00000360: 82ea 66bd 4763 a13e 65a9 013f b5e0 10bd
00000370: b3c8 fbbd 9f52 39bc 206e 433d 747a 07be
00000380: d6a8 1e3f e539 05be af08 b7ba ceb9 1a3f
00000390: 0f97 a53d ace4 f13d bb50 73bd 51b1 c33e
000003a0: face 5f3c 037a 7fbe a48f 7e3d 5902 403d
000003b0: 6e4b 163f afb2 23be b6ae 903d bcfe 88bc
000003c0: fa95 5c3e 8fc8 a33d 9c1a 08be 9ecb 903e
000003d0: 3434 81be b32c 633f 93f8 ffbd c847 b03d
000003e0: edc4 083e ec58 813e 800b bc3d 0e7f 103f
000003f0: d4fb f33d e31e fdbc b0aa b53d 8048 4fbe

net.2.bias f4 [256]
0.14188752 -0.029537668 -0.022358283 0.19585063 -0.023769798 0.04759473 0.0036502057 -0.10126019
-0.10239865 -0.020409955 0.13500316 0.2168881 0.17147528 0.21469465 0.13623698 -0.085052185
-0.085172884 0.20514897 -0.09892369 0.058886833 -0.07418625 0.18944909 0.10119761 0.08024804
0.17151104 -0.0039064134 0.19431879 0.16251968 0.21119586 0.0020548487 0.1774298 -0.009543924
0.021476131 -0.011539564 -0.029909082 0.20652583 -0.09083533 0.16109811 -0.08704299 -0.024555089
-0.0022669113 0.15659796 0.19488801 -0.087263525 -0.05200622 -0.027463427 -0.057939123 -0.098460265
0.16153322 -0.03837239 0.20657352 0.1798408 0.13902946 0.20948818 -0.025197702 0.18145013
0.15526876 0.14273986 -0.021225793 0.18465388 0.20632318 -0.08608186 -0.06653003 -0.08708471
0.17382967 0.16954707 -0.016493926 -0.09754831 0.056940746 -0.065856494 0.01683963 0.2177315
-0.008258511 0.16545819 0.22205286 -0.113660954 -0.05779011 0.19622017 -0.0593525 0.03817346
0.19308497 -0.111884736 -0.00039378976 0.12978776 -0.07907384 0.21004549 -0.021955207 -0.027647084
-0.027369177 0.18276739 0.19115378 -0.019512158 0.15447602 -0.038405746 -0.023225158 -0.052791514
0.21113327 0.037491728 0.12913509 -0.107991055 -0.012558804 0.21056107 0.20515195 0.19159783
-0.0021426727 0.21225384 0.14976725 -0.029324584 0.12928708 -0.029068282 -0.11645641 0.17377305
0.18693078 -0.029588334 -0.029949687 -0.09960169 -0.013483981 -0.018390473 0.026433753 0.16719864
-0.022378027 0.15491411 -0.08709365 0.19075443 -0.049722616 0.21829477 0.032097504 0.18629599
0.20444265 0.16252564 -0.022495374 -0.0933879 -0.029557042 -0.11031415 -0.08007669 -0.034993548
0.18501449 0.18515456 0.19198526 -0.094228335 -0.08169197 0.031397335 -0.09836937 0.19399096
0.20518473 0.16247497 0.1973765 -0.11313196 -0.025772888 -0.021219088 0.18544364 -0.0048661185
0.20018388 0.151162 -0.10066415 0.00990062 -0.026289213 0.06821833 -0.09803111 -0.009107506
0.18924345 -0.097958095 0.19000937 -0.007436199 -0.017285177 -0.11491712 -0.01766665 0.16826855
0.16085075 -0.09928877 -0.04114624 0.21549633 0.20829013 0.17082857 -0.021558462 0.20785502
-0.07781319 -0.020283295 -0.03530275 -0.018485093 0.109007314 -0.023897575 0.010708077 -0.04579839
0.18605459 -0.053602137 0.19306709 0.19796957 0.1673566 0.102982774 -0.096409865 0.19970109
0.18355715 0.22726528 0.2040731 0.09468729 -0.09747977 0.0100170355 0.11990902 -0.015563253
0.1914667 -0.08993828 -0.094995745 0.17220247 0.011035717 -0.03328885 -0.025462944 0.09729052
0.10548914 0.15392765 -0.062691115 0.081711344 0.17179416 -0.026168514 -0.10687943 -0.048165444
-0.014341916 0.017790701 -0.09166086 -0.05717097 0.01958182 0.19217898 0.15156433 -0.038555674
-0.10313626 0.21887593 -0.025779966 -0.03228079 0.2253788 0.01872463 -0.028777337 -0.02792648
0.16405152 0.19779374 0.105828896 -0.035687946 -0.012888307 0.20710102 -0.001679607 0.08110635
0.18939246 -0.09533251 0.18678772 -0.092668176 -0.08418345 0.19979943 -0.08973116 0.046191033
-0.14306173 -0.070787296 -0.036810003 0.17464328 0.20359924 -0.03289174 -0.018082019 -0.0940078
00000000: f64a 113e fbf8 f1bc b828 b7bc 118d 483e
00000010: e1b8 c2bc b1f2 423d 4a38 6f3b 8161 cfbd
00000020: 62b6 d1bd c732 a7bc 453e 0a3e ea17 5e3e
00000030: 3797 2f3e ead8 5b3e b581 0b3e d72f aebd
00000040: 1f6f aebd 9212 523e 8198 cabd 5233 713d
00000050: f6ee 97bd f1fe 413e b140 cf3d 1659 a43d
00000060: 97a0 2f3e 5f01 80bb 81fb 463e 8f6b 263e
00000070: ba43 583e a4aa 063b 28b0 353e 1e5e 1cbc
00000080: b6ee af3c 7010 3dbc e403 f5bc 827b 533e
00000090: e007 babd e7f6 243e 9843 b2bd c127 c9bc
000000a0: 7690 14bb 375b 203e b990 473e 38b7 b2bd
000000b0: 7904 55bd fbfa e0bc 9351 6dbd 89a5 c9bd
000000c0: f768 253e 5e2c 1dbd 0288 533e 3028 383e
000000d0: bd5d 0e3e 1284 563e 696b cebc 10ce 393e
000000e0: c6fe 1e3e 662a 123e b7e1 adbc e815 3d3e
000000f0: 6246 533e b04b b0bd e540 88bd 7859 b2bd
00000100: 6800 323e bf9d 2d3e 451e 87bc 69c7 c7bd
00000110: b33a 693d c5df 86bd 44f3 893c 02f5 5e3e
00000120: b54e 07bc df6d 293e d361 633e 13c7 e8bd
00000130: 53b5 6cbd f1ed 483e 9b1b 73bd c65b 1c3d
00000140: 11b8 453e d323 e5bd 9175 ceb9 15e7 043e
00000150: 77f1 a1bd 2a16 573e 68db b3bc 237c e2bc
00000160: 5335 e0bc 6027 3b3e d1bd 433e f6d7 9fbc
00000170: f62e 1e3e 584f 1dbd b042 bebc ea3b 58bd
00000180: 5233 583e ed90 193d fd3b 043e 6a2a ddbd
00000190: 71c3 4dbc 529d 573e 5a13 523e 3932 443e
000001a0: 156c 0cbb 1259 593e 965c 193e 1c3a f0bc
000001b0: d563 043e 9b20 eebc b380 eebd 90f1 313e
000001c0: c86a 3f3e 3c63 f2bc 0c59 f5bc f9fb cbbd
000001d0: eaeb 5cbc 9ea7 96bc 998b d83c 1f36 2b3e
000001e0: 2052 b7bc cea1 1e3e 285e b2bd 2155 433e
000001f0: f1a9 4bbd aa88 5f3e ac78 033d 60c4 3e3e
00000200: 6a59 513e 1f6d 263e 3848 b8bc 2842 bfbd
00000210: 9c21 f2bc 63ec e1bd 3fff a3bd 6555 0fbd
00000220: 7074 3d3e 2899 3d3e c997 443e c9fa c0bd
00000230: 1f4e a7bd 7e9a 003d e175 c9bd 91a5 463e
00000240: f21b 523e d75f 263e 111d 4a3e bbb1 e7bd
00000250: aa21 d3bc a7d3 adbc f0e4 3d3e f673 9fbb
00000260: 01fd 4c3e 36ca 1a3e 0229 cebd 3636 223c
00000270: 7a5c d7bc 0db6 8b3d 89c4 c8bd a637 15bc
00000280: 09c9 413e 419e c8bd d191 423e 5cab f3bb
00000290: a599 8dbc ab59 ebbd a6b9 90bc 974e 2c3e
000002a0: 0fb6 243e e957 cbbd f688 28bd 12ab 5c3e
000002b0: 024a 553e afed 2e3e 5f9b b0bc f2d7 543e
000002c0: 865c 9fbd 2729 a6bc 9e99 10bd 0d6e 97bc
000002d0: 3a3f df3d d9c4 c3bc ee70 2f3c 1897 3bbd
000002e0: 1885 3e3e ea8d 5bbd 61b3 453e 89b8 4a3e
000002f0: 875f 2b3e a2e8 d23d 8972 c5bd 717e 4c3e
00000300: 68f6 3b3e 3bb8 683e 8af8 503e 69eb c13d
00000310: 79a3 c7bd 7e1e 243c dc92 f53d 04fd 7ebc
00000320: d90f 443e 9031 b8bd 218d c2bd d855 303e
00000330: 27cf 343c e459 08bd aa97 d0bc 4140 c73d
00000340: b10a d83d 369f 1d3e 3364 80bd 4758 a73d
00000350: cfea 2f3e 5a5f d6bc 9ae3 dabd 2149 45bd
00000360: 5bfa 6abc cebd 913c b0b8 bbbd 1b2c 6abd
00000370: 0e6a a03c 91ca 443e ae33 1b3e 8eec 1dbd
00000380: 1a39 d3bd 0321 603e 8230 d3bc dd38 04bd
00000390: b3c9 663e 6564 993c 73be ebbc 13c6 e4bc
000003a0: 1ffd 273e 718a 4a3e d2bc d83d 862d 12bd
000003b0: 7a29 53bc 4a12 543e 4226 dcba 161b a63d
000003c0: 19f0 413e b13d c3bd 4845 3f3e d0c8 bdbd
000003d0: 5f68 acbd 3998 4c3e f8c4 b7bd cf32 3d3d
000003e0: c67e 12be eef8 90bd 16c6 16bd b0d5 323e
000003f0: 527c 503e 7db9 06bd be20 94bc 2987 c0bd

net.4.weight f4 [1, 256]
-1.0052096 0.25346008 0.13303918 -1.3091697 -0.117514394 -1.1237274 0.6853646 0.9109446
1.0864148 0.07789365 -1.1690748 -1.1853826 -1.1337888 -1.0973107 -1.1293304 1.117147
0.9339639 -1.2644423 1.2071263 0.7446117 0.47680482 -0.87207043 -0.80376345 1.0092149
-0.8200594 0.83798844 -1.3920918 -1.3352765 -1.2959136 0.9370991 -1.1553895 0.33940405
1.0426888 0.8068032 0.020478126 -1.0911118 1.0966907 -1.2883319 0.8048482 0.85057694
0.6810373 -1.5105621 -1.033796 0.2649578 0.28984278 1.114429 1.0661016 0.9088346
-0.8384534 0.6158059 -1.1184584 -1.2054574 -1.0513436 -1.4111176 1.0083089 -0.9549329
-1.4110222 -1.0338436 0.07961027 -1.3261927 -1.2619151 1.1929642 0.29190508 0.9393284
-1.299323 -1.1203657 0.5375807 1.0445008 -0.99652505 0.5398576 0.9728262 -1.3758793
1.1238942 -1.3163937 -1.251377 0.67091644 1.0827909 -0.8801052 0.41222316 -1.1084448
-1.2566699 0.9465882 0.9739706 -1.0440003 0.93296254 -0.8807251 1.0481486 0.65024555
1.1215816 -1.0606657 -1.3210667 1.0472188 -1.4398708 -0.10421211 1.1372696 0.875456
-1.1709344 -0.14364286 -1.0670553 1.1513125 0.8367606 -1.1345994 -1.044334 -1.1864793
-0.0037853408 -0.86878026 -1.286496 1.0910163 -1.3147963 1.1555563 0.85508305 -1.1423719
-1.2115133 -0.117894374 -0.16991958 0.9693095 1.0496507 0.028958756 0.80778074 -0.9754846
1.1089215 -1.3910666 0.71252054 -1.1554611 1.0347018 -1.1423004 0.8696504 -0.9691546
-0.898833 -1.0806452 -0.153421 1.0857234 1.0075698 0.6838387 1.0726581 0.011749298
-1.3396634 -1.212753 -0.8515426 1.0773311 1.1800419 1.0152707 1.0538707 -1.4378443
-0.9125659 -1.2716187 -1.3804092 0.6886787 1.0896811 0.8977243 -1.1987102 0.99559516
-0.92650145 -1.0928284 0.9492942 0.91103995 -0.15433593 -0.86358273 1.017941 0.23206942
-1.027454 0.76101494 -1.2040269 0.9874174 -0.027027937 1.0065207 0.063399285 -1.258911
-1.0854851 0.8644529 0.424609 -0.97858405 -1.3316525 -1.3853207 -0.10691369 -0.99584556
0.31949013 1.0322938 0.37221643 -0.010664864 -0.9435961 0.13781351 0.5729502 -0.27103746
-0.96748567 0.97063273 -0.97488856 -1.1419427 -1.2778891 -1.2895001 1.0458598 -0.8831927
-1.0080229 -0.9644816 -1.3916149 -0.92490405 1.1278282 0.73469347 -0.9314129 1.0263333
-1.281227 1.1636387 1.0739694 -1.2472999 0.9527275 0.012703532 1.125754 -1.1709344
0.834889 -1.6080276 0.9986469 -1.1743438 -1.204313 0.061207693 0.87960446 1.0784755
0.9917447 -0.30893415 1.0376344 0.031922415 0.94364375 -1.3653172 -0.9665439 1.0951886
0.67411125 -0.8212515 1.0115275 1.025475 -1.5211478 1.0042737 -0.019565057 0.93440497
-1.2140644 -1.3316525 -1.0450493 1.0194669 1.1347662 -1.3732089 0.5637472 0.9437391
-0.9292194 1.0115037 -1.3108147 1.0607371 1.0320554 -0.92354506 1.0716329 0.640077
0.4320059 1.0487447 0.91723883 -1.0153424 -0.98132586 -0.047811538 -0.024133012 1.0567079
00000000: b5aa 80bf 85c5 813e 6c3b 083e df92 a7bf
00000010: 63ab f0bd 4dd6 8fbf 0e74 2f3f aa33 693f
00000020: a40f 8b3f b586 9f3d 3ea4 95bf 9eba 97bf
00000030: fe1f 91bf ad74 8cbf e68d 90bf acfe 8e3f
00000040: 4218 6f3f 3fd9 a1bf 1d83 9a3f df9e 3e3f
00000050: c31f f43e 0240 5fbf 71c3 4dbf f42d 813f
00000060: 6aef 51bf 6986 563f 1030 b2bf 57ea aabf
00000070: 7fe0 a5bf bae5 6f3f cee3 93bf 5ec6 ad3e
00000080: d476 853f a88a 4e3f bec1 a73c 8da9 8bbf
00000090: 5c60 8c3f 0fe8 a4bf 880a 4e3f 69bf 593f
000000a0: 7658 2e3f 195a c1bf 6d53 84bf 8ca8 873e
000000b0: 4666 943e 9ca5 8e3f 0476 883f 62a9 683f
000000c0: e2a4 56bf 75a5 1d3f a529 8fbf 6e4c 9abf
000000d0: 6d92 86bf 809f b4bf 4410 813f 7c76 74bf
000000e0: 609c b4bf fd54 84bf b60a a33d afc0 a9bf
000000f0: 6f86 a1bf 0db3 983f 9574 953e d377 703f
00000100: 3750 a6bf 2568 8fbf e49e 093f 34b2 853f
00000110: 441c 7fbf 1c34 0a3f 230b 793f d01c b0bf
00000120: c4db 8f3f 977f a8bf 1f2d a0bf 2ec1 2b3f
00000130: e498 8a3f 934e 61bf ea0e d33e 85e1 8dbf
00000140: 8fda a0bf 9b53 723f 2356 793f cda1 85bf
00000150: a2d6 6e3f 3377 61bf bc29 863f 7e76 263f
00000160: fc8f 8f3f e5c3 87bf b718 a9bf 440b 863f
00000170: b04d b8bf 296d d5bd 0d92 913f e21d 603f
00000180: 2ee1 95bf 1d17 13be 4595 88bf 355e 933f
00000190: f135 563f 8e3a 91bf bdac 85bf 8ede 97bf
000001a0: 7b13 78bb 6268 5ebf e7ab a4bf 6ca6 8b3f
000001b0: 3f4b a8bf 45e9 933f b9e6 5a3f 3e39 92bf
000001c0: de12 9bbf 9b72 f1bd 66ff 2dbe ab24 783f
000001d0: f45a 863f ea3a ed3c b8ca 4e3f 5cb9 79bf
000001e0: 24f1 8d3f 780e b2bf bf67 363f 26e6 93bf
000001f0: 1c71 843f e636 92bf 69a1 5e3f 841a 78bf
00000200: eb19 66bf 9552 8abf 651a 1dbe fcf8 8a3f
00000210: 0cf8 803f 0e10 2f3f dc4c 893f 2180 403c
00000220: 177a abbf 7e3b 9bbf b2fe 59bf fce5 893f
00000230: 9d0b 973f 64f4 813f 3ce5 863f 480b b8bf
00000240: eb9d 69bf 67c4 a2bf 40b1 b0bf 3f4d 303f
00000250: ac7a 8b3f 42d1 653f 566f 99bf 53df 7e3f
00000260: 332f 6dbf cde1 8bbf f204 733f ea39 693f
00000270: 3d0a 1ebe c213 5dbf e44b 823f 9ba3 6d3e
00000280: 9d83 83bf e0d1 423f 8e1d 9abf 63c7 7c3f
00000290: b169 ddbc acd5 803f 7cd7 813d ff23 a1bf
000002a0: 2df1 8abf c94c 5d3f 5a66 d93e 7c84 7abf
000002b0: 9773 aabf 3052 b1bf 91f5 dabd bcef 7ebf
000002c0: 3694 a33e 3422 843f 2793 be3e afbb 2ebc
000002d0: 848f 71bf fc1e 0d3e ddac 123f 6cc5 8abe
000002e0: 24ad 77bf 637b 783f 4c92 79bf 2e2b 92bf
000002f0: df91 a3bf 570e a5bf bcde 853f eb18 62bf
00000300: e506 81bf 44e8 76bf 7020 b2bf 83c6 6cbf
00000310: ad5c 903f df14 3c3f 1371 6ebf e45e 833f
00000320: 3fff a3bf 1df2 943f d477 893f 86a7 9fbf
00000330: f3e5 733f 7a22 503c b518 903f 2ee1 95bf
00000340: 49bb 553f d9d3 cdbf 53a7 7f3f e650 96bf
00000350: ee26 9abf ebb4 7a3d c22d 613f 7c0b 8a3f
00000360: fbe2 7d3f 9e2c 9ebe 34d1 843f 14c1 023d
00000370: a392 713f b7c2 aebf 6c6f 77bf 242f 8c3f
00000380: 8e92 2c3f 8a3d 52bf bc79 813f c442 833f
00000390: f9b4 c2bf 0a8c 803f e646 a0bc 2a35 6f3f
000003a0: 7666 9bbf 9773 aabf 2dc4 85bf e47d 823f
000003b0: 0540 913f 4fc5 afbf bd51 103f e398 713f
000003c0: 53e1 6dbf f478 813f c7c8 a7bf 3cc6 873f
000003d0: 641a 843f 736d 6cbf 442b 893f 16dc 233f
000003e0: e12f dd3e 443d 863f 2ad0 6a3f bdf6 81bf
000003f0: 2c38 7bbf 08d6 43bd 98b2 c5bc 3442 873f
