output/CarlaNavigation-v0/gin/3/gse.pt (torch, 563384 bytes, 22 tensors)

st_gcn_networks.0.gcn.conv.weight f4 [192, 10, 1, 1]
0	0x3ea3a6e7	0.31963274
1	0xbf0ffa72	-0.56241524
2	0x3dc54908	0.0963307
3	0x3df9e528	0.12201911
4	0xbe146f77	-0.14495645
5	0xbdbe0893	-0.09278979
6	0xbdb26387	-0.087103896
7	0xbd682330	-0.056674182
8	0xbe0bf41d	-0.1366734
9	0xbcc18342	-0.023622159
10	0xbf7d46dd	-0.98936254
11	0xbb8c1cd9	-0.0042759
12	0x3ef2b496	0.474034
13	0xbd4946ca	-0.049139775
14	0x3e67665c	0.22597641
15	0x3be4be8f	0.006980724
16	0x3b090e21	0.0020912963
17	0x3e331e0f	0.17491935
18	0x3c3af929	0.0114119435
19	0x3e5832a2	0.21113065
20	0xbed3cd96	-0.41367787
21	0x3f47e314	0.7808087
22	0x3f072935	0.5279725
23	0xbeaafa7e	-0.33394235
24	0xbe247653	-0.16060762
25	0x3c4392b1	0.011936829
26	0xbd99b287	-0.075047545
27	0xbd75c50f	-0.060002383
28	0x3ee63e99	0.44969633
29	0xbe18bbd6	-0.14915404
30	0xbec3af08	-0.38219476
31	0x3e359b51	0.1773503
32	0xbe9c25dc	-0.30497634
33	0x3d86286e	0.0655068
34	0x3d291b2a	0.04128567
35	0xbd1b195f	-0.037865993
36	0x3cd76bef	0.026296584
37	0x3c9f89e0	0.019474924
38	0x3d543ca2	0.051815636
39	0xbd33ea6f	-0.043924745
40	0x3e98c02e	0.2983412
41	0x3ecb5a99	0.39717558
42	0x3e39e66a	0.18154302
43	0xbebbdc96	-0.3669173
44	0x3dbc9eef	0.09210002
45	0x3b2977ed	0.0025858835
46	0xbc72e591	-0.014825241
47	0xbd90eaf0	-0.07076061
48	0x3cc2f27b	0.023797264
49	0x3edc444e	0.43020862
50	0xbce0567c	-0.027384989
51	0xbd9a5bb2	-0.07537021
52	0xbe0955ba	-0.13411608
53	0x3df5182a	0.119674996
54	0xbe26647d	-0.1624927
55	0xbe814f10	-0.25255632
56	0xbe898466	-0.26858824
57	0xbe58f45b	-0.21186964
58	0xbef303cf	-0.47463843
59	0x3d1d6dd6	0.038434826
60	0x3f38eacc	0.7223327
61	0x3eb8b991	0.36079076
62	0x3e2fed8f	0.17180465
63	0x3e3c95ee	0.18416569
64	0xbe3822b2	-0.17981985
65	0x3e9c17d7	0.30486938
66	0x3ea52269	0.32252815
67	0x3e20780a	0.15670791
68	0xbdf6cb1c	-0.12050459
69	0x3d41ab7d	0.047282685
70	0xbf24ee8e	-0.64426506
71	0xbd7e46f5	-0.06207939
72	0xbdb095f6	-0.08622353
73	0xbe4d32a2	-0.20038846
74	0x3e1c3b7e	0.1525707
75	0xbe8ed737	-0.2789857
76	0xbea299ed	-0.3175806
77	0x3e0895d0	0.13338399
78	0x3ec638bf	0.3871517
79	0xbd4faa3c	-0.050699458
80	0xbea95f68	-0.33080602
81	0xbc0feaf0	-0.008784041
82	0x3e146c96	0.14494547
83	0x3e05f618	0.13082159
84	0xbc3f539b	-0.011677648
85	0x3da4f715	0.0805494
86	0x3d8b8a95	0.06813542
87	0x3d9ba185	0.07599167
88	0x3e5c5ea2	0.21520475
89	0x3e621c17	0.22081028
90	0x3f1b7dfe	0.60739124
91	0xbdb65132	-0.089022055
92	0xbe314c96	-0.17314371
93	0x3e7aec26	0.24504146
94	0x3e881376	0.26577348
95	0x3e6f4894	0.2336753
96	0x3d9c488f	0.07631027
97	0xbce7e0d6	-0.028305452
98	0xbd39d469	-0.045368586
99	0x3e5e0ac8	0.216838
100	0xbeff5cfb	-0.49875626
101	0xbe2f3cbf	-0.17113017
102	0x3f232095	0.6372159
103	0x3e7ab542	0.24483207
104	0x3e732596	0.23744807
105	0xbc61bd98	-0.013778113
106	0x3c1b7607	0.009488589
107	0xbe5359ce	-0.20639727
108	0xbe23eabf	-0.16007517
109	0xbdafd158	-0.08584851
110	0x3dd2bbfa	0.1028976
111	0xbf74716c	-0.9548557
112	0x3e3a2b03	0.1818047
113	0x3dbc4c6e	0.09194265
114	0xbe3c8bb1	-0.18412663
115	0x3dfddfe0	0.123962164
116	0xbdfc67e5	-0.12324504
117	0xbe80e85b	-0.25177273
118	0x3d47b35c	0.048755035
119	0x3ea8edd5	0.3299395
120	0xbf3cafb9	-0.7370563
121	0xbee6a7d6	-0.45049924
122	0x3de88adf	0.113546126
123	0xbdcee5ea	-0.101024464
124	0xbf288fd1	-0.65844446
125	0xbae03db0	-0.0017108228
126	0x3c99cc1d	0.018774087
127	0xbf191731	-0.5980101
128	0xbd9b1799	-0.0757286
129	0xbdf5daa8	-0.12004596
130	0x3eb04660	0.34428692
131	0xbe73d00b	-0.23809831
132	0xbe80716f	-0.25086543
133	0x3e1dd64f	0.15413783
134	0x3dbba1d3	0.09161725
135	0xbe3c36d8	-0.18380296
136	0xbcf53322	-0.029931609
137	0x3dbc11e1	0.09183098
138	0x3db67b13	0.08910193
139	0x3ecc3661	0.39885238
140	0xbe62343d	-0.2209024
141	0xbd5ecfa8	-0.054397255
142	0x3e989c61	0.29806808
143	0x3e36843c	0.17823881
144	0xbd42229d	-0.04739629
145	0xbe56404c	-0.20922965
146	0xbd1f98b5	-0.038963992
147	0xbe53bed9	-0.20678271
148	0xbdc94aba	-0.09828706
149	0xbe18aee5	-0.14910467
150	0xbe06e847	-0.13174544
151	0xbe922dca	-0.2855056
152	0xbebc0b1d	-0.3672723
153	0x3d5b258a	0.053502597
154	0x3e4b1b99	0.19834746
155	0xbb83bbf0	-0.0040202066
156	0xbc9f5cd1	-0.019453438
157	0x3e97b8bc	0.2963313
158	0xbe0f4f50	-0.13995099
159	0xbdcc6fce	-0.099822626
160	0xbed3b5f6	-0.41349763
161	0x3ebe26a8	0.37138867
162	0xbdaea583	-0.085276626
163	0x3e3c31ad	0.18378325
164	0xbd9aa3a2	-0.07550742
165	0x3e17b4ba	0.14815035
166	0x3e11b62a	0.14229646
167	0xbe9037cc	-0.2816757
168	0xbe8e2187	-0.27759954
169	0x3dc60ed5	0.09670798
170	0x3f1389a9	0.5763193
171	0xbe82b879	-0.25531366
172	0x3d82ddfd	0.06389997
173	0xbe1435ee	-0.14473698
174	0x3e8ec18d	0.27882043
175	0xbe2c176e	-0.16805813
176	0xbe309f84	-0.1724835
177	0x3eb11b36	0.34591073
178	0x3e6611b5	0.22467692
179	0x3e6c2934	0.23062593
180	0x3ebbb7ad	0.3666357
181	0x3f17137b	0.590141
182	0x3e3bb522	0.18330815
183	0xbe1d0317	-0.1533321
184	0x3cc9c535	0.024630168
185	0x3c9a3f87	0.01882912
186	0x3e5b7a76	0.21433434
187	0xbeaf3273	-0.34218177
188	0x3ead0a8e	0.33797115
189	0xbba2c3a7	-0.0049671712
190	0x3f046c7b	0.5172803
191	0x3f1c2928	0.610003
192	0x3dbd3fdc	0.09240696
193	0x3db0aa19	0.086261936
194	0x3e694d2f	0.2278335
195	0xbbf17a7d	-0.007369338
196	0xbe76562e	-0.24056312
197	0xbe17d4d5	-0.14827283
198	0xbe8c14f8	-0.27359748
199	0xbdea76f5	-0.114484705
200	0x3f1c6e65	0.6110595
201	0xbd982ad6	-0.07430045
202	0x3dae6676	0.085156366
203	0xbf021384	-0.5081103
204	0x3d15d607	0.036581066
205	0x3dbbf864	0.09178236
206	0xbbd2529c	-0.006418539
207	0xbe4245bd	-0.18971916
208	0x3efdc8f7	0.49567387
209	0xbd4769a4	-0.04868473
210	0x3f3e8009	0.74414116
211	0xbef7831b	-0.48342213
212	0x3e88bbbc	0.2670573
213	0xbc35a55c	-0.011086788
214	0xbc622d91	-0.013804809
215	0xbe1eb6fd	-0.15499492
216	0x3c2b8ee7	0.010471082
217	0x3df9d396	0.1219856
218	0xbdf53cf8	-0.119745195
219	0x3eea2a1a	0.45735246
220	0x3dd24a66	0.102680966
221	0x3e77246a	0.24134985
222	0xbecb1eaf	-0.39671847
223	0x3ed42ce1	0.4144049
224	0x3e6010f9	0.21881475
225	0x3cd55a00	0.026043892
226	0xbdd8f510	-0.10593617
227	0x3d027b32	0.03185577
228	0xbe44c554	-0.192159
229	0x3ea77f5d	0.32714358
230	0xbe89a84a	-0.26886207
231	0x3effa06a	0.49927074
232	0x3d89724c	0.067112535
233	0xbe8bd5fd	-0.27311698
234	0x3e8a39cc	0.2699722
235	0x3d825459	0.06363744
236	0x3e54e202	0.2078934
237	0x3d85f86d	0.06541524
238	0x3ea44759	0.32085684
239	0x3acfd377	0.0015855868
240	0xbf12a4ac	-0.5728252
241	0xbdcbcac4	-0.09950784
242	0xbe33ae9f	-0.17547081
243	0xbd9c28d5	-0.076249756
244	0xbe655b8a	-0.223982
245	0xbcf8ac30	-0.030355543
246	0xbd3f3eab	-0.046690624
247	0x3d6d3beb	0.05791847
248	0xbc5c3537	-0.013440422
249	0xbefc6e3c	-0.49302852
250	0xbe0eb083	-0.13934521
251	0xbc8ee239	-0.017441856
252	0x3db356b6	0.08756773
253	0x3e780efd	0.24224468
254	0xbddf9729	-0.109175034
255	0x3de5aaff	0.112142555

st_gcn_networks.0.gcn.conv.bias f4 [192]
0	0xbdee98fc	-0.11650273
1	0x3e2a9943	0.16660027
2	0xbd9e500b	-0.07730111
3	0x3debf429	0.11521179
4	0xbe4c5fd7	-0.19958435
5	0x3e45e42e	0.19325325
6	0xbe858071	-0.26074556
7	0x3e128b9e	0.14311072
8	0x3e3360c0	0.17517376
9	0xbd444a31	-0.047922317
10	0xbe0e79b6	-0.13913617
11	0x3e2f9b3f	0.17149065
12	0x3df56a87	0.11983209
13	0x3e300dec	0.17192811
14	0x3be2195b	0.0068999953
15	0xbd6ccd64	-0.057813063
16	0x3e55aa87	0.20865832
17	0xbdb608a0	-0.08888364
18	0xbe8ced4e	-0.275248
19	0xbd8d9787	-0.06913667
20	0xbe226996	-0.1586059
21	0x3e98a8f9	0.29816416
22	0xbb954908	-0.004555825
23	0xbd171a9c	-0.03689061
24	0x3dcfff68	0.10156137
25	0xbd7531fc	-0.059862122
26	0x3e5a05b9	0.21291246
27	0xbe9688fc	-0.29401386
28	0xbc23c8df	-0.009996622
29	0xbe9b1c77	-0.30295154
30	0x3e554e28	0.20830595
31	0xbd1557b0	-0.03646058
32	0x3ea03d2c	0.3129667
33	0x3e80563b	0.2506579
34	0x3daf9c26	0.08574705
35	0xbd5f91ff	-0.054582592
36	0x3c791060	0.015201658
37	0x3e778137	0.24170385
38	0x3dd6fdd8	0.104976356
39	0xbdc018f1	-0.09379757
40	0xbe6eda8b	-0.23325555
41	0xbe09f5ad	-0.13472624
42	0x3e96eec4	0.2947904
43	0xbe2ad2ff	-0.16682051
44	0x3d8dee94	0.06930271
45	0x3e0636b2	0.13106802
46	0xbe83cffd	-0.2574462
47	0xbd197d09	-0.03747276
48	0xbe29dafe	-0.16587445
49	0xbea3d544	-0.31998646
50	0x3d93df19	0.07220287
51	0xbd49884f	-0.04920226
52	0x3aed7b49	0.0018118407
53	0xbe00a824	-0.1256414
54	0xbe6ecfbe	-0.23321435
55	0xbd18c975	-0.0373015
56	0xbe276ca4	-0.16350037
57	0xbec57ad5	-0.38570276
58	0x3d5e0567	0.05420437
59	0x3e4b3e73	0.19848041
60	0x3dd83834	0.10557595
61	0xbd862588	-0.06550127
62	0xbe0a60db	-0.1351351
63	0x3db7cf33	0.08975067
64	0x3dc67734	0.09690705
65	0xbddfd6e5	-0.1092966
66	0x3d6059ad	0.05477302
67	0xbe296a88	-0.16544545
68	0x3cbcb48d	0.023035312
69	0xbe5155c3	-0.20442872
70	0x3dc3487c	0.0953531
71	0x3e3ff18b	0.18744485
72	0xbdd04a84	-0.10170463
73	0x3dbf61f6	0.093448564
74	0x3e9ff3ff	0.31240842
75	0xbe5661ab	-0.20935695
76	0x3cf29ac1	0.029614808
77	0xbe8783dc	-0.26467788
78	0xbc04e3e4	-0.008110974
79	0x3d9a0835	0.075210966
80	0x3d124980	0.035714626
81	0xbe1a726f	-0.15082715
82	0x3e975da3	0.29563627
83	0x3e087f71	0.13329865
84	0x3de06d55	0.109583534
85	0xbe9c9303	-0.3058091
86	0xbe714851	-0.23562743
87	0x3dfef2cb	0.12448653
88	0x3da38610	0.07984555
89	0x3e033691	0.12813784
90	0xbe75d5e9	-0.24007381
91	0x3c90e0c9	0.01768531
92	0xbd89eda6	-0.06734781
93	0x3d47c909	0.048775706
94	0xbe2e5a8b	-0.17026727
95	0xbdb7dfc0	-0.08978224
96	0xbe73be1b	-0.23802988
97	0xbdb2393f	-0.08702325
98	0xbe122d5b	-0.14275114
99	0xbda5eba2	-0.08101584
100	0x3cd14fce	0.02555075
101	0x3c8ad086	0.016945135
102	0x3d6c1617	0.057638254
103	0xbe2b885c	-0.16751236
104	0xbe6be7a8	-0.23037589
105	0x3e5cdd84	0.21568877
106	0xbe2ca039	-0.16857995
107	0x3e0050ad	0.12530775
108	0x3d301694	0.042990282
109	0xbd02ae1e	-0.031904332
110	0x3d8b7e20	0.06811166
111	0x3e7f8345	0.24952419
112	0x3e11b81d	0.1423039
113	0x3e28cc8d	0.1648428
114	0xbe2f2672	-0.1710451
115	0x3c8078cb	0.015682599
116	0xbe950a4e	-0.29109424
117	0x3c43e72e	0.011956973
118	0x3ba317d4	0.004977206
119	0xbe1878de	-0.14889857
120	0x3e5bb110	0.21454263
121	0xbe48812d	-0.19580527
122	0xbd0b5971	-0.034020845
123	0xbdba220c	-0.09088525
124	0xbe38fbba	-0.18064776
125	0xbd95f0ab	-0.073212944
126	0xbd0fed89	-0.03513864
127	0xbe12afd0	-0.1432488
128	0x3d8beba1	0.06832052
129	0x3c9a38cf	0.018825917
130	0x3d5bd9f2	0.053674646
131	0x3e0136cf	0.12618564
132	0x3e27a577	0.16371714
133	0xbdbd75d9	-0.09250993
134	0x3de053fc	0.10953519
135	0xbe8db02c	-0.2767347
136	0xbba9d969	-0.005183388
137	0x3e4fc79a	0.20290986
138	0xbe554fbf	-0.20831202
139	0x3c802aa2	0.015645329
140	0xbdf56b24	-0.11983326
141	0x3e3ff739	0.18746652
142	0x3e422541	0.18959524
143	0x3e55f9d4	0.20896083
144	0xbe1e3620	-0.15450335
145	0x3e0226a6	0.12710056
146	0xbe24dcac	-0.16099805
147	0x3ce4d810	0.027935058
148	0xbdc9e462	-0.09858014
149	0xbe81b4f6	-0.25333375
150	0xbe407a1b	-0.1879658
151	0xbe09166a	-0.13387457
152	0x3d307bc0	0.043086767
153	0x3c3465e7	0.011010624
154	0x3d873d18	0.066034496
155	0x3e645196	0.22296748
156	0x3da93286	0.0826159
157	0x3e8d48be	0.2759456
158	0xbd8d2ac1	-0.0689292
159	0x3d13da9a	0.036097147
160	0xbe4e4e95	-0.20147164
161	0xbe86d6b3	-0.26335678
162	0x3d0ccba4	0.034373894
163	0x3eb99fb2	0.3625465
164	0xbe278f7d	-0.1636333
165	0xbe86eb56	-0.26351422
166	0xbe2b9b5c	-0.16758484
167	0x3eadc078	0.33935905
168	0x3df086d0	0.117444634
169	0x3cc48b00	0.023992062
170	0xbe34a454	-0.17640811
171	0x3cb32bef	0.021871535
172	0xbe8536c9	-0.2601836
173	0xbe09015b	-0.13379423
174	0xbe84d794	-0.25945723
175	0xbe471db8	-0.1944493
176	0x3e192202	0.14954379
177	0x3e3b8ade	0.18314692
178	0xbdc96755	-0.09834162
179	0x3e22338c	0.15839976
180	0x3e888cda	0.2666996
181	0x3df2ee08	0.11861807
182	0x3e46d896	0.19418558
183	0xbdf2b88e	-0.11851607
184	0xbe55547d	-0.20833011
185	0xbdef12e7	-0.11673527
186	0xbdb7610b	-0.08954056
187	0xbe396563	-0.18105082
188	0xbdc185ea	-0.0944937
189	0x3e0e3b2b	0.13889758
190	0x3e736f9c	0.23773044
191	0xbda5736b	-0.08078655

st_gcn_networks.0.tcn.1.weight f4 [64, 64, 5, 1]
0	0xbccb4a4a	-0.024815697
1	0x3ac70dd4	0.0015186616
2	0xbe4b373e	-0.19845292
3	0x3db4c082	0.088257805
4	0xbd32c524	-0.04364504
5	0x3e1a58fb	0.15073006
6	0x3d110de4	0.035413638
7	0x3d6fb034	0.05851765
8	0x3e2ab5c7	0.16670905
9	0x3cdeec3c	0.027212255
10	0xbdb9256c	-0.09040341
11	0x3d560429	0.05225006
12	0xbe4e9346	-0.20173368
13	0xbe177f38	-0.14794624
14	0x3afaf3a8	0.0019146102
15	0xbc9b6770	-0.018970221
16	0x3d859b94	0.06523815
17	0x3cf5355e	0.029932674
18	0xbe149c5a	-0.14512768
19	0x3d3de780	0.046363354
20	0xbd15a722	-0.036536343
21	0xbd575c65	-0.05257835
22	0xbd0b85f4	-0.034063295
23	0xbdb063ae	-0.086127624
24	0x3e75097b	0.23929398
25	0x3d81d771	0.0633992
26	0xbd72d614	-0.059286192
27	0x3a534f76	0.0008060852
28	0xbe83becd	-0.25731507
29	0x3e038a8d	0.12845822
30	0x3da13e57	0.078732185
31	0xbdc67172	-0.09689607
32	0x3ab5ee7b	0.0013880277
33	0x3e1da6f7	0.15395723
34	0xbe536628	-0.20644438
35	0xbd0c6897	-0.034279432
36	0x3da082e8	0.078374684
37	0x3aff60d6	0.0019483815
38	0xbe5f95e4	-0.21834522
39	0x3e27589c	0.16342396
40	0xbd529e23	-0.051420342
41	0x3c96679e	0.018359955
42	0xbc81b5a7	-0.015833689
43	0x3e3cf56a	0.18452993
44	0xbe103047	-0.14080916
45	0x3df870ea	0.12130912
46	0xbdceb47f	-0.10093021
47	0xbcd06ae9	-0.025441604
48	0xbd053645	-0.03252246
49	0xbd406c64	-0.04697837
50	0xbe3e8191	-0.18604113
51	0xbea49037	-0.32141277
52	0xbea0ded0	-0.31419992
53	0xbe36072f	-0.17776178
54	0x3a6994ca	0.0008910416
55	0xbcc1bdb0	-0.02365002
56	0xbde65da3	-0.112483285
57	0x3e479d91	0.194937
58	0xbe641085	-0.22271927
59	0xbd2fc649	-0.04291371
60	0xbc3290a0	-0.010898739
61	0xbd6f3264	-0.058397666
62	0x3e36f0f2	0.17865351
63	0xbdd553a3	-0.10416343
64	0x3e29eaf8	0.1659354
65	0x3da096fa	0.078412965
66	0x3dd76763	0.10517766
67	0xbdff73ba	-0.12473245
68	0x3df2e6cb	0.118604265
69	0x3de435c3	0.11143067
70	0x3dd476e5	0.1037424
71	0x3c2fa9c9	0.010721632
72	0xbe02d108	-0.12775052
73	0x3dd7e27a	0.10541244
74	0x3e3b961a	0.18318978
75	0xbd6d85fd	-0.05798911
76	0xbbdf5308	-0.006815318
77	0x3d04c246	0.032411836
78	0xbd8b1c9a	-0.06792565
79	0x3d5838c4	0.05278851
80	0x3c7b54a2	0.015340002
81	0xbd1052f7	-0.03523537
82	0x3e49676a	0.19668356
83	0xbe23cfb5	-0.15997203
84	0xbba2feba	-0.0049742134
85	0x3b7072fa	0.0036689625
86	0x3d9ecc15	0.07753769
87	0xbd7f0d40	-0.062268496
88	0xbd85ed8c	-0.06539449
89	0xbd9d0849	-0.07667596
90	0x3e0a13e0	0.13484144
91	0xbc0521b4	-0.008125711
92	0x3c3c8e25	0.011508499
93	0x3d0cafc5	0.034347314
94	0xbdb9d6dc	-0.09074184
95	0xbd275306	-0.04085066
96	0x3ddc734a	0.10764177
97	0x3dac8469	0.08423693
98	0xbe4cb87e	-0.19992253
99	0xbd770045	-0.06030299
100	0x3dcacc6e	0.09902273
101	0xbdad0825	-0.08448819
102	0x3d64960f	0.05580717
103	0x3c2aa6ac	0.010415714
104	0xbdbfb3ec	-0.09360489
105	0xbce36511	-0.027758153
106	0xbb9eaba7	-0.00484224
107	0xbe56ee5e	-0.20989367
108	0x3c61f8cb	0.013792227
109	0x3d71bce3	0.059018027
110	0x3ccea1cc	0.025223635
111	0x3cc5046b	0.024049958
112	0x3e7189c1	0.23587705
113	0xbe49ecdf	-0.19719265
114	0xbd32c16f	-0.043641504
115	0x3d21ea1d	0.03952991
116	0xbdfdaea4	-0.12386826
117	0x3c92734a	0.01787724
118	0xbd5b705e	-0.05357396
119	0xbd704b81	-0.058665756
120	0xbdee652c	-0.11640391
121	0x3d795574	0.06087251
122	0xbe1a301b	-0.15057413
123	0x3e6195a5	0.22029741
124	0x3c9790f7	0.018501742
125	0xbd91ff44	-0.07128766
126	0x3c95c353	0.018281614
127	0x3e330d7e	0.17485616
128	0xbe8fbc41	-0.28073314
129	0x3e28120f	0.16413139
130	0xbd810fb8	-0.06301826
131	0xbe1a74ba	-0.1508359
132	0xbe410fbc	-0.18853658
133	0xbe2078cb	-0.15671079
134	0x3cc87b62	0.024472896
135	0x3d213b25	0.039363045
136	0x3a682ae1	0.0008856487
137	0x3cc47a93	0.02398423
138	0xbe42abd2	-0.19010857
139	0x3e180e7f	0.1484928
140	0xbd88b9f1	-0.066760905
141	0x3d241f34	0.04006882
142	0x3c3e969b	0.011632587
143	0x3de952cd	0.11392746
144	0x3e310619	0.17287482
145	0x3e04f020	0.12982225
146	0xbd8dc38f	-0.069220655
147	0x3d9ad9ef	0.07561099
148	0xbb10ff6f	-0.0022124907
149	0xbdc6e026	-0.09710722
150	0x3d3e2bf1	0.046428625
151	0xbdd1db86	-0.10246949
152	0xbdaa4078	-0.08313078
153	0x3d7d31c9	0.061815057
154	0x3ce661f4	0.02812288
155	0x3d9816dd	0.07426236
156	0xbce296bd	-0.027659768
157	0xbc9985d3	-0.01874057
158	0xbe87b991	-0.26508763
159	0xbdd46e2b	-0.10372575
160	0xbe3a69bc	-0.18204397
161	0x3d90148b	0.07035168
162	0xbdf8ae24	-0.1214259
163	0x3d2d8c29	0.042369995
164	0x3e6a5009	0.22882093
165	0x3d9a2fda	0.07528658
166	0xbcbed52b	-0.023295006
167	0xbe38ded0	-0.18053746
168	0x3e8afdbc	0.2714671
169	0xbe2b34a7	-0.16719304
170	0xbdc570b3	-0.09640636
171	0xbe2ce263	-0.16883235
172	0x3e8c98f7	0.27460453
173	0xbdeb5e7f	-0.11492633
174	0x3e4b559e	0.19856879
175	0xbd8daf80	-0.069182396
176	0x3dbb86ce	0.09156571
177	0xbdec1d9e	-0.115290865
178	0x3d1f4d9c	0.038892373
179	0x3c3f89be	0.011690555
180	0xbe434fc5	-0.19073398
181	0xbde5f25d	-0.11227868
182	0xbe85e2ba	-0.2614954
183	0x3e827281	0.25477985
184	0xbc918976	-0.017765742
185	0xbc9ff209	-0.019524591
186	0xbca6c904	-0.020359524
187	0xbd42ff2b	-0.04760663
188	0xbd8368e5	-0.064164914
189	0x3dcedebf	0.10101079
190	0xbc7e9b0e	-0.015539898
191	0x3d81cd37	0.0633797
192	0x3d4cd07f	0.050003525
193	0x3c91a93b	0.01778089
194	0xbe449c92	-0.19200352
195	0x3de3a896	0.111161396
196	0xbdd2a465	-0.10285262
197	0xbde2de2d	-0.11077533
198	0xbe6b9614	-0.23006469
199	0xbe83b07a	-0.25720578
200	0x3e31e096	0.17370829
201	0xbe2846c6	-0.16433248
202	0xbd8df214	-0.06930938
203	0x3dbc0071	0.09179772
204	0xbd827cc3	-0.06371453
205	0xbd94a738	-0.07258457
206	0x3d42579e	0.04744684
207	0xbcb9e875	-0.022693852
208	0x3e8b166d	0.27165547
209	0xbe2e93cd	-0.17048569
210	0xbd07900d	-0.033096362
211	0x3e4418a2	0.19150022
212	0xbe40e65e	-0.18837878
213	0x3e104369	0.14088215
214	0x3d844fc2	0.06460525
215	0x3cba488c	0.022739671
216	0xbc619fc7	-0.013771004
217	0x3e64888e	0.22317716
218	0xbe81862e	-0.25297683
219	0xbe2c1ef7	-0.16808687
220	0x3b662e8e	0.0035122964
221	0xbe26e4bb	-0.16298191
222	0x3a19d9c8	0.0005868939
223	0x3e20dc10	0.15708947
224	0xbc5986c7	-0.013276762
225	0xbdadb05b	-0.08480903
226	0xbbd0b150	-0.0063687935
227	0xbe4dae2a	-0.2008597
228	0x3e2d596f	0.16928647
229	0x3d7a7b05	0.061152477
230	0xbd84824a	-0.06470163
231	0xbcad2b6f	-0.021138875
232	0xbe54e76a	-0.20791402
233	0xbeca62ec	-0.39528596
234	0xbedc31ea	-0.4300683
235	0xbd4ff05d	-0.050766338
236	0xbd1bafc2	-0.038009413
237	0x3d48465e	0.048895232
238	0xbdb1fa91	-0.0869037
239	0x3d50b3bc	0.050952658
240	0x3b8d9f2e	0.004321954
241	0xbd38df75	-0.04513498
242	0xbc18866e	-0.009309394
243	0xbe18aaa5	-0.14908846
244	0x3d7caeb5	0.06169005
245	0xbd45bc74	-0.048275426
246	0x3d460d18	0.04835233
247	0xbe8a8e2c	-0.27061594
248	0x3ebb010a	0.3652423
249	0x3e62b177	0.2213801
250	0xbddf7265	-0.10910491
251	0xbc160134	-0.00915556
252	0x3e21a704	0.15786368
253	0xbdc246fd	-0.09486196
254	0xbe7a8aa0	-0.24466944
255	0xbc57b117	-0.01316478

st_gcn_networks.0.tcn.1.bias f4 [64]
0	0x3d84a0a0	0.06475949
1	0xbd800994	-0.06251827
2	0xbd53c505	-0.051701564
3	0x3dee5319	0.11636943
4	0xbc2bfb6e	-0.010496957
5	0xbd53d8cc	-0.051720425
6	0xbdafca85	-0.085835494
7	0xbcbb4a44	-0.022862561
8	0xbc17f5da	-0.009274924
9	0x3d86767f	0.0656557
10	0x3c4a8ffa	0.012363428
11	0x3d8da991	0.06917108
12	0xbd5070f0	-0.050888956
13	0x3db87f13	0.090086125
14	0xbdbde8f6	-0.092729494
15	0x3bcd9a82	0.0062745223
16	0x3d7b0c5d	0.061291087
17	0xbde25b79	-0.11052603
18	0x3db028ad	0.08601508
19	0xbdde4992	-0.10853876
20	0x3c64d245	0.013966148
21	0xbdaa3bed	-0.08312211
22	0xbe99a8bb	-0.30011544
23	0xbd18c2ac	-0.03729503
24	0xbc323a63	-0.010878178
25	0xbdc67f1d	-0.09692214
26	0xbda1cc29	-0.079002686
27	0xbcc21d84	-0.023695715
28	0x3dd1460e	0.1021844
29	0xbe55c527	-0.20875989
30	0xbdc2797d	-0.09495828
31	0xbda4bf9e	-0.080443606
32	0xbd1b6a0d	-0.037942935
33	0xbce1b4f2	-0.027552102
34	0x3dcbc3fb	0.0994949
35	0xbe137798	-0.1440109
36	0xbdf05a87	-0.11736017
37	0xbda177be	-0.07884167
38	0x3dcc1e86	0.099667594
39	0x3d0f92ef	0.035052236
40	0xbd8f5cc2	-0.07000114
41	0xbe1880b6	-0.1489285
42	0x3b0e4caf	0.0021713187
43	0xbe331dcc	-0.17491835
44	0xbda43387	-0.080176406
45	0xbdef762e	-0.11692463
46	0x3e1d9983	0.15390591
47	0xbe15cea7	-0.14629613
48	0x3d400aa8	0.046885163
49	0xbd9a81f3	-0.07544317
50	0xbd9d3d75	-0.076777376
51	0xbc6f136b	-0.014592032
52	0xbd58c447	-0.05292156
53	0xbd97f462	-0.07419659
54	0xbeb83419	-0.35977247
55	0x3dfac784	0.12245086
56	0x3d8ba7a9	0.06819088
57	0xbd8d834f	-0.06909811
58	0xbe8ee7c0	-0.27911186
59	0x3d1c227e	0.03811883
60	0xbd0f1b45	-0.034938116
61	0xbec5864f	-0.38579032
62	0x3d92ed58	0.07174176
63	0xbe19691a	-0.149815

st_gcn_networks.0.residual.0.weight f4 [64, 10, 1, 1]
0	0xbf02ba9c	-0.51065993
1	0xbf85d5a6	-1.0455825
2	0x3f6237e8	0.88366556
3	0x3d200fde	0.039077632
4	0xbd4fbc41	-0.050716642
5	0x3e8364b9	0.25662783
6	0xbe04c227	-0.12964688
7	0x3d94625e	0.072453246
8	0x3faeb61e	1.3649328
9	0x3e923816	0.28558415
10	0x3f86ca67	1.0530518
11	0xbea160da	-0.31519204
12	0x3e4cbca1	0.19993831
13	0xbd804be2	-0.062644735
14	0x3e66ed41	0.22551443
15	0xbf05af57	-0.5222067
16	0xbebb52e8	-0.3658669
17	0xbeac9232	-0.33705288
18	0xbf56d946	-0.8392528
19	0x3eb73d68	0.35789037
20	0xbeb7608a	-0.3581584
21	0xbe8988a6	-0.26862067
22	0xbeb9a556	-0.36258954
23	0x3f072997	0.52797836
24	0xbd1c0b9f	-0.03809702
25	0xbc0610b9	-0.008182698
26	0xbd6c7dea	-0.05773727
27	0xbec1d2a1	-0.3785601
28	0xbfb320e8	-1.3994417
29	0x3d7cb375	0.06169458
30	0xc04e1061	-3.2197497
31	0x3ef0ca8f	0.4702954
32	0xbf01ed93	-0.50753134
33	0xbda51376	-0.080603525
34	0x3f0dc369	0.553763
35	0xbe3aef24	-0.18255287
36	0x3f411005	0.7541507
37	0xbff607a6	-1.9221084
38	0x3ec6d50e	0.38834423
39	0x3eeddbb3	0.4645668
40	0xbfd5f069	-1.6713992
41	0x4006f90b	2.1089504
42	0xbf413fd6	-0.7548803
43	0x3eb0d6eb	0.3453897
44	0xbf60a3ba	-0.87749827
45	0x398ff0c6	0.00027454476
46	0x3d8d714e	0.06906377
47	0xbfecea16	-1.8508937
48	0xbf813543	-1.0094379
49	0xbf3cc0c3	-0.7373163
50	0x40b44519	5.633435
51	0x3da547f2	0.08070363
52	0x3fd47384	1.6597753
53	0x3ebdca2c	0.37068307
54	0x3de71e4d	0.11285076
55	0x3ee78a03	0.45222482
56	0x3e85bb4d	0.26119462
57	0x3f2183da	0.63091815
58	0xbebaa6cf	-0.3645539
59	0x3f8ea620	1.1144447
60	0x3f1a389c	0.6024263
61	0xbf28a7aa	-0.65880835
62	0xbe8de48c	-0.2771343
63	0xbda49f70	-0.08038223
64	0x3ca3e445	0.020006308
65	0xbdbd94c1	-0.09256888
66	0xbd2d147e	-0.04225587
67	0x3ea265a4	0.3171817
68	0x3d869f17	0.06573313
69	0xbe109e74	-0.14122945
70	0xbf19a939	-0.6002384
71	0x3fad105a	1.3520615
72	0x3dcd8991	0.10036004
73	0xbe34e372	-0.17664889
74	0x3da71af2	0.08159436
75	0x3e9d3458	0.30703998
76	0xbdc16f2e	-0.09445034
77	0x3f767089	0.96265465
78	0x3ee282f5	0.44240537
79	0x3ebd62c6	0.3698942
80	0xc047a95a	-3.1197114
81	0xbf80b4d8	-1.0055189
82	0xbef7d4c6	-0.4840452
83	0xbd455c60	-0.0481838
84	0xbede6870	-0.43439054
85	0xbd750106	-0.05981543
86	0xbb3462a2	-0.002752461
87	0xbfe99285	-1.8247839
88	0xbed0ba64	-0.40767205
89	0xbf65fecb	-0.8984191
90	0xbe9883fc	-0.29788196
91	0x3fd51f74	1.6650224
92	0xbf3998fd	-0.72499067
93	0x3ee057f0	0.4381709
94	0x3f2c31bf	0.67263407
95	0x3e3c82be	0.18409249
96	0x3d91cdca	0.07119329
97	0x3f5c267c	0.8599622
98	0xbf2676bb	-0.6502492
99	0x3d98045a	0.07422705
100	0xbedbb111	-0.42908528
101	0xbf17088c	-0.58997416
102	0xbe44b161	-0.1920829
103	0xbd506f16	-0.05088719
104	0x3e7d0ed0	0.24712682
105	0xbd12a827	-0.035804894
106	0xbf3540a2	-0.70801747
107	0x3f9a1456	1.2037456
108	0xbeafe81d	-0.34356776
109	0x3e1ef783	0.15524106
110	0xc02dad97	-2.71372
111	0xc053f329	-3.3117163
112	0x3f981a34	1.1882997
113	0xbf025c1f	-0.50921816
114	0xbf9910fe	-1.1958311
115	0x3c3b817e	0.011444448
116	0xbc803ef6	-0.015655022
117	0xbff9c303	-1.9512638
118	0x3fd7e689	1.6867229
119	0xbbc2de67	-0.0059469226
120	0xbfe87193	-1.815966
121	0xbeb26437	-0.34842083
122	0x3e4d7ad3	0.20066385
123	0x3ea92886	0.3303873
124	0xbbf2cf3c	-0.007409958
125	0xbd076c10	-0.03306204
126	0xbcee7dbf	-0.029112695
127	0xbcc7f4bb	-0.024408689
128	0xbeab30ea	-0.33435756
129	0x3e9ca81b	0.30597004
130	0xbf365c96	-0.71235025
131	0xbded74eb	-0.11594566
132	0x3f1d36b7	0.61411613
133	0x3e379b30	0.17930293
134	0x3e432c96	0.19059977
135	0xbd5a2a40	-0.05326295
136	0x3e3bb88d	0.1833212
137	0xbe09c6ef	-0.13454793
138	0xbf39b39b	-0.7253968
139	0xbef8538a	-0.48501235
140	0x3da7e17e	0.08197306
141	0xbef1f20d	-0.47254983
142	0x3e12392c	0.14279622
143	0x3e2151ed	0.15753908
144	0x3c024e6a	0.007953266
145	0xbebffc1d	-0.37497035
146	0xbe9e3706	-0.30901355
147	0x3f0b9181	0.54518896
148	0xbfab71e0	-1.3394127
149	0xbe0f205f	-0.13977192
150	0x3e284d1c	0.16435665
151	0xbefca851	-0.49347165
152	0x3cd77f54	0.026305832
153	0x3e31ac69	0.17350926
154	0xbe4470a7	-0.19183598
155	0xbed8ce2b	-0.42344794
156	0xbe3bc581	-0.1833706
157	0xbe306e3e	-0.17229554
158	0xbff9fc8e	-1.9530199
159	0x3f2de5a1	0.6792851
160	0x3f131857	0.57459015
161	0x4078b297	3.8859003
162	0x3f7b516f	0.9817113
163	0xbf929f34	-1.1454835
164	0x3f2930c5	0.6609004
165	0xbd1b9884	-0.037987247
166	0xbd13af3c	-0.03605579
167	0x3fc01d50	1.5008945
168	0x4014a5fc	2.322631
169	0x3d4951a3	0.04915012
170	0x3c79594b	0.015219043
171	0xbe996d8d	-0.29966393
172	0xbe6987a6	-0.22805652
173	0x3f37692d	0.7164486
174	0xbe45fef1	-0.19335534
175	0x3e3f9486	0.18709001
176	0xbe148135	-0.14502414
177	0x3f0825be	0.5318259
178	0xbef46fc2	-0.47741514
179	0xbf0b7476	-0.5447458
180	0x404c2231	3.1895869
181	0x3fa09e59	1.2548324
182	0xbf947836	-1.1599185
183	0x3e28ce15	0.16484864
184	0x3e999246	0.2999441
185	0x3dd0f48e	0.10202895
186	0x3dc89f8f	0.097960584
187	0x3f2058d3	0.62635535
188	0xbd3b1e44	-0.04568316
189	0xbd33fd27	-0.043942597
190	0xc00d9e51	-2.2127879
191	0x405f54bc	3.4895468
192	0x3f8f0d52	1.117594
193	0xbf8a7641	-1.0817338
194	0x3e2e2fb6	0.17010388
195	0xbd53139d	-0.051532377
196	0xbe09f147	-0.13470946
197	0x3f574fc5	0.84106094
198	0x404f988a	3.2436852
199	0x3fc1698a	1.5110333
200	0x3f26ea3b	0.6520116
201	0x3e378872	0.17923144
202	0x3d8ab99d	0.06773684
203	0x3ec34235	0.3813645
204	0x3e9b5776	0.30340165
205	0x3e1c9941	0.15292837
206	0x3dea9504	0.11454204
207	0xbdfa87e0	-0.12232947
208	0xbde86267	-0.11346894
209	0x3f414744	0.7549937
210	0xbcc85c65	-0.02445812
211	0xc001f60c	-2.0306425
212	0x3e9360d7	0.2878482
213	0xbe839edc	-0.25707138
214	0x3ae4f026	0.0017466589
215	0xbdb3f7b0	-0.08787477
216	0x3bbb2b51	0.005711951
217	0xbd4199d4	-0.047265843
218	0xbf6ab469	-0.91681534
219	0xbe3d3465	-0.18477018
220	0x3f8c6278	1.096755
221	0xbf6a4309	-0.9150854
222	0x3bca8c5a	0.006181282
223	0xbf1b02a5	-0.6055091
224	0xbede1728	-0.43377042
225	0x3e4ae9cf	0.19815753
226	0x3e76cb30	0.24100947
227	0xbbc39e03	-0.005969764
228	0x3f535544	0.8255198
229	0xbe374707	-0.17898189
230	0xbed4ec93	-0.41586742
231	0xbff89fdc	-1.9423785
232	0xbf2d9bec	-0.6781604
233	0xbf883e77	-1.0644063
234	0x3fb3aced	1.4037148
235	0x3c30b5bb	0.010785515
236	0xbd503fe9	-0.0508422
237	0x3f9c2e5f	1.2201651
238	0x4001fc92	2.0310407
239	0xbf46a83e	-0.7760047
240	0xbeacc4de	-0.33743948
241	0x3f6d7340	0.9275398
242	0xbedb1a61	-0.42793563
243	0x3e7e88b5	0.24856837
244	0x3bb1d821	0.005427376
245	0xbe81151d	-0.2521142
246	0xbe6194d3	-0.22029428
247	0xbd1ae56f	-0.03781646
248	0xbea47002	-0.32116705
249	0x3e4de863	0.2010818
250	0x3fd0b0c3	1.6303943
251	0x3fe4e984	1.7883763
252	0x3f44f477	0.76935524
253	0xbd54ab9e	-0.05192148
254	0xbeebdc77	-0.4606664
255	0x3e52dc8c	0.20591944

st_gcn_networks.0.residual.0.bias f4 [64]
0	0xbe4177c5	-0.18893345
1	0xbd7b1750	-0.06130153
2	0xbe90a9fd	-0.2825469
3	0x3e89f362	0.269435
4	0xbe1d3f89	-0.15356268
5	0xbe406a1a	-0.18790475
6	0x3e82ad6a	0.2552293
7	0xbd98d3e6	-0.074622914
8	0xbdb4ad2f	-0.08822095
9	0x3e8add3a	0.27121907
10	0xbe458244	-0.19287974
11	0x3ebd9e16	0.37034672
12	0xbe6a2e50	-0.2286923
13	0x3e2ea71c	0.17055935
14	0x3db38cc1	0.08767081
15	0xbe64e61b	-0.22353403
16	0xbd5f5887	-0.054527786
17	0xbdb19bf8	-0.08672327
18	0x3e995ac9	0.29952076
19	0xbd2aef14	-0.04173191
20	0xbe84e259	-0.2595394
21	0x3dbbd876	0.09172146
22	0xbecea7c0	-0.40362358
23	0x3e9211a2	0.28529078
24	0xbe3f442e	-0.18678352
25	0x3d91dc20	0.07122064
26	0x3b3b79dd	0.0028606572
27	0xbe9387b8	-0.28814483
28	0x3e7787cb	0.24172895
29	0xbbea0bfc	-0.007142542
30	0xbeb09330	-0.34487295
31	0xbdda8fa5	-0.10671929
32	0xbe999e73	-0.300037
33	0xbdaeb807	-0.08531194
34	0x3e364808	0.17800915
35	0xbe941ed3	-0.28929767
36	0x3e20e188	0.15711033
37	0xbe8b1719	-0.2716606
38	0xbe2080d5	-0.15674146
39	0x3e39dd0b	0.18150727
40	0x3b84cff2	0.0040531093
41	0xbe2a3cd2	-0.16624764
42	0xbe7242c2	-0.23658279
43	0xbefea357	-0.49733993
44	0x3e31f00e	0.1737673
45	0x3df7c218	0.12097567
46	0xbe33288b	-0.17495935
47	0xbce27cde	-0.027647432
48	0x3e12cba0	0.1433549
49	0xbdf4e4df	-0.11957716
50	0x3e310ac2	0.1728926
51	0x3e0eb5d8	0.13936555
52	0x3e77332e	0.24140617
53	0xbec1cb5a	-0.37850457
54	0xbf039776	-0.51402986
55	0x3e8182bc	0.25295055
56	0xbe415127	-0.18878613
57	0x3e0b523e	0.13605592
58	0xbeeaa3a0	-0.4582796
59	0xbe2df90b	-0.16989534
60	0xbe17e265	-0.14832456
61	0xbed10462	-0.40823656
62	0xbe2b34a2	-0.16719297
63	0x3e39b395	0.18134911

st_gcn_networks.1.gcn.conv.weight f4 [192, 64, 1, 1]
0	0xbdc8c9b9	-0.098041005
1	0xbdb26b88	-0.08711916
2	0xbc23efa9	-0.01000587
3	0xbd491711	-0.049094263
4	0x3dc6f889	0.09715373
5	0xbd15b439	-0.036548827
6	0xbe2298e1	-0.15878631
7	0x3cb029fb	0.021504393
8	0xbda9db5d	-0.08293793
9	0x3e0e956e	0.1392419
10	0x3dbf6354	0.09345117
11	0xbc869569	-0.016428666
12	0xbcf11230	-0.029427618
13	0x3e031163	0.12799601
14	0x3d044adb	0.03229795
15	0xbe0c1dd0	-0.13683248
16	0xbe2d59e8	-0.16928828
17	0x3d77a805	0.06046297
18	0x3c75bcd8	0.014998637
19	0xbda98129	-0.082765885
20	0xbd9778c0	-0.07396078
21	0x3daa044a	0.08301599
22	0xbe159a92	-0.14609745
23	0xbc9fff3b	-0.019530883
24	0x3d4e0bea	0.05030433
25	0x3d8ef2f2	0.06979932
26	0xbd5a891d	-0.053353418
27	0xbdf3d68a	-0.119061545
28	0xbe104bf3	-0.14091472
29	0xbd3673e0	-0.0445441
30	0xbdcc9ba1	-0.09990621
31	0xbd286831	-0.04111499
32	0x3e00aeaf	0.12566637
33	0x3c08d5ae	0.008351726
34	0xbde865fa	-0.113475755
35	0xbea26906	-0.31720752
36	0x3dbe48c4	0.09291223
37	0xbd690955	-0.056893665
38	0x3d9f6928	0.07783729
39	0xbddf009f	-0.1088879
40	0xbde1408f	-0.10998642
41	0xbdecef51	-0.115690835
42	0x3c342c5d	0.010996905
43	0xbe2a6908	-0.16641629
44	0xbb183815	-0.0023226787
45	0x3daf2815	0.08552567
46	0x3d385f1b	0.045012575
47	0xbcab8e83	-0.020941978
48	0xbd756988	-0.059915096
49	0xbddd3363	-0.10800817
50	0x3e549931	0.20761563
51	0xbe180ba2	-0.14848188
52	0x3e15f00a	0.14642349
53	0xbdf7dc99	-0.121026225
54	0x3d0b5afe	0.034022324
55	0x3d84b5e0	0.064800024
56	0xbd97cc0b	-0.07411965
57	0xbe16ff32	-0.14745787
58	0x3d494c16	0.049144827
59	0xbda6c0ec	-0.08142266
60	0x3c1f5849	0.009725639
61	0xbd0f8976	-0.035043202
62	0x3d9cb42b	0.07651552
63	0xbca3ed99	-0.020010756
64	0x3e1e5231	0.15461041
65	0x3ebe283f	0.3714008
66	0xbdb30119	-0.08740444
67	0x3d6a47a1	0.057197217
68	0xbb98be9e	-0.004661395
69	0xbdb7b17f	-0.089694016
70	0xbb4c96a4	-0.0031217718
71	0xbde4f17a	-0.111788705
72	0xbcd02eab	-0.025412878
73	0xbc291c3d	-0.010321674
74	0x3dae4fbc	0.08511302
75	0xbcb752f1	-0.022378417
76	0x3e000d77	0.12505136
77	0x3dcfaefa	0.10140796
78	0x3e8180af	0.2529349
79	0x3e9de866	0.30841368
80	0x3e4abcc9	0.19798578
81	0xbc6103f5	-0.013733854
82	0xbce9182a	-0.028453905
83	0x3de53e8b	0.1119357
84	0x3cbd92fc	0.023141377
85	0xbd4ea37b	-0.050448876
86	0xbddec846	-0.10878043
87	0xbd813e00	-0.06310654
88	0x3df30aa1	0.11867262
89	0x3d2ce6f7	0.042212453
90	0x3dc17f41	0.094481
91	0x3e130804	0.14358526
92	0x3db589b0	0.088641524
93	0xbdd2d68a	-0.10294826
94	0xbcb2cb1c	-0.021825366
95	0x3d714f86	0.05891373
96	0xbefbd560	-0.4918623
97	0xbe75d18c	-0.24005717
98	0xbc851f8e	-0.016250398
99	0x3db2c363	0.08728673
100	0xbb08ddb0	-0.002088409
101	0x3d3e1390	0.046405375
102	0x3e0f7eef	0.14013265
103	0x3d32c8f4	0.043648675
104	0x3d86d319	0.065832324
105	0x3d3fbfb3	0.046813678
106	0x3d806c7b	0.06270691
107	0x3c9b1f4e	0.018935826
108	0x3d6cd2e9	0.057818327
109	0x3d9ea021	0.07745386
110	0x3db430ec	0.087983936
111	0xbdc087f4	-0.09400931
112	0xbd7d147f	-0.061787125
113	0x3e027b7a	0.12742415
114	0x3caa4454	0.020784535
115	0x3c1c1b28	0.009527959
116	0x3d81fbc5	0.06346849
117	0x3d99b5a0	0.07505345
118	0x3d841bd5	0.06450621
119	0x3e186483	0.14882092
120	0x3e708479	0.23488034
121	0xbc8154aa	-0.015787441
122	0xbe47e1f8	-0.19519794
123	0x3dfe891d	0.12428496
124	0xbd5cfed3	-0.053953957
125	0xbe569665	-0.20955808
126	0x3e949974	0.29023325
127	0x3d892ca9	0.066979714
128	0x3e1f29cb	0.15543287
129	0x3d2d976a	0.042380728
130	0x3e301ad0	0.17197728
131	0xbe99e934	-0.30060732
132	0xbe2478e7	-0.16061746
133	0x3e5a55f7	0.21321855
134	0x3d1cc7de	0.038276546
135	0xbcf49fd8	-0.029861376
136	0xbd552bca	-0.052043714
137	0x3e1ee10a	0.15515533
138	0xbe904316	-0.28176183
139	0xbe0f0550	-0.1396687
140	0xbcb82623	-0.022479123
141	0x3d7ecda5	0.062207837
142	0xbd4f881d	-0.050666917
143	0xbdfdc1ba	-0.12390466
144	0xbe3b3b95	-0.18284447
145	0x3bec00b0	0.0072022304
146	0x3e1e3200	0.15448761
147	0xbe2c4808	-0.16824353
148	0xbd722030	-0.059112728
149	0xbe0a2ab1	-0.13492848
150	0x3d869fbb	0.06573435
151	0xbdd5f462	-0.10447003
152	0xbc9d0f2b	-0.019172272
153	0xbdd6456c	-0.1046246
154	0xbe37b848	-0.17941391
155	0xbd3775d2	-0.044790097
156	0xbe4f9055	-0.20269902
157	0xbe4b255c	-0.1983847
158	0x3dc70614	0.09717956
159	0xbd83c4f4	-0.0643405
160	0xbdf09be9	-0.117484875
161	0x3e9448c5	0.2896177
162	0xbc79ec5d	-0.015254107
163	0xbe1ae734	-0.1512726
164	0xbdea1075	-0.1142892
165	0x3d352234	0.04422207
166	0xbe1f9cef	-0.15587209
167	0xbe126b8d	-0.1429884
168	0x3e13de80	0.14440346
169	0xbb8e03c5	-0.0043339455
170	0xbd293727	-0.041312363
171	0xbe0ab555	-0.13545735
172	0x3de1a58f	0.11017906
173	0xbd596f7d	-0.05308484
174	0xbc78a13c	-0.01517516
175	0x3db6d08a	0.089264944
176	0xbde11069	-0.10989458
177	0x3df82722	0.12116839
178	0xbcb8b33b	-0.022546401
179	0x3d9cd610	0.07658017
180	0x3d19b2e9	0.037524138
181	0x3d6039f6	0.054742776
182	0xbe1bb681	-0.15206338
183	0xbc4ea955	-0.012613614
184	0xbc87a94c	-0.01656022
185	0xbdd383bb	-0.1032786
186	0xbdd67529	-0.10471565
187	0xbe0d4eb9	-0.13799562
188	0x3bcac860	0.0061884373
189	0x3e5230c3	0.20526414
190	0xbd8e39e5	-0.06944636
191	0xbdc20839	-0.094742246
192	0xbdfbf074	-0.12301722
193	0xbd3d3d19	-0.046200845
194	0xbaf9a0b7	-0.0019045089
195	0x3e3a6d6b	0.18205802
196	0xbbfcc85a	-0.0077143135
197	0x3e1afa73	0.15134601
198	0xbe3c93d3	-0.18415765
199	0x3cc4dc1a	0.024030734
200	0xbcd2ba41	-0.025723578
201	0x3a2754e2	0.0006383193
202	0x3e0224eb	0.12709396
203	0x3d4af8e3	0.049553763
204	0x3d89bb02	0.06725122
205	0xbd5ba7cb	-0.053626817
206	0xbdf24c5d	-0.118309714
207	0xbd9c5ecf	-0.07635271
208	0xbe342090	-0.17590547
209	0x3cc7a5e8	0.024371102
210	0x3b2b8667	0.002617264
211	0xbdd09577	-0.10184758
212	0xbd89da00	-0.06731033
213	0x3dd3e0d8	0.1034562
214	0x3d1f2a8c	0.038858935
215	0xbc8ed950	-0.017437607
216	0x3b76a475	0.0037634645
217	0x3ca7bf10	0.020476848
218	0xbeb30aa6	-0.34969062
219	0xbe8c3807	-0.27386495
220	0x39f4acb0	0.0004666797
221	0x3e1bb84c	0.15207022
222	0xbdcb64da	-0.09931345
223	0xbe5d8832	-0.21633986
224	0xbedc485c	-0.43023956
225	0x3d358020	0.044311643
226	0xba923f3e	-0.0011157764
227	0xbe2ef391	-0.170851
228	0xbddd65aa	-0.108104065
229	0xbd26c5a4	-0.04071583
230	0xbbe3cacd	-0.006951666
231	0xbd835710	-0.0641309
232	0x3d90021f	0.070316546
233	0x3daa21f3	0.083072565
234	0xbbd757c5	-0.0065717422
235	0x3d8997c6	0.067184016
236	0xbc0180e5	-0.007904266
237	0x3d086fd4	0.033309773
238	0xbe276215	-0.16346009
239	0x3dbb1747	0.09135299
240	0xbd2c2032	-0.04202289
241	0xbd2310ad	-0.039810825
242	0xbc71008e	-0.014709605
243	0x3b7d3fdd	0.0038642802
244	0xbd389ac3	-0.045069467
245	0xbebd7cc8	-0.37009263
246	0x3e0f60c1	0.14001752
247	0xbd62c8af	-0.055367168
248	0xbda584a7	-0.08081942
249	0xbcb49a9b	-0.022046378
250	0xbddb41a8	-0.10705882
251	0x3c87b8c3	0.016567593
252	0x3def5806	0.11686711
253	0x3ab2eb85	0.0013650513
254	0xbca9cafd	-0.020726675
255	0xbd30a1fd	-0.043123234

st_gcn_networks.1.gcn.conv.bias f4 [192]
0	0xbe275b05	-0.16343315
1	0xbd391974	-0.04519029
2	0xbcc51af1	-0.024060698
3	0xbc2ba7ae	-0.01047699
4	0x3d09f9ff	0.03368568
5	0x3d3aa6ea	0.045569338
6	0xbe015354	-0.12629443
7	0xbdf804e4	-0.12110308
8	0xbc520b22	-0.012820037
9	0x3a844c6f	0.001009358
10	0xbd340c1c	-0.04395686
11	0x3e0fbfb9	0.1403798
12	0xbd4d6b7e	-0.05015134
13	0x3e2b192f	0.16708826
14	0xbdf12d00	-0.11776161
15	0xbc6fcd51	-0.014636354
16	0xbc0d3582	-0.008618714
17	0x3d68c9b4	0.056832984
18	0x3d4a2131	0.04934806
19	0x3d2c2887	0.042030837
20	0xbc37ae4c	-0.011210989
21	0xbe3a4eb2	-0.18194082
22	0xbdf27d3f	-0.11840295
23	0x3d8f2f33	0.069914244
24	0x3df4cac5	0.11952738
25	0xbe2c3dec	-0.16820496
26	0x3e55b31f	0.2086911
27	0xbbf8833b	-0.0075840033
28	0xbd0fbb02	-0.035090454
29	0x3d44b21f	0.048021432
30	0xbe1eb866	-0.1550003
31	0xbcd103fe	-0.025514599
32	0x3d395c81	0.045254234
33	0x3d3e3e8e	0.046446376
34	0x3a9a88dd	0.0011790056
35	0xbe17dc26	-0.14830074
36	0x3cce6d62	0.025198642
37	0xbe06ee96	-0.13176951
38	0xbcc1449f	-0.023592291
39	0xbcf2c782	-0.029636148
40	0xbe0af996	-0.13571772
41	0x3dd6d3a8	0.10489589
42	0x3e08ca41	0.13358404
43	0xbdad84ce	-0.08472596
44	0xbd1f388a	-0.03887228
45	0x3d0aa467	0.033848193
46	0xbe450fad	-0.19244261
47	0xbe150799	-0.1455368
48	0x3d1e7c6f	0.038692888
49	0x3d060845	0.03272273
50	0xbe1ee7a8	-0.15518057
51	0x3e1de27d	0.1541843
52	0x3d2fecfc	0.042950615
53	0xbd1cfbbe	-0.038326018
54	0x3d6b9f67	0.057525065
55	0x3e10b05b	0.14129774
56	0xbd522d06	-0.05131247
57	0xbe103cce	-0.14085695
58	0xbd8464ff	-0.06464576
59	0xbd6f67b6	-0.058448516
60	0xbc4f2526	-0.012643134
61	0xbe414a59	-0.18876018
62	0x3e094410	0.1340487
63	0x3badd411	0.0053048213
64	0x3d59a081	0.053131584
65	0x3d892775	0.06696979
66	0x3c4066c4	0.011743251
67	0xbdb5fb3f	-0.08885812
68	0xbdd77348	-0.10520035
69	0xbb1ba4a8	-0.0023749266
70	0x3d6b25ea	0.057409205
71	0x3c5f50e5	0.013630127
72	0xbd816d54	-0.06319681
73	0x3b6084f6	0.0034258938
74	0x3e0ce32c	0.13758534
75	0x3e1fd6db	0.15609305
76	0x3d562249	0.05227879
77	0x3ca0132b	0.01954039
78	0xbb6d0478	-0.0036165994
79	0x3d940eaa	0.072293594
80	0x3d8f46c5	0.0699592
81	0x3dd3ac83	0.103356384
82	0xbd0594e2	-0.03261269
83	0x3d3d7891	0.04625756
84	0x3c9f2c8c	0.019430421
85	0xbe19d613	-0.15023069
86	0xbd3a12d2	-0.045428105
87	0x3df5f3fc	0.12009427
88	0x3e51efee	0.20501682
89	0xbd91c29e	-0.071171984
90	0x3e201551	0.15633132
91	0x3d34da4e	0.044153504
92	0x3d09f0bd	0.03367685
93	0x3c803a4c	0.015652798
94	0xbd00dada	-0.031458713
95	0x3d7001b4	0.058595374
96	0x3e0e4774	0.13894445
97	0xbd200a67	-0.03907242
98	0xbbaddccd	-0.0053058625
99	0x3cb6ff5b	0.02233856
100	0x3cafd44c	0.021463536
101	0x3cb0e95c	0.02159565
102	0xbc439f60	-0.011939853
103	0x3cba6b4e	0.022756245
104	0xbe2adc5e	-0.16685626
105	0x3df3fd89	0.11913592
106	0xbb0ee166	-0.0021801828
107	0xbe3c1ad4	-0.18369609
108	0xbd6c6d1d	-0.057721246
109	0xbd80479d	-0.06263659
110	0xbe32e746	-0.17471036
111	0xbe99e1e1	-0.30055144
112	0xbc4e5977	-0.012594572
113	0xbda458f4	-0.08024779
114	0x3d8af7d2	0.06785549
115	0x3cd238a5	0.025661776
116	0x3c69f28b	0.014279018
117	0xbc0c75ae	-0.008572979
118	0xbdf46b33	-0.11934509
119	0x3e9c5da1	0.30540183
120	0x3db1568b	0.08659085
121	0xbdfbe10f	-0.12298786
122	0xbd16b35b	-0.03679214
123	0x3d5f09c0	0.054452658
124	0xbc992a30	-0.018696874
125	0xbe3dc786	-0.18533143
126	0xbd2a1373	-0.041522454
127	0x3da8e0d7	0.0824601
128	0xbd0d2438	-0.03445837
129	0xbd5f03b7	-0.054446902
130	0xbcd77239	-0.026299583
131	0x3dea3e31	0.11437643
132	0xbe218368	-0.15772784
133	0x3d0f3d4a	0.03497056
134	0x3cf18e8e	0.02948692
135	0xbdb74a63	-0.08949735
136	0xbda40284	-0.08008292
137	0x3d0fa1aa	0.035066284
138	0x3d9d7afd	0.07689474
139	0x3e0cbc4e	0.13743708
140	0xbd25e6e6	-0.040503405
141	0x3db1a8a3	0.08674743
142	0xbdcc27c5	-0.09968523
143	0xbd9462c4	-0.072454005
144	0x3c0a85f6	0.00845479
145	0x3db7b1db	0.0896947
146	0x3dd9d34d	0.106360056
147	0xbcabb040	-0.020958066
148	0x3df03a3a	0.11729856
149	0xbddbae9b	-0.10726663
150	0xbe0d34a0	-0.13789606
151	0x3e69d51b	0.228352
152	0x3db71fdb	0.08941623
153	0xbd9537ea	-0.072860554
154	0x3ca2f2ce	0.019891169
155	0xbdf748cf	-0.12074434
156	0x3c21162b	0.009831945
157	0x3df22c1d	0.1182482
158	0xbd90e376	-0.07074635
159	0xbd0c49c1	-0.034250025
160	0x3e5737f3	0.21017437
161	0x3db46e6e	0.08810125
162	0xbd9278d9	-0.07151956
163	0xbe0bb9a5	-0.13645037
164	0x3d985262	0.07437588
165	0xbd86dffa	-0.06585689
166	0xbdb4836b	-0.088141285
167	0x3bea59cd	0.0071518184
168	0xbdd2541f	-0.10269951
169	0x3e8261a7	0.25465128
170	0x3e0033f6	0.12519822
171	0xbe206b79	-0.15665998
172	0x3c20db32	0.009817885
173	0x3e05a5cf	0.13051532
174	0xbd51892a	-0.0511562
175	0xbe177487	-0.14790545
176	0xbd126adb	-0.035746437
177	0xbd43ecaa	-0.047833122
178	0x3d82f205	0.06393818
179	0x3dabfa22	0.083973184
180	0x3d1132fc	0.035449013
181	0xbe289179	-0.16461743
182	0xbd4264bb	-0.047459345
183	0x3e3df4d4	0.18550426
184	0x3ccee457	0.025255365
185	0xbe78b909	-0.24289335
186	0xbd45eb28	-0.048319966
187	0x3ce9409f	0.028473197
188	0xbe1abca0	-0.15111017
189	0xbe36afe9	-0.17840542
190	0xbdafc674	-0.08582774
191	0x3de612de	0.112340674

st_gcn_networks.1.tcn.1.weight f4 [64, 64, 5, 1]
0	0x3d97efb5	0.07418767
1	0x3dd46264	0.10370329
2	0xbdf29144	-0.118441135
3	0xbccd95fd	-0.025095934
4	0x3d3494ce	0.044087224
5	0x3b3d9ccc	0.002893257
6	0xbda7ad32	-0.08187331
7	0xbdfceaa0	-0.12349439
8	0xbc18271a	-0.009286666
9	0xbceb69e4	-0.028737016
10	0xbdd4d670	-0.10392463
11	0x3ca576d2	0.02019826
12	0x3dc6ffe9	0.0971678
13	0x3d116a28	0.03550163
14	0xbc5599ad	-0.013037127
15	0xbd8b3126	-0.06796484
16	0xbe8098fe	-0.25116724
17	0xb75d13da	-1.3177249e-05
18	0x3c752b17	0.014963887
19	0x3d1cd961	0.038293246
20	0xbc88de1f	-0.016707478
21	0xbe2c6ad4	-0.16837627
22	0xbd390a05	-0.04517557
23	0x3e0c0ab3	0.13675956
24	0x3df33f4a	0.11877306
25	0x3bf2d458	0.0074105673
26	0xbc9970c0	-0.018730521
27	0x3de0a6b8	0.10969299
28	0x3d040d6d	0.032239366
29	0xbcf7cae9	-0.030248122
30	0x3b5eaccc	0.0033977507
31	0xbcdef92c	-0.027218424
32	0x3d9e5c4c	0.07732448
33	0x3c534588	0.0128949955
34	0xbd39c27b	-0.045351487
35	0xbdb6753d	-0.0890908
36	0xbd917eed	-0.07104287
37	0xbe24b204	-0.16083533
38	0xbe241032	-0.16021803
39	0x3e2202bb	0.15821354
40	0xbea2386e	-0.31683677
41	0xbd4ad9a7	-0.049523976
42	0xbe1d2293	-0.1534522
43	0x3e84e4e2	0.25955874
44	0x3cdfbabb	0.02731072
45	0x3c01d0b9	0.0079232985
46	0x3cf77b68	0.030210212
47	0xbe14e68c	-0.14541072
48	0xbdac0f13	-0.08401313
49	0xbe9785ed	-0.29594365
50	0x3c72ff33	0.014831352
51	0xbe0e35a1	-0.13887645
52	0xbe2092a0	-0.15680933
53	0x3e032ea5	0.12810762
54	0x3d253838	0.040336818
55	0xbd36a239	-0.0445883
56	0x3e140606	0.14455423
57	0x3dd50acf	0.10402452
58	0xbde15ca1	-0.11003996
59	0xbd0f1088	-0.034927875
60	0xbe0cac5e	-0.13737628
61	0xbc8f915a	-0.017525364
62	0x3e130b4b	0.14359777
63	0xbd8c2d0d	-0.0684453
64	0xbd9f5a75	-0.07780925
65	0x39c8e9f4	0.0003832128
66	0x3ccb6503	0.02482844
67	0xbe650365	-0.22364576
68	0x3e265646	0.16243848
69	0x3d605f66	0.05477848
70	0xbdf5816d	-0.11987577
71	0xbe2ba837	-0.16763388
72	0xbdb60048	-0.088867724
73	0xbdbb1a8b	-0.09135922
74	0x3dd8a70d	0.105787374
75	0xbd2757e3	-0.0408553
76	0xbd292e36	-0.041303836
77	0xbb97805f	-0.0046234573
78	0xbd74e91f	-0.059792634
79	0x3db9155e	0.090372786
80	0xbc58c33e	-0.013230143
81	0xbcea4a27	-0.028599812
82	0xbe093dcf	-0.13402484
83	0x3dbc02e5	0.091802396
84	0xbe223480	-0.1584034
85	0xbdbbaaee	-0.091634616
86	0xbd745122	-0.059647687
87	0xbe46049e	-0.19337699
88	0xbbc4262d	-0.005985996
89	0x38e170df	0.0001074986
90	0x3e26b1aa	0.16278711
91	0xbe8313fb	-0.2560118
92	0x3dd627f4	0.10456839
93	0xbce6f901	-0.028194906
94	0x3c48692c	0.012232106
95	0x3d273984	0.040826336
96	0x3c17fb0a	0.009276161
97	0x3d4dd0a8	0.05024782
98	0xbdbbd5cf	-0.0917164
99	0xbd8f918a	-0.07010181
100	0xbde7a79a	-0.11311264
101	0xbb90918c	-0.004411882
102	0xbd0a792f	-0.033806976
103	0xbe77e46f	-0.24208234
104	0x3dffed73	0.12496462
105	0x3db28e13	0.08718505
106	0xbe03a4b6	-0.12855801
107	0xbe332216	-0.17493472
108	0xbd0dae02	-0.034589775
109	0x3e317142	0.1732836
110	0xbd6b9b56	-0.057521187
111	0x3d4788c4	0.048714414
112	0xbdd655ed	-0.10465608
113	0xbdd0739f	-0.10178303
114	0xbd44fc0c	-0.048091933
115	0x3d0563dc	0.032565936
116	0x3e11773a	0.14205638
117	0xbdc3f8de	-0.09568952
118	0xbe2aa478	-0.16664302
119	0xbd8cb0c0	-0.0686965
120	0x3d89baf0	0.067251086
121	0x3d7c625a	0.061617233
122	0x3c8bf162	0.017082874
123	0xbe1d0c8f	-0.15336822
124	0x3d2fa608	0.04288295
125	0x3cfa2232	0.030533884
126	0xbd37d1bb	-0.04487775
127	0xbd1f3fb6	-0.03887912
128	0x3da99bb5	0.08281652
129	0xbe176fb6	-0.14788708
130	0x3e17a9aa	0.14810815
131	0x3ddb0323	0.10693958
132	0x3cc6c5c4	0.024264224
133	0x3e0c2b72	0.13688448
134	0xbdde8d73	-0.10866823
135	0x3d00f656	0.031484924
136	0x3d82964c	0.06376323
137	0x3de95cd8	0.11394662
138	0xbd8d8504	-0.06910136
139	0xbd94371f	-0.07237076
140	0xbccf04fb	-0.02527093
141	0x3e0bcd3b	0.13652508
142	0xbd283d0a	-0.041073836
143	0x3def0922	0.11671664
144	0xbe8115eb	-0.25212035
145	0x3c04ca61	0.0081048915
146	0xbd733937	-0.059380736
147	0xbbe605d5	-0.007019738
148	0x3db89ac1	0.09013892
149	0x3d75cb6f	0.060008463
150	0x3c7d0774	0.0154436715
151	0xbde0a279	-0.10968489
152	0xbaec7d51	-0.0018042718
153	0x3ba2025e	0.00494413
154	0xbd8a2885	-0.0674601
155	0xbc5ec2aa	-0.013596216
156	0xbd8c7501	-0.06858254
157	0x3c50f480	0.012753606
158	0xbe01b0dd	-0.12665124
159	0x3dc58a81	0.09645558
160	0x3c0b62ed	0.008507472
161	0x3cd1ae50	0.025595814
162	0x3c9ba3e8	0.018999055
163	0xbc9b081f	-0.01892477
164	0x3da428a2	0.080155626
165	0xbe5eabf5	-0.21745284
166	0x3db8ff2a	0.09033044
167	0xb9147586	-0.00014158161
168	0x3b8b1766	0.0042447327
169	0xbd2d898a	-0.042367496
170	0xbd69a2d6	-0.057040058
171	0x3c895003	0.016761785
172	0x3db72141	0.089418896
173	0xbd79211c	-0.06082259
174	0x3c212f52	0.009837942
175	0x3cecfb56	0.02892844
176	0xbe2fca5c	-0.17167038
177	0xbc8124d8	-0.015764639
178	0x3bb707df	0.005585655
179	0x3d1fe39a	0.039035417
180	0xbdce2953	-0.10066476
181	0xbe6ad4d7	-0.22932754
182	0xbdce90c3	-0.10086205
183	0x3c302f76	0.010753503
184	0x3d172613	0.036901545
185	0x3d33e564	0.043919936
186	0xbe8eb8e3	-0.27875432
187	0x3e031778	0.12801921
188	0x3e148bfe	0.14506528
189	0xbe047254	-0.12934238
190	0xbd4da77c	-0.050208554
191	0xbd2789bc	-0.040902838
192	0x3db65e3e	0.08904694
193	0xbe810583	-0.25199518
194	0x3cdc9d56	0.026930492
195	0x3d7f8bd4	0.06238921
196	0x3da546a0	0.08070111
197	0xbc953d35	-0.018217662
198	0x3e52eb42	0.20597556
199	0x3d933775	0.07188312
200	0xbd153bf6	-0.036434136
201	0x3c4484f3	0.011994588
202	0x3dd9b9e8	0.10631162
203	0x3d446360	0.047946334
204	0x3c27caee	0.010241253
205	0x3d568051	0.052368466
206	0xbca6a45e	-0.020342048
207	0xbde4d2db	-0.1117303
208	0x3df75bbd	0.120780446
209	0x3dc5cf3a	0.09658666
210	0x3e0ecbd0	0.13944936
211	0xbd973736	-0.073835775
212	0xbc713505	-0.0147221135
213	0xbdaaca75	-0.08339397
214	0x3c60a728	0.013711728
215	0xbe1ca50a	-0.15297332
216	0xbd377c18	-0.04479608
217	0x3e00bf01	0.12572862
218	0x3dccddaf	0.1000322
219	0xbe48a352	-0.19593552
220	0xbdf1860d	-0.11793146
221	0xbde04adc	-0.10951778
222	0xbd5e4036	-0.054260455
223	0x3da36568	0.07978326
224	0x3da3b813	0.07994094
225	0x3dca536e	0.09879194
226	0xbe07e6b4	-0.132716
227	0xbd141a83	-0.036158096
228	0x3e490426	0.19630489
229	0xbde598fa	-0.112108186
230	0xbdcd8aef	-0.10036265
231	0x3e3103f3	0.17286663
232	0x3db11eeb	0.08648475
233	0x3e1d3fb8	0.15356338
234	0xbe12ae2e	-0.14324257
235	0xbe71f9fb	-0.23630516
236	0x3e9c83d7	0.30569336
237	0xbdac0e09	-0.084011145
238	0xbbf195f6	-0.007372613
239	0xbc83e433	-0.016100025
240	0x3c60d638	0.013722949
241	0xbddf29f4	-0.10896674
242	0x3dddb5ce	0.10825692
243	0xbde651f4	-0.112461
244	0xbc338152	-0.010956125
245	0x3bb84b6a	0.0056242244
246	0xbcdeeeed	-0.027213538
247	0xbd01676e	-0.03159278
248	0xbdbc93b4	-0.0920786
249	0x3da17e6b	0.078854404
250	0xbd68623c	-0.05673431
251	0xbd96c40f	-0.07361614
252	0x3d7bcc8e	0.061474375
253	0xbd409b9e	-0.047023408
254	0xbc8132bc	-0.015771262
255	0xbc5065ea	-0.012719611

st_gcn_networks.1.tcn.1.bias f4 [64]
0	0xbcaa53a7	-0.020791842
1	0xbe62b1f8	-0.22138202
2	0xbe980498	-0.29691005
3	0x3e9d7252	0.30751282
4	0x3dbda27e	0.092595086
5	0xbe559661	-0.20858146
6	0xbe4374c1	-0.19087507
7	0xbd3f96b1	-0.04677457
8	0x3ebf317b	0.37342438
9	0xbd5076e7	-0.050894644
10	0xbe26235b	-0.16224425
11	0x3c2c2131	0.01050596
12	0x3d6e8d30	0.058240116
13	0xbe117d43	-0.1420794
14	0x3e049c4c	0.12950248
15	0xbcfc382f	-0.03078851
16	0x3e750383	0.23927121
17	0x3da02e07	0.07821279
18	0x3e20f46d	0.15718241
19	0x3e2bd6d3	0.16781168
20	0xbe2210ce	-0.15826723
21	0xbdad9b96	-0.08476941
22	0xbe06dbac	-0.13169736
23	0x3ebaa840	0.3645649
24	0xbd8690fd	-0.06570623
25	0x3e0721ad	0.1319644
26	0x3ba7c655	0.0051200786
27	0x3d22dd0f	0.0397616
28	0xbd41dbf3	-0.0473289
29	0xbea0c650	-0.314013
30	0x3e5d74e7	0.21626626
31	0xbe0c58fd	-0.13705821
32	0x3e2a8ada	0.1665453
33	0x3e83d6b9	0.25749758
34	0x3e306617	0.17226444
35	0xbe0d7679	-0.13814725
36	0xbe1fab30	-0.15592647
37	0x3d9522e9	0.07282049
38	0xbe277889	-0.16354574
39	0xbe374f2c	-0.17901295
40	0xbe3b50cc	-0.1829254
41	0x3e48983f	0.19589327
42	0x3de7cb04	0.11318019
43	0x3c92e156	0.017929714
44	0xbaf7becd	-0.0018901468
45	0x3b9f70e4	0.0048657525
46	0xbbd8b8e8	-0.0066138394
47	0x3d38c18f	0.045106467
48	0x3e08a16a	0.13342825
49	0xbecc7454	-0.399325
50	0x3c84bdbb	0.016203752
51	0x3e76e896	0.24112162
52	0x3e404c67	0.18779145
53	0xbd6050be	-0.0547645
54	0xbe0c029f	-0.13672875
55	0x3e816ea3	0.25279722
56	0xbd9a233b	-0.07526251
57	0x3c0b79a8	0.008512892
58	0xbe8d56d6	-0.27605313
59	0xbe03f1ee	-0.12885258
60	0x3dc859d7	0.097827606
61	0x3e18f1c1	0.14935972
62	0xbe9384ca	-0.28812248
63	0xbc0f7959	-0.008756959
