output/CarlaNavigation-v0/gin/2/gse.pt (torch, 563384 bytes, 22 tensors)

st_gcn_networks.0.gcn.conv.weight f4 [192, 10, 1, 1]
00000000: 2593 1a3f f5e1 de3c 4759 503e 5737 bcbb
00000010: f7cf 693e a51f 48bd 1c82 f73c e653 513e
00000020: e8ce dcbe c628 143e 7e26 42bf 915d d33e
00000030: 31d2 a5be 8faf ef3d cebd b13d d2c5 6abc
00000040: 3ab5 85bc 6f35 6b3e 4883 053d 6857 923e
00000050: 7ede c93e 0feb a5be 5129 853e f67a 343e
00000060: 8b12 943d 4080 a8bd f028 183e 19d7 03be
00000070: 4068 da3c 5054 08be fedd 00bf 67d1 2abe
00000080: c3e3 2bbe c65d 96be 6b5c 89be 0ebc 0bbe
00000090: 0a05 50be e3d8 b73e d712 763d b348 d43d
000000a0: 4285 d1be 539b 30be c4e9 f6be 7657 de3d
000000b0: a9b8 543e 4bb3 1bbb 22b0 bf3a fc98 63be
000000c0: c558 07be ecde e4bd daa9 743f 0381 6c3e
000000d0: ae14 a0bd ea5d a7bc 5950 853e 92aa 963d
000000e0: b792 113e f8cb c1bc 6a59 42be d615 37be
000000f0: 2b02 233f 8f49 1b3e 8cbe a2be 91a1 98be
00000100: 3733 7abe 4522 91bd 32dd dbbc f1db 5bbe
00000110: 3dc2 60be c76e 93be ece8 39be 5eca 073f
00000120: 6db0 bd3e e15e 4cbd 616a fa3e be57 8c3d
00000130: c904 ab3c d832 07bd 73f0 023e 98db bb3e
00000140: 0d75 32bf cf11 783e 4be3 37be dd36 743e
00000150: 3deb eb3b b5a5 2dbe b4fb 1ebe 5053 d73e
00000160: ce38 7b3e a8dd a0be 80ee 68be 6159 96be
00000170: 7f06 7fbd 1bee 933e b4cf 5cbe 7416 11bd
00000180: de70 b6bc 3f40 e0bd faee 07bd ed3b a1be
00000190: 983f b2bb 8e26 e7be 330c 08be b9a1 d73e
000001a0: bf5c 3b3d 95ee 013e 5dcb c33d 6f71 e7bd
000001b0: df68 d3bd 1cea 7ebe 4af2 e53e c229 183d
000001c0: 9d85 e23d bd56 acbd 2052 27be 3653 9ebc
000001d0: 2e7a a33e 0098 f7be a72d 94be b021 9b3e
000001e0: 2a84 8a3e 9408 8abe 99f6 f8bd 7a85 6b3d
000001f0: ba80 83bd fdc0 1cbe 471e edbd 5c63 a2bc
00000200: 0cb4 afbe 98be 7e3e 0c34 ed3e 0f04 173f
00000210: 5d4c 99be 960d df3e 74b2 87be cde8 f5bd
00000220: 1a8f cebd 26b2 bb3d 04fe ebbe fab9 2ebd
00000230: a119 b2bf 2c1e aa3e e523 cf3e 0b6f 503e
00000240: e435 0cbd 81d6 ef3d e195 983d 0dc3 7dbe
00000250: 6edb ca3e dbe3 f9bd 8d7d 2cbf f4b6 c53e
00000260: ef4a e33e 9c4c 813e 7184 a3be 8a3f b3bd
00000270: af9a 36bd c7cd 6c3e 44bd e63d 5529 79be
00000280: af66 f7be d7ed edbd 4d39 523c 0396 cc3d
00000290: 985f d03e cd4c 5abd e799 303e a969 f8bd
000002a0: 9a26 d6bb f306 f63d 81a0 373f 751a 093f
000002b0: b3fe 453c 87d9 8ebe 824d e8bc 33e4 acbc
000002c0: d0af 54ba 0104 15be 3547 56be f7b0 993a
000002d0: 1253 03bf 96bc 91bd a343 0fbe 2472 75be
000002e0: 8b5f 6dbe 9fbf cc3d ef8d 873d 7fc9 a43a
000002f0: 4f6d 9f3d 4fb9 03be 5607 4d3e c349 613e
00000300: 5d61 7e3e 3dfb 8dbe 728d 97be a3be 503d
00000310: 03d0 f1bb 807e 45be 5dc0 9f3d 6bb7 4ebe
00000320: 72ed 4c3f 034c b9be 25c9 1fbe 0e69 50bd
00000330: 63ca cbbd b1ac 163e 3a65 203e 6d2b 493e
00000340: 6c67 f43e 1f19 80bd 2f2c 973f 5c61 6abe
00000350: a92b cd3d 358d 75be f538 a1be 750b 69bd
00000360: f0f3 b03d 770a d43d f002 133c 9b0c 903e
00000370: 4174 a8be 213e 273e 12c6 8dbe f0aa 0c3e
00000380: 934b 9f3d 0546 26bc b7b7 73bd a924 c63e
00000390: 4eaa 813e ea30 54be 6277 a43e 2d61 0d3f
000003a0: d34b cdbe 1d17 9cbe 50f9 173e 6ad5 53bd
000003b0: 6de0 343d 6098 51be 588f cc3e 33db b0bd
000003c0: c621 513e b98d 17bf 83b9 703d de4f b2be
000003d0: 3a60 633d ac79 f43d 889c 0e3e eee0 833d
000003e0: 7174 84bd b9a0 333e 72d6 d23e 90ba 04bf
000003f0: ee8d 5c3e 7946 88be fe33 86be 2eed 2b3d
0.60380775 0.027207354 0.20346557 -0.0057439017 0.22833239 -0.048858304 0.030213408 0.20442161
-0.43126607 0.14468679 -0.75839984 0.41282323 -0.32386926 0.11703407 0.086787805 -0.014329391
-0.016321767 0.22969602 0.032595903 0.2858231 0.3942756 -0.32405898 0.26008084 0.17625031
0.07230099 -0.08227587 0.14859366 -0.12875022 0.026661038 -0.13313413 -0.50338733 -0.16681443
-0.16786103 -0.29368418 -0.26828322 -0.13645956 -0.20314422 0.3590766 0.06007656 0.10365429
-0.4092198 -0.17246751 -0.48225224 0.108565256 0.20773567 -0.002375799 0.0014624635 -0.22226328
-0.13217457 -0.111753315 0.9557167 0.23096089 -0.07816444 -0.020430524 0.26037863 0.073567525
0.14216124 -0.02365683 -0.18979421 -0.17879423 0.63675183 0.15164779 -0.31786 -0.29810765
-0.244336 -0.070866145 -0.026838873 -0.2147062 -0.21949096 -0.28795454 -0.18155259 0.5304316
0.37048665 -0.04989517 0.48909286 0.06852673 0.020876305 -0.033007473 0.12787037 0.36690974
-0.69709855 0.24225543 -0.17957799 0.23849054 0.0071996734 -0.16957743 -0.15525705 0.4205575
0.24533388 -0.3141911 -0.2274723 -0.29365066 -0.062262055 0.28892598 -0.21563607 -0.035421804
-0.022270616 -0.10949754 -0.03318689 -0.31491032 -0.00543971 -0.45146602 -0.13285904 0.42115572
0.045742746 0.12688668 0.09560273 -0.113009326 -0.10322737 -0.24893993 0.44911414 0.0371492
0.11060641 -0.084149815 -0.16339922 -0.019326787 0.31929153 -0.48358154 -0.2894108 0.3029914
0.27053958 -0.2695967 -0.1215641 0.05750034 -0.06421037 -0.15307994 -0.115780406 -0.019822769
-0.34317052 0.24877393 0.4632877 0.5899057 -0.29941073 0.43565053 -0.26503336 -0.12007294
-0.10085888 0.091648385 -0.46092236 -0.04265783 -1.3914071 0.33226144 0.40457073 0.2035486
-0.03423108 0.11710835 0.07450462 -0.24781437 0.39620537 -0.12201663 -0.67379075 0.38616145
0.44393107 0.2525376 -0.31936982 -0.087523535 -0.04458111 0.23125373 0.11266568 -0.24332173
-0.4832053 -0.1161763 0.012831044 0.0998955 0.40697932 -0.0532959 0.17246209 -0.12129528
-0.0065353634 0.12013044 0.71729285 0.53555995 0.012084651 -0.27900335 -0.028357271 -0.021104908
-0.00081133563 -0.14552309 -0.20925601 0.0011725713 -0.5129863 -0.07116048 -0.13990645 -0.23969322
-0.23180978 0.09997486 0.066188686 0.0012572258 0.07784521 -0.12863658 0.2002233 0.22000794
0.24841829 -0.27730742 -0.29600102 0.050963055 -0.0073795333 -0.19286537 0.07800362 -0.20187156
0.8004981 -0.36190805 -0.15604074 -0.050881438 -0.099507116 0.14714314 0.15663615 0.19645472
0.47735155 -0.062547915 1.1810359 -0.22888702 0.10018093 -0.23979647 -0.31488767 -0.056895692
0.086402774 0.103535585 0.008972868 0.28134617 -0.32901195 0.16332294 -0.27690178 0.13737082
0.077780865 -0.01014853 -0.059501376 0.38699844 0.25325245 -0.20721784 0.32122332 0.55226403
-0.40096912 -0.30486384 0.14841199 -0.0517172 0.04415934 -0.20468283 0.39953113 -0.08635559
0.2042304 -0.59200627 0.058770668 -0.3482656 0.05551169 0.119372696 0.139269 0.06439386
-0.06467522 0.1754178 0.41179234 -0.5184717 0.21538517 -0.26616266 -0.26211542 0.04197424

st_gcn_networks.0.gcn.conv.bias f4 [192]
00000000: cf8c 2bbe 6d65 f43d 9c12 bebd a2f7 0e3e
00000010: 1698 003e e1de 16be d048 3b3e 34c3 3dbd
00000020: e9de 3a3d 4777 5b3e 1df2 c3be 7ab3 03be
00000030: a409 f9bc 5ff5 72be 259d 13be 10a4 e93d
00000040: 0e6a b03d 0052 86bd 7fd4 4b3e 96c6 b83d
00000050: 632a 4b3e 3e38 1f3d cef4 b63b 252f dcbc
00000060: 5df5 403e f16c 24bd d754 833e 0048 723e
00000070: 8a2e 9bbe 2b07 4d3e 0ca1 28be c66b 613e
00000080: 5b21 7fbe ff44 54be 001b 83be 0b8d 383e
00000090: 542e a13d 33d9 e63d acb9 f9bd 9f8b 0e3e
000000a0: 2396 67bb 9adb cb3d 2260 953b 715c a43d
000000b0: fd17 7dbe 2ba1 59ba 1db9 3fbe 1908 95be
000000c0: 0376 933e fa85 0b3e c2c3 693d 91a5 7f3e
000000d0: 22f4 513e faad 5e3d 458a 233e e28f 713c
000000e0: 5725 8ebd 5367 38be d2b7 2e3d caa6 75be
000000f0: 258f 763e 31c6 273d 09a4 a7bd f59a 20bd
00000100: 496f 853d af03 9ebe 1bad b33d 87bc 6fbe
00000110: 9462 3bbe ce70 e8bd 582f 023a 20da 3e3e
00000120: 7186 da3d 1dc2 93bd 5240 993e 9dc2 02be
00000130: 4f2e 2e3d cda7 16be 1cc4 c7bd bafd 58be
00000140: 8dfb 4d3e 9ca3 43be d16f 26be 2f69 00be
00000150: be75 7ebe 023e 76bd b6a3 21bc 371d 30be
00000160: 365b 9c3b 1691 1bbe e099 71be 1af3 65be
00000170: 7f37 463e 7a95 a6be fe80 a0bd bf8c b5bc
00000180: 4944 08be 431b 8abe bd91 8d3e e163 343e
00000190: 498e 1ebe 0acf 093e 7fd7 16be 6bfd f9bd
000001a0: 48b4 2a3e a0e0 70bd e4d6 11bd 3489 603e
000001b0: 0ab2 3fbd 3aea 8a3e dcf2 92bd 3b11 833e
000001c0: 3cdb 8dbe 9755 c6bc 2006 b4bc d69c e73d
000001d0: f730 ccbd 424b 72be f7f5 0abe 8280 4cbe
000001e0: c8bb 98bd 58e9 4a3e d326 97bc f5f5 073e
000001f0: 286c 2a3e 2228 05be efa1 563e f84c 7bbe
00000200: 04e5 c33d c1f5 583e 5038 293d f503 393e
00000210: a411 35be fbdf 7f3e 5e93 2abe 1e3b 6dbe
00000220: 9630 27be 631d 413d f15c 443e 1e3a 2fbe
00000230: 2d99 123d a864 223d 75f9 8c3e 73a0 443e
00000240: 272e 94be 8264 743e 114f 8e3d 69d8 2fbe
00000250: f865 463b 55a0 463d bf98 923d e109 3fbe
00000260: dbbe 81be 898f 763d 408f cbbd 4076 74be
00000270: 352b 533e 03d6 d73d a22c 503e b298 89be
00000280: 5420 483e 6564 1b3b 5a94 9e3d 8627 83be
00000290: 2da4 4ebc a24e a9be 71e9 123e 29f5 4abe
000002a0: d412 fabd 8c19 a43d 5c34 563c 6ae2 94bd
000002b0: 759a 6c3e a372 38be e91b 013e c01a 923e
000002c0: e7a5 083c ecf0 54bd 0a42 9f3d bbb8 84be
000002d0: b283 f6bd 3ccb 80be f88f 33be 487c a33d
000002e0: ba0f 013e 3b42 ab3d fce4 24be 04d3 203e
000002f0: d601 9bbe 4d81 e4bc 233d 25be 8847 ad3e
-0.16752933 0.11933408 -0.09280893 0.13961652 0.12558016 -0.14733459 0.18289495 -0.04632874
0.04562274 0.2143222 -0.38270655 -0.12861434 -0.030400105 -0.23726414 -0.14415415 0.114082456
0.08613978 -0.06558609 0.1990528 0.09022252 0.19840388 0.038871996 0.005583382 -0.026877949
0.18843599 -0.040142957 0.25650665 0.23660278 -0.30308944 0.20022266 -0.16467685 0.22013769
-0.24915068 -0.20729445 -0.25606537 0.18022554 0.078701645 0.11271896 -0.12193617 0.13920449
-0.0035337291 0.09953995 0.004558579 0.08025444 -0.24716182 -0.0008301909 -0.18722959 -0.2910774
0.28800973 0.13625327 0.057071455 0.24965502 0.20503286 0.054365136 0.15970714 0.014743777
-0.06940716 -0.18008165 0.042655773 -0.23989406 0.24078043 0.040960494 -0.08185584 -0.03921028
0.065153666 -0.30862185 0.087732516 -0.23411761 -0.18299323 -0.11349641 0.0004966161 0.18637896
0.10670174 -0.072147585 0.29931885 -0.12769552 0.042524632 -0.14712448 -0.09754202 -0.21190539
0.2011549 -0.19105381 -0.16253592 -0.12540124 -0.24849603 -0.06011773 -0.009865692 -0.17198645
0.0047716154 -0.15192065 -0.23593855 -0.22456017 0.19357108 -0.32535917 -0.07837103 -0.02216184
-0.13307299 -0.26973924 0.27650252 0.17616226 -0.15483965 0.13457885 -0.14730643 -0.12206539
0.16670334 -0.05880797 -0.035605326 0.21927339 -0.04680065 0.27131826 -0.07175228 0.25599083
-0.27706325 -0.024210734 -0.021975577 0.11309211 -0.09970277 -0.23661521 -0.1357039 -0.19970897
-0.074576914 0.19815576 -0.01845113 0.13277419 0.16642821 -0.1300359 0.2096021 -0.2454108
0.09565166 0.21187498 0.04131347 0.18067916 -0.1768251 0.24987786 -0.16657779 -0.23167083
-0.16327128 0.047147166 0.1917608 -0.17112014 0.03579061 0.039646775 0.2753407 0.19201832
-0.2894146 0.23866466 0.069486745 -0.17172398 0.003027318 0.04849275 0.0715804 -0.18656112
-0.25340924 0.06019548 -0.09939432 -0.23873234 0.20621951 0.10538866 0.20329526 -0.2687431
0.19543582 0.0023710963 0.077431396 -0.2561609 -0.012612385 -0.33067805 0.14346863 -0.19820084
-0.122106224 0.08012685 0.013074007 -0.072697476 0.23105796 -0.1801248 0.12608303 0.28536034
0.008340335 -0.051987574 0.07776268 -0.25922188 -0.12036838 -0.25155056 -0.17535388 0.07982689
0.12603655 0.08362242 -0.16102976 0.15705496 -0.30274838 -0.027893687 -0.16136603 0.33843637

st_gcn_networks.0.tcn.1.weight f4 [64, 64, 5, 1]
00000000: 7033 6e3d d0fc f33d 7f3c 13bd d5e8 ecbd
00000010: bff3 c53d b2dc d8bd 0cb5 3ebd 45d9 af3d
00000020: eef0 cd3d 726c 4d3e ce3b 413d b102 a53c
00000030: 0219 3cbc 43c6 9c3d 45bb 00be a9e9 1f3d
00000040: 96b8 a0bd 0048 6cbc 8e3a 313d 8891 213e
00000050: 2558 0f3c 5646 2cbd 435c f4bc 9607 6b3a
00000060: 93df b93d c548 533d 2411 70bd 72e3 bf3c
00000070: 3da0 8d3d fd04 6ebc de25 383d dcb6 873d
00000080: 4fdb 81bd 6a4d 4bbd 577f b8bc e1a8 0b3c
00000090: 0130 47bd ef26 113d 63bc a93d 673b 11be
000000a0: 209f 433d 2538 57bd 976c c93d 13fb 70be
000000b0: af2d 6d3e 2c4e 80bd 0371 173d b5a1 bf3d
000000c0: b700 12bd 420e fbbd 38f6 81bd 2103 93bc
000000d0: bd85 0e3d 1e0e ea3d 24c9 bfbd 6d58 4dbd
000000e0: 8522 e43d b313 4c3d 68e8 42bd 5706 88bd
000000f0: f693 1cbd 4e51 e03d 3f61 9dbd b4b5 04be
00000100: cf24 113e 42b7 05bd 9e54 0a3d 71cb 75be
00000110: 5a11 bfbd b084 023e 388e 3fbc 25b7 c43c
00000120: f4e7 d03c 10e1 553c d8f1 fabc 180c 97bc
00000130: e6f3 3d3b 35c0 9dbd be27 163e d8ff 063e
00000140: 50b3 8fbd af41 06be e8a1 16be a208 303e
00000150: 86e0 023d c98f 253e c7a2 e53d 2414 03be
00000160: 84d2 4b3d 4285 8abd 8d11 cc3d cbd2 37bc
00000170: 1bf8 1d3e c6de 86be 63d6 a8bd 11c8 d23d
00000180: 7438 55bd c987 ec3d 79ea d2bb 295a 07be
00000190: e6fb b3b9 787e 8dbb 5de2 cc3c c5f1 05be
000001a0: dd94 7f3d ca43 4abc ae0e 373e 25d8 79bd
000001b0: 5077 0ebc ce26 d0bd c237 a93d fd42 e1bd
000001c0: 7c73 f73c 3700 58bd 3331 f5bd fc55 0a3e
000001d0: 8fb1 b8bd c56d bebd 8bc9 3bbb b941 973d
000001e0: c40c 7ebc 5775 fe3c 90c8 1d3d 1e82 e0bd
000001f0: 40d7 413d 61bb 513e 5c42 d33b c112 a6bd
00000200: 6fbc 68be 42a7 be3d d1e6 483c 8ade 833d
00000210: 204f 24bd 0e00 06be a12a 6e3c 3919 413d
00000220: c742 5f3d 300b 8e3d 2118 423c 2e55 19be
00000230: 6506 dfbb dc77 323d 12d2 70bd bb6e 4d3d
00000240: fd97 853d 5e6d 70bd f7dd 4a3e a364 a8bc
00000250: b32d 25bd ac51 263d 7147 92bd 76bd a7bc
00000260: 796d c8bb 306f a7bc 9378 07bd 9e74 4dbc
00000270: 913b 82bd c428 843c cac6 02bd 0b2a d23d
00000280: 1ed4 d03d 74ea 203e 355c 57be 5e84 03be
00000290: 0ca9 893d 0a1c a63b 697f 153d ecd9 dc3d
000002a0: 9e35 0cbd 2574 293e 30ef 2c3d e7f8 bb3b
000002b0: 861b 853c ec92 99bc dfd5 9cbd d06e d3bd
000002c0: 72a5 f43d 8b82 2b3c c59f 713d 73e5 b2b9
000002d0: dc83 8d3d f37e 23be 1b66 dbbc fb56 8b3d
000002e0: 4576 b5bd 6831 36bc c846 5f3d 366f 55bc
000002f0: f3cd c0bc 0250 903d f038 c4bd ec79 f2bd
00000300: 7430 053e a1eb 42bc e3ca db3d 68ee d1bb
00000310: 5186 823d 705d 4a3d 1d93 bdb9 9e55 833d
00000320: 2fe1 0abd 2f24 fd3c cf48 273d 3325 e0bc
00000330: 8ff5 cd3c 19de f8bc 2d2f 2cbe c4b5 b73d
00000340: 5e79 0b3e 2d92 b3bb 610b 85bd 57e8 35bd
00000350: 3a7b 1f3c 24ab 25bd e44f 1abe 0380 96bd
00000360: 18c3 9fbc 045b aa3d 5834 bfbd 675c afbd
00000370: e440 4fbd ea08 e7bc 539c 683e b059 bd3c
00000380: 82eb edbd e138 223c acb8 2abd 5ea5 99bc
00000390: d8ae dfbc 3449 0a3d 1eb1 d13d 7202 17bc
000003a0: 32d2 33bc ca9f 05be 65b1 d63c 4dc1 05be
000003b0: 4830 4d3d 8040 383d 9537 2abd e92c e93d
000003c0: a31f 38bd 6d6a ff3d 0e26 ccbd c918 8b3d
000003d0: 59ef 04be 5111 11bd 4534 dd3c a300 1bbd
000003e0: 9430 8b3d 9da2 1bbd b565 debc b50c d3bc
000003f0: c35f 39bd 28c6 b4bd 8159 1b3e c7ae eabc
0.058154523 0.119134545 -0.035946365 -0.11567847 0.096656315 -0.10588969 -0.04655938 0.08586363
0.10055719 0.200609 0.047176175 0.020142885 -0.011480572 0.07655003 -0.12571438 0.039041195
-0.07847707 -0.014421463 0.043268733 0.15778172 0.008749043 -0.042059265 -0.02982915 0.0008965669
0.090758465 0.05158307 -0.058610097 0.023423884 0.06915329 -0.0145275565 0.044957988 0.066266745
-0.06340658 -0.049634375 -0.022521658 0.008524151 -0.048629764 0.03543752 0.08287885 -0.14182816
0.047759175 -0.052543778 0.09835165 -0.23533277 0.23161958 -0.0626491 0.03697301 0.09357015
-0.035645213 -0.12258579 -0.063457906 -0.017945828 0.03479551 0.11428474 -0.093645364 -0.050133158
0.111393966 0.049823474 -0.04758492 -0.06641834 -0.038227044 0.10953008 -0.07684564 -0.12959939
0.14174198 -0.03264547 0.033772103 -0.24003388 -0.093294814 0.12745929 -0.011691622 0.024013111
0.025501229 0.013054147 -0.030632898 -0.018438384 0.0028984486 -0.07702676 0.14663598 0.13183534
-0.07016623 -0.13110994 -0.147102 0.17190793 0.031952403 0.16168131 0.11212688 -0.12800652
0.04976131 -0.06763698 0.09964285 -0.011219691 0.15426676 -0.26341838 -0.08244016 0.10292066
-0.05205579 0.115493365 -0.0064366427 -0.13217987 -0.0003432922 -0.0043180548 0.025010282 -0.13080509
0.062397826 -0.012345264 0.17876694 -0.060997147 -0.0086954385 -0.101636514 0.08262588 -0.10999105
0.030206434 -0.05273458 -0.11972275 0.13509363 -0.090182416 -0.092982806 -0.0028654065 0.073855825
-0.015505973 0.031061811 0.03852135 -0.10962318 0.04732442 0.20481636 0.0064471196 -0.08109046
-0.22728132 0.09309246 0.012262062 0.0643893 -0.040114522 -0.13085958 0.014536531 0.047143195
0.054507043 0.069357276 0.011846573 -0.149739 -0.006806182 0.043571338 -0.05879409 0.05015443
0.0652313 -0.05869805 0.19811235 -0.0205558 -0.040326785 0.040605232 -0.071425326 -0.020476084
-0.006116566 -0.02043876 -0.033073973 -0.012540011 -0.06359018 0.01613272 -0.03192786 0.10261925
0.10196708 0.15714437 -0.21031268 -0.12843463 0.06721696 0.0050692605 0.03649846 0.10783753
-0.03423082 0.16548212 0.042220294 0.0057364586 0.016248476 -0.018746816 -0.0765798 -0.1032387
0.11945619 0.010468136 0.05899026 -0.0003412176 0.06909916 -0.15966396 -0.026782086 0.068036996
-0.08860449 -0.011120178 0.05451086 -0.013027003 -0.023535704 0.0704651 -0.095811725 -0.11839661
0.13006765 -0.011896999 0.10732057 -0.006406594 0.06373275 0.049405515 -0.00036158497 0.064128146
-0.033906158 0.030901043 0.04084092 -0.027361488 0.025141506 -0.030379342 -0.16814871 0.08970216
0.13620517 -0.005480072 -0.06496311 -0.04441103 0.009733969 -0.040446416 -0.15069538 -0.07348635
-0.019502208 0.08318141 -0.09336156 -0.08562546 -0.050598994 -0.028202493 0.22715883 0.023114055
-0.11617185 0.009901256 -0.041680023 -0.018755611 -0.027305052 0.03376122 0.102388605 -0.009216892
-0.010975407 -0.13049236 0.026207635 -0.1306202 0.050094873 0.044983387 -0.041556913 0.11385519
-0.044952046 0.12471471 -0.09968196 0.06791837 -0.12981929 -0.035416905 0.027002463 -0.037842404
0.06796375 -0.037996877 -0.027148107 -0.025762895 -0.04525734 -0.08826858 0.15170862 -0.028647793

st_gcn_networks.0.tcn.1.bias f4 [64]
00000000: 1b55 fcbb 613b 3c3e 839b bd3d e329 4f3d
00000010: 353d bf3d f122 95be cbbf c73c 8e7a 10bd
00000020: af45 47be 36be 603d bc67 81bc 8bfb 3f3e
00000030: 50f8 f1bd 72a7 bcbd d18b fa3d da2c 113e
00000040: 05f6 023d 86d7 6b3b 9cd5 9fbd b0e3 6abe
00000050: 01d0 9a3c 2557 c93d 2968 ad3d 5ca4 c7bd
00000060: 6306 47be 2d7d ad3d 1fba e13d 73b9 693d
00000070: aaba 2a3d dc46 51bc 492f 843d bc9d 373d
00000080: 457d 24bd c93b 96be c82f 933d 7c18 173d
00000090: 5267 17be 2f0a 22bd 42d8 bf3d ee12 233e
000000a0: 219c 06be 5967 d6bc bc3e 313d e170 67bd
000000b0: 9d76 003e ae63 cb3b a974 10bd df5f b73c
000000c0: 78d1 e0bd d102 14bd 7f6a a4bd e64b 833d
000000d0: b352 65be 3cdb de3d 810f c3be 7c39 cb3d
000000e0: af66 ed3d 9797 f53d d514 b9bd 20a2 7dbd
000000f0: 4b70 c8bb ed5b 073e 546b 52be 69b1 d8bd
-0.007700575 0.18382026 0.09258177 0.050577056 0.09337846 -0.2912822 0.024383446 -0.035273127
-0.19460176 0.0548689 -0.015796535 0.187483 -0.1181494 -0.09211625 0.12233699 0.14177266
0.031972904 0.0035986616 -0.07804415 -0.22938418 0.018898012 0.098310746 0.084671326 -0.09748146
-0.1943603 0.08471141 0.11021828 0.057061624 0.041681923 -0.012773242 0.064543314 0.04482816
-0.04015853 -0.29342487 0.07186848 0.036888584 -0.14785507 -0.039560493 0.0936742 0.1592519
-0.13145496 -0.026172327 0.04327272 -0.056504134 0.12545247 0.006206951 -0.035267506 0.022384582
-0.10977453 -0.0361355 -0.08028125 0.06410961 -0.22394828 0.108816594 -0.38097766 0.09923074
0.11591851 0.11991804 -0.090371765 -0.061922193 -0.006116902 0.1321866 -0.20548755 -0.10580713

st_gcn_networks.0.residual.0.weight f4 [64, 10, 1, 1]
00000000: 4b81 60c0 9c20 c03f 995e 023f 2371 7e3f
00000010: e13a 4e3c 153a 1c3d 8a89 b23c ce82 8cbf
00000020: f4dd 8c3d 0ca5 b23f ce2e 4f3e e6b4 353f
00000030: 4b77 05bd 5121 46be cef8 20bc 36e1 8d3d
00000040: b5ff 5c3e 12dd eebe 4ef8 193f af1b aa3d
00000050: 28d4 2a40 6639 f8bf b9fa 643f 1153 1f3f
00000060: 8e06 4b3f 0b50 2abe 1f92 f23d 0bda 98bf
00000070: da1e bdbf 4332 8f3d 69b4 c9be cb86 edbf
00000080: c2a7 8cbe 5860 80be 511f b93d 840a 833e
00000090: 9f92 503d 93ce 663f d2b2 f53e 54f0 d83e
000000a0: 310c 2cbf c97d 24c0 bd8e 193f 107f 01bf
000000b0: 530f 453f d967 333d 6d36 81bc 9c8e c03f
000000c0: 528f dbbe 12f9 87bf 3762 3740 0d42 42bf
000000d0: 2ba8 35bf 2f4b 5e3e d2bb 25be d0b0 053e
000000e0: 542f 1d3f 5bed 43c0 9435 793f 85fa 8c3f
000000f0: 59f8 523e 787e 813f a876 143e 3bc8 a73d
00000100: 0a7c c9be e8b0 8ebd fc3e 87be b29e 093f
00000110: dfc0 d53d 93c7 aa3d bdce fa3e 3d6f 293f
00000120: ef6a b4bd 8a0c 9ebc 3b9d 21c0 d410 183d
00000130: 34c8 803d fbc0 3dc0 0430 93be 1c5e 4f3e
00000140: fff4 743f 4d3a 81bf 7a00 1f3f ffa0 d13e
00000150: 64fa 8c3d f547 8d3e aae0 693c e1b7 1b3f
00000160: 43c0 71bf c5ef 9e3e 6529 573c 9434 36be
00000170: 5c84 07bf e05f bd3e f51c 16be 4a6d a53d
00000180: 6057 efbc 4b4d 9fbf 6fb1 8dbe ac80 11be
00000190: aaed 9b3e 236c 0b40 3bb6 1ebe 2177 40bd
000001a0: 08e1 213e e85b 1b3e bbf3 0ebe 7ae0 983f
000001b0: d8d2 c1be 6e2d a93e b28c d6bd 82d4 fabe
000001c0: d5d4 923d cb52 efbe 7a93 81be 1837 94be
000001d0: 7764 17bd c0a4 a63f a09e a23e a11d 9ebd
000001e0: 938c 0341 6b96 db3f 24e8 4dbe 55b8 9c3f
000001f0: fb4e 573e 4360 e13d 7a6e cdbd 7112 2440
00000200: 3b71 bebe ae03 613f 55bb 3fbf ea69 1abf
00000210: 7361 813e 73ed e83c 0209 3fbe a5e7 08bd
00000220: edf2 a3bd 03af 053f fc0e c93d 54e3 233e
00000230: 4c08 9d3e 9707 19bf 97b7 53bf 294c 9d3e
00000240: d7d0 86be 33f4 6bbd f973 68bd 02ce 083f
00000250: 8023 21bf b866 32bf cd0f 4040 a84f 30bf
00000260: ad92 41bf e005 823f 1496 ef3d 759a 93be
00000270: 4341 8e3d 78d4 a33e eebe 6fc0 e242 75bf
00000280: d86a 05bf 9a12 9e3f ea13 61bd 1ea8 58bf
00000290: 3280 05bf ed4e 36be ccf6 dd3a 645e 3ebf
000002a0: a996 b0bc af3c bb3f f882 a2be 6811 523f
000002b0: 84d3 3f3f dbc6 ddbe 09db 003e e22c 15bc
000002c0: 0592 243e 8707 8dbf 5010 4f3f 70cc 9abf
000002d0: 95d6 24bf 4afb a1bf 38fe 1640 61f4 be3f
000002e0: 3ac0 893d ab23 18bd 0bf4 013d c4ab a4bd
000002f0: 7f9e 36c0 72c9 edbe 0964 143e 6160 c7bd
00000300: 7f51 343d 421a 493d f934 eabe bb06 733d
00000310: 2376 2abf bfdc 3240 095c 0440 631a 923f
00000320: 83c1 a83c 190b 58c0 a704 993d 162c 533f
00000330: 5a49 79bf 0fbd c33c 160d 9e3d acd6 61bf
00000340: 11e2 16be dd4f 9cbf c0f4 e3bf 35b4 6040
00000350: 6dd5 0c40 69e2 64bf 51c0 273f f72f a2bd
00000360: bf00 89bd 4ee4 053e a559 163f 6273 cd3e
00000370: a3c5 abbd ec30 993f 808a 1fbd 1bb2 bc3e
00000380: 9528 163f 22f0 07be 47de 043d e57a 67bf
00000390: 0c5e b4bf 77c0 1b3e b5da 783e 5b10 c83f
000003a0: 7b66 d13d a523 01bf 5cc5 913e 3450 2fbb
000003b0: 65ff 5bbb ab14 143f 49c6 e33e 1d8f 55bf
000003c0: db64 0c3f 4f29 1340 5b03 903e 0369 1d3f
000003d0: a5bf a83e cf7a b3bd 1ccd 9a3c e51e 003f
000003e0: 272b 19bf ac53 39be a8ff f83c 54f6 c73f
000003f0: 037b 8d3e 80fd e03e 8acb ac3e 6104 75bd
-3.5078914 1.5009952 0.50925595 0.9939138 0.01258728 0.03814133 0.0217941 -1.0977418
0.06878272 1.3956618 0.20232698 0.70979154 -0.03258447 -0.19348647 -0.009824945 0.06927721
0.2158192 -0.46653038 0.6014451 0.083060615 2.669199 -1.9392517 0.8944507 0.62236124
0.79306877 -0.16632096 0.11844277 -1.1941541 -1.477504 0.069920085 -0.39395455 -1.855676
-0.2747174 -0.25073504 0.09039176 0.2559396 0.05092108 0.9015896 0.47987992 0.42370856
-0.672061 -2.5701773 0.59983426 -0.50584507 0.7697651 0.04380021 -0.015773023 1.5043521
-0.42882782 -1.0622885 2.8653696 -0.75882035 -0.7095973 0.21708368 -0.16184929 0.1305573
0.6140034 -3.061362 0.9734738 1.1013952 0.2060255 1.011672 0.14498389 0.08192488
-0.39352447 -0.06967336 -0.2641524 0.53757775 0.10437178 0.08338847 0.48985854 0.6618536
-0.088094585 -0.019293088 -2.5252216 0.037125424 0.06288186 -2.9649036 -0.2874757 0.20250744
0.95686334 -1.0095917 0.621101 0.40943143 0.06883696 0.2759396 0.0142747555 0.6082745
-0.94433993 0.31042305 0.013132428 -0.17793494 -0.5293634 0.3698721 -0.14659484 0.08077486
-0.029216468 -1.2445463 -0.27674434 -0.1420924 0.3045476 2.1784751 -0.15499203 -0.04698861
0.15808499 0.15171778 -0.13960163 1.1943505 -0.37856174 0.33042473 -0.10476054 -0.48990256
0.07169501 -0.46742854 -0.25307828 -0.28948283 -0.036961045 1.3019028 0.31761646 -0.07720495
8.22182 1.7155279 -0.20108086 1.2243754 0.21026222 0.110046886 -0.10030837 2.5636256
-0.37195763 0.8789624 -0.7489522 -0.6031786 0.2526966 0.028433537 -0.1865578 -0.03342404
-0.08005319 0.5222017 0.09817311 0.16004688 0.30670393 -0.59777206 -0.8270201 0.30722168
-0.26331207 -0.057605933 -0.056751225 0.5343934 -0.62944794 -0.69687986 3.0009644 -0.68871546
-0.75614434 1.0158043 0.11698547 -0.2882878 0.069460414 0.31998038 -3.7460284 -0.9580518
-0.52116156 1.2349427 -0.054950632 -0.84631526 -0.52148736 -0.17803545 0.0016934513 -0.7436278
-0.021556215 1.4627894 -0.31740546 0.8205781 0.7493212 -0.43315777 0.12583555 -0.009104939
0.16071327 -1.1017922 0.80884266 -1.2093639 -0.64389926 -1.2654812 2.3592663 1.4918329
0.067261174 -0.03714339 0.031726878 -0.08040574 -2.8534238 -0.46442753 0.14491285 -0.0973518
0.044023033 0.049097307 -0.4574354 0.05933259 -0.6658651 2.7947233 2.0681174 1.1414303
0.020600086 -3.3756773 0.074715905 0.82489145 -0.9737755 0.023893861 0.0771734 -0.8821819
-0.14734675 -1.2211872 -1.7809067 3.510999 2.2005265 -0.89407974 0.65527827 -0.07919305
-0.066895954 0.13075373 0.58730537 0.40127093 -0.083873056 1.1968055 -0.038950443 0.36854634
0.58655673 -0.13275197 0.032438543 -0.904219 -1.4091201 0.15210138 0.2430218 1.5629991
0.10224625 -0.50445014 0.28470886 -0.0026750686 -0.0033568975 0.57844037 0.44487217 -0.834215
0.54841393 2.2993963 0.2812756 0.6148836 0.32958713 -0.08763658 0.018896632 0.5004714
-0.5983147 -0.18098325 0.030395344 1.5622048 0.27632913 0.43943405 0.33749038 -0.05981863

st_gcn_networks.0.residual.0.bias f4 [64]
00000000: 5ffe 713e 9240 093e adf2 bcbd 7c10 2ebe
00000010: f068 4dbe f279 bcbe a08d cfbc 057d 66be
00000020: edd6 eabc 2a97 0ebe 422e 093e 520c c3bd
00000030: ef19 5a3d 5301 b63d c867 a5bd 8755 cbbc
00000040: 72d7 483e f9ce 25be 1cb8 803e 6734 b3be
00000050: de73 043e 984c 5c3d 7242 983e 961e f83d
00000060: 7100 ccbe 5660 1cbe 3bd9 30be eaf4 6b3e
00000070: b1c5 67be 0c10 183c 11ce 5f3e 7a97 17be
00000080: 1e39 b83d d6d7 f0be 9d98 803e 6934 44bd
00000090: f5a7 0e3e 618c 84be b770 4a3e cd32 b73e
000000a0: ff1c eabd 00d9 2a3d eb0d 95bc bd1f 4e3d
000000b0: 3d38 cf3e 1b2d 34bc a431 34bd f978 44bd
000000c0: ede1 0dbe 2ba3 723e a5aa 9e3d dd11 973e
000000d0: 9da0 cdbe da5b a03d 146d 86be bd61 833e
000000e0: 178f 06bd f3e8 3bbe b478 5b3e 6abb 1b3e
000000f0: f7ff 0c3e 5532 02be 2e27 4bbe f79a 2b3e
0.23632191 0.13403538 -0.09225974 -0.16998476 -0.20059562 -0.36811787 -0.025336087 -0.22508629
-0.028666938 -0.13924852 0.13396552 -0.09523834 0.05324739 0.08886971 -0.08076435 -0.024821056
0.19613436 -0.16192235 0.25140464 -0.35000917 0.12934825 0.053783983 0.29738194 0.12115209
-0.39844087 -0.15271124 -0.17270367 0.23042646 -0.22634007 0.00928117 0.21855952 -0.14803877
0.08995269 -0.4703967 0.25116435 -0.047901545 0.13931258 -0.2588835 0.1976956 0.35780945
-0.11431312 0.041710854 -0.018195113 0.050323237 0.40472594 -0.010997082 -0.043992653 -0.04796693
-0.13855715 0.23695056 0.077473916 0.29505816 -0.401616 0.07830019 -0.26255095 0.25660506
-0.032851305 -0.18350582 0.21432763 0.15208212 0.13769518 -0.12714513 -0.19839165 0.16758333

st_gcn_networks.1.gcn.conv.weight f4 [192, 64, 1, 1]
00000000: edde 35bd 36a5 973d c897 d6bd 8cfc 5c3d
00000010: 822d 55be e75b c9bd c765 373e 85c6 233e
00000020: 4eee a13d d277 bcbd ed29 fcbc 7066 a2bd
00000030: 404f 213e b682 b8bb e4e5 4a3e 5f08 82bd
00000040: 431f 01bc 72ef f63d fb77 933d 5591 9c3c
00000050: 9224 a0bd ebf3 e0ba b4b1 14bc 6011 f8bd
00000060: 936a 3fbd cedc b6bd 9b71 edbd eb5b 173d
00000070: 2a0c c7bd 1745 803d e361 4c3d a467 4b3d
00000080: 0ffc 2ebd 9577 25be f123 bd3d fb31 c3bd
00000090: 72ed b73d fb08 653d 6882 913d 5e08 1dbc
000000a0: 4a47 473c 77b2 083e a23d 573e 4639 6abd
000000b0: a0f8 623e e54f 463e b8fc ebbd 07d5 013e
000000c0: 4bfd c53d c5de 52bc 065f a43d 18b5 b33d
000000d0: f669 0fbd 6ca4 253e 5aa0 aabd ed32 f4bd
000000e0: 399c 9fbd 7915 c93d 16ec a93d e26e bebd
000000f0: 73a8 94bc 5f54 f23c cdac 063c b41a d93c
00000100: 9b43 743d e4a4 b4bd 2633 3ebe 2b69 703d
00000110: dcd9 4bbd 20c0 c93c b1e5 c63d de9d 74bd
00000120: 801c 0d3e 7bfd e83b e4e4 87bd 6f0a 123d
00000130: edd1 debd fc15 833e b612 0e3e 6a64 73be
00000140: ca97 2abe ad1d 0c3d afa5 f9bd 3407 aa3e
00000150: f628 75be c135 95bd c670 f7bd 50c9 da3c
00000160: 802a 723d dcaa 13bd 4deb 62bd d2b7 3c3e
00000170: ca40 8f3d 6d3a f8bd 8b6c cebe cbd9 85be
00000180: 2305 7abd 5e07 2dbd 9099 1dbc 7408 3abe
00000190: 0020 e0bd 37a8 81bd 1c69 3a3b 3c8a 37be
000001a0: 947b 123d c8a5 b2bd eb61 c0bd bac9 383c
000001b0: 4220 723d d7f5 be3d 1857 9f3c e425 c4bd
000001c0: 17a2 acbd 9c83 b13c 3948 2ebc 4ef8 4fbd
000001d0: 5c97 6dbe 0699 63bc 4a94 70bc 1084 9fbd
000001e0: 76f3 bdbc 4d83 623d d01c 07be 437b adbd
000001f0: 2f38 92be 6777 5dbd 39e7 c73d 3dad f3bc
00000200: 17d3 193d b916 f1bd 9849 7d3d 0c36 64be
00000210: 25e9 f6bd 10a9 36be 9eb6 0dbe ec20 c63d
00000220: 617d c83c 7777 04bd 279f 1fbe 73ca 6abe
00000230: a243 713e 4f6f bd3c 1f4b 4e3e 7b8e dd3d
00000240: 9b50 87bd 6616 b5bc 2a46 023e d34b 0e3e
00000250: bf2f d33c 8c5b d03d 4860 f23d 5cd5 2dbd
00000260: 42aa 56be 3973 b33c 884c 003e cbba 8dbd
00000270: b04e e43d 456b 8b3e 6946 0dbe 01cd 57be
00000280: a95b 583b cd41 30be f1da 873e 720a d33d
00000290: 60d5 bfbd 2b85 4e3e a4fd 03be 3c64 63bd
000002a0: 46d3 54be cf59 c13c 2c34 be3e 6078 96be
000002b0: ff46 1d3e 9053 183e 7e81 cb3b c150 973d
000002c0: c1dd 863d e814 8c3d fd22 783e 9f44 b13c
000002d0: 8cd3 17be 4191 8f3c fd9e 85be b5cd aa3d
000002e0: c527 d93d f535 d5bd 72cc 4cbe a98e c33d
000002f0: 3f82 6a3e 446c 14be 5975 813d 225e 2cbe
00000300: 4587 503e 7d80 073d d890 d43d 0eb5 3a3e
00000310: ede9 debd 5d7a a93d 4bb9 e53c 4448 c53d
00000320: ac9d 673d 0d33 da3d 8b98 713d ed1b a0bd
00000330: f749 bebb b8ba 24be d01f 3abd e27f 5b3d
00000340: f780 e6bd 0202 cbbd a86f 28bd 9414 20be
00000350: 7c0f e63c 1edb 0a3d 70d9 8dbd d0e5 8c3d
00000360: 7404 d43d 2e23 e3bd c580 29bd aad6 e5bc
00000370: d676 38be 8e75 373e fdc7 a63c 5273 b83d
00000380: f274 41bd 4391 bd3d c644 963d 78a2 4a3d
00000390: ebdd 24bd 5dc7 fdbc e0a3 8dbe 2673 473d
000003a0: a4b4 80bd f0d0 0f3c a334 b33d 8bea 8a3b
000003b0: 0ad4 673d 68b7 21bd ed13 4f3d d63d d83d
000003c0: 2768 ee3d d711 013e dd4e f13d de0b b23d
000003d0: 41ee 703c 9133 3b3d 9833 30be 8e80 183e
000003e0: 49e0 e7bc a441 3a3c 1369 30bc 69ce 233e
000003f0: 84ad 883d 043a 0e3d a1f3 85be 6bc4 57be
-0.04440205 0.07404558 -0.10478169 0.053951785 -0.20818141 -0.09831982 0.17909919 0.15993698
0.07906781 -0.092025414 -0.03078171 -0.07929695 0.15752888 -0.0056308163 0.19814259 -0.06349253
-0.0078809885 0.12057389 0.07200619 0.019112268 -0.07819475 -0.0017162537 -0.009075571 -0.12112689
-0.046732496 -0.08928834 -0.11593934 0.036952894 -0.09719117 0.06263178 0.04989804 0.049659386
-0.04272085 -0.16158898 0.09235371 -0.095310174 0.08980836 0.055916768 0.07104951 -0.009584514
0.012162993 0.13349329 0.21019605 -0.057183526 0.22165155 0.19366415 -0.11522812 0.1267892
0.096674524 -0.012870495 0.08025937 0.08774775 -0.03501316 0.16176003 -0.08331366 -0.11923776
-0.07793469 0.09818549 0.08296983 -0.09298493 -0.01814673 0.029581247 0.00821991 0.02650199
0.059634786 -0.08820513 -0.18574199 0.058694046 -0.049768314 0.024627745 0.09711779 -0.059720866
0.13780403 0.0071102954 -0.06635454 0.03565448 -0.10879884 0.2560271 0.13874325 -0.23768774
-0.16659465 0.03420799 -0.12189805 0.3320862 -0.23941407 -0.07285643 -0.12082057 0.026707321
0.059122562 -0.036051616 -0.05540018 0.18429497 0.069947794 -0.12120519 -0.40317187 -0.26142725
-0.061040055 -0.042243354 -0.009619132 -0.18167287 -0.109436035 -0.063309126 0.0028443998 -0.17923826
0.035762385 -0.087230265 -0.09393676 0.011278564 0.059112795 0.09324234 0.01945071 -0.095775396
-0.08429354 0.021669202 -0.010637336 -0.05077391 -0.2320227 -0.013891464 -0.014683792 -0.07788861
-0.02318738 0.055301 -0.13194585 -0.08470776 -0.2855849 -0.05406895 0.09760899 -0.029745692
0.037554827 -0.11771912 0.061837763 -0.22286242 -0.120561875 -0.1783793 -0.13839194 0.09674248
0.024473848 -0.032340493 -0.15588056 -0.22928791 0.23560956 0.023124365 0.20145844 0.108181916
-0.06607171 -0.022105407 0.12722078 0.13896112 0.025779603 0.10173711 0.118347704 -0.042439803
-0.20963386 0.021905528 0.12529194 -0.069203936 0.11147821 0.27230278 -0.1379639 -0.21074297
0.0033013618 -0.17212601 0.26534227 0.10304727 -0.0936687 0.20167987 -0.12889725 -0.055515513
-0.2078372 0.023602394 0.3714918 -0.29388714 0.15359114 0.14875627 0.006210505 0.073884495
0.06585265 0.06839925 0.24232097 0.021639166 -0.14826792 0.017525317 -0.2609786 0.08340017
0.106032886 -0.10410682 -0.19999865 0.09548695 0.22901247 -0.14494425 0.063212104 -0.16832784
0.20364101 0.03308152 0.10379189 0.1823313 -0.108844616 0.08275292 0.028042456 0.09632924
0.056546852 0.106542684 0.058983367 -0.078178264 -0.005807157 -0.16086853 -0.045440495 0.053588755
-0.11255067 -0.09912492 -0.04112211 -0.1563285 0.028083555 0.033900373 -0.069262385 0.06879771
0.10352412 -0.11090694 -0.04138257 -0.028056461 -0.18014082 0.17915937 0.020359034 0.090063706
-0.04723067 0.09256222 0.07337336 0.04947135 -0.0402507 -0.030978853 -0.2766409 0.0486938
-0.062844545 0.008777842 0.08750274 0.0042393855 0.0565987 -0.03948155 0.050556112 0.10558669
0.11640959 0.12604462 0.1178262 0.0869367 0.014705242 0.045703474 -0.17207181 0.1489279
-0.02830519 0.011368189 -0.010767239 0.15996708 0.066737205 0.034723297 -0.26162437 -0.21071021

st_gcn_networks.1.gcn.conv.bias f4 [192]
00000000: 4c68 603d 2ca2 b43c c226 173e deb9 9e3d
00000010: 83dc 3f3d 771d 233d d48e 9bbd bb77 83bd
00000020: 2b1a 89bd f1b6 26bc f100 223d 9ead b3bd
00000030: 6f3e 293d 1c81 41bc 151f e53d 4ae1 113e
00000040: 76d5 cf3d 6b68 05be 29a6 86bd bb11 8abd
00000050: 0894 4bbe fd60 563d 78d1 dc3d a722 adbd
00000060: cdda dd3c 9f75 65bd 6609 603d 5057 b83c
00000070: e963 08be 911f 6cbd b91e bdbd 4d5f 14bd
00000080: 4cf4 7a3d 6ac7 68bc b692 16bd bd48 e83d
00000090: 8167 843d 9dec ac3d 7047 0b3d 25b6 9b3d
000000a0: c471 0abe 89f1 f93d 2cd3 3d3d 4deb fabd
000000b0: 0b86 a2bd 9550 e23c f9db 5b3d 88a8 e23d
000000c0: fe24 c33d 314d 16be 1c44 b63d d729 de3d
000000d0: 53bb a83d c5e9 4b3c aa81 0ebe db37 433d
000000e0: 0b29 593c 3ba0 ae3c 020e 56bd 0e71 263c
000000f0: 4ae6 423d 46fe 153d a891 7dbc 86c4 653d
00000100: aba1 8ebd 4eab 01be e736 4f3c ee60 183e
00000110: 5e60 1bbe dde5 083d 44c0 62bd bb6c d73c
00000120: 7e88 303d dfa4 3cbe 7425 55bd 7077 19be
00000130: 6faf df3c b32b f63d 9ea8 593e cf97 4dbc
00000140: a3be 8e3d 9fb3 923b 330d a6bd 8e2a 99bd
00000150: eebf c03c 8c5e b83d 3232 633e d0a0 c1bb
00000160: 3162 1a3d 8bdb a83c 8a5f de3c 1e06 95bd
00000170: c909 34be 665e 4a3d f11a 21be b558 afbd
00000180: c3d7 693d bb10 103d c3f0 f63c 79fa b8bc
00000190: e9f0 163c c71c 3a3e 729b bfbc 5899 123d
000001a0: 2fd4 83bd 3bc7 bb3d f994 c33d 5553 a13d
000001b0: 1400 54bd 8f11 bf3d 51ff 133e a448 2d3e
000001c0: 20b9 56bb c493 1abe 4d81 733c cc6a b8bc
000001d0: 370c 7fbd 29a4 ad3d 1624 1dbe 1928 29bc
000001e0: bc92 a8bd 5da3 2b3a 06cd 073c 4df6 80bc
000001f0: d38e 823c b57d 413e 405a 77bd 7d02 dd3c
00000200: d107 ca3d 0f72 53bd 5dbb f93d b6a7 803d
00000210: c491 eabd 4769 11bd b201 acbc ce2e bcbc
00000220: ea71 2b3e 83aa c2bd 4285 35bd ebb8 193d
00000230: 131f 5ebb 1a5d 7ebd d14c fc3d d476 76bd
00000240: 9170 eb3d 8502 a4bd bbd8 ddbd 2ffa 16bd
00000250: dc73 7bbd 5782 8e3d 7189 833c 5ec0 ffbd
00000260: a660 61bd eb67 99bd f9e7 66bd a764 9a3d
00000270: 8702 e4bc 0fa3 b9bd dd45 16bc 3bbb 3fbd
00000280: 8047 3dbd 1c02 8dbc 4069 8fbd 6e69 29bd
00000290: e05c 24bd 6011 253d 2b3e 233e 6cd9 9f3c
000002a0: 17ef 34be 4930 173e fb6c 1f3e 5217 dbbc
000002b0: 038a a5bd 44b4 a03d 458c 273e b962 303e
000002c0: 34ce d83d f584 b1bd 25a3 96bc c5ae 063d
000002d0: a177 293d 2fd4 9bbd 9ab2 02be d8a7 683d
000002e0: 11ad 6abc 9e23 81bc aacc 1d3d 724b 4f3d
000002f0: 72e6 47bc cef0 b43d e1fc 2b3e 1f78 903c
0.054786965 0.022049986 0.14760879 0.07750295 0.046841156 0.03982302 -0.07595602 -0.06419321
-0.06694444 -0.010175453 0.03955168 -0.08773349 0.041319307 -0.011810567 0.11187569 0.14246097
0.10148136 -0.13028114 -0.06574661 -0.06741663 -0.19880688 0.05233859 0.107821405 -0.08453875
0.027081871 -0.056020375 0.054696463 0.022502571 -0.13319363 -0.05764729 -0.092343755 -0.0362237
0.061268136 -0.0142077 -0.03676101 0.11341999 0.06465054 0.08443568 0.034003675 0.07603101
-0.1351996 0.12204272 0.046343967 -0.12251911 -0.07935723 0.027626315 0.05367658 0.11067301
0.0952854 -0.14677884 0.088997096 0.10847824 0.08238854 0.012445872 -0.1391665 0.04766069
0.013254414 0.021316638 -0.052259453 0.01015879 0.047582902 0.036619447 -0.015476622 0.056095622
-0.069644295 -0.12663004 0.012647367 0.14880726 -0.1517348 0.03342234 -0.05535914 0.026296964
0.04309892 -0.18422268 -0.05203767 -0.14986968 0.027305333 0.12020054 0.21255729 -0.012548401
0.06969955 0.004476979 -0.08107986 -0.0747882 0.02352902 0.090024084 0.22187117 -0.005909063
0.0376913 0.020612499 0.027145166 -0.072765574 -0.17581858 0.04940643 -0.15732934 -0.085618414
0.057090532 0.035172205 0.030144101 -0.022580372 0.009212711 0.1817504 -0.023389552 0.03579077
-0.06436955 0.091688596 0.09549899 0.078772224 -0.051757887 0.09329521 0.14452864 0.16922241
-0.0032764152 -0.1509543 0.014862371 -0.022511862 -0.06226751 0.08478577 -0.15345797 -0.010324501
-0.08231112 0.00065474754 0.0082886275 -0.015742445 0.015937245 0.1889561 -0.060388803 0.026978726
0.09864772 -0.051622447 0.1219394 0.06281988 -0.11453584 -0.03550079 -0.020996902 -0.022971537
0.16742674 -0.09505179 -0.044316538 0.037529867 -0.0033893033 -0.062100507 0.12319339 -0.060171917
0.1149608 -0.08008293 -0.10832354 -0.036859687 -0.06138979 0.06958454 0.016056748 -0.12487863
-0.05502381 -0.07490524 -0.05637357 0.07538729 -0.027833236 -0.09064304 -0.00917193 -0.046809416
-0.046210766 -0.01721292 -0.07002497 -0.04136031 -0.040127635 0.040299773 0.15941684 0.019512855
-0.1766933 0.14764513 0.15568916 -0.026744518 -0.08082964 0.07846883 0.16362102 0.1722516
0.10586205 -0.08667938 -0.01838834 0.032881517 0.041373853 -0.0760883 -0.12763444 0.056800693
-0.014323489 -0.015764054 0.03852526 0.05060906 -0.012200939 0.08834992 0.16795684 0.017635403

st_gcn_networks.1.tcn.1.weight f4 [64, 64, 5, 1]
00000000: 7e73 cc3c b76c d6bc 8393 363d ac68 27bd
00000010: 6bb1 073d 6be9 9a3c f34a 2fbd 4977 e33c
00000020: 54e2 95bd 11ac 993d 2ce5 2fbe 8b87 febc
00000030: b0ec ca3c 3387 0dbe fcac 5fbd c09c dabc
00000040: c750 633d 5687 2ebd ca2f 8c3d 790a 753c
00000050: 4177 7cbd b5e0 953d 1d8b 363c c78a 6dbc
00000060: 7d3f 89bd cac9 07bd c78b 78bd db62 afbd
00000070: bcee 893d 3f95 b13d f0b0 aebd 7293 1fbe
00000080: cf75 ce3d 721a 5dbd 6ed8 91bc 0d7a 44bc
00000090: 0cbd 023d 681c 243d 7ab1 8f3c 63c8 b3ba
000000a0: 0e9f 283c 5de2 843c dce0 a3bd f2a8 c03d
000000b0: bcde 38bc 6870 97bc 7336 0a3c f9f5 f1bc
000000c0: 0a40 81bd d453 a33d 6939 71bc 6398 1f3c
000000d0: 2bf8 1f3d 9160 43bd 13cb 963d ebba 4b3c
000000e0: 3c2f 7f3a eb9c 8f3b a2a7 2abd dd4f 873d
000000f0: be07 e0bc 693e d3bd 2705 12bd 72f6 98bd
00000100: 215a 82bd 84f9 313d 39fb 273e 679e 18be
00000110: 99d5 e1bc adce 26bd 07c8 c03c febb 093d
00000120: ef84 cdbd 717f 8e3d 59d8 4dbd ecc6 543d
00000130: bde3 133d 1acd 9fbc 4349 423c 2226 0dbd
00000140: 096c 0d3d 334b b9bc 3320 58bd 9cfc f0bc
00000150: 5ede 5a3d 975a 8ebd f503 ff3c 1945 1e3d
00000160: 355c a63d 6756 afbc 9424 ca3c b5d5 b03c
00000170: aba8 c6ba 4458 213d 9dc0 34bd ab60 32bd
00000180: 38af 713c 578f 49bc 9d8e 02bb 624b 4b3d
00000190: e7ac 4fbd 2968 9f3c 59ee 35bd cc2b f23a
000001a0: 4f09 023c be3b 56bd e0d8 0ebd 3e97 cebd
000001b0: 68f7 c0bd 67d7 4a3d 3af7 a73c 216e 783c
000001c0: 4d2e 4fbd d878 54bd f4ee 0b3e 429a ce3c
000001d0: 8976 bbbd 876a 403d 2590 923d f87a 9dbd
000001e0: caa8 fbbc 563a 8cbd db52 653b e99d f13c
000001f0: b2a3 d53c f1dc 063c 3aa1 81bc 01ca 293d
00000200: 5968 58bd 1f44 ec3c a8b2 a2bc 680f 19be
00000210: 3a10 123d c5b8 ff3d a7f5 c2bd 1d2d f43b
00000220: 3d02 5d3c ea99 f43c a7b9 19be 8ae3 0b3e
00000230: de4b 603c d685 9c3d 39fa eb3b fdc9 cebd
00000240: 5db8 c73d 563e a43c 9b36 71bd d28a 4b3c
00000250: 73ba 9f3c 45e6 90bd 747d 193d 86eb 0abd
00000260: ac03 37bc 9616 793d d84d 6ebd 8916 e8bb
00000270: 104e 11bd 6fd2 9abb eb53 54bd 2442 20bd
00000280: 1afd f53c c2ea a63d 6a2f a8bc ca59 9bbc
00000290: 50f9 d1bc d2ff 5cbc 8938 6c3d c266 acbc
000002a0: c9f7 92bd 5a2d 3c3d 664b 1f3d dcdc fa3d
000002b0: 9cf2 8cbd 04dc 073e d443 88bd 702a 37ba
000002c0: 2160 443d 1d71 5fbd ed52 7e3d 56f5 5b3c
000002d0: 0e2a a7bd 8aeb d4bd 5981 98bc 9aa8 c6bb
000002e0: a18b 453c 4650 403c f911 4e3d fd3b 65bb
000002f0: e437 253d 71e1 b43b acc0 e1bb aa3e 8e3c
00000300: 16f0 14bc 5dba 0fbe cba0 4f3d 299f c53c
00000310: 5ce8 23bd 666d 1abd 5ba7 a13d 6842 143c
00000320: 9e58 39bd 0750 c53d 0c04 493c d9d9 493c
00000330: 84ea 28be b90b 4abd e210 b2bc 6773 193e
00000340: f4b6 e0bd 5975 b3bd b578 4e3c 804f 3a38
00000350: afff 8d3c ce1b 0f3e bc4f a1bd 2d27 573d
00000360: 58cb 5f3d e3a6 80bc 9b5c febd 07d6 a6bd
00000370: b79c 983d d0bd 713c ff09 783c 294d 5ebe
00000380: dfde acbc 12be c53c 3bfd 01bd d73e 1dbd
00000390: 6c63 3f3d 47a6 cdb8 4887 873c 3263 a4bd
000003a0: 1d95 783d 7811 37bd 2889 073e 9cb0 8abd
000003b0: 5c92 e1bc 268b a03d 5d5c 56bd 71c9 903d
000003c0: 7ed7 78bd dcb1 b9bc a623 6cbd 9860 9abd
000003d0: 43a7 593c 9a6b 92bb 461a 8f3d 9b5c 9fbd
000003e0: 9ab4 c7bc 34d5 ec3c 8c54 11bd ac22 293d
000003f0: 1be2 043d d72f 07be f3ca 143b 8626 63bc
0.024957415 -0.026174886 0.044574272 -0.040871307 0.033128183 0.01891013 -0.042796087 0.02776684
-0.07318559 0.07503522 -0.17177266 -0.031070491 0.024771065 -0.13821106 -0.05460833 -0.026686072
0.055496957 -0.042609535 0.068450525 0.01495611 -0.061637167 0.0731825 0.011141566 -0.014498419
-0.067015626 -0.033151425 -0.060680177 -0.08563777 0.06734988 0.086710446 -0.08529842 -0.1558359
0.10081064 -0.0539803 -0.017803397 -0.01199199 0.03191857 0.040066153 0.017540682 -0.0013716336
0.010291828 0.01622122 -0.08001873 0.09407224 -0.011283573 -0.018486217 0.008435833 -0.029536234
-0.063110426 0.07974973 -0.01472316 0.009740922 0.03905503 -0.047699515 0.07362952 0.012434701
0.00097345165 0.0043827198 -0.041663773 0.066070296 -0.027347442 -0.10314638 -0.035649445 -0.07468881
-0.06364847 0.043450847 0.16404428 -0.14904176 -0.027567672 -0.040724445 0.02353288 0.03362655
-0.10035121 0.06957901 -0.050255153 0.05194752 0.03610586 -0.01950698 0.011858287 -0.034460194
0.03452686 -0.022618866 -0.052765083 -0.029417329 0.053434722 -0.069508724 0.031129817 0.038640115
0.08123056 -0.021403505 0.024675645 0.021586278 -0.0015156468 0.039390817 -0.044129003 -0.04354922
0.014751248 -0.012302241 -0.001992143 0.049632438 -0.050702002 0.019458847 -0.04441676 0.0018476187
0.00793679 -0.05230307 -0.034874797 -0.10087441 -0.09422189 0.04952183 0.020503629 0.0151629755
-0.050581265 -0.051873058 0.13665372 0.02522004 -0.09153468 0.046976592 0.071564 -0.0768947
-0.030720133 -0.06847064 0.0034992013 0.029494243 0.026079033 0.0082313875 -0.01582395 0.04145241
-0.05283389 0.028841076 -0.01986058 -0.14947283 0.035660006 0.12486414 -0.09519511 0.007451667
0.013489303 0.029858548 -0.15012227 0.13661018 0.013689963 0.07642715 0.0072014597 -0.1009712
0.097519614 0.020049255 -0.058889966 0.012423234 0.019498086 -0.070751704 0.037473157 -0.03391602
-0.011170309 0.060812555 -0.058179706 -0.0070827645 -0.035474837 -0.0047247927 -0.051837843 -0.039125577
0.030027915 0.08150245 -0.020530421 -0.018963713 -0.025631577 -0.013488727 0.057671104 -0.021045092
-0.071761675 0.045941688 0.038890265 0.12249157 -0.068822116 0.13267523 -0.06653562 -0.00069872197
0.04794324 -0.054551233 0.062090803 0.013425192 -0.08162318 -0.10396488 -0.018616365 -0.0060625793
0.012057216 0.011737889 0.05031011 -0.0034978383 0.040336505 0.005520039 -0.0068894234 0.017363865
-0.009090444 -0.14035936 0.050690453 0.024123745 -0.040016517 -0.037701987 0.07893249 0.009049036
-0.045250528 0.09634405 0.012269031 0.012320005 -0.1649571 -0.049327586 -0.021736566 0.14985429
-0.109723955 -0.08762617 0.012602021 4.4419896e-05 0.017333834 0.1397545 -0.07876536 0.052527595
0.054637283 -0.015704578 -0.12420007 -0.08146291 0.07451766 0.0147547275 0.015139102 -0.21709122
-0.021102367 0.024138484 -0.03173564 -0.038390007 0.046725675 -9.806133e-05 0.016544 -0.080267325
0.06068908 -0.044694394 0.13235915 -0.06771967 -0.02753561 0.078390405 -0.05233418 0.07069672
-0.060752384 -0.022667818 -0.057651184 -0.07537955 0.013284507 -0.0044683935 0.06987433 -0.07781335
-0.02437811 0.028910257 -0.03548102 0.04129283 0.032442193 -0.13201843 0.0022703975 -0.013864165

st_gcn_networks.1.tcn.1.bias f4 [64]
00000000: 4b0c b63e 38b1 143e 2f60 b53e 714b 0a3e
00000010: 1dc3 2b3e f3fe 51be d31d 84be c12d e6bc
00000020: ce0c 533e 9b70 c53e b429 223e 8de6 b03d
00000030: 0272 1539 939a 843e 83d9 413d 34a8 39bd
00000040: 4f16 023d 4b14 e43c b2e0 ffbd 7d12 4c3e
00000050: f4ea dbbd d7bd 0abe c852 3e3e cf39 aa3e
00000060: 6e05 b2be 487d 513e 236e cf3d 9ea8 d9bc
00000070: 0c7c f83d 0322 2cbe 5e54 a93e 6fdc cb3e
00000080: f13b ba3d 8f60 2fbd d6fc d9be c11f d4be
00000090: a23f 5e3d d918 a2bd b875 d33e 886e bfbe
000000a0: 82cb 47be 9a85 2cbe 7301 9f3e 2ba4 c9be
000000b0: fd85 233e 4ee2 8d3d 48b0 b8be 2b91 673d
000000c0: 4018 e03d bc65 61be bcbc 24be acef 513d
000000d0: 9a74 74bd 2ec1 103e e95d 533e f6df 1cbc
000000e0: 87fd 0b3e 8b9f 3ebd 5ea3 c9bd 4482 aebd
000000f0: 6452 473e df7a 4e3c 5415 75bd 2b29 66bd
0.35556254 0.14520729 0.35424945 0.13505341 0.16773649 -0.20507412 -0.25804004 -0.028097989
0.20610353 0.38562474 0.15836221 0.08637724 0.00014252219 0.2589918 0.047326576 -0.045326427
0.031759556 0.027841708 -0.12494029 0.19928928 -0.10738173 -0.1354898 0.18586266 0.3324723
-0.34769768 0.20457947 0.10128429 -0.02656966 0.12133035 -0.1680985 0.3307218 0.39816615
0.09093464 -0.042816695 -0.4257571 -0.41430476 0.054259904 -0.079148956 0.4130075 -0.37389016
-0.19511226 -0.1684784 0.31055793 -0.39383063 0.15969081 0.0692793 -0.36071992 0.056534927
0.10942125 -0.22011465 -0.16087621 0.05125396 -0.059681512 0.14136192 0.20641293 -0.009574881
0.13670932 -0.04653887 -0.09845613 -0.0852094 0.19465023 0.012602537 -0.059834793 -0.056191605
