output/CarlaNavigation-v0/sac/1/base.pt (torch, 11367 bytes, 2 tensors)

dynamic_emb.0.weight f4 [256, 9]
00000000: c61c 123e 419d 85be 099f 8b3d 828c ba3e
00000010: b48a e5be 0656 20ba 7b87 f73b 1c7f 503f
00000020: 5797 4abf 41e4 8abb 0750 173e e206 3e3f
00000030: 79c5 5abe 849c b3bd 870e b6bb 4855 c93a
00000040: 945d d23c 5dba b8bf 19db 02be ea90 853e
00000050: 40e9 713e 32f5 bcbe 59fe 923c 0f78 923b
00000060: b39f deba 6e36 03bf ab43 f7be 3589 573c
00000070: 2799 c83e 92f6 053d 56e4 a7be 5745 cc3a
00000080: 2bf8 093d 032c 70bb 74eb 5cbf 3a33 253f
00000090: 0510 a33b 007a 913c 64b9 093e 4b41 c2be
000000a0: 4188 70bd 9bb2 78bb c562 fcba 9951 f93e
000000b0: 0f88 35bf 7cc5 043c f28f 3c3c 8a9a de3e
000000c0: 4190 cfbd 083f e3be 5371 23bc d521 c03a
000000d0: 330a 7c3d c2af f73e c7d4 b7bf d3c8 9ebe
000000e0: 17a6 1ebe e68d c53a 6ff0 dbbd 9e2d 823d
000000f0: 2838 923d b596 9d3f fe92 9f3f 8a49 29bd
00000100: 118f 22bd 22f1 c3bd 67db bc3d fc7d c73c
00000110: d997 4c3b 3f2b e9bc b668 8b3f 867a eb3e
00000120: 9a05 af3c 09f1 983d 0a5f 8fbf 21ae 98bd
00000130: 3f90 77be e300 a03b fa15 743b 1f2d abbe
00000140: 9184 c23e 7a9d 9dbd 6398 7dbe 359c 5c3e
00000150: ad10 703d 51e5 b0be 8d52 52bc b359 7e3b
00000160: 144e c53e c7fa fbbd ad90 46be 9b9c babe
00000170: cdf0 ddbd 97f7 b5be 3e67 233e acc3 dc3b
00000180: 70e0 b5bb ebc9 e53f 6cfa d03f 3f8e 133e
00000190: 942c 8c3b f157 07be de77 b73e 21b9 833e
000001a0: 7627 d5bb 0125 02bc c902 533f 9053 933e
000001b0: 5ef5 a43c e345 64bd 66ad 7abe 01c7 873d
000001c0: d159 b13d 0012 f938 e487 e03b c6c9 e3bd
000001d0: 23fd 913e 3d5f 08bc 5447 a2bd 6e25 803f
000001e0: aa97 423e 8754 88be 0766 1d3b 0424 b03b
000001f0: 69c3 7cbe 49c9 b03e 0c33 b03a 3370 fbbd
00000200: e148 753f e33f 2bbe 5442 4abe a043 17bb
00000210: 5f4b 9bbb 9e1c 0e3f 9124 053e cf7d cf3d
00000220: 7620 843e 810b 193f 9226 3ebe ce0f ba3e
00000230: 587c a43c 7b52 433a c72e 8a3f d2f4 813e
00000240: e9bb 1b3d 5526 c03e 1798 5c3e 721c 5b3e
00000250: 55d2 b43e 92b2 0bbc 4593 45bc 6da2 7ebd
00000260: 1a88 353f eddf f9be 5acc 423e 294b 133f
00000270: 0e99 14bd 5e4d 313e dc2a c4bc 3bfe 6a3d
00000280: 8830 a43f 04aa 933f 04dc 74bc b970 e13d
00000290: 1a90 4d3e 949f 1f3e 88b9 df3e 19d3 0d3c
000002a0: 0a40 5fbc 0036 1dbf 1577 333f 6b99 0a3d
000002b0: 7f5d 25bd ff3a c63e 9d25 bcbd b0c6 40be
000002c0: f09d 193b a71f 453b ca8e 2b3e d378 5c3e
000002d0: 98b5 203d fdff e13d b821 2c3f 804a 9bbd
000002e0: 14de e1be 4b03 84bc 76da 5e3b 39c8 bbbe
000002f0: 6af6 93bf b7ef 763d ffbb 04bb 992c f03e
00000300: 5be5 81bd ee03 dfbe 9d46 8fbb d256 a0bb
00000310: 2929 943e 563c 8c3e b551 c13d 5e39 40be
00000320: fa41 1d3e 3839 12bf f712 cb3c 2980 df3b
00000330: 335f c7bc d400 46bf fd8a ed3e feba ca3d
00000340: 3ff6 2aba c7e7 edbd a958 26bd cca0 84be
00000350: 12b0 ec3b 13b9 143c 08d2 3fbf 1622 1d3f
00000360: 3fee 3cbd 605d e93c f816 443d 8292 25be
00000370: 0243 3fbe fa77 9ebb 9ed5 90bb c771 70bc
00000380: c0b0 9dbe 513c 16bc 915d 5dbe 01ba 873e
00000390: 64e3 cd3e 947b ab3e 3bb1 48b8 0fdb c53b
000003a0: c1b9 8a3e 9862 dc3e 40bc 7dbe 23da 2ebe
000003b0: 10e8 1dbf c846 273e 09b7 003d 6127 b93c
000003c0: 379b 2b3c a3e4 1cbe 5df5 2c3f 2074 fabe
000003d0: f8dc 953e 1b3e 8a3e 265e ad3e 2c26 833e
000003e0: 03dc 253d 8d85 d7bc 39a6 513f 1e07 843e
000003f0: 0451 8ebe 24fb 363e 0f8b 463e a9b3 9cbe
0.14268789 -0.26096538 0.06817443 0.36435324 -0.44832385 -0.0006116334 0.0075539923 0.81443954
-0.79137176 -0.004238636 0.14776622 0.7422925 -0.21364392 -0.08770087 -0.005555931 0.0015360499
0.025679387 -1.4431874 -0.12778892 0.26087123 0.23624134 -0.3690582 0.017943548 0.0044698785
-0.001698485 -0.5125493 -0.48293814 0.013155271 0.39179346 0.03270585 -0.32791394 0.001558463
0.033683937 -0.0036647327 -0.8629677 0.6453129 0.004976275 0.01775837 0.13449627 -0.3794044
-0.05872369 -0.0037948254 -0.001925551 0.48695067 -0.70910734 0.008103725 0.011508929 0.4347728
-0.10134936 -0.44384027 -0.009975749 0.001465852 0.061533164 0.4837628 -1.436181 -0.31012592
-0.15493046 0.0015072196 -0.107392184 0.06356357 0.07139617 1.2311617 1.2466733 -0.041329898
-0.03968722 -0.09567477 0.09221535 0.024352066 0.0031218438 -0.028463004 1.089133 0.45991915
0.021364976 0.07467849 -1.1200879 -0.074550875 -0.2417612 0.004882918 0.0037244544 -0.33432862
0.37991765 -0.07696052 -0.24765162 0.21543963 0.058609653 -0.34549955 -0.012837064 0.003881079
0.3853613 -0.12303691 -0.19391127 -0.36447605 -0.10836945 -0.3554046 0.15957353 0.006737193
-0.0055504367 1.7952245 1.6326423 0.14409731 0.004277775 -0.1321714 0.3583364 0.2572718
-0.0065049483 -0.007943393 0.82426125 0.2877469 0.020136531 -0.05573071 -0.24480209 0.06629754
0.08659709 0.00011876598 0.006852137 -0.111224696 0.2851344 -0.008323488 -0.07923761 1.0011423
0.19003168 -0.2662699 0.0024017112 0.005375387 -0.24683918 0.34528568 0.0013442948 -0.1227726
0.9581433 -0.1672359 -0.19751865 -0.002308108 -0.0047392095 0.55512416 0.1300223 0.10131418
0.25806016 0.5978318 -0.18569401 0.36340183 0.020078823 0.000745095 1.0795525 0.25382096
0.038021002 0.37529245 0.21542393 0.2139757 0.3531672 -0.008526461 -0.012059038 -0.06216662
0.709108 -0.48803654 0.19023266 0.5753656 -0.036278777 0.1731467 -0.023946218 0.05737136
1.282731 1.153626 -0.014945034 0.11007828 0.20074502 0.15588218 0.43696237 0.008656287
-0.013626108 -0.6141052 0.7010358 0.033837717 -0.040372368 0.38716885 -0.09186862 -0.18825793
0.0023440085 0.003007868 0.16753688 0.21530466 0.03923568 0.11035154 0.6723895 -0.07582569
-0.44114745 -0.016114851 0.0034004725 -0.36676195 -1.1559575 0.060287204 -0.0020253656 0.46909025
-0.06342574 -0.43557686 -0.0043724314 -0.0048931623 0.28937653 0.27389783 0.094394125 -0.18771884
0.153572 -0.5711856 0.024789317 0.006820698 -0.024337387 -0.77345014 0.46395102 0.09898947
-0.0006521679 -0.11616474 -0.040611897 -0.25903928 0.0072231377 0.009077328 -0.7492986 0.61380136
-0.046125647 0.028486907 0.047873467 -0.1616917 -0.18677905 -0.0048360797 -0.0044199964 -0.014675564
-0.30798912 -0.009169654 -0.21617724 0.26509097 0.40212548 0.3349272 -4.7848775e-05 0.0060380767
0.27094844 0.4304397 -0.24778843 -0.170754 -0.61682224 0.16335595 0.031424556 0.022601785
0.010474018 -0.15321593 0.67561895 -0.4891672 0.29270148 0.27000508 0.33860892 0.2561506
0.040493023 -0.0263088 0.8189426 0.2578668 -0.27796185 0.1786924 0.19388984 -0.3060582

dynamic_emb.0.bias f4 [256]
00000000: 4f53 a0be 9e16 30be 9fce 82be 3392 99be
00000010: 1060 06bf 6c1f b0be 2bac 39bc c83e ddbe
00000020: 41ab 0fbf 9601 fcbd 5632 7ebe f9d7 cabe
00000030: 9843 0bbf 703e 65be 4a52 48be c1c0 3abe
00000040: a916 27be 1ce9 823d e63f 86be 7aee 94be
00000050: 4b95 08bf aec1 81be ac48 00bf 2515 bfbe
00000060: f6d1 a6be 462f 4ebd ee4c 83be 41c7 febc
00000070: 4b83 29be 52dd a43c af35 28be 45ae 5dbb
00000080: 09c4 133d 4005 1cbe 588d a7bd ae93 34bf
00000090: 482c 71bf 216d dcbd b983 7bbe a162 8abe
000000a0: 0e65 73be f36b c3bd 3195 12bf 3194 fdbe
000000b0: 8a90 57bd abfc ebbe 6c37 1abf 18de 01be
000000c0: 5195 38bd eb25 b5be 6159 a0bd cf47 42bf
000000d0: a307 b9bd 9af2 dfbc 1925 aabe fe94 febd
000000e0: 164e fcbd bf18 7b3c e251 05be 6ce2 ebbe
000000f0: 8539 b5be 3714 05be 407c 70bc 0767 13be
00000100: 139d b0be b1fe d2be bea5 b7be 2193 2abe
00000110: 87bc debe 9b0f fabd 8ced 6fbe d92e a3be
00000120: 18a3 e9bd 9b8a 9fbc 8bb3 06bf 8275 15be
00000130: 01be 56bd 0bce ebbd 0510 a5be 7f08 80be
00000140: d6a9 52bf 69fd 89be a594 96be 89ad 2cbe
00000150: 38de a6be 5e7f 8cbe b443 f6bd c29c 0bbf
00000160: dc5b 11be 6998 80bd ae40 e7bd cdba 24bf
00000170: 0700 16be 9c67 4abe a0db 84be 9b79 02be
00000180: 2d06 7dbe 8c31 75be e04d 79bd a04c 0fbf
00000190: 17c7 0fbf f984 5ebe 7b71 6dbe a73e 90be
000001a0: 342c 34be 9e99 8bbe aa29 59be 2d1a 08be
000001b0: fcd6 99be e3c6 2ebe 4d8b 49be 63ff a5be
000001c0: 0895 6abe f6ab 383c a4a5 2abf d0c8 5fbf
000001d0: a79e 75be d8a6 10bc a48f 64be bf9a 44bd
000001e0: 0e84 61be cf58 aebe a655 2bbe 1737 9abe
000001f0: 0e07 8bbd 9db6 3cbe 5c96 1fbf 191e 0abf
00000200: 5df1 19be 44dd c6bd 7bbc 40be b31c a2be
00000210: 1a1d 41bd 964f b9be df17 1bbf 3c57 97bd
00000220: 6b93 54be df50 ecbd 8dfa 81be 6841 59be
00000230: 888a 76be 66d5 4dbe 170d abbe 8316 10be
00000240: 4e5f 0d3d 4937 3ebe bdeb 48be 59a1 54be
00000250: 6991 66be b3b8 2abf 8f0e 1ebe 700e eebe
00000260: 8b5a 82be c063 a2be a904 85be 36be 74bc
00000270: c956 dfbc 34cd 23bf aea8 a2be 034e e2bd
00000280: 60af b9be 01fb dfbe cd0c 32be 55bc bbbe
00000290: 20a7 58be d0e1 1bbe b636 28bf 9c60 d4be
000002a0: 4db0 3bbe c610 82bd 883f 963d 5339 0abf
000002b0: 2ca6 1ebf 60a5 c8bd fac1 88bd 7e47 8dbe
000002c0: 2ea3 04be 042e dabe cb12 1ebe 1b5c a6be
000002d0: f675 44be 510e b2be 338f 8dbe 86fb 303d
000002e0: 452d d1be f308 10bf 0bc3 fe3b 98f7 febe
000002f0: 87eb 0dbe 4c05 d4be d88c 92be 3537 55be
00000300: 4ad9 8bbd 7465 82be 853d d4bd ff85 85be
00000310: 13e0 a9be 8199 aabe 9c9b e5be 9b8c 58be
00000320: 6ed5 9cbe 4c81 25bf f622 45be df6c b6be
00000330: b0d0 983d ae4d b0be 96e2 0fbc 3be7 87bc
00000340: ad3b a83d 1ae4 17bf e920 55be 0a08 93be
00000350: 1ed3 11bf 0471 5bbe 974f 8ebd 1cf7 a2be
00000360: 1f67 8cbd 5805 28be 319f 40be 787b 3cbf
00000370: 436d 9cbc 4fc0 86be 5faa b1be 01c5 bfbe
00000380: 4aeb 61be d880 98be 6c3b 8bbe 433b 3abf
00000390: 9fc7 7abe 57a6 85be 3aaf 29bb be2b c4be
000003a0: 2cbb 89bd bbf2 23be 11d0 26be 5a50 3fbe
000003b0: be3c 5abe 715f babe 21fc ccbe 7fa9 fabe
000003c0: 8fee e2be dd1f 4dbe f8e0 64be c810 90be
000003d0: fcbf 88be 3705 e6be 3845 04bf 657d e2be
000003e0: b1c7 b6be 2185 92be ee40 19bf 5632 5e3d
000003f0: 3067 34be 4fbb 3bbe 2b7f 5cbd cc63 60be
-0.3131356 -0.17196128 -0.25548264 -0.29994354 -0.5249033 -0.34398973 -0.011332552 -0.4321196
-0.5612069 -0.1230499 -0.24823889 -0.396179 -0.54400015 -0.223871 -0.19562641 -0.18237592
-0.16317238 0.06392118 -0.26220626 -0.29088193 -0.53352803 -0.25343078 -0.5011089 -0.3732082
-0.32582062 -0.050338052 -0.2564463 -0.031100871 -0.1655399 0.020125065 -0.16426729 -0.0033825797
0.036075626 -0.15236378 -0.08181256 -0.7053784 -0.9420819 -0.10763002 -0.24561967 -0.27028373
-0.23769018 -0.09542074 -0.572589 -0.49527124 -0.052628078 -0.46091208 -0.6024082 -0.12682378
-0.045064274 -0.35380492 -0.07829548 -0.7589082 -0.0903466 -0.027337361 -0.33231428 -0.12430762
-0.12319581 0.015325724 -0.13019517 -0.46071184 -0.35395446 -0.12995993 -0.014678061 -0.1439477
-0.34494838 -0.4120994 -0.3586864 -0.16657688 -0.4350321 -0.12210008 -0.2343046 -0.3187168
-0.11408061 -0.019475272 -0.5261771 -0.14595607 -0.052427296 -0.11513909 -0.32238784 -0.25006482
-0.822904 -0.2695115 -0.29410282 -0.16863073 -0.32591414 -0.27440923 -0.12024632 -0.5453607
-0.14195198 -0.0627907 -0.112916335 -0.64347535 -0.14648448 -0.19766086 -0.2594881 -0.12741701
-0.24709387 -0.23944682 -0.060865283 -0.55976295 -0.5616316 -0.21730413 -0.2318782 -0.281728
-0.17594987 -0.27265638 -0.212073 -0.13291235 -0.30046833 -0.17068057 -0.19682045 -0.32421407
-0.22908413 0.011271467 -0.66659 -0.8741579 -0.23986302 -0.008828841 -0.2232042 -0.04799914
-0.22023031 -0.3405213 -0.16731891 -0.30120155 -0.06788455 -0.18429036 -0.62338805 -0.53952175
-0.15033479 -0.09710172 -0.188219 -0.3166252 -0.047146894 -0.36193532 -0.605833 -0.073896855
-0.2075936 -0.115388624 -0.25386468 -0.21216357 -0.24076283 -0.20100936 -0.33408424 -0.14071088
0.034514718 -0.18575777 -0.19621177 -0.20764674 -0.22516407 -0.6668808 -0.15435241 -0.4649539
-0.25459704 -0.31716728 -0.25980118 -0.014937928 -0.027263062 -0.6398499 -0.31769317 -0.11050036
-0.36266613 -0.43746188 -0.17387696 -0.36667123 -0.21157503 -0.1522286 -0.6570848 -0.41479957
-0.18328972 -0.063508555 0.073363364 -0.5399372 -0.6197231 -0.09797168 -0.06677623 -0.27593607
-0.12952873 -0.42613232 -0.15436856 -0.32492146 -0.19185624 -0.34776548 -0.27648315 0.04320862
-0.4085485 -0.56263655 0.007774716 -0.49798274 -0.13859378 -0.4141029 -0.2862308 -0.20821841
-0.06828554 -0.25468028 -0.103632964 -0.26078793 -0.33178768 -0.3332024 -0.44845283 -0.21147387
-0.30631584 -0.64650416 -0.19251618 -0.35629937 0.07461679 -0.34434265 -0.00878205 -0.016589751
0.08214507 -0.5933243 -0.20813335 -0.2871707 -0.56962764 -0.21429831 -0.06948774 -0.31829154
-0.06855606 -0.16408288 -0.18810727 -0.736259 -0.019095069 -0.26318595 -0.34700295 -0.3745499
-0.22062412 -0.297858 -0.27193773 -0.72746676 -0.24490212 -0.2610347 -0.0025891797 -0.38314623
-0.06725153 -0.16010563 -0.16290309 -0.18682995 -0.21312234 -0.3640094 -0.4003611 -0.4895744
-0.4432263 -0.20031686 -0.22351444 -0.28137803 -0.26708972 -0.44925854 -0.5166812 -0.44236293
-0.35699227 -0.28617194 -0.598647 0.054247223 -0.17617488 -0.18333171 -0.053832214 -0.2191307
