output/CarlaNavigation-v0/wcsac/3/actor.pt (torch, 535763 bytes, 7 tensors)

action_log_std f4 [1, 2]
-1.1408426 -2.5064676
00000000: 2107 92bf f769 20c0

linear1.weight f4 [256, 261]
-0.047904767 0.19970863 0.028375132 -0.71577305 -0.62155867 0.3339708 0.09398008 0.4176196
-0.029349376 -0.13997313 -0.059293944 0.23448335 0.15549979 0.02993655 0.24956508 0.12230272
-0.46721697 0.047254335 -0.2107981 -0.086494915 0.006949977 -0.033043213 -0.07271716 0.021857845
0.03467215 -0.13772133 -0.1434261 -0.070522666 -0.42507017 0.13222146 -0.10320257 -0.36825222
-0.09272315 0.11035863 -0.10472772 -0.035480328 -0.104507156 -0.2510412 -0.027756391 -0.124406435
-0.084710345 -0.32837415 -0.19112177 -0.2533072 0.1621153 0.09915513 -0.052189603 -0.143068
-0.013153249 -0.1194098 0.13177744 -0.297727 0.06614982 0.20882022 0.09411979 0.22271805
0.08601084 -0.08036353 -0.09973952 -0.24809639 0.18335372 0.07585803 -0.1512211 -0.052802186
-0.040527843 0.04956313 0.058483776 -0.11446206 -0.053493198 -0.3134134 0.057460036 0.030053807
-0.2833905 -0.029358603 -0.30055717 -0.042254403 -0.19024992 -0.13011006 0.08020522 -0.12614916
-0.17862709 0.08929889 -0.14119266 0.15808553 0.028101062 0.27188286 -0.34728324 0.3400482
-0.0809593 0.23613663 0.011127816 -0.06855957 -0.13409144 0.21087714 0.055200826 -0.16533418
0.13937868 -0.04987629 0.09670892 0.08786932 -0.084909245 0.05145388 0.16776079 0.15341161
-0.15518251 0.014094873 0.055916566 0.13806677 0.036888126 0.102054425 -0.5063113 0.24536163
-0.22599202 0.074280396 0.14037882 -0.21359599 0.010149158 -0.14099282 -0.0464593 -0.0983221
-0.16030763 0.16712935 0.1422226 -0.24024662 -0.23216209 -0.06151458 -0.09655536 0.03526373
-0.1495525 0.20641175 -0.067645535 -0.10765344 -0.16014484 -0.23178893 0.13970904 -0.2996158
0.1552865 -0.34427574 0.31337273 0.048747122 -0.15926622 0.25685808 -0.05324079 -0.015326232
0.015198801 0.037972078 0.03049843 -0.008313434 -0.1815382 0.07847915 -0.24145192 -0.026202194
-0.3684767 -0.0318905 0.03903045 0.11397253 0.11573141 0.16785337 -0.062742494 -0.16578853
-0.024872886 0.39664096 -0.017291285 -0.5271637 -0.049716804 -0.09083872 0.09970564 -0.07553852
0.0117731765 -0.22569777 0.17172508 -0.1162425 0.25376245 -0.4283743 0.08338233 0.11761544
0.054039832 -0.036129132 -0.13411784 0.02278779 -0.3521784 -0.3616084 -0.17739572 -0.19806303
-0.028154623 -0.10740967 0.27102816 -0.1277345 -0.14107122 -0.38188982 0.27834478 0.08255791
-0.27202117 -0.037005875 0.15119965 -0.29485142 -0.5520879 -0.065795936 -0.12833472 -0.2668365
-0.031791024 -0.0624466 0.0041974843 -0.13170868 -0.061821777 -0.21234085 -0.026826907 0.116414666
0.017421484 0.15199761 0.018932099 -0.025382763 0.12594788 0.04836342 0.050039034 0.048750423
-0.03850226 0.11969724 0.058304787 -0.44281784 -0.2122857 0.03481546 -0.35980108 -0.12893528
-0.020456132 0.3444256 -0.6788171 -0.20027015 0.13455337 -0.10046193 -0.19322364 0.045005675
-0.24979466 -0.096954554 0.06476981 -0.039979823 0.06971336 -0.18008137 0.11924886 -0.21555653
0.22200717 -0.20124656 0.26671425 -0.29477835 0.07083069 0.27556482 -0.016580783 -0.25561127
-0.0050647077 -0.022213921 0.19324343 -0.079362996 -0.13432705 0.11386889 0.15083562 -0.045228794
00000000: ca37 44bd 6b80 4c3e f772 e83c e73c 37bf
00000010: 781e 1fbf 38fe aa3e a178 c03d 3cd2 d53e
00000020: 1a6e f0bc 1e55 0fbe 35de 72bd 671c 703e
00000030: 563b 1f3e 7f3d f53c fd8d 7f3e d979 fa3d
00000040: 1037 efbe c38d 413d 75db 57be 3f24 b1bd
00000050: a2bc e33b 5258 07bd bcec 94bd 390f b33c
00000060: 6204 0e3d d206 0dbe 4bde 12be 306e 90bd
00000070: cca2 d9be 1065 073e de5b d3bd 8e8b bcbe
00000080: a3e5 bdbd b503 e23d 7d7b d6bd d253 11bd
00000090: d907 d6bd 7988 80be 5f61 e3bc cdc8 febd
000000a0: 9e7c adbd a820 a8be 6db5 43be 7bb1 81be
000000b0: 8e01 263e d811 cb3d c4c4 55bd 6b80 12be
000000c0: ba80 57bc 208d f4bd aaf0 063e ac6f 98be
000000d0: 8f79 873d f8d4 553e e0c1 c03d 3310 643e
000000e0: 7426 b03d a295 a4bd 3c44 ccbd fb0c 7ebe
000000f0: 14c1 3b3e 745b 9b3d b4d9 1abe 1b47 58bd
00000100: 8600 26bd b502 4b3d af8c 6f3d 166b eabd
00000110: af1b 5bbd b977 a0be 375b 6b3d 6733 f63c
00000120: 8f18 91be 7481 f0bc a1e2 99be f412 2dbd
00000130: e0d0 42be 923b 05be a242 a43d 3f2d 01be
00000140: 05ea 36be 56e2 b63d cf94 10be 2ce1 213e
00000150: 3334 e63c 3b34 8b3e 1ccf b1be cc1a ae3e
00000160: fdcd a5bd cdcd 713e 7151 363c f668 8cbd
00000170: 444f 09be 2df0 573e 431a 623d 5d4d 29be
00000180: 49b9 0e3e 154b 4cbd 540f c63d d4f4 b33d
00000190: e6e4 adbd 4ec1 523d 7cc9 2b3e ef17 1d3e
000001a0: 2ae8 1ebe 2fee 663c c508 653d 6061 0d3e
000001b0: 0118 173d e901 d13d 9e9d 01bf 1440 7b3e
000001c0: 746a 67be 5220 983d 77bf 0f3e e8b8 5abe
000001d0: a748 263c 6c60 10be 1b4c 3ebd 195d c9bd
000001e0: af27 24be f523 2b3e cda2 113e 3603 76be
000001f0: e6bb 6dbe b6f6 7bbd d1be c5bd b370 103d
00000200: 4a24 19be 9a5d 533e be89 8abd 6879 dcbd
00000210: 02fd 23be 145a 6dbe e30f 0f3e 3e67 99be
00000220: 6d03 1f3e e944 b0be 6472 a03e 10ab 473d
00000230: af16 23be e782 833e 0413 5abd e01a 7bbc
00000240: 6404 793c 9c88 1b3d d8d7 f93c 1235 08bc
00000250: 26e5 39be adb9 a03d 2c3f 77be fca5 d6bc
00000260: faa8 bcbe 9d9f 02bd 65de 1f3d 6e6a e93d
00000270: 9704 ed3d c1e1 2b3e 237f 80bd 78c4 29be
00000280: 39c2 cbbc 8614 cb3e 74a6 8dbc 33f4 06bf
00000290: d9a3 4bbd a709 babd 7832 cc3d f1b3 9abd
000002a0: 48e4 403c 511d 67be b3d8 2f3e 8c10 eebd
000002b0: 27ed 813e e053 dbbe 5bc4 aa3d 5de0 f03d
000002c0: df58 5d3d 24fc 13bd 3056 09be 76ad ba3c
000002d0: ba50 b4be bc24 b9be 39a7 35be 09d1 4abe
000002e0: 86a4 e6bc 9af9 dbbd 34c4 8a3e d5cc 02be
000002f0: f974 10be 1087 c3be 3583 8e3e 1f14 a93d
00000300: 5c46 8bbe 7993 17bd 15d4 1a3e c4f6 96be
00000310: a255 0dbf 05c0 86bd 2d6a 03be cb9e 88be
00000320: 4e37 02bd 02c8 7fbd 0d8b 893b a4de 06be
00000330: d538 7dbd e16f 59be 1ac4 dbbc d06a ee3d
00000340: 80b7 8e3c 43a5 1b3e 7d17 9b3c 83ef cfbc
00000350: 7bf8 003e b918 463d bbf5 4c3d 86ae 473d
00000360: 8cb4 1dbd d423 f53d 00d1 6e3d 05b9 e2be
00000370: 6c61 59be a89a 0e3d d937 b8be 9c07 04be
00000380: 9e93 a7bc 8d58 b03e f5c6 2dbf 9e13 4dbe
00000390: 5cc8 093e fcbe cdbd 6bdc 45be df57 383d
000003a0: 2cca 7fbe 1c90 c6bd 09a6 843d e2c1 23bd
000003b0: e1c5 8e3d 4067 38be bf38 f43d daba 5cbe
000003c0: d955 633e 9413 4ebe c58e 883e 30ed 96be
000003d0: ae0f 913d d516 8d3e 6cd4 87bc 7bdf 82be
000003e0: d9f5 a5bb f8f9 b5bc 9be1 453e 1189 a2bd
000003f0: 088d 09be 1834 e93d a774 1a3e d441 39bd

linear1.bias f4 [256]
-0.14186503 0.015932202 -0.26807365 -0.045554813 0.2602299 -0.013288261 0.36287752 0.12287625
-0.08850957 -0.017608713 0.079010405 0.081431374 0.029626256 0.21526884 0.10089554 -0.010167591
0.06406461 -0.0320965 -0.20763448 0.28164214 0.14370193 -0.17104608 0.26109058 -0.19913249
-0.11163429 0.14665647 -0.2325519 -0.30884197 -0.15389423 0.031715173 0.27421692 -0.13809071
0.002328312 0.04545699 -0.17336586 0.06765119 -0.01816176 -0.013696204 -0.154802 -0.0719306
0.30118248 -0.05097693 0.009712438 -0.06574013 0.13946918 -0.11644717 -0.17444697 0.183507
-0.01338092 -0.054064017 0.02301516 0.09778202 0.13290869 0.12329121 -0.015206676 0.048745647
0.018137291 -0.09099713 -0.014369418 -0.06167771 -0.065996505 -0.21755816 0.057338435 -0.137668
0.19422045 0.055790428 0.08191917 0.20678146 0.076994546 -0.024931002 0.014654738 -0.23295389
-0.26035735 -0.15299375 -0.085676245 -0.10237025 0.38393173 -0.045255277 0.18916795 0.08764128
0.07105045 0.22416487 0.04148293 -0.23874222 -0.084070146 0.093449526 -0.11713934 -0.006813156
-0.048688944 -0.14355704 0.039150458 -0.200826 -0.13555779 -0.11108271 -0.037552986 0.09103625
0.056285277 0.09925055 -0.0375841 0.17623317 -0.08287402 -0.0023154987 0.15321513 0.19675344
-0.10714306 -0.10877972 -0.17664665 0.23090608 0.26311627 -0.1164494 0.23796731 -0.0016687872
0.07910908 0.07658065 -0.08919602 -0.11481195 0.11992056 0.042390052 0.096801914 -0.03270169
-0.0487343 0.09773896 -0.0297358 0.025654601 -0.03156564 -0.2714779 -0.24582717 -0.11966097
0.18236563 -0.02850264 0.24669322 0.1264867 -0.14394459 -0.12345139 -0.033063926 -0.105667755
0.0892666 0.041296918 0.12953424 -0.2080885 0.21197903 0.01996277 0.022138841 0.117934644
-0.13106035 -0.0607961 -0.033493917 0.064101756 -0.35549563 0.30945036 -0.019989667 0.1299298
-0.06641755 -0.27037373 -0.00034302962 0.099043295 -0.081870906 -0.0011136751 0.15174161 -0.0841678
0.04201159 -0.007958363 0.25660673 -0.10454373 0.11247509 -0.006385265 -0.09982187 0.11633317
-0.07674326 0.019624418 0.063604206 -0.049007975 -0.21017618 -0.13212298 0.1217904 -0.06796364
-0.13030964 0.14285661 0.20391499 0.07004301 -0.15166998 0.030000485 0.0785996 -0.03106835
0.2570701 -0.13525468 -0.159431 -0.051624645 0.06837595 0.13064882 0.040299233 -0.07901592
-0.14579646 0.07067694 0.06548488 0.08876355 0.029486744 0.3311996 -0.008672989 -0.058676906
0.01581017 0.18870586 0.0032170455 0.011084117 0.22825293 -0.005754342 0.058124103 -0.20312245
0.10531104 0.14248045 0.09373349 -0.3621658 0.14982074 -0.09064686 -0.15500799 0.017034875
0.14001927 -0.14443083 0.18039408 0.048702527 -0.042498726 0.092126146 -0.20790456 0.043926466
-0.072464496 -0.10092204 0.2894853 -0.04843853 0.032348942 -0.05552478 -0.20238549 0.013097674
0.1746731 -0.06416749 0.4699482 -0.122620106 -0.1424903 -0.20055096 0.17248017 -0.14360511
-0.005223711 -0.14531502 -0.26901078 -0.08446337 0.050648876 -0.23939034 0.25000465 -0.01873634
-0.37841922 -0.090766914 0.019651165 -0.039727725 -0.025096232 -0.0033831059 0.28705585 -0.048468046
00000000: 1145 11be 4084 823c f340 89be af97 3abd
00000010: da3c 853e 02b7 59bc 15cb b93e 8ba6 fb3d
00000020: 8144 b5bd 2640 90bc 35d0 a13d 7ec5 a63d
00000030: c3b2 f23c 6f6f 5c3e 52a2 ce3d f895 26bc
00000040: 4e34 833d 9f77 03bd 229e 54be 6633 903e
00000050: 9926 133e b426 2fbe aaad 853e 63e9 4bbe
00000060: 85a0 e4bd 1d2d 163e 1622 6ebe 8920 9ebe
00000070: 7396 1dbe c5e7 013d 2966 8c3e a767 0dbe
00000080: 9896 183b 1c31 3a3d d286 31be b58c 8a3d
00000090: f9c7 94bc 0b66 60bc 6a84 1ebe 5a50 93bd
000000a0: 9734 9a3e 2fcd 50bd eb20 1f3c c3a2 86bd
000000b0: 02d1 0e3e db7b eebd 3aa2 32be 42e9 3b3e
000000c0: a53b 5bbc 3b72 5dbd 4a8a bc3c f141 c83d
000000d0: 3719 083e 1a80 fc3d 6c25 79bc 84a9 473d
000000e0: a894 943c b45c babd b56d 6bbc c4a1 7cbd
000000f0: 2d29 87bd 91c7 5ebe b5db 6a3d d7f8 0cbe
00000100: bae1 463e 8184 643d 3dc5 a73d 85be 533e
00000110: 51af 9d3d 1a3c ccbc 6d1a 703c 778b 6ebe
00000120: 8f4d 85be 65aa 1cbe 0777 afbd 7ea7 d1bd
00000130: b392 c43e 995d 39bd 3eb5 413e 457d b33d
00000140: e682 913d 7a8b 653e 01ea 293d d778 74be
00000150: f82c acbd 7762 bf3d c0e6 efbd e540 dfbb
00000160: 0f6e 47bd 9e00 13be 3b5c 203d 55a5 4dbe
00000170: a9cf 0abe 557f e3bd 29d1 19bd 3771 ba3d
00000180: 648b 663d df43 cb3d c9f1 19bd 7876 343e
00000190: dbb9 a9bd 9fbf 17bb 6de4 1c3e bc79 493e
000001a0: d26d dbbd e7c7 debd dce2 34be a572 6c3e
000001b0: 2db7 863e 067d eebd b4ad 733e 35bb daba
000001c0: f103 a23d 51d6 9c3d 67ac b6bd 8722 ebbd
000001d0: e998 f53d 31a1 2d3d 1540 c63d 35f2 05bd
000001e0: 9e9d 47bd 5d2b c83d 7e98 f3bc 9929 d23c
000001f0: f94a 01bd 27ff 8abe 1eba 7bbe d010 f5bd
00000200: 0ebe 3a3e 5e7e e9bc 269d 7c3e bb85 013e
00000210: 3666 13be 15d4 fcbd 0a6e 07bd 5668 d8bd
00000220: 68d1 b63d f526 293d a0a4 043e 2715 55be
00000230: 0811 593e f788 a33c 845c b53c b887 f13d
00000240: af34 06be 5505 79bd eb30 09bd c847 833d
00000250: 8603 b6be 4770 9e3e 5fc1 a3bc 510c 053e
00000260: ed05 88bd 6d6e 8abe a8d8 b3b9 36d7 ca3d
00000270: efab a7bd bcf8 91ba 2762 1b3e 2b60 acbd
00000280: 5814 2c3d cb63 02bc f561 833e 061b d6bd
00000290: 5759 e63d 7c3b d1bb 696f ccbd 1640 ee3d
000002a0: 922b 9dbd 63c3 a03c ec42 823d 96bc 48bd
000002b0: 6d38 57be 3f4b 07be 3f6d f93d 8530 8bbd
000002c0: e46f 05be 0149 123e 17cf 503e b672 8f3d
000002d0: 604f 1bbe 94c3 f53c d4f8 a03d 0d83 febc
000002e0: b19e 833e 3480 0abe e141 23be 5d74 53bd
000002f0: b108 8c3d cec8 053e cf10 253d 19d3 a1bd
00000300: ab4b 15be 12bf 903d f01c 863d aac9 b53d
00000310: 2f8e f13c fe92 a93e 2719 0ebc 3257 70bd
00000320: 5484 813c 1c3c 413e 11d5 523b 289a 353c
00000330: 23bb 693e eb8e bcbb 8a13 6e3d 55ff 4fbe
00000340: 51ad d73d 65e6 113e 58f7 bf3d cc6d b9be
00000350: 9c6a 193e 10a5 b9bd 6aba 1ebe b98c 8b3c
00000360: 3661 0f3e ade5 13be 3ab9 383e 4d7c 473d
00000370: 2513 2ebd a2ac bc3d efe4 54be 3dec 333d
00000380: 4468 94bd 37b0 cebd 6b37 943e 7b67 46bd
00000390: 5380 043d f46d 63bd 243e 4fbe a097 563c
000003a0: 81dd 323e 3f6a 83bd 0d9d f03e 4020 fbbd
000003b0: fae8 11be 3b5d 4dbe a49e 303e 380d 13be
000003c0: aa2b abbb 76cd 14be c8bb 89be 22fb acbd
000003d0: 3275 4f3d be22 75be 9c00 803e f47c 99bc
000003e0: 2ac0 c1be 01e4 b9bd 7bfb a03c 8ab9 22bd
000003f0: 9d96 cdbc 19b7 5dbb fcf8 923e 6e86 46bd

linear2.weight f4 [256, 256]
-0.054102693 0.13764636 0.109678134 0.07244343 -0.14757597 -0.030809615 0.10065328 -0.0692924
0.11138904 -0.12455527 -0.15153256 -0.2532013 -0.09703652 0.003435192 -0.14496158 -0.22556493
0.14594536 0.023530394 0.049346883 -0.3531514 -0.18741427 0.20357873 0.055171255 -0.16913523
-0.13553683 0.07989155 -0.1460025 -0.052516315 0.12526065 -0.098473355 0.14252032 0.75057036
-0.15854153 0.15823053 -0.05819931 0.1444095 0.29797 0.23309247 0.180901 -0.18953957
0.11239618 0.039054535 -0.26072425 0.025303312 -0.32319295 0.1791694 0.32797855 -0.091546446
-0.11035803 0.1758761 0.015156107 0.08446204 0.09412017 -0.32308507 0.17400564 0.050555836
0.07889126 -0.030382408 0.16850114 0.22331066 -0.42395177 -0.063961945 -0.0709797 -0.06161637
-0.03635198 0.038008507 -0.10471912 -0.32438207 -0.0997037 -0.15413503 -0.077350214 0.067240804
-0.061701 -0.048924778 0.3401719 -0.048081443 -0.39205337 -0.049869183 0.09199302 0.043117777
0.07580268 0.013798216 -0.10094649 -0.0030635041 0.04494568 -0.03453643 0.11563386 0.262922
-0.098234095 0.0418531 -0.29938236 0.2076225 -0.07101139 -0.29709068 -0.030904712 0.04718786
-0.17677489 0.12992038 -0.19143328 -0.2838183 -0.042471528 0.22256808 -0.070939116 -0.10758987
-0.28264096 -0.08930994 0.025952283 -0.009293302 -0.10739759 0.03895713 -0.16536917 -0.04580887
-0.039929595 0.09435329 0.17831695 0.16473155 -0.11818646 -0.1537474 -0.20160788 -0.06704467
0.031683 0.012856339 -0.046651643 0.17424512 0.061803553 -0.14687322 0.055555906 0.16201963
0.024770746 0.18619509 -0.1652175 -0.087748 0.02247856 0.111677945 -0.05549944 -0.12471967
-0.006530796 -0.13578214 0.21787111 0.044646863 0.21926588 -0.24475464 0.005776106 0.15880394
-0.09001369 0.19313072 -0.023056824 -0.0061089653 -0.2306936 0.09836243 -0.006342928 -0.016463911
-0.050856337 0.2677713 0.07119362 0.027458783 0.2735368 -0.13618353 0.017813241 0.13667701
0.08626409 -0.08403751 -0.17108947 0.18304937 -0.07108919 -0.02529587 0.13041823 -0.030966781
-0.06762044 -0.013625027 -0.07227779 0.15067942 0.15811718 -0.21345176 0.31696033 0.21231078
0.0622923 -0.10728914 -0.0007393144 0.105633594 0.15323786 0.08123636 0.18198195 0.29828325
-0.04781081 0.05107003 0.15915178 -0.038322374 0.19358583 -0.035301585 -0.17014478 0.0433491
-0.1009363 0.2414801 0.06051836 0.03342872 0.09663426 -0.11464019 0.08445695 -0.0024115006
-0.03102208 0.15046614 -0.17513339 0.06840019 -0.08111272 -0.1515456 0.11151266 0.14241454
0.106447645 -0.07748811 0.17998722 -0.02862781 -0.16689612 -0.040687364 0.073363505 -0.121188655
0.15316477 -0.17904878 -0.22622463 0.020203624 0.024276841 0.014612605 0.16137597 -0.069130234
0.09712385 0.077088654 -0.11454197 -0.14904058 0.09446191 -0.22092187 0.21294841 -0.049678106
-0.0077803545 -0.19736235 -0.13041724 -0.060368896 0.08693127 -0.11497194 0.23666261 -0.097725
-0.04009024 0.11359121 -0.10987689 0.02547093 0.03169402 0.015473236 -0.02200026 0.22793584
-0.07024355 0.15557863 -0.006759661 0.2454299 -0.000151174 -0.16527125 -0.011380786 -0.078605674
00000000: c99a 5dbd 2bf3 0c3e ee9e e03d 395d 943d
00000010: 281e 17be 7264 fcbc 4f23 ce3d 2ce9 8dbd
00000020: f01f e43d d516 ffbd 5a2b 1bbe 9aa3 81be
00000030: 15bb c6bd f520 613b cf70 14be 7efa 66be
00000040: b372 153e d0c2 c03c f51f 4a3d 43d0 b4be
00000050: 87e9 3fbe f176 503e 41fb 613d c931 2dbe
00000060: 2bca 0abe 2e9e a33d ae81 15be 591b 57bd
00000070: 5444 003e 66ac c9bd d9f0 113e 6125 403f
00000080: b658 22be 2f07 223e 6662 6ebd 15e0 133e
00000090: 868f 983e cbaf 6e3e 1d3e 393e a916 42be
000000a0: f82f e63d a6f7 1f3d a67d 85be e448 cf3c
000000b0: 8c79 a5be 2f78 373e ceec a73e b47c bbbd
000000c0: 6403 e2bd dd18 343e 5251 783c 6ffa ac3d
000000d0: 13c2 c03d 686b a5be 892e 323e a313 4f3d
000000e0: be91 a13d 87e4 f8bc 908b 2c3e 8dab 643e
000000f0: 3510 d9be 7bfe 82bd ce5d 91bd 7261 7cbd
00000100: d0e5 14bd cfae 1b3d fa76 d6bd 6815 a6be
00000110: 7431 ccbd 93d5 1dbe ca69 9ebd 8cb5 893d
00000120: 30ba 7cbd 5965 48bd 032b ae3e 0cf1 44bd
00000130: 38bb c8be a143 4cbd d666 bc3d 449c 303d
00000140: 6f3e 9b3d ea11 623c 09bd cebd 12c5 48bb
00000150: f618 383d 1276 0dbd 72d1 ec3d b69d 863e
00000160: f52e c9bd 286e 2b3d a548 99be fe9a 543e
00000170: 6b6e 91bd 451c 98be e12b fdbc 0f48 413d
00000180: 7a04 35be d909 053e 1607 44be a250 91be
00000190: a0f6 2dbd e3e8 633e 8748 91bd 1458 dcbd
000001a0: 51b6 90be 21e8 b6bd e299 d43c ef42 18bc
000001b0: 45f3 dbbd 8391 1f3d 8956 29be 15a2 3bbd
000001c0: 378d 23bd 4c3c c13d b898 363e 63af 283e
000001d0: be0b f2bd f56f 1dbe 4c72 4ebe b74e 89bd
000001e0: 09c6 013d 65a3 523c cb15 3fbd 506d 323e
000001f0: b925 7d3d ef65 16be 978e 633d 79e8 253e
00000200: 05ec ca3c eda9 3e3e c72e 29be 39b5 b3bd
00000210: f524 b83c 68b7 e43d 6153 63bd 076d ffbd
00000220: 4a00 d6bb 790a 0bbe 9b19 5f3e a1df 363d
00000230: 3c87 603e f6a0 7abe 7d45 bd3b 809d 223e
00000240: 1959 b8bd 0fc4 453e aae1 bcbc b72d c8bb
00000250: f13a 6cbe 3e72 c93d 56d8 cfbb 53df 86bc
00000260: bc4e 50bd 5219 893e f6cd 913d 3ef1 e03c
00000270: 040d 8c3e b273 0bbe 13ed 913c 0ff5 0b3e
00000280: 3aab b03d dc1b acbd 1432 2fbe 4b71 3b3e
00000290: 3697 91bd 4939 cfbc 5b8c 053e 0cae fdbc
000002a0: 967c 8abd 813b 5fbc 6106 94bd b54b 1a3e
000002b0: 78e9 213e 1993 5abe a048 a23e ff67 593e
000002c0: 3626 7f3d 69ba dbbd 8dce 41ba 6d56 d83d
000002d0: 63ea 1c3e 405f a63d 7a59 3a3e 95b8 983e
000002e0: 45d5 43bd cf2e 513d aff8 223e ecf7 1cbd
000002f0: 5d3b 463e 6598 10bd 6f3a 2ebe d38e 313d
00000300: b1b7 cebd 8f46 773e 1ae2 773d 8eec 083d
00000310: 2fe8 c53d 7ac8 eabd c4f7 ac3d 440a 1ebb
00000320: 0422 febc cc13 1a3e 2b56 33be 6615 8c3d
00000330: 6d1e a6bd c52e 1bbe c060 e43d 1ed5 113e
00000340: 3901 da3d 16b2 9ebd 924e 383e de84 eabc
00000350: d1e6 2abe cba7 26bd 9b3f 963d c231 f8bd
00000360: 3ad7 1c3e 9058 37be 6ea7 67be 1282 a53c
00000370: 3ae0 c63c b569 6f3c be3f 253e 2794 8dbd
00000380: dee8 c63d a8e0 9d3d fb94 eabd 189e 18be
00000390: 3f75 c13d 5839 62be 260f 5a3e 457b 4bbd
000003a0: 58f2 febb 5b19 4abe 198c 05be 6045 77bd
000003b0: 0609 b23d 6976 ebbd af57 723e 0b24 c8bd
000003c0: aa35 24bd 82a2 e83d 2307 e1bd 69a8 d03c
000003d0: 97d1 013d 7583 7d3c e439 b4bc 0368 693e
000003e0: dadb 8fbd 0150 1f3e 2580 ddbb fa51 7b3e
000003f0: 7684 1eb9 de3c 29be 7a76 3abc 03fc a0bd

linear2.bias f4 [256]
-0.04738421 0.0356436 0.041270602 0.09091641 0.024059113 -0.069347866 -0.1263331 0.02829994
0.07154466 -0.021631263 0.018713458 0.004794263 0.25314087 0.02715508 0.034596037 0.23553851
-0.008247958 0.04482646 -0.059609532 -0.072156854 0.0062803924 -0.14824048 -0.04292673 -0.017071014
-0.049985234 -0.06504177 -0.09393841 0.047446776 0.000111920344 -0.013872613 0.059294764 -0.10678808
-0.014694325 -0.04117255 0.09932819 -0.087377705 0.005442048 -0.07725663 -0.05892574 -0.06222152
0.07032153 0.04345745 0.053371876 0.017991077 0.065953426 0.055019163 0.05553648 0.008171881
-0.011266469 0.029685594 0.00837977 0.008348738 0.17700665 0.11431366 -0.058189116 0.008376749
-0.031776033 -0.0071541853 -0.04440096 0.024284413 0.07272544 -0.06734463 0.03677523 0.03317303
-0.09159362 0.13327263 0.031088278 -0.03639495 0.088118 -0.108020335 -0.03587587 0.053075887
-0.018620156 -0.0021043126 -0.1237545 0.01792168 -0.068343274 0.0071864566 -0.016540106 -0.03607558
0.03459188 0.11090332 0.00087806163 -0.1446501 0.008671558 -0.029742843 0.07171182 -0.05518658
0.029680187 -0.047698066 0.01824454 -0.0049381857 0.12549923 0.06471153 0.027658826 -0.11318192
0.059115548 0.0021865934 -0.109604396 0.049254984 0.057100933 -0.024869999 0.08689333 -0.07542587
0.22340672 -0.046787243 -0.056492727 0.0060614427 0.06706508 0.016611993 -0.052141346 0.024472611
-0.069352545 0.07971993 -0.048313044 -0.0008503613 -0.0023036422 0.00016019211 0.07341552 -0.09563258
-0.024404747 -0.0026978806 -0.024813063 0.054290976 -0.010052739 -0.0018103997 0.055139642 0.14051759
0.052184366 -0.023517197 0.037418313 0.1905681 0.024176547 -0.038195074 -0.06677166 -0.07341679
-0.03527538 0.01118092 -0.03504687 -0.016840512 0.0722339 0.0054403925 -0.02182605 0.02271634
0.025318684 -0.038896758 -0.061593108 -0.020198245 0.023594327 0.0709056 -0.12285855 -0.11841448
0.088013746 -0.02952166 0.050930772 0.00490511 -0.0720856 -0.077710055 -0.09475779 0.083303794
0.08022823 0.009594194 -0.111207664 -0.029420024 0.02016834 0.02432727 0.05844933 -0.084186904
0.09975168 0.034515977 -0.13186283 0.0014700205 0.003377769 0.07987066 0.014545521 0.009189362
-0.13691543 0.018577227 0.056828465 0.042346884 -0.04242392 0.05765262 -0.028812567 0.11549466
0.15965407 -0.035517074 -0.08916136 -0.13769211 0.18920374 -0.2598565 0.037932657 -0.18281151
-0.037125483 -0.095509596 -0.061844036 0.0217913 -0.015770927 -0.028205981 0.090518326 0.15687966
-0.044473164 0.035822686 0.1102792 0.018621486 0.080963425 0.061388757 -0.030398365 -0.103572845
0.057198253 0.017824722 -0.083433494 -0.008405707 0.082169324 0.03856173 -0.063161545 0.043942437
0.023553772 0.14095312 -0.0058744536 0.012456363 -0.0012333601 -0.029573508 0.0719761 0.10502397
-0.008466203 -0.0053660725 0.010818941 -0.054296046 -0.027783994 0.08146474 0.012080709 0.07400048
-0.10880682 -0.092131115 -0.037861798 -0.11451425 -0.037289962 0.04635905 -0.02280943 0.18853162
0.026004694 0.05987514 -0.04522047 0.03134893 0.055175863 -0.009188207 0.061045807 -0.10504346
0.034252122 -0.06658294 0.039511576 0.053018 0.09648559 -0.034657598 0.079619996 -0.055965662
00000000: f215 42bd 06ff 113d 5d0b 293d 6232 ba3d
00000010: 9e17 c53c 4106 8ebd 775d 01be 47d5 e73c
00000020: 0286 923d 0c34 b1bc f74c 993c 3119 9d3b
00000030: ae9b 813e 5574 de3c 93b4 0d3d 0231 713e
00000040: 7122 07bc f39b 373d 2029 74bd f9c6 93bd
00000050: c0cb cd3b 5acc 17be f0d3 2fbd 83d8 8bbc
00000060: 51bd 4cbd 9f34 85bd c862 c0bd 8d57 423d
00000070: c7b6 ea38 f549 63bc 11df 723d b5b3 dabd
00000080: 77c0 70bc 8ca4 28bd 946c cb3d 15f3 b2bd
00000090: 3553 b23b b938 9ebd 1e5c 71bd fedb 7ebd
000000a0: bc04 903d 7000 323d 789c 5a3d 0662 933c
000000b0: 9712 873d c65b 613d 387a 633d 5ae3 053c
000000c0: ff96 38bc 342f f33c 4e4b 093c 25c9 083c
000000d0: 3b41 353e 481d ea3d b657 6ebd a23e 093c
000000e0: 9627 02bd a86d eabb c8dd 35bd 1bf0 c63c
000000f0: 13f1 943d fbeb 89bd a0a1 163d 71e0 073d
00000100: 7095 bbbd 9f78 083e d8ac fe3c df12 15bd
00000110: 3677 b43d c439 ddbd 94f2 12bd 1a66 593d
00000120: 4c89 98bc 82e8 09bb 0073 fdbd 7dd0 923c
00000130: 8ff7 8bbd 5e7c eb3b 1e7f 87bc fdc3 13bd
00000140: 37b0 0d3d 4821 e33d b82d 663a 281f 14be
00000150: 2713 0e3c 43a7 f3bc a6dd 923d 530b 62bd
00000160: dd23 f33c 0c5f 43bd 9375 953c 81d0 a1bb
00000170: df82 003e 7b87 843d c394 e23c eccb e7bd
00000180: 2523 723d f34c 0f3b 4578 e0bd 98bf 493d
00000190: abe2 693d 2bbc cbbc 21f5 b13d e178 9abd
000001a0: bbc4 643e fba3 3fbd eb64 67bd 119f c63b
000001b0: 6b59 893d e015 883c 2a92 55bd c97a c83c
000001c0: b508 8ebd 3444 a33d e6e3 45bd c8ea 5eba
000001d0: b4f8 16bb 3ef9 2739 e05a 963d 04db c3bd
000001e0: 77ec c7bc edce 30bb c444 cbbc 3760 5e3d
000001f0: 3eb4 24bc ef4a edba 1bda 613d d8e3 0f3e
00000200: 46bf 553d 23a7 c0bc f243 193d 4924 433e
00000210: e50d c63c 7072 1cbd 94bf 88bd 8b5b 96bd
00000220: eb7c 10bd 2d30 373c 4f8d 0fbd 1df5 89bc
00000230: 5eef 933d 5245 b23b 8bcc b2bc 9e17 ba3c
00000240: 2169 cf3c 3552 1fbd 0e49 7cbd ca76 a5bc
00000250: e448 c13c f536 913d 439d fbbd 4a83 f2bd
00000260: 8d40 b43d 69d7 f1bc c99c 503d 0cbb a03b
00000270: 9da1 93bd 7326 9fbd 5f10 c2bd 2e9b aa3d
00000280: b34e a43d f730 1d3c d8c0 e3bd 4302 f1bc
00000290: 1338 a53c fc49 c73c 9168 6f3d 2f6a acbd
000002a0: 9c4a cc3d a060 0d3d 0d07 07be b4ad c03a
000002b0: 8f5d 5d3b 3b93 a33d 5650 6e3c fa8e 163c
000002c0: 8f33 0cbe 452f 983c f7c4 683d ed73 2d3d
000002d0: b4c4 2dbd 2725 6c3d 5508 ecbc 7788 ec3d
000002e0: 5b7c 233e 5a7a 11bd 3b9a b6bd 29ff 0cbe
000002f0: a0be 413e e90b 85be 465f 1b3d f132 3bbe
00000300: e410 18bd 899a c3bd 2c50 7dbd ab83 b23c
00000310: 0832 81bc 3b10 e7bc ac61 b93d 10a5 203e
00000320: 7e29 36bd cfba 123d 10da e13d 168c 983c
00000330: 27d0 a53d c772 7b3d fe05 f9bc 001e d4bd
00000340: b748 6a3d 2705 923c 2edf aabd 17b8 09bc
00000350: 6448 a83d e8f2 1d3d d75a 81bd fcfc 333d
00000360: d7f3 c03c 0456 103e 7d7e c0bb c615 4c3c
00000370: b3a8 a1ba 2444 f2bc 3568 933d cf16 d73d
00000380: d4b5 0abc e1d5 afbb ed41 313c 8865 5ebd
00000390: 429b e3bc fcd6 a63d 2bee 453c 908d 973d
000003a0: 1cd6 debd 3daf bcbd f914 1bbd 7286 eabd
000003b0: 5cbd 18bd fde2 3d3d d7da babc 6f0e 413e
000003c0: cc07 d53c a33f 753d 1939 39bd bc67 003d
000003d0: 1600 623d 228a 16bc 2b0b 7a3d 0721 d7bd
000003e0: f44b 0c3d a35c 88bd e4d6 213d 6729 593d
000003f0: 3d9a c53d 20f5 0dbd cf0f a33d 403c 65bd

mean_linear.weight f4 [2, 256]
0.21101491 -0.02381105 0.25503758 0.18770894 -0.16870484 -0.28857264 -0.113964 -0.2795039
0.18056905 -0.14289817 0.2600424 0.25719178 0.20714268 -0.10085452 0.16085391 0.07533421
-0.10183352 -0.03735428 0.059337076 -0.25201643 0.34910676 0.22376536 -0.16524467 0.2417087
0.049166717 0.0007579593 0.1461191 0.092592746 -0.16635065 -0.0009471435 0.15314804 -0.18604057
0.16767684 -0.19992355 0.19388483 -0.088080354 -0.097437195 0.2755817 0.15110767 0.076444246
-0.043194104 -0.089601815 -0.28394273 0.2548128 0.15139465 -0.06998272 0.24835567 0.24139917
-0.20799607 -0.0084306095 -0.10467266 0.15577167 -0.12393491 -0.12944323 -0.07816199 0.21967469
0.1864614 -0.28595707 -0.22674647 -6.414317e-05 -0.19949378 0.21839865 0.28145638 0.2211717
-0.25560448 -0.08440492 -0.14954601 -0.24412161 -0.18620345 -0.16094674 -0.25664026 -0.20680757
-0.19797114 0.15578644 0.18430918 -0.11893229 0.27160788 0.14228436 0.1441444 0.12505804
-0.08502655 0.25245038 -0.2952894 0.23027731 0.012428061 -0.22198385 -0.2500834 -0.090156645
0.22211218 -0.17167386 0.17958179 -0.21187674 0.08472006 -0.028768191 0.0089644035 -0.122396566
-0.19715694 -0.24770749 0.091523245 0.13246743 0.15696666 -0.20879017 0.1713128 0.2557
0.07619816 0.20001237 0.15654515 -0.19323428 -0.27665752 0.1866583 0.13892299 0.17574883
0.015536632 0.2281156 0.21596768 -0.15571064 0.3306994 0.19839701 -0.15421562 -0.23965983
-0.22606215 0.0022327357 0.14814077 -0.25342202 0.021454776 -0.25500426 -0.1568142 0.19253083
0.08489835 0.16015126 0.209061 0.29498094 -0.22852908 -0.18733282 0.28553584 0.21604796
0.15984757 -0.06441702 -0.0010898574 0.0783191 0.018429767 -0.21315031 -0.036767755 -0.07200929
-0.0015930394 -0.16721185 0.23465028 0.11722656 -0.18843442 0.09365675 0.17933838 0.278078
0.18128267 -0.18869936 0.12760979 0.00014773013 0.18509725 0.21890926 -0.19157216 0.07482993
0.13900056 0.15542506 0.101120226 0.00057193654 0.16925459 0.054140426 -0.16915403 0.26392028
0.051741354 0.1789623 0.22881402 0.25320596 0.13235123 0.0874532 0.13067952 0.11418947
0.20947509 0.17587787 -0.03490375 0.14922303 0.026319504 -0.1014467 -0.07427381 0.0047288374
0.2877014 -0.21923278 -0.22145823 0.039206233 0.16212738 0.1307051 -0.25415677 -0.15807565
0.23554882 -0.15811549 -0.14516914 0.26955172 0.24399136 0.22165102 -0.06681471 -0.19331186
0.195981 -0.18312909 0.23816349 -0.00038348016 0.14683647 -0.16432689 0.23835365 0.13476174
-0.18852815 0.1470682 0.2081824 -0.19115399 0.27009955 0.21275617 -0.22785607 -0.20824666
0.10182898 -0.2240494 0.2704872 -0.028761765 0.20531264 -0.03602196 0.12311993 0.29340497
0.2899802 0.13446383 -0.18225537 0.12741572 0.2086304 0.05108661 -0.2653678 0.022578187
0.0749706 0.19680184 -0.19515462 -0.23240246 -6.8218265e-05 -0.15587069 -0.21566917 -0.122206524
0.19648007 0.23863035 -0.13990976 0.123658404 0.10901066 0.061468106 -0.23183958 -0.13813354
0.031733472 -0.18199703 -0.17754118 0.10265712 0.19543402 -0.23542166 0.27997115 -0.005951286
00000000: 4b14 583e 640f c3bc 4994 823e c636 403e
00000010: f6c0 2cbe cbbf 93be f565 e9bd 231b 8fbe
00000020: 18e7 383e e653 12be 4724 853e a4ae 833e
00000030: 361d 543e d18c cebd e3b6 243e d348 9a3d
00000040: 188e d0bd cd00 19bd 6f0b 733d 4c08 81be
00000050: 1fbe b23e bf22 653e e635 29be 7c82 773e
00000060: 0a63 493d cab1 463a 3fa0 153e 44a1 bd3d
00000070: d357 2abe b949 78ba d7d2 1c3e 6b81 3ebe
00000080: 7ab3 2b3e c2b8 4cbe bf89 463e 7963 b4bd
00000090: 278d c7bd 0b19 8d3e f8bb 1a3e cd8e 9c3d
000000a0: 4dec 30bd 2881 b7bd f160 91be d376 823e
000000b0: 3307 1b3e 1a53 8fbd f350 7e3e 5831 773e
000000c0: ecfc 54be 8a20 0abc 9f5e d6bd 9c82 1f3e
000000d0: 96d1 fdbd c48c 04be 6513 a0bd 67f2 603e
000000e0: bdef 3e3e f768 92be 3a30 68be 9a84 86b8
000000f0: 1948 4cbe e5a3 5f3e 0d1b 903e d67a 623e
00000100: 97de 82be 7ddc acbd 9722 19be 04fb 79be
00000110: 1eac 3ebe 39cf 24be 5a66 83be 5dc5 53be
00000120: f2b8 4abe 7b86 1f3e 8cbb 3c3e c692 f3bd
00000130: 3010 8b3e feb2 113e 979a 133e 370f 003e
00000140: 6622 aebd 2d41 813e 2c30 97be d1cd 6b3e
00000150: 119f 4b3c bc4f 63be ee0a 80be 0ca4 b8bd
00000160: 6071 633e 46cb 2fbe 4ae4 373e 37f6 58be
00000170: b681 ad3d 45ab ebbc 6fdf 123c 0dab fabd
00000180: 82e3 49be 08a7 7dbe 8a70 bb3d 8ba5 073e
00000190: debb 203e 17cd 55be 9f6c 2f3e 1ceb 823e
000001a0: c80d 9c3d 0bd0 4c3e 5f4d 203e 35df 45be
000001b0: 0ea6 8dbe 5a23 3f3e d441 0e3e 80f7 333e
000001c0: 5c8d 7e3c 2397 693e a226 5d3e 9c72 1fbe
000001d0: 6f51 a93e 9628 4b3e b3ea 1dbe 6369 75be
000001e0: d67c 67be 1753 123b 37b2 173e 88c0 81be
000001f0: edc1 af3c eb8f 82be e793 20be cd26 453e
00000200: 30df ad3d b1fe 233e 1614 563e be07 973e
00000210: 8703 6abe 2dd4 3fbe c131 923e ad3b 5d3e
00000220: 15af 233e 12ed 83bd 8cd9 8eba c465 a03d
00000230: 06fa 963c 1344 5abe c999 16bd 9b79 93bd
00000240: 88cd d0ba 9539 2bbe 2a48 703e 7b14 f03d
00000250: f4f4 40be 1ccf bf3d 7ba4 373e 3d60 8e3e
00000260: 2aa2 393e 683a 41be 24ac 023e 01e8 1a39
00000270: 228a 3d3e c029 603e 7e2b 44be 6f40 993d
00000280: 2a56 0e3e bf27 1f3e 1f18 cf3d 03ee 153a
00000290: 1351 2d3e 5ac2 5d3d b736 2dbe 8f20 873e
000002a0: beee 533d e541 373e 394e 6a3e 36a4 813e
000002b0: 1587 073e aa1a b33d dad0 053e 2bdc e93d
000002c0: a380 563e 5419 343e 3cf7 0ebd eccd 183e
000002d0: 009c d73c 4ac3 cfbd de1c 98bd 5df4 9a3b
000002e0: 994d 933e 8f7e 60be f2c5 62be b796 203d
000002f0: b804 263e 8fd7 053e d620 82be 95de 21be
00000300: b633 713e 07e9 21be 38a7 14be af02 8a3e
00000310: dfd8 793e 7cf8 623e 27d6 88bd 8bf3 45be
00000320: 3eaf 483e 3186 3bbe 21e1 733e d60d c9b9
00000330: 4d5c 163e 4f45 28be fb12 743e fbfe 093e
00000340: 860d 41be 0c99 163e c42d 553e dfbd 43be
00000350: 7d4a 8a3e c1dc 593e 1a53 69be 9d3e 55be
00000360: b68b d03d 356d 65be 4c7d 8a3e cb9d ebbc
00000370: 7a3d 523e c38b 13bd 4d26 fc3d 2d39 963e
00000380: 4978 943e e3b0 093e 27a1 3abe 4479 023e
00000390: 35a3 553e 3140 513d 4ade 87be e4f5 b83c
000003a0: 308a 993d 6c86 493e 9dd6 47be e9fa 6dbe
000003b0: 6710 8fb8 919c 1fbe 61d8 5cbe 6a47 fabd
000003c0: 1232 493e 845b 743e 8144 0fbe 9e40 fd3d
000003d0: fb40 df3d fbc5 7b3d 5b67 6dbe e172 0dbe
000003e0: f5fa 013d 6e5d 3abe 5bcd 35be e53d d23d
000003f0: db1f 483e 6012 71be 6158 8f3e 0103 c3bb

mean_linear.bias f4 [2]
-0.04738508 -0.0038380309
00000000: dc16 42bd 7987 7bbb
