output/CarlaNavigation-v0/sac/5/actor.pt (torch, 535763 bytes, 7 tensors)

action_log_std f4 [1, 2]
0	0xbf516531	-0.8179503
1	0xc023559b	-2.5521

linear1.weight f4 [256, 261]
0	0x3d136116	0.03598126
1	0x3e75041d	0.2392735
2	0xbff901ed	-1.9453713
3	0x3f3c67aa	0.7359568
4	0xbf8c7e99	-1.0976135
5	0xbd4bebaa	-0.049785294
6	0xbdd87db8	-0.10570854
7	0xbbafa6cc	-0.00536046
8	0x3c98410f	0.01858571
9	0xbe77d196	-0.24201044
10	0x3e2bbfce	0.16772386
11	0x3e0f3de5	0.13988455
12	0xbdc97288	-0.09836298
13	0xbe4d4bc2	-0.2004843
14	0xbd826ee6	-0.063688084
15	0xbe6f3e1d	-0.23363538
16	0xbe1274a8	-0.14302313
17	0xbe26f6c2	-0.16305068
18	0x3eb1d513	0.34732875
19	0xbe1bc54f	-0.15211986
20	0x3e94172f	0.28923938
21	0xbcd74d2d	-0.026281917
22	0xbe852386	-0.26003665
23	0xbe9bfb87	-0.30465338
24	0x3e0a6618	0.13515508
25	0x3b8585fe	0.004074811
26	0x3e3b9bc6	0.18321142
27	0x3c6f95d5	0.014623125
28	0xbd1f8b9e	-0.03895151
29	0x3ddf420b	0.109012686
30	0x3d955f12	0.07293524
31	0x3d0fb485	0.035084266
32	0x3eb17a6d	0.34663716
33	0x3e29be59	0.16576518
34	0xbe3170a7	-0.1732813
35	0xbda194e3	-0.07889726
36	0xbc27d514	-0.010243673
37	0x3dc971b3	0.098361395
38	0x3e382a36	0.17984852
39	0x3d8e8e6f	0.06960761
40	0xbc7b5755	-0.015340646
41	0x3db13b7c	0.08653924
42	0x3b960a52	0.004578867
43	0x3ed535d6	0.41642636
44	0x3ea48cdb	0.32138714
45	0x3e932fb5	0.28747335
46	0x3d490e18	0.049085706
47	0xbe820c13	-0.25399837
48	0xbe0f6269	-0.14002384
49	0xbe33235d	-0.17493959
50	0xbe2d60c9	-0.16931452
51	0xbe502a74	-0.20328695
52	0xbd8a73f6	-0.06760399
53	0x3c398cce	0.011325074
54	0x3d8fe04b	0.07025202
55	0x3dad19cb	0.08452185
56	0xbe3304fd	-0.17482372
57	0xbd800872	-0.06251611
58	0xbd950920	-0.07277131
59	0xbe0cce4f	-0.13750575
60	0xbe0c0d68	-0.13676989
61	0xbe93dafb	-0.28878006
62	0x3e680ede	0.22661921
63	0x3d9cfba9	0.07665188
64	0x3e993fb2	0.29931408
65	0x3caf4f2a	0.021400053
66	0x3d36db19	0.04464254
67	0x3d955fd9	0.07293672
68	0xbdc9fa49	-0.09862191
69	0x3dc72062	0.097229734
70	0xbea4d8b6	-0.32196587
71	0x3e9a242f	0.3010573
72	0x3c9495ae	0.01813778
73	0x3e8ced79	0.27524927
74	0xbdc5abf9	-0.09651942
75	0x3c567138	0.013088517
76	0x3e49c99b	0.19705813
77	0x3dfe0e74	0.124051005
78	0x3de62521	0.112375505
79	0xbd7cdf87	-0.06173661
80	0x3b35d165	0.0027743217
81	0x3eb7ae11	0.3587499
82	0x3daa2dcd	0.08309517
83	0xbdfa27c9	-0.1221462
84	0xbd827e9b	-0.06371804
85	0xbdaa1ed6	-0.08306663
86	0xbe2bc321	-0.16773655
87	0xbd97e306	-0.07416348
88	0x3d0a2b3a	0.03373263
89	0xbe623568	-0.22090685
90	0x3dc656d0	0.09684527
91	0x3cf183b0	0.029481739
92	0x3d5cc3e9	0.053897772
93	0x3e663179	0.2247981
94	0xbdffab5e	-0.124838576
95	0x3d57c5e2	0.05267895
96	0xbd1d385f	-0.038383838
97	0x3d669090	0.05629021
98	0xbd64f550	-0.05589801
99	0x3dbad4ef	0.09122645
100	0x3ed4c439	0.41555956
101	0x3c0362f0	0.008019194
102	0xbe1ac3af	-0.1511371
103	0xbe516e17	-0.20452152
104	0x3ebdfbb5	0.371061
105	0xbd8b9c2c	-0.06816897
106	0xbe04ed2c	-0.12981099
107	0x3e5c6ecf	0.21526645
108	0x3d23861e	0.039922826
109	0x3da6a955	0.08137766
110	0xbd074a1c	-0.03302966
111	0x3e1c9823	0.1529241
112	0xbca424cf	-0.020037083
113	0x3c473c3d	0.012160358
114	0xbe0250d3	-0.12726144
115	0xbe29b439	-0.16572656
116	0xbe7559e6	-0.23960075
117	0x3e52e601	0.20595552
118	0xbe9e9a91	-0.309773
119	0xbd4e0dcb	-0.050306123
120	0xbde6a90b	-0.11262711
121	0x3d90694f	0.07051336
122	0xbe294078	-0.16528499
123	0xbc9e8c16	-0.019353908
124	0x3ec10e73	0.37706336
125	0xbe1c8535	-0.1528519
126	0xbe6c2020	-0.2305913
127	0xbd99766f	-0.074932925
128	0x3ea32020	0.31860447
129	0x3c3ae7db	0.011407818
130	0xbe312565	-0.17299421
131	0xbc4f0c9d	-0.012637285
132	0xbe863812	-0.26214653
133	0xbcacf8df	-0.021114765
134	0x3dab4392	0.083624974
135	0x3f047487	0.51740307
136	0xbcce3887	-0.025173439
137	0x3f00f0ce	0.5036744
138	0x3d6aa3fd	0.057285298
139	0xbdfd0f60	-0.12356448
140	0xbe20d12c	-0.15704793
141	0x3ea2cf5e	0.31798834
142	0x3d54f952	0.051995583
143	0xbdc995b3	-0.09843006
144	0xbdb21cbd	-0.08696888
145	0xbe725979	-0.23666944
146	0x3e54f08f	0.20794891
147	0x3e9d0f86	0.30675906
148	0xbe2d2303	-0.16907887
149	0xbe107625	-0.14107569
150	0x3e4149d3	0.18875818
151	0x3e987c2c	0.29782236
152	0x3e391d4d	0.18077584
153	0x3cd77dfc	0.026305191
154	0x3e077c60	0.13231039
155	0x3e2c1af1	0.16807152
156	0x3ecae58e	0.3962826
157	0x3f1b94f0	0.60774136
158	0xbe7f4635	-0.24929126
159	0x3dc33bd7	0.09532898
160	0xbe832ad0	-0.256186
161	0xbe6be295	-0.23035653
162	0xbb9de7fa	-0.0048189135
163	0x3e71669e	0.23574302
164	0x3e02692c	0.12735432
165	0xbd28b95d	-0.0411924
166	0xbe55bab9	-0.2087201
167	0x3ded6e3f	0.115932934
168	0xbbcd85e0	-0.0062720627
169	0xbcc59cd2	-0.02412263
170	0xbefd428f	-0.49464843
171	0xbe4ea5d8	-0.20180452
172	0x3e0f30ea	0.13983503
173	0x3c40457b	0.011735315
174	0x3e916319	0.28395918
175	0xbce3bc33	-0.027799701
176	0xbe0e17f9	-0.13876332
177	0x3e18236e	0.14857265
178	0x3e29ca7d	0.1658115
179	0x3d76982d	0.06020372
180	0x3c98e457	0.018663568
181	0x3e3a600c	0.18200701
182	0xbea8220d	-0.3283848
183	0x3d8a2e92	0.06747164
184	0xbdb94b4c	-0.09047565
185	0x3d8c666c	0.06855473
186	0xbe169541	-0.14705373
187	0xbde9da61	-0.114186056
188	0x3dba86ca	0.0910774
189	0xbe7b12c4	-0.24518877
190	0xbea93681	-0.33049396
191	0xbe2ef2e6	-0.17084846
192	0xbd83d0fb	-0.06436344
193	0x3e86f0bf	0.2635555
194	0x3eb49577	0.35270283
195	0x3d1cbe83	0.038267624
196	0x3e79b1fe	0.24384305
197	0xbd33b044	-0.043869272
198	0xbe4ffa76	-0.20310387
199	0xbd3f1843	-0.046653997
200	0xbd327806	-0.043571495
201	0x3dc37c82	0.09545232
202	0x3e90025b	0.28126797
203	0x3e87f3b0	0.26553106
204	0x3d542c79	0.051800225
205	0x3dcfea7c	0.10152146
206	0xbe1b6263	-0.1517425
207	0x3c91f6e7	0.017817928
208	0x3d327e74	0.043577626
209	0xbe170738	-0.14748847
210	0x3dc0e35e	0.09418367
211	0x3e3d07e9	0.18460049
212	0xbeb8661e	-0.3601541
213	0xbe7998b7	-0.24374662
214	0xbd542cb0	-0.05180043
215	0x3ca39a8c	0.019971155
216	0x3dfa9652	0.122357026
217	0x3d25ca5c	0.040476188
218	0x3e74bfda	0.2390131
219	0x3d442404	0.04788591
220	0xbd3f4c41	-0.04670358
221	0x3df0fafd	0.11766622
222	0xbe890476	-0.26761216
223	0x3db066f1	0.086133845
224	0x3e6e77dd	0.23287912
225	0xbe10e678	-0.14150417
226	0x3e34c981	0.17654993
227	0xbe185a3d	-0.14878173
228	0x3d98d4fc	0.074624985
229	0xbd8fa4d7	-0.070138626
230	0x3e88ba9b	0.2670487
231	0x3deeaabe	0.1165366
232	0xbe1cd823	-0.15316825
233	0xbdfd6bc7	-0.123740725
234	0x3dade843	0.08491566
235	0xbe4b60ca	-0.19861141
236	0xbe0ac90f	-0.1355326
237	0x3e901f29	0.28148773
238	0x3d8b1d6c	0.06792721
239	0xbe46c5cf	-0.19411395
240	0xbe075779	-0.13216962
241	0xbe455fda	-0.19274846
242	0x3d84dbd3	0.06487241
243	0xbe53e928	-0.20694411
244	0xbe93a142	-0.28833967
245	0xbd9fdfa3	-0.07806327
246	0xbe2729c8	-0.16324532
247	0x3e844e15	0.25840822
248	0x3d815429	0.063148804
249	0xbc03cc97	-0.0080443835
250	0xbd9e469e	-0.07728313
251	0xbd957a75	-0.072987475
252	0x3cc3c48e	0.023897436
253	0xbcc5edf9	-0.024161326
254	0x3e4bb05a	0.19891492
255	0x3cb5de31	0.022200676

linear1.bias f4 [256]
0	0xbe284d9e	-0.16435859
1	0x3e2da544	0.16957575
2	0xbe231c72	-0.1592882
3	0xbca476ee	-0.020076241
4	0xbe4215f8	-0.18953693
5	0x3cbde0cc	0.02317848
6	0xbe026b31	-0.12736203
7	0x3db7d3a8	0.08975917
8	0x3e936669	0.2878907
9	0xbe32ee11	-0.17473628
10	0xbe0c7ad5	-0.13718732
11	0xbd345eb1	-0.044035617
12	0x3e47f826	0.19528255
13	0x3b7280ec	0.0037003113
14	0xbe9d1872	-0.30682713
15	0xbe23f07f	-0.1600971
16	0xbd3e4676	-0.046453916
17	0xbe8ce006	-0.27514666
18	0xbc72e6ee	-0.014825566
19	0x3cbbefa1	0.022941412
20	0x3da65aa0	0.08122754
21	0x3d55e8b3	0.052223872
22	0xbdb364c1	-0.08759452
23	0x3e899c4c	0.26877058
24	0xbc8db9de	-0.017300542
25	0xbe993806	-0.29925555
26	0x3dab0e05	0.083522834
27	0xbdb8101d	-0.08987448
28	0x3d110480	0.035404682
29	0x3d1bf499	0.038075063
30	0xbcbb90b1	-0.022896143
31	0x3e47e8ed	0.19522448
32	0xbee09b1d	-0.43868342
33	0xbda7e05e	-0.081970915
34	0xbe955749	-0.29168156
35	0xbdfdf5e5	-0.12400416
36	0xbe50bd76	-0.20384774
37	0xbdb68852	-0.0891272
38	0xbe996f20	-0.29967594
39	0xbdf1adf7	-0.11800759
40	0x3edcf23d	0.43153563
41	0x3cf945c6	0.030428778
42	0x3e0118da	0.12607136
43	0xbe429c1f	-0.19004868
44	0xbe3d945f	-0.1851363
45	0x3e04cb69	0.1296822
46	0xbe4c6a84	-0.19962507
47	0x3db89df2	0.09014501
48	0xbe2057ed	-0.15658541
49	0xbd93520d	-0.07193384
50	0x3e0cb74a	0.13741794
51	0x3dbf15eb	0.093303524
52	0xbe685a3f	-0.22690676
53	0xbd06f1be	-0.032945387
54	0x3e31f19b	0.17377321
55	0x3e3e5e77	0.18590723
56	0xbd61707a	-0.055038907
57	0xbda49f1e	-0.08038162
58	0x3e6d5fef	0.23181127
59	0x3d88d7d8	0.06681794
60	0x3e71681c	0.23574871
61	0x3e43d57a	0.19124404
62	0x3dc17272	0.09445657
63	0x3d559636	0.052145205
64	0x3dfd4aee	0.12367807
65	0xbe178132	-0.14795378
66	0x3e285278	0.1643771
67	0x3be99fb3	0.0071296333
68	0x3e77a654	0.24184543
69	0x3da399c2	0.07988311
70	0x3dbcd917	0.09221094
71	0xbdede796	-0.11616437
72	0x3e50420f	0.203377
73	0xbe4c3901	-0.1994362
74	0x3e9a6102	0.30152136
75	0xbdcf29de	-0.101154074
76	0x3e21a12f	0.15784143
77	0xbec52b2c	-0.385095
78	0xbe84cc3e	-0.25937074
79	0xbee26234	-0.44215548
80	0xbe9781d4	-0.29591238
81	0xbcc0fd07	-0.023558153
82	0xbc8ea0df	-0.017410694
83	0x3e42fb3e	0.19041154
84	0x3db5c00d	0.088745214
85	0xbc08e724	-0.0083558895
86	0xbaece910	-0.0018074829
87	0xbde3eefc	-0.11129567
88	0x3f0c0734	0.5469849
89	0x3efb35db	0.49064526
90	0x3e130e6c	0.1436097
91	0xbd9944ee	-0.074838504
92	0x3c3eaa2c	0.011637252
93	0xbef2ef0c	-0.47448003
94	0x3cdbff12	0.026855025
95	0x3ebcce76	0.36876267
96	0xbe4a226e	-0.19739696
97	0xbe43425f	-0.19068287
98	0x3ce0b29c	0.027428918
99	0xbdd731a5	-0.10507516
100	0xbdd7e204	-0.10541156
101	0x3d2f6884	0.042824283
102	0xbdbde105	-0.09271435
103	0xbe9387c6	-0.28814524
104	0xbe9d43ba	-0.30715734
105	0x3e9d1660	0.30681133
106	0xbd56c2ac	-0.052431747
107	0x3e3710c1	0.17877485
108	0x3e0ca8ae	0.13736221
109	0xbe0a9485	-0.13533218
110	0x3c094d7a	0.008380288
111	0xbe1705b4	-0.1474827
112	0x3eb3c555	0.3511149
113	0x3c8c830c	0.017152332
114	0x3e2abc40	0.16673374
115	0xbe447fdf	-0.19189404
116	0xbe32e118	-0.17468679
117	0xbf278500	-0.65437317
118	0x3e1b8189	0.15186132
119	0xbd037277	-0.032091584
120	0x3d2c94d2	0.042134114
121	0x3e96a152	0.29419953
122	0xbe87fd24	-0.26560318
123	0x3e1397b0	0.14413333
124	0x3bb7d372	0.005609923
125	0xbc788762	-0.0151689965
126	0x3efa4c31	0.48886254
127	0xbe107602	-0.14107516
128	0x3d0b4216	0.03399857
129	0x3d43c946	0.04779937
130	0x3d89486a	0.06703265
131	0x3e18b31f	0.1491208
132	0x3e6e7b2f	0.23289178
133	0xbda0397a	-0.07823463
134	0x3cbb9cf0	0.022901982
135	0xbe8aaddd	-0.27085772
136	0xbbd42da5	-0.006475168
137	0x3e50e63d	0.20400329
138	0xbdcbe6f7	-0.099561624
139	0xbe22b105	-0.1588784
140	0xbe363583	-0.1779385
141	0x3e7e84d7	0.24855362
142	0xbeb0786b	-0.34466872
143	0x3e99e6b1	0.30058816
144	0xbdb50a66	-0.08839874
145	0xbedf8e3f	-0.43663213
146	0xbd56d6dc	-0.052451
147	0xbdabaf25	-0.083830155
148	0xbe6564d4	-0.22401744
149	0x3d796d7f	0.06089544
150	0xbd4cc658	-0.049993843
151	0xbe3433cd	-0.17597885
152	0xbc3f91ce	-0.011692477
153	0x39cf57d0	0.00039547542
154	0xbda5ffd8	-0.08105439
155	0xbe395f92	-0.18102863
156	0x3ba5038e	0.005035824
157	0xbe07d80a	-0.13266006
158	0xb9a9604b	-0.00032305936
159	0x3e44628a	0.19178215
160	0xbc917491	-0.017755779
161	0xbebd61ec	-0.3698877
162	0x3e61d9ad	0.22055693
163	0xbd27dfa5	-0.04098477
164	0xbe23a9e3	-0.15982775
165	0xbe758f78	-0.2398051
166	0x3ddefb8e	0.10887824
167	0xbe92fa58	-0.28706622
168	0x3ea16430	0.3152175
169	0x3e8a81d4	0.27052176
170	0x3ea312db	0.31850323
171	0x3ea0b747	0.3138983
172	0x3e02d8aa	0.12777963
173	0x3d7b436d	0.0613436
174	0xbdc660d4	-0.09686437
175	0x3dabd7fc	0.08390805
176	0x3da04e68	0.07827455
177	0x3e0b8b9a	0.13627473
178	0x3c9442bd	0.01809823
179	0xbf05220a	-0.52005064
180	0x3cf3dcfd	0.029768461
181	0xbe9c89df	-0.30573937
182	0x3e206331	0.15662839
183	0x3d074569	0.03302518
184	0x3f11b0a3	0.5691015
185	0x3e2e12be	0.16999337
186	0xbeb49aaa	-0.3527425
187	0xbdf5abeb	-0.119956814
188	0xbe5c2a05	-0.21500404
189	0xbe5e5c6a	-0.2171494
190	0xbea66bf8	-0.3250425
191	0x3e26c0c7	0.16284476
192	0x3d5bd994	0.053674296
193	0x3d686c17	0.056743708
194	0x3e6a903d	0.22906585
195	0xbe7bb603	-0.2458115
196	0x3e1633c4	0.14668185
197	0x3e10d0a4	0.1414209
198	0xbe17fbec	-0.14842194
199	0xbeb935cf	-0.36173865
200	0x3df80ec4	0.12112191
201	0x3e6cfc60	0.23143148
202	0x3e66734c	0.2250492
203	0x3e76ca92	0.24100712
204	0x3d93dafb	0.072195016
205	0x3e35904f	0.1773083
206	0xbdd774b0	-0.10520303
207	0xbd4fb08f	-0.05070549
208	0xbd6b0f41	-0.057387594
209	0xbea21a21	-0.3166056
210	0xbee79f92	-0.4523893
211	0x3eae1c3c	0.34005916
212	0x3e98aea5	0.29820743
213	0x3e32b3c5	0.17451389
214	0xbe83360d	-0.25627175
215	0x3e57c8c7	0.21072684
216	0x3e353d5c	0.17699188
217	0x3cc4be34	0.024016477
218	0xbddb7d39	-0.10717244
219	0xbd969153	-0.07351937
220	0xbd85eaa8	-0.06538898
221	0xbdb502b6	-0.08838408
222	0xbe44e470	-0.19227767
223	0xbe8cc947	-0.27497312
224	0xbd967c45	-0.07347921
225	0x3e6ef4e2	0.23335603
226	0xbd5cca13	-0.05390365
227	0x3da2d1a1	0.0795014
228	0xbd73fa6b	-0.05956499
229	0x3e3019c3	0.17197327
230	0xbe37aeaf	-0.1793773
231	0x3e80262b	0.2502912
232	0xbea3d956	-0.32001752
233	0x3e36db13	0.17857008
234	0x3e3d59d0	0.18491292
235	0xbe972b66	-0.29525298
236	0xbea2e8f0	-0.31818342
237	0x3bb99aba	0.005664197
238	0x3e1a0057	0.15039192
239	0xbd1b0f05	-0.03785612
240	0x3dc3297d	0.09529398
241	0xbe1cdc89	-0.15318502
242	0x3ea148bc	0.31500804
243	0xbdd1669d	-0.1022465
244	0xbdaa6883	-0.08320715
245	0xbe92d5a4	-0.2867862
246	0xbd3c1261	-0.045915965
247	0x3e5e5f47	0.21716033
248	0xbeced80c	-0.40399206
249	0xbb80cc8a	-0.003930633
250	0x3e04e74c	0.12978858
251	0x3c8eda3a	0.017438043
252	0xbd8835ed	-0.066509105
253	0xbf03e5d5	-0.5152257
254	0x3dc89712	0.097944394
255	0x3dc896e6	0.097944066

linear2.weight f4 [256, 256]
0	0x3e3a359c	0.18184513
1	0x3b150da1	0.002274372
2	0xbdae7802	-0.085189834
3	0x3d017d85	0.031613845
4	0xbeb8054a	-0.35941535
5	0xbe78ed5b	-0.24309294
6	0xbdac5596	-0.08414762
7	0x3dd97544	0.1061807
8	0x3d5de834	0.054176524
9	0xbe2d3452	-0.1691449
10	0xbda00f4c	-0.07815418
11	0xbdb9441b	-0.09046193
12	0x3d1b1cef	0.03786939
13	0xbea4e557	-0.32206222
14	0x3dd1c924	0.10243443
15	0x3d64f8de	0.0559014
16	0xbeab2c1e	-0.33432096
17	0xbdc11915	-0.09428612
18	0x3dbbc371	0.09168137
19	0x3d892dfe	0.066982254
20	0x3de30b9b	0.11086198
21	0x3daabfcb	0.08337363
22	0x3e83e87b	0.25763306
23	0xbd05fed2	-0.03271372
24	0xbe4dd810	-0.20101953
25	0x3eb4e8c0	0.35333824
26	0x3e2d3c87	0.1691762
27	0x3d87016a	0.065920666
28	0x3e5b9ce4	0.21446568
29	0xbe418879	-0.18899716
30	0xbe82ca1c	-0.25544822
31	0x3cb8ed76	0.022574168
32	0xbdc8803b	-0.09790083
33	0x3e92ffae	0.28710693
34	0x3eee6c06	0.4656679
35	0xbd7ef7b0	-0.062247932
36	0xbea42a2d	-0.32063428
37	0xbe1c54ab	-0.15266673
38	0xbdef06a9	-0.11671192
39	0xbb23eae1	-0.0025011825
40	0x3c9fef84	0.01952339
41	0x3e8ec2f8	0.27883124
42	0x3e6b4c89	0.22978415
43	0x3ce6617c	0.028122656
44	0xbe92e719	-0.2869194
45	0x3e22e682	0.15908244
46	0xbe6eb42a	-0.23310915
47	0xbe910c9a	-0.28329927
48	0x3e98f8de	0.2987737
49	0x3ebb489b	0.3657883
50	0x3dd2d939	0.10295338
51	0x3d44d9dc	0.04805933
52	0xbe80a4f0	-0.25125837
53	0x3cb8a233	0.02253828
54	0xbe400687	-0.1875249
55	0xbdf3476d	-0.11878858
56	0x3ea1e875	0.31622663
57	0x3e489f56	0.19592032
58	0xbe323368	-0.17402422
59	0xbdea0fd9	-0.11428804
60	0x3e055305	0.1301995
61	0xbdbc4b6a	-0.091940716
62	0x3dc0121b	0.09378453
63	0x3e497f01	0.19677354
64	0x3ea30bd1	0.31844953
65	0x3e967185	0.29383484
66	0xbe022aef	-0.1271169
67	0x3e0ca6c2	0.13735488
68	0xbd8e9140	-0.06961298
69	0x3d920c9e	0.07131313
70	0x3ee44a12	0.4458776
71	0x3eb23767	0.34807894
72	0x3e8ace33	0.27110443
73	0x3ed25b45	0.41085258
74	0xbe51b914	-0.20480758
75	0x3e90278f	0.2815518
76	0xbe81f01d	-0.25378504
77	0x3d4a35c3	0.049367677
78	0x3f21d12b	0.6320979
79	0xbd9266c9	-0.07148511
80	0x3f376999	0.71645504
81	0x3de911af	0.11380326
82	0xbe0b6046	-0.13610944
83	0xbe40cfae	-0.18829224
84	0xbe073787	-0.13204776
85	0xbd340d0c	-0.043957755
86	0x3e4e5bb8	0.20152175
87	0xbd37a2f0	-0.044833124
88	0xbe9a0bab	-0.30087027
89	0xbedfd40f	-0.43716475
90	0x3c7518de	0.014959542
91	0xbe64a7ce	-0.22329637
92	0xbdc4fcbc	-0.09618518
93	0x3d33a5c5	0.043859262
94	0xbe062310	-0.13099313
95	0x3ddf1d03	0.108942054
96	0xbdb74f88	-0.08950716
97	0xbeb73985	-0.3578607
98	0xbe361724	-0.17782265
99	0xbedb845f	-0.4287443
100	0x3db613c8	0.08890492
101	0xbdc81fbd	-0.097716786
102	0xbea0591f	-0.31317994
103	0xbe1761ba	-0.14783373
104	0xbe66d4cc	-0.22542113
105	0x3da3371c	0.07969496
106	0xbe1c8775	-0.15286048
107	0xbd857997	-0.06517332
108	0xbd2fdacb	-0.042933267
109	0x3edb2470	0.42801237
110	0x3d3ccc5f	0.04609334
111	0xbd9d32e3	-0.076757215
112	0x3c20db2e	0.0098178815
113	0xbd2a8062	-0.04162634
114	0xbeaa4c81	-0.33261493
115	0x3d9bd948	0.076098025
116	0x3f26a829	0.6510034
117	0xbd640838	-0.0556719
118	0xbed2e279	-0.4118841
119	0xbdded2e7	-0.1088007
120	0x3d212dc4	0.039350286
121	0xbd3a9a12	-0.04555709
122	0xbe731c40	-0.23741245
123	0x3d63f326	0.055651806
124	0xbd8f273d	-0.06989906
125	0xbe9bffc1	-0.30468562
126	0xbe352666	-0.17690429
127	0xbddcce84	-0.10781577
128	0xbec29be4	-0.3800956
129	0xbe6bc416	-0.2302402
130	0xbe8c7c0d	-0.27438393
131	0x3e773f40	0.24145222
132	0x3de4cf64	0.11172369
133	0x3e1ea353	0.15491991
134	0xbd534df7	-0.051588025
135	0x3ed15474	0.40884745
136	0xbda97c8f	-0.08275711
137	0x3e568258	0.2094816
138	0x3debe3e9	0.1151808
139	0xbe9b6291	-0.30348638
140	0xbd98840c	-0.07447061
141	0xbed480ab	-0.41504416
142	0x3cfbfce0	0.030760229
143	0x3d8b6474	0.06806269
144	0x3d9722a4	0.07379654
145	0x3d45832c	0.0482208
146	0xbb81fcd4	-0.003966907
147	0xbbf99c32	-0.007617497
148	0x3e323f3a	0.17406932
149	0x3db6e20f	0.08929836
150	0x3dc2ecfe	0.09517859
151	0x3e92ccd6	0.28671902
152	0xbe96ffb7	-0.2949197
153	0x3dfbab08	0.12288481
154	0x3e9ef41c	0.31045616
155	0xbd8100f4	-0.0629901
156	0xbf1843b6	-0.5947832
157	0x3e46d38f	0.1941664
158	0xbe00c2e7	-0.1257435
159	0x3da7e996	0.0819885
160	0x3de772ca	0.11301191
161	0xbc13593e	-0.008993445
162	0xbd44c6f3	-0.048041295
163	0x3dd43401	0.103614815
164	0x3d627a0a	0.055292167
165	0xbd97f504	-0.0741978
166	0xbedd0532	-0.43168026
167	0x3eaa59f4	0.33271754
168	0x3ec8bbb2	0.392057
169	0xbec8a597	-0.39188835
170	0x3e61ab47	0.22037993
171	0x3eb51265	0.35365596
172	0xbe14a74e	-0.14516947
173	0x3ed022d1	0.40651563
174	0xbdadc7c6	-0.084853694
175	0x3e0ea266	0.13929138
176	0xbd1da21d	-0.03848468
177	0xbde3b71e	-0.11118911
178	0xbed8c934	-0.42341006
179	0x3e1dbd53	0.15404253
180	0x3d9f1adb	0.07768794
181	0xbde02a66	-0.10945587
182	0x3e9e8b5b	0.30965695
183	0xbedf7a26	-0.4364788
184	0xbe2304a6	-0.15919742
185	0xbe5f7701	-0.2182274
186	0xbe2c4f3b	-0.16827099
187	0xbdc1c2a7	-0.09460955
188	0xbdbc49dd	-0.09193776
189	0xbead2b99	-0.33822325
190	0x3e61ea7c	0.22062105
191	0x3e837de0	0.25681973
192	0xbee24788	-0.441952
193	0x3db2bb46	0.08727126
194	0xbe31eda2	-0.17375806
195	0xbca13708	-0.019679561
196	0xbe540c2b	-0.20707767
197	0x3e5922d0	0.21204686
198	0x3db25229	0.08707077
199	0xbca63f27	-0.020293785
200	0x3e4b51b0	0.1985538
201	0x3dcb75a7	0.0993455
202	0xbda71179	-0.081576295
203	0xbda8bb27	-0.082388215
204	0x3e16850d	0.14699192
205	0xbdaa7e61	-0.08324886
206	0xbe567779	-0.20944013
207	0xbd589696	-0.052877985
208	0xbd92b194	-0.071627766
209	0x3ea24f2d	0.3170103
210	0xbb3e5f16	-0.0029048375
211	0x3d0bceab	0.03413264
212	0xbeaed989	-0.3415034
213	0xbe1f90a4	-0.1558252
214	0x3db812ce	0.08987962
215	0xbdd810e6	-0.10550098
216	0x3d0f361b	0.03496371
217	0x3dce7f2f	0.10082852
218	0xbdff22cb	-0.12457808
219	0x3ee75f7b	0.45190033
220	0xbeb51b49	-0.3537238
221	0xbe19089f	-0.14944695
222	0xbd1c1019	-0.03810129
223	0xbb1d48e4	-0.0023999745
224	0xbd84f1b6	-0.06491415
225	0x3db63120	0.088960886
226	0x3d9e6feb	0.077361904
227	0x3e316706	0.17324457
228	0xbd83ce30	-0.064358115
229	0xbea27c0f	-0.31735274
230	0xbdde81f1	-0.10864628
231	0x3dd540b2	0.1041273
232	0x3ee7c104	0.45264447
233	0x3ed1506f	0.40881678
234	0xbea4d908	-0.32196832
235	0x3e05fc85	0.1308461
236	0xbeba2cd6	-0.36362332
237	0xbec5b75b	-0.38616452
238	0xbe1b4fb8	-0.15167129
239	0x3e9f9f63	0.3117629
240	0xbd9a4fb3	-0.07534733
241	0xbe3a4065	-0.18188627
242	0xbeaf2e4b	-0.34215006
243	0xbe7b769a	-0.24556962
244	0xbd8d75ea	-0.06907256
245	0xbe9bd388	-0.30434823
246	0x3eea7272	0.4579044
247	0x3e140d64	0.14458233
248	0xbd9710c8	-0.07376248
249	0xbd9a8aba	-0.07545991
250	0xbedbe42c	-0.4294752
251	0x3e13b571	0.14424683
252	0x3ebd90e5	0.37024608
253	0x3e7ed761	0.24886848
254	0xbebce265	-0.36891475
255	0x3dde87a4	0.10865715

linear2.bias f4 [256]
0	0xbc8a9bbd	-0.016919965
1	0xbd6831db	-0.05668817
2	0x3d31e85d	0.04343449
3	0xbe06b2de	-0.1315417
4	0xbd8bb813	-0.06822219
5	0x3cbc2530	0.022966951
6	0x3e01d51d	0.12678953
7	0xbe1a9476	-0.15095696
8	0x3e8c8516	0.27445287
9	0x3c5c3b99	0.013441944
10	0x3d4d1e8c	0.05007796
11	0x3d85dc0a	0.0653611
12	0xbd21dd54	-0.039517716
13	0xbc9ce27b	-0.019150963
14	0x3e049d1a	0.12950554
15	0xbcd699d9	-0.026196407
16	0x3d593e32	0.05303783
17	0x3e34ab53	0.1764348
18	0xbc9b60d2	-0.018967066
19	0xbdb1cf07	-0.086820655
20	0xbe6b4efc	-0.22979349
21	0xbd28b5f2	-0.04118914
22	0xbdcb9e47	-0.099422984
23	0xbdc89b1e	-0.09795211
24	0x3e805f92	0.25072914
25	0xbddab03b	-0.106781445
26	0x3e17ed38	0.14836586
27	0x3e5cff10	0.21581674
28	0xbe00afc6	-0.12567052
29	0x3d8046ce	0.06263505
30	0x3cf66902	0.030079369
31	0x3dde911d	0.10867522
32	0xbe36115a	-0.17780057
33	0x3e632651	0.22182585
34	0xbe2458f6	-0.16049561
35	0x3e38adef	0.180351
36	0xbcf0519a	-0.029335786
37	0xbe632a3d	-0.22184081
38	0x3e91845f	0.28421304
39	0xbd396659	-0.045263622
40	0x3c826c6b	0.015920838
41	0x3de01367	0.10941201
42	0x3e8adefa	0.27123243
43	0x3ccb9460	0.024851024
44	0x3e3664dc	0.17811912
45	0xbc5b6b34	-0.013392258
46	0xbdba54bc	-0.09098193
47	0x3dfb046a	0.12256701
48	0xbde9001c	-0.11376974
49	0xbd917bf9	-0.07103724
50	0x3e2f516b	0.17120902
51	0x3d8a78d0	0.067613244
52	0x3e8aa57e	0.27079386
53	0x3b8fc4da	0.00438748
54	0x3d7e13d9	0.062030647
55	0x3cda2955	0.026631037
56	0x3d895d4b	0.06707247
57	0xbcb99634	-0.02265463
58	0xbd7be5fd	-0.06149863
59	0x3da6ffa4	0.08154228
60	0x3df5b43c	0.119972676
61	0xbdf96a83	-0.121785186
62	0x3d51eb49	0.051249776
63	0x3dbb200d	0.091369726
64	0xbc91fc29	-0.017820435
65	0xbe0314eb	-0.12800948
66	0xbd63143f	-0.05543923
67	0xbd9e50c8	-0.077302516
68	0xbd138724	-0.036017552
69	0x3e18251d	0.14857908
70	0xbdeba841	-0.11506701
71	0x3ce2ea79	0.027699696
72	0xbe0ca854	-0.13736087
73	0xbe1f09a0	-0.15531015
74	0xbd514693	-0.051092695
75	0xbda2afb1	-0.07943667
76	0xbd351239	-0.04420683
77	0x3e5b6506	0.21425256
78	0x3e06f722	0.13180211
79	0xbd99aa77	-0.07503217
80	0x3e38eed5	0.18059857
81	0xbecd6c6d	-0.40121785
82	0xbd33920d	-0.043840457
83	0xbe097c29	-0.1342627
84	0x3e0f9b46	0.14024076
85	0xbdfc0fef	-0.123077266
86	0x3ccba4ca	0.024858851
87	0x3d0fbbe3	0.035091292
88	0x3cf79349	0.030221598
89	0xbd1c5ad6	-0.038172565
90	0x3c71b14d	0.014751744
91	0xbdf20425	-0.11817197
92	0x3cb02dcc	0.021506213
93	0x3cbcc23d	0.023041839
94	0x3df702d8	0.12061089
95	0x3c4aa936	0.012369445
96	0x3e8e34aa	0.27774554
97	0xbc57b3ee	-0.013165457
98	0x3e008142	0.12549308
99	0x3bcde16d	0.0062829764
100	0x3d986d56	0.07442729
101	0xbcf30587	-0.029665722
102	0x3e1db8f5	0.15402587
103	0xbe62af17	-0.22137104
104	0xbd934ac5	-0.071919955
105	0xbd6f0be6	-0.058360957
106	0xbdb8335c	-0.08994171
107	0x3e1a6d5e	0.15080783
108	0x3d264f65	0.04060306
109	0xbdd55d75	-0.10418216
110	0x3e86aaff	0.26302335
111	0x3d8419cb	0.06450232
112	0xbc1d4f85	-0.009601478
113	0xbc5c2b8a	-0.013438115
114	0x3addeb8c	0.001693116
115	0x3dcd2633	0.100170515
116	0x3d493008	0.04911807
117	0xbd1d6253	-0.038423847
118	0x3da8c9a7	0.08241587
119	0x3d68026c	0.056642935
120	0x3c8d7487	0.017267479
121	0x3d14ce62	0.036329634
122	0x3daa5a9a	0.08318062
123	0x3deba13c	0.115053624
124	0x3c606501	0.013695956
125	0xbe24613e	-0.1605272
126	0xbcaa7a50	-0.020810276
127	0xba1fc9d0	-0.0006095441
128	0x3ce447fa	0.027866352
129	0xbd43c12d	-0.04779165
130	0xbd9e7143	-0.07736447
131	0xbcd60f09	-0.026130216
132	0x3e0a6bb8	0.13517654
133	0xbdf5e1f4	-0.12005988
134	0xbc3d8660	-0.011567682
135	0x3ccbf452	0.024896774
136	0x3d0947b9	0.033515666
137	0x3cb6bf2a	0.022307951
138	0xbc533c94	-0.012892861
139	0xbcec08b6	-0.028812747
140	0xbb1aa89e	-0.0023599039
141	0xbcb3a3e0	-0.021928728
142	0xbdb4e9f7	-0.08833688
143	0x3d9db80b	0.07701119
144	0x3df4abfd	0.11946867
145	0xbe1b335d	-0.15156312
146	0x3ca20bbf	0.019780992
147	0xbe8fbb96	-0.28072804
148	0x3e698201	0.22803499
149	0xbc244aad	-0.01002757
150	0x3cee7029	0.029106217
151	0xbc49bfb8	-0.012313776
152	0xbba4b346	-0.005026254
153	0x3e58d9b2	0.21176794
154	0xbcfbd7c8	-0.030742541
155	0x3e666395	0.22498925
156	0x3acda5ef	0.0015689711
157	0xbdfae023	-0.12249782
158	0xbd9cffaf	-0.07665955
159	0x3cdfe998	0.027333066
160	0xbe141b80	-0.14463615
161	0x3d653c39	0.055965636
162	0xbd6bb549	-0.057545934
163	0x3cf20dea	0.02954765
164	0xbd295067	-0.041336443
165	0x3e8f2eaa	0.2796529
166	0xbdb21e22	-0.08697154
167	0x3c8be316	0.017076056
168	0xbe3f9ea2	-0.18712857
169	0xbe850bee	-0.25985664
170	0xbe1ec5f5	-0.15505202
171	0xbde31d61	-0.11089588
172	0x3da7d30e	0.08194552
173	0x3db29234	0.08719292
174	0xbe17123b	-0.14753048
175	0xbe426ba2	-0.18986371
176	0x3d6f8030	0.05847186
177	0xbcfed3ce	-0.031106856
178	0xbe08fccc	-0.13377684
179	0xbe9b89d1	-0.30378583
180	0x3d848d3a	0.06472249
181	0xbd8b3ad9	-0.06798334
182	0xbd8a969f	-0.0676701
183	0x3d94a069	0.07257158
184	0xbcffe241	-0.031235816
185	0xbc7a5b2e	-0.015280528
186	0x3ca86780	0.020557165
187	0x3d010a97	0.03150424
188	0xbd2ae46d	-0.04172175
189	0xbdfc29d3	-0.12312665
190	0xbcd443fd	-0.025911326
191	0xbdddde5e	-0.10833429
192	0x3e04e582	0.12978175
193	0x3e00e35b	0.12586729
194	0x3d6d35f9	0.0579128
195	0x3c4d698c	0.012537371
196	0xbcbf1478	-0.02332519
197	0x3db15ada	0.08659907
198	0x3d407332	0.04698486
199	0x3d43c54f	0.04779559
200	0x3cf544f3	0.029940104
201	0xbd231d0c	-0.039822623
202	0x3c151986	0.009100324
203	0x3bf01695	0.0073269107
204	0x3d8e9c55	0.06963412
205	0xbc901ff8	-0.017593369
206	0x3ecb2e39	0.39683703
207	0x3e26f9ef	0.1630628
208	0xbe0617e4	-0.13095051
209	0xbcedb5cb	-0.02901735
210	0x3d456f05	0.04820158
211	0xbc9cc564	-0.019137092
212	0x3d5e5767	0.054282572
213	0x3df5ea87	0.12007623
214	0xbba9be81	-0.0051801805
215	0x3e440e0c	0.19145983
216	0xbda17054	-0.07882753
217	0x3e957d03	0.2919694
218	0x3ab063e7	0.0013457508
219	0xb9edfb77	-0.00045391519
220	0xbcba4f0f	-0.022742776
221	0xbd44f6ac	-0.048086807
222	0xba88e61a	-0.0010444552
223	0xbc937b53	-0.018003142
224	0x3e0fd2ad	0.1404521
225	0xbdfc9217	-0.12332552
226	0x3e9804f4	0.2969128
227	0xbd2847df	-0.041084167
228	0xbd737912	-0.059441634
229	0xbdabbb00	-0.08385277
230	0xbdbf46da	-0.09339686
231	0x3d7ad08c	0.061234042
232	0x3d3a23fe	0.04544448
233	0xbe1a64f4	-0.15077573
234	0xbdcf26b9	-0.10114808
235	0xbccd0705	-0.025027761
236	0x3e11a9a8	0.14224875
237	0xbdb0c722	-0.086317316
238	0xbe0de095	-0.13855202
239	0x3c9b5c4d	0.01896491
240	0xbdb2ed89	-0.087367125
241	0xbdf8e5a0	-0.121531725
242	0xbc7d8a60	-0.015474886
243	0xbd79c8d6	-0.060982548
244	0xbdc8287c	-0.09773347
245	0x3e0b0cd1	0.13579108
246	0xbd1faec2	-0.03898502
247	0x3dc0817d	0.09399698
248	0x3d48d426	0.049030446
249	0x3d2d725f	0.0423454
250	0x3bbf31a2	0.005834774
251	0xbe0cd373	-0.13752536
252	0xbdec20ac	-0.11529669
253	0xbc08d30a	-0.008351097
254	0xbd7e7d6d	-0.062131334
255	0xbeb210ae	-0.3477835

mean_linear.weight f4 [2, 256]
0	0x3e5d3c9c	0.21605152
1	0x3e852740	0.26006508
2	0xbeacd3da	-0.3375538
3	0xbbc8cf18	-0.006128203
4	0x3d2d43b3	0.04230089
5	0xbeade5c6	-0.33964366
6	0xbe2f5721	-0.17123081
7	0xbe21fe19	-0.15819587
8	0x3e10743f	0.14106844
9	0xbe6680be	-0.22510049
10	0x3eace0a7	0.33765146
11	0xbcdd232f	-0.026994316
12	0x3ebce8f3	0.36896476
13	0x3d3c29b4	0.04593821
14	0x3ecaa187	0.3957636
15	0xbeabe98b	-0.33576617
16	0x3e84b467	0.25918886
17	0xbe161443	-0.14656167
18	0x3e632be5	0.22184713
19	0x3e7b9a7e	0.24570653
20	0x3e34d14c	0.17657965
21	0xbdec6a3d	-0.11543701
22	0x3e9a85db	0.3018025
23	0x3ce54111	0.027985128
24	0x3ecbf8b3	0.3983818
25	0xbe8a8fe2	-0.270629
26	0x3eaf06d0	0.34184885
27	0x3df5f390	0.120093465
28	0xbe98d09b	-0.29846653
29	0xbe929576	-0.28629655
30	0x3e522336	0.20521244
31	0x3e904f51	0.28185514
32	0x3e130dfa	0.143608
33	0xbe84842f	-0.25882098
34	0x3d50a213	0.050935816
35	0x3e9aec24	0.30258286
36	0xbd736b35	-0.059428412
37	0x3b8e1745	0.00433627
38	0x3e0e785d	0.13913102
39	0x3cd41aec	0.025891744
40	0x3e5a502f	0.2131965
41	0xbe8e1f55	-0.2775828
42	0x3c327754	0.010892708
43	0xbe912693	-0.28349742
44	0x3ebe8c24	0.37216294
45	0x3c8d9be0	0.017286241
46	0xbe94e37f	-0.29079816
47	0xbe484e21	-0.19561054
48	0x3e8b7fb0	0.27245855
49	0x3d310f11	0.04322726
50	0x3cf7795f	0.030209241
51	0x3e1f070a	0.15530029
52	0x3d7e6d59	0.062116
53	0xbe20b4a1	-0.15693904
54	0xbdab2a76	-0.08357708
55	0xbd73d98d	-0.059533644
56	0xbd55955f	-0.052144405
57	0xbe9f2429	-0.31082276
58	0x3ee78db8	0.4522531
59	0x3e3456da	0.17611256
60	0xbe37a3fa	-0.17933646
61	0x3e2fd0ab	0.17169444
62	0xbd2636da	-0.040579654
63	0xbe8bf9cf	-0.27339026
64	0x3e6ad7f5	0.22933944
65	0xbdfd0180	-0.12353802
66	0x3eae164a	0.3400138
67	0xbe199668	-0.14998782
68	0x3dd49b72	0.10381211
69	0xbdafc509	-0.08582503
70	0xbed82687	-0.42216894
71	0x3e5f6d0c	0.21818942
72	0xbee16345	-0.4402105
73	0xbdf45161	-0.11929584
74	0xbe8d1d77	-0.27561542
75	0x3e23da65	0.1600128
76	0x3e749a30	0.23886943
77	0x3dc8c6cb	0.09803542
78	0x3e8139a2	0.25239283
79	0xbbede023	-0.007259385
80	0xbda1637c	-0.07880303
81	0xbe3807db	-0.17971747
82	0x3ec1bce3	0.37839422
83	0x3e99ce7b	0.30040345
84	0xbe5e4de3	-0.21709399
85	0x3e795092	0.24347141
86	0x3e89963e	0.26872438
87	0x3e7c0cfb	0.24614327
88	0x3e010df0	0.12602973
89	0x3e8b7a54	0.27241766
90	0xbe9fe631	-0.3123031
91	0xbe735d54	-0.2376607
92	0xbd9a7e91	-0.07543672
93	0xbed28ed2	-0.41124588
94	0xbd4b18c8	-0.04958418
95	0xbe9c165c	-0.3048581
96	0x3d8baa23	0.068195604
97	0x3e626c30	0.22111583
98	0xbe78d48e	-0.24299833
99	0xbec13b4c	-0.37740552
100	0x3ebce57f	0.36893842
101	0x3e8d2a99	0.27571562
102	0x3ecf9d9d	0.40549937
103	0xbe16fd3c	-0.14745039
104	0x3ebb2884	0.36554348
105	0x3e9e5ff3	0.30932578
106	0xbe7aa770	-0.24477935
107	0x3d00edcd	0.031476784
108	0xbead4032	-0.3383804
109	0x3e7bc6cf	0.24587558
110	0x3da9c950	0.082903504
111	0x3eaeb547	0.3412268
112	0xbe59a60d	-0.2125475
113	0x3e1dcf14	0.15411025
114	0xbe8f6669	-0.2800782
115	0xbb961653	-0.004580298
116	0xbe5dce69	-0.2166077
117	0x3e0666b4	0.13125116
118	0xbd011d5c	-0.03152214
119	0xbe8d6392	-0.2761503
120	0x3e293f99	0.16528167
121	0xbe2cb975	-0.16867621
122	0xbe11d3a3	-0.14240889
123	0xbe379dde	-0.17931315
124	0x3ed41476	0.4142186
125	0x3c811380	0.015756369
126	0xbea32955	-0.3186747
127	0x3e9ee70d	0.31035653
128	0x3e07f355	0.13276418
129	0x3e5f5dbd	0.21813102
130	0xbdd0ad68	-0.101893246
131	0xbe87b588	-0.26505685
132	0xbe58112f	-0.21100305
133	0x3e2a8e7c	0.16655916
134	0x3ea077fd	0.31341544
135	0x3ea67546	0.32511348
136	0xbe0c67ae	-0.13711426
137	0xbebbab8e	-0.36654323
138	0xbe744dd8	-0.2385782
139	0x3e0a089b	0.13479845
140	0x3e865272	0.26234776
141	0x3de1970c	0.11015138
142	0xbe83039f	-0.255887
143	0xbe6e486c	-0.23269814
144	0xbdf29c74	-0.11846247
145	0x3e9c8a23	0.3057414
146	0x3cd45093	0.025917327
147	0xbed136a4	-0.40862
148	0x3e316eac	0.17327374
149	0x3d23b7e1	0.039970282
150	0xbe75211d	-0.23938413
151	0x3e2ec0b8	0.17065704
152	0xbd812095	-0.06305043
153	0xbdb9545f	-0.09049296
154	0x3e7d8d92	0.24761036
155	0x3e17fb8b	0.1484205
156	0x3bc7f2b1	0.006101929
157	0xbea85b9a	-0.32882386
158	0xbe85a1a5	-0.26099887
159	0x3c2195a3	0.009862336
160	0xbeb857cf	-0.36004493
161	0x3e9c147d	0.3048438
162	0x3e764852	0.24051026
163	0xbe88f03a	-0.26745778
164	0xbdc7a00e	-0.09747325
165	0xbc177c48	-0.00924594
166	0x3de5b762	0.11216618
167	0xbe147306	-0.14497003
168	0xbe844214	-0.25831664
169	0xbd9558e4	-0.07292345
170	0xbe4788d7	-0.19485794
171	0xbe0824cf	-0.13295291
172	0xbe8fa9e1	-0.28059295
173	0xbdde3b4e	-0.10851155
174	0xbe947eb1	-0.29002908
175	0x3db91ca0	0.09038663
176	0xbdfa7204	-0.12228778
177	0xbcf2a957	-0.029621763
178	0x3e242cb3	0.16032676
179	0xbe5798db	-0.21054403
180	0xbe7e1564	-0.24812847
181	0xbeef88bf	-0.46784016
182	0x3d9da12b	0.07696756
183	0xbea7c5e4	-0.32768166
184	0xbe8aa3bf	-0.27078053
185	0x3eb4b5d4	0.35294974
186	0x3ebc3d59	0.36765555
187	0xbe174a79	-0.14774503
188	0x3e6d9503	0.23201375
189	0x3e9aec4b	0.30258402
190	0xbde615ba	-0.11234613
191	0xbe28c51d	-0.16481443
192	0xbc2a7a0c	-0.010405075
193	0xbe9bc770	-0.30425596
194	0xbe65d752	-0.2244542
195	0x3e672ebe	0.22576424
196	0x3e0cfd3d	0.13768478
197	0x3eaefc9d	0.34177104
198	0xbe927834	-0.28607333
199	0x3cf567d1	0.02995673
200	0x3e2343b8	0.15943801
201	0x3e10ef81	0.14153863
202	0xbe33e940	-0.17569447
203	0xbe76c84d	-0.24099846
204	0xbeaef6c7	-0.3417265
205	0xbeb47269	-0.35243538
206	0x3dce0cd8	0.100610435
207	0x3e898321	0.26857856
208	0x3e050b76	0.12992653
209	0x3e0708d5	0.13186963
210	0x3e783fde	0.24243113
211	0x3e6b7f9b	0.22997896
212	0xbdcdf94d	-0.10057316
213	0x3e7321bd	0.23743339
214	0xbe0d0d03	-0.13774495
215	0x3d898b4a	0.067160204
216	0x3e7e5945	0.24838741
217	0x3e82cf26	0.25548667
218	0xbe681568	-0.22664416
219	0xbecca676	-0.3997075
220	0x3e636185	0.2220517
221	0x3e34d9c0	0.1766119
222	0xbed2e59a	-0.41190797
223	0x3e3c4b3b	0.18388073
224	0xbe5e101c	-0.21685833
225	0x3e95d4d6	0.29263943
226	0xbe134c5b	-0.14384596
227	0x3e20b2ae	0.15693161
228	0x3e4ce3f3	0.2000883
229	0x3eaaf97c	0.33393466
230	0xbce0719c	-0.027397923
231	0x3e53e3ad	0.2069232
232	0x3ec5ac55	0.3860804
233	0x3cc8510d	0.02445271
234	0x3eabd8bd	0.33563796
235	0xbec28428	-0.37991452
236	0x3eabe538	0.33573318
237	0xbe9b6d5a	-0.30356866
238	0x3eab51c7	0.3346083
239	0x3e0bea01	0.13663484
240	0x3e39d3b4	0.18147165
241	0x3e5fac5b	0.21843092
242	0x3ea0b82c	0.31390512
243	0xbe96cbdf	-0.29452416
244	0xbe1e66b0	-0.1546886
245	0x3b4bbd2c	0.0031088097
246	0xbe071902	-0.13193133
247	0xbd8533a9	-0.06503994
248	0x3d559906	0.052147888
249	0x3e538529	0.20656265
250	0x3ed79ace	0.42110294
251	0xbe809ff2	-0.2512203
252	0xbd591249	-0.052995954
253	0xbead022f	-0.33790728
254	0xbeb5dad1	-0.35518506
255	0xbd592a8a	-0.053019084

mean_linear.bias f4 [2]
0	0xbce2d6f3	-0.027690386
1	0xbc0fa070	-0.008766279
